results/agent_sprint03/target_agent_01/target_agent_01-9857.onnx (onnx, 69901 bytes, 7 tensors)

action_model._continuous_distribution.log_sigma f4 [1, 2]
000000 00 00 00 00 00 00 00 00
       0.0 0.0

action_model._continuous_distribution.mu.bias f4 [2]
000000 00 00 00 00 00 00 00 00
       0.0 0.0

action_model._continuous_distribution.mu.weight f4 [2, 128]
000000 b2 9a 2a bc 20 d5 4c 3b 75 27 62 b9 12 c5 ac bc
       -0.010412859 0.0031254962 -0.00021567738 -0.021090064
000010 60 61 29 3d 08 69 1c bd d1 6c a2 3c 28 25 76 bc
       0.04135263 -0.038186103 0.019827278 -0.015023507
000020 08 a4 26 3c ca 4b 52 3c ca b1 a0 b9 54 47 8a bb
       0.010170944 0.012835452 -0.0003065004 -0.0042199288
000030 3b fe e5 bc 24 a5 00 bd ea bc 06 3b a8 7b 08 3d
       -0.028075328 -0.03140749 0.002055938 0.033321053
000040 af 5f f8 bc 43 8e 4c ba f3 7a 26 bc db b9 42 bc
       -0.030319063 -0.0007803181 -0.010161149 -0.011885132
000050 8e 74 b6 bc 80 d9 c7 ba e5 fc d2 3b 51 60 bf bc
       -0.022272374 -0.0015247315 0.006438839 -0.023361357
000060 6b c0 54 bc 0b 18 42 ba 6a 9c 57 3c 49 75 36 3c
       -0.012985329 -0.00074040954 0.013159851 0.011136361
000070 3a 5f b6 3c 08 e5 20 3b 3d 55 90 bb 7c 66 bb 3c
       0.022262204 0.0024550576 -0.0044046924 0.022876017
000080 9e 13 b7 bc 0a d0 79 3a 07 94 7a 3c 0a 39 e1 3b
       -0.022348221 0.00095295964 0.0152940815 0.0068732547
000090 23 16 ac 3b f8 e9 1f 3d a8 0c 04 bc eb 84 6c bc
       0.0052516623 0.03904149 -0.008059658 -0.014435987
0000a0 c0 9a 36 3d 70 ae f0 bb 63 f8 28 bd fa d2 f8 3b
       0.044581175 -0.0073450133 -0.041252505 0.0075935097
0000b0 1f a4 5d bc 01 72 bf ba 4c f7 36 bc 6f 9e a5 3c
       -0.013527899 -0.0014606119 -0.011167359 0.020217149
0000c0 10 9a a4 3a d7 ce 80 3c 14 22 07 bc fb 3b 98 3b
       0.0012558121 0.015723629 -0.008247871 0.004645822
0000d0 d8 92 b6 3b 98 fe 15 3c 83 07 95 bc 9f 97 40 bc
       0.0055717044 0.009154938 -0.018192058 -0.011754899
0000e0 b4 ee 13 3c f9 4a aa 3c cd b1 27 bc b1 82 aa bc
       0.009029079 0.020787703 -0.010235262 -0.020814272
0000f0 aa cd f2 3c cf e2 8a 3b 1a 64 b4 bc 48 ac 8a bc
       0.029639084 0.0042384635 -0.022020388 -0.016927853
000100 43 77 89 bc d2 97 f9 3c 41 66 1c 3c 6f 5b a8 bc
       -0.016780501 0.030467901 0.009545864 -0.020551411
000110 c2 f2 ab bc 50 3f f8 3c fd b0 3d 3d cd 11 9f 3c
       -0.02098978 0.030303627 0.046311367 0.019417668
000120 68 d9 e3 bc e2 c1 e5 3c eb 90 7f bb c1 dd c9 3b
       -0.027813628 0.028046552 -0.003899629 0.0061604683
000130 c5 93 f1 3b 3f 08 93 3c 05 a3 15 bb 10 11 f1 3b
       0.007372352 0.017948268 -0.0022832763 0.0073567703
000140 05 6e 8d 3a 30 ff 5b bc ef e2 f5 b8 10 85 d7 bc
       0.0010790235 -0.013427541 -0.0001172478 -0.026308566
000150 82 53 41 3c 73 23 d3 ba f2 64 2e bc 3d a7 98 bb
       0.011799695 -0.0016108587 -0.010644184 -0.004658608
000160 cf 19 3e bb f7 c0 51 3c 75 b2 95 3b a5 5e 21 3b
       -0.0029007082 0.012802354 0.004568393 0.0024623063
000170 6a 67 20 3c ae 7a c5 bc b7 83 e6 bb bb 46 1b 3c
       0.009790281 -0.02410635 -0.0070347446 0.009477313
000180 4d 47 31 bc a7 55 9d bc 67 f7 24 3c 75 db ef bb
       -0.010820222 -0.019205881 0.010068751 -0.0073198625
000190 5a 12 fd 39 0f cf 17 3c 73 89 2b 3b ad 52 1f 3c
       0.00048269593 0.009265675 0.0026174455 0.009724301
0001a0 f1 52 85 bc f7 06 99 bc 55 a7 53 bc d3 eb a5 bc
       -0.016274901 -0.018680079 -0.012918313 -0.020254051
0001b0 ff 9a bd bc 76 50 8e bb 80 c1 53 3c 5b f9 39 3b
       -0.023145197 -0.004343088 0.012924552 0.0028377387
0001c0 6b 35 d1 bc 84 7e a4 3c 7e 96 8b 3b be 5c 2b bc
       -0.025538167 0.020079859 0.0042598834 -0.010459123
0001d0 75 07 1f bc 63 86 6a bc bf f0 df bc 65 41 68 bc
       -0.009706368 -0.014314267 -0.027336476 -0.0141757475
0001e0 8d 7f 4c 3c 2b 1b c3 3c 6d 5a 4d 3c f7 80 7e bb
       0.012481582 0.023816666 0.012533766 -0.0038834193
0001f0 e7 6d 67 bc 53 b5 88 bc 7c 72 2f 3c b1 6b 13 bb
       -0.014125324 -0.016688025 0.010708448 -0.002249461
000200 7a d8 57 3c 33 b1 b2 bc 1f cf 3a bc 7b f9 2d 3b
       0.013174171 -0.02181301 -0.011401921 0.0026546407
000210 db 03 63 bc d3 b8 04 bb 52 0c b7 3c c2 60 50 3b
       -0.0138559 -0.0020251765 0.022344742 0.0031795953
000220 4b 95 9c bb 22 65 7f bc 38 07 da bc f7 b0 d6 3c
       -0.0047785393 -0.015588077 -0.02661477 0.02620743
000230 af 96 48 bc ed 6c d8 bb 9e b8 14 3d 37 fb 51 bc
       -0.012242957 -0.006604782 0.036308877 -0.012816242
000240 a0 e1 b3 3c 82 a4 c5 bb 9a 56 6c bc 2a fa e2 ba
       0.021958172 -0.0060315738 -0.014424944 -0.0017316986
000250 6d da 02 3c 42 61 65 bc 08 c6 59 3b bb ca 94 ba
       0.007986647 -0.014000239 0.0033229608 -0.0011351922
000260 35 d6 39 bc 92 e4 b8 bc 05 fe f0 bb ba 83 31 3c
       -0.011342575 -0.022569928 -0.0073545002 0.010834629
000270 5e c8 27 3b e3 73 30 3b 41 df b9 bc 4b 84 1f 3c
       0.0025601606 0.0026924543 -0.022689464 0.009736131
000280 0f b3 7f bc ab 4b f2 ba 61 e8 25 3b 6f d5 34 bd
       -0.015606656 -0.0018485686 0.002531551 -0.04414886
000290 77 86 dc 3c 56 64 03 bd dd 6a c9 bb da 61 56 3c
       0.026919587 -0.03207811 -0.0061467723 0.013084853
0002a0 55 c7 b7 bb b9 e4 4b bc b4 8d 02 3d 45 eb 7b 3a
       -0.005608479 -0.012444668 0.03187342 0.0009609948
0002b0 0f d2 c8 ba 4f d2 6d 3c 88 60 91 bc fd 3f d8 3b
       -0.0015321391 0.0145154735 -0.017746225 0.006599425
0002c0 c3 89 10 bd fd a8 5d bc 76 35 22 3b 8b 88 ea bb
       -0.03528763 -0.0135290595 0.0024751103 -0.0071573905
0002d0 eb f0 6c 3c 85 85 f7 bb 6f 19 93 bb 42 d5 70 ba
       0.014461736 -0.0075537586 -0.004489116 -0.00091870513
0002e0 69 e6 ba 3c ed b2 75 3c 37 0f c5 3b f5 f3 5d 3c
       0.022814946 0.0149962725 0.0060137766 0.013546933
0002f0 63 16 57 3b f3 59 04 3b 87 2b df bb cb 03 d8 bc
       0.003281974 0.0020195215 -0.006810609 -0.026368996
000300 fc df 89 bc 83 e0 ea bb 8c 33 9c 3a 83 2e 0e 3d
       -0.016830437 -0.007167877 0.0011917218 0.034712326
000310 18 e1 5d 3b 67 52 a0 bc e6 69 bb bb a5 16 ce 3b
       0.003385609 -0.019570542 -0.005719411 0.0062893205
000320 3b 04 f5 bc 65 f4 5d 3c a8 04 ee bb bb 79 11 bd
       -0.029909244 0.013547038 -0.0072637387 -0.03551648
000330 e3 cd 19 bc 53 c3 c4 3c fd f8 f5 3c 36 2f 19 3c
       -0.009387466 0.02401892 0.030025953 0.009349635
000340 8d 42 f0 b9 47 ea c4 bb 2d 02 5e 3c f0 a7 52 bc
       -0.0004582595 -0.0060093733 0.013550323 -0.012857422
000350 92 d0 1f bd 53 41 09 3d ab a0 1a bd 38 34 16 ba
       -0.039017268 0.033509564 -0.03775088 -0.0005729827
000360 27 44 a8 3a 1b 09 11 3d e2 a8 a1 3c b9 11 bf 3c
       0.0012837694 0.035409074 0.01973385 0.02332388
000370 ed f1 0d 3d f7 5d f0 bb 6d b4 54 bc c6 81 0b 3c
       0.034654547 -0.00733542 -0.01298247 0.008514827
000380 ba 5c 82 bb 84 9c ac bc ee dd ad 3a b0 28 92 bb
       -0.003978339 -0.021070726 0.0013264993 -0.0044604167
000390 33 4e f2 bc 0a ba ce bb 87 ea 50 3c cc 25 9c bc
       -0.029578304 -0.0063087987 0.012751228 -0.019060992
0003a0 63 bc c2 3a 54 32 ae bb 6e f1 8e 3b ed db b2 bc
       0.0014857169 -0.005316058 0.0043622768 -0.021833384
0003b0 82 79 df bc cb cb a6 ba cf 18 f7 ba 78 c4 68 bc
       -0.02727962 -0.001272553 -0.0018851998 -0.014206998
0003c0 38 70 eb bb 43 48 24 ba 32 f2 45 bc e0 54 7e bc
       -0.0071850084 -0.00062668714 -0.01208167 -0.015523165
0003d0 e4 7c 28 bd a7 3b 62 3c b5 1d 5d 3b 2c 7b 9d 3b
       -0.04113473 0.013808168 0.003373963 0.004805943
0003e0 5b 32 e0 bc 4a 78 82 bb fb 29 8e 3a f7 89 f1 bc
       -0.027367761 -0.0039816247 0.0010846251 -0.029484732
0003f0 78 30 d5 3b 34 5a 9a 3c b3 a6 c8 bc eb ee 78 3c
       0.006506022 0.01884184 -0.02449355 0.015193681

network_body._body_endoder.seq_layers.0.bias f4 [128]
000000 00 00 00 00 00 00 00 00 00 00 00 00 00 00 00 00
       0.0 0.0 0.0 0.0
000010 00 00 00 00 00 00 00 00 00 00 00 00 00 00 00 00
       0.0 0.0 0.0 0.0
000020 00 00 00 00 00 00 00 00 00 00 00 00 00 00 00 00
       0.0 0.0 0.0 0.0
000030 00 00 00 00 00 00 00 00 00 00 00 00 00 00 00 00
       0.0 0.0 0.0 0.0
000040 00 00 00 00 00 00 00 00 00 00 00 00 00 00 00 00
       0.0 0.0 0.0 0.0
000050 00 00 00 00 00 00 00 00 00 00 00 00 00 00 00 00
       0.0 0.0 0.0 0.0
000060 00 00 00 00 00 00 00 00 00 00 00 00 00 00 00 00
       0.0 0.0 0.0 0.0
000070 00 00 00 00 00 00 00 00 00 00 00 00 00 00 00 00
       0.0 0.0 0.0 0.0
000080 00 00 00 00 00 00 00 00 00 00 00 00 00 00 00 00
       0.0 0.0 0.0 0.0
000090 00 00 00 00 00 00 00 00 00 00 00 00 00 00 00 00
       0.0 0.0 0.0 0.0
0000a0 00 00 00 00 00 00 00 00 00 00 00 00 00 00 00 00
       0.0 0.0 0.0 0.0
0000b0 00 00 00 00 00 00 00 00 00 00 00 00 00 00 00 00
       0.0 0.0 0.0 0.0
0000c0 00 00 00 00 00 00 00 00 00 00 00 00 00 00 00 00
       0.0 0.0 0.0 0.0
0000d0 00 00 00 00 00 00 00 00 00 00 00 00 00 00 00 00
       0.0 0.0 0.0 0.0
0000e0 00 00 00 00 00 00 00 00 00 00 00 00 00 00 00 00
       0.0 0.0 0.0 0.0
0000f0 00 00 00 00 00 00 00 00 00 00 00 00 00 00 00 00
       0.0 0.0 0.0 0.0
000100 00 00 00 00 00 00 00 00 00 00 00 00 00 00 00 00
       0.0 0.0 0.0 0.0
000110 00 00 00 00 00 00 00 00 00 00 00 00 00 00 00 00
       0.0 0.0 0.0 0.0
000120 00 00 00 00 00 00 00 00 00 00 00 00 00 00 00 00
       0.0 0.0 0.0 0.0
000130 00 00 00 00 00 00 00 00 00 00 00 00 00 00 00 00
       0.0 0.0 0.0 0.0
000140 00 00 00 00 00 00 00 00 00 00 00 00 00 00 00 00
       0.0 0.0 0.0 0.0
000150 00 00 00 00 00 00 00 00 00 00 00 00 00 00 00 00
       0.0 0.0 0.0 0.0
000160 00 00 00 00 00 00 00 00 00 00 00 00 00 00 00 00
       0.0 0.0 0.0 0.0
000170 00 00 00 00 00 00 00 00 00 00 00 00 00 00 00 00
       0.0 0.0 0.0 0.0
000180 00 00 00 00 00 00 00 00 00 00 00 00 00 00 00 00
       0.0 0.0 0.0 0.0
000190 00 00 00 00 00 00 00 00 00 00 00 00 00 00 00 00
       0.0 0.0 0.0 0.0
0001a0 00 00 00 00 00 00 00 00 00 00 00 00 00 00 00 00
       0.0 0.0 0.0 0.0
0001b0 00 00 00 00 00 00 00 00 00 00 00 00 00 00 00 00
       0.0 0.0 0.0 0.0
0001c0 00 00 00 00 00 00 00 00 00 00 00 00 00 00 00 00
       0.0 0.0 0.0 0.0
0001d0 00 00 00 00 00 00 00 00 00 00 00 00 00 00 00 00
       0.0 0.0 0.0 0.0
0001e0 00 00 00 00 00 00 00 00 00 00 00 00 00 00 00 00
       0.0 0.0 0.0 0.0
0001f0 00 00 00 00 00 00 00 00 00 00 00 00 00 00 00 00
       0.0 0.0 0.0 0.0

network_body._body_endoder.seq_layers.0.weight f4 [128, 1]
000000 64 5a fb be ec 98 61 3f ba 8c 23 3f c3 4b 5e 3f
       -0.490924 0.88123965 0.63886607 0.86834353
000010 17 57 d9 bc dc 0e 80 bf 0b dc 38 bf 64 22 a8 3f
       -0.026530785 -1.0004535 -0.7221076 1.3135495
000020 7c a8 ef bf 14 96 2f bc ab 7a 7c bf 0f 06 e1 be
       -1.8723292 -0.010716934 -0.98624676 -0.43949935
000030 7a 06 9c bf 3b 06 8e bf 74 76 70 3f c1 55 44 3f
       -1.2189476 -1.1095651 0.93930745 0.7669335
000040 c1 97 94 3f e0 55 aa bd 0a ba 11 bf 9c f7 e1 be
       1.1608812 -0.083171606 -0.569245 -0.44134223
000050 96 72 aa 3e 9e ff c3 bf cc 07 85 bf 5a ce 9d bf
       0.33290547 -1.5312383 -1.0393004 -1.2328598
000060 48 41 17 40 15 c5 b9 3e bc ba 05 bf c5 ae 57 3f
       2.3633595 0.36283174 -0.5223806 0.8425105
000070 13 b1 dd 3f e9 89 f8 3e cc ba 57 3f 19 4c fa 3e
       1.7319664 0.48542717 0.84269404 0.48886183
000080 50 b9 2c be d1 93 99 3e 5d 9d 8b bf 51 3f 35 3e
       -0.16867566 0.29995587 -1.0907398 0.17699935
000090 5c 69 97 3e f6 97 da bd 35 b7 ec 3a 9a b6 d5 bf
       0.2957257 -0.106735155 0.0018059971 -1.669635
0000a0 44 b2 64 3f a2 ea d8 be 02 06 02 3f 0d 18 46 3f
       0.8933451 -0.4236651 0.5079042 0.7738045
0000b0 7c 32 1e bf 34 99 11 40 75 c4 1d 3f 7d 07 1c 3f
       -0.61795783 2.2749758 0.61627895 0.60948926
0000c0 3e 43 c2 bd 9b 5c 52 bf 43 ff 1a bf 50 ae 0b 3f
       -0.09485482 -0.82172555 -0.6054575 0.54562855
0000d0 cc 83 51 bf 0f bb 0c 40 e5 aa 02 3f a5 a3 ae bf
       -0.8184173 2.1989172 0.51042014 -1.364369
0000e0 b7 b5 67 bf 53 b6 6a 38 5a ae 06 3f 83 83 16 bf
       -0.9051165 5.595975e-05 0.5260979 -0.5879442
0000f0 3d 7e 2f 3f 73 c4 0f 3f 66 57 be be 54 e3 48 3f
       0.68552 0.5615913 -0.37176055 0.78471875
000100 fb e7 bc 3e 6b 2c 40 bf e7 63 83 3f ec d5 e9 39
       0.36895737 -0.75067776 1.0264863 0.00044600607
000110 b4 c9 f0 3f a7 bf 81 bf 90 fc 77 3e 5d 2c 4d be
       1.8811555 -1.0136613 0.24217439 -0.20036454
000120 6e 02 5d 3f 46 41 4e bf 3d 70 64 bf 51 49 e8 3e
       0.8633183 -0.8056835 -0.8923376 0.45368436
000130 b6 90 85 bf 73 22 87 be 5f 9e f8 3d 2d 2d fe bf
       -1.0434787 -0.2639347 0.12139582 -1.9857537
000140 15 51 a2 3e 17 59 cc 3e c4 d6 87 bf 48 46 5d 3e
       0.31702486 0.3991172 -1.0612416 0.21608841
000150 c9 fd a2 3f f7 a7 91 3d a3 7e f4 3e 15 6a cc 3f
       1.2733699 0.07112115 0.47752866 1.5969874
000160 c1 13 3b 3e 8e 9c ce bf e9 af 90 3f 51 5e 66 3f
       0.18269254 -1.6141527 1.1303684 0.89987665
000170 81 0c 1c 3d 5c b1 92 bf 0b 05 9a 3f 96 4b 48 3f
       0.038097862 -1.1460376 1.2032789 0.78240335
000180 72 7c b7 3d e1 39 11 c0 57 dd 84 bf 38 8e 07 3e
       0.08959283 -2.2691576 -1.0380048 0.13237846
000190 74 cb 9d 3e 59 aa bb 3e 86 a7 e4 3e d5 b6 b5 bf
       0.30819285 0.36653402 0.4465906 -1.4196421
0001a0 ca a7 01 c0 a5 3d 39 c0 4a e0 24 3c c5 50 d0 be
       -2.025866 -2.8943875 0.01006324 -0.40686622
0001b0 12 d2 12 bf d6 3c 54 bf 7b cd f3 3f 3e fc b3 3f
       -0.5735179 -0.8290533 1.9047083 1.4061353
0001c0 59 fe 3c 3f e4 f6 e8 be ec f2 86 bf e2 e6 88 be
       0.73825604 -0.45500863 -1.0542884 -0.2673865
0001d0 a0 66 07 3e f8 fd 85 bc d8 41 26 bf 4e 90 8b be
       0.13222742 -0.016356453 -0.6494422 -0.27258533
0001e0 19 32 ab be a4 1c 75 bf 77 d0 f1 be 22 4f 01 be
       -0.3343666 -0.9574683 -0.4722936 -0.12627843
0001f0 cb 76 2a bf 10 2c 70 3f 7c 66 0f bf 10 bf 2a 3f
       -0.66587514 0.93817234 -0.56015754 0.6669779

network_body._body_endoder.seq_layers.2.bias f4 [128]
000000 00 00 00 00 00 00 00 00 00 00 00 00 00 00 00 00
       0.0 0.0 0.0 0.0
000010 00 00 00 00 00 00 00 00 00 00 00 00 00 00 00 00
       0.0 0.0 0.0 0.0
000020 00 00 00 00 00 00 00 00 00 00 00 00 00 00 00 00
       0.0 0.0 0.0 0.0
000030 00 00 00 00 00 00 00 00 00 00 00 00 00 00 00 00
       0.0 0.0 0.0 0.0
000040 00 00 00 00 00 00 00 00 00 00 00 00 00 00 00 00
       0.0 0.0 0.0 0.0
000050 00 00 00 00 00 00 00 00 00 00 00 00 00 00 00 00
       0.0 0.0 0.0 0.0
000060 00 00 00 00 00 00 00 00 00 00 00 00 00 00 00 00
       0.0 0.0 0.0 0.0
000070 00 00 00 00 00 00 00 00 00 00 00 00 00 00 00 00
       0.0 0.0 0.0 0.0
000080 00 00 00 00 00 00 00 00 00 00 00 00 00 00 00 00
       0.0 0.0 0.0 0.0
000090 00 00 00 00 00 00 00 00 00 00 00 00 00 00 00 00
       0.0 0.0 0.0 0.0
0000a0 00 00 00 00 00 00 00 00 00 00 00 00 00 00 00 00
       0.0 0.0 0.0 0.0
0000b0 00 00 00 00 00 00 00 00 00 00 00 00 00 00 00 00
       0.0 0.0 0.0 0.0
0000c0 00 00 00 00 00 00 00 00 00 00 00 00 00 00 00 00
       0.0 0.0 0.0 0.0
0000d0 00 00 00 00 00 00 00 00 00 00 00 00 00 00 00 00
       0.0 0.0 0.0 0.0
0000e0 00 00 00 00 00 00 00 00 00 00 00 00 00 00 00 00
       0.0 0.0 0.0 0.0
0000f0 00 00 00 00 00 00 00 00 00 00 00 00 00 00 00 00
       0.0 0.0 0.0 0.0
000100 00 00 00 00 00 00 00 00 00 00 00 00 00 00 00 00
       0.0 0.0 0.0 0.0
000110 00 00 00 00 00 00 00 00 00 00 00 00 00 00 00 00
       0.0 0.0 0.0 0.0
000120 00 00 00 00 00 00 00 00 00 00 00 00 00 00 00 00
       0.0 0.0 0.0 0.0
000130 00 00 00 00 00 00 00 00 00 00 00 00 00 00 00 00
       0.0 0.0 0.0 0.0
000140 00 00 00 00 00 00 00 00 00 00 00 00 00 00 00 00
       0.0 0.0 0.0 0.0
000150 00 00 00 00 00 00 00 00 00 00 00 00 00 00 00 00
       0.0 0.0 0.0 0.0
000160 00 00 00 00 00 00 00 00 00 00 00 00 00 00 00 00
       0.0 0.0 0.0 0.0
000170 00 00 00 00 00 00 00 00 00 00 00 00 00 00 00 00
       0.0 0.0 0.0 0.0
000180 00 00 00 00 00 00 00 00 00 00 00 00 00 00 00 00
       0.0 0.0 0.0 0.0
000190 00 00 00 00 00 00 00 00 00 00 00 00 00 00 00 00
       0.0 0.0 0.0 0.0
0001a0 00 00 00 00 00 00 00 00 00 00 00 00 00 00 00 00
       0.0 0.0 0.0 0.0
0001b0 00 00 00 00 00 00 00 00 00 00 00 00 00 00 00 00
       0.0 0.0 0.0 0.0
0001c0 00 00 00 00 00 00 00 00 00 00 00 00 00 00 00 00
       0.0 0.0 0.0 0.0
0001d0 00 00 00 00 00 00 00 00 00 00 00 00 00 00 00 00
       0.0 0.0 0.0 0.0
0001e0 00 00 00 00 00 00 00 00 00 00 00 00 00 00 00 00
       0.0 0.0 0.0 0.0
0001f0 00 00 00 00 00 00 00 00 00 00 00 00 00 00 00 00
       0.0 0.0 0.0 0.0

network_body._body_endoder.seq_layers.2.weight f4 [128, 128]
000000 46 a5 18 bd 19 ce 98 3d 29 0b 50 3d bc 13 6b 3d
       -0.037266992 0.07461185 0.050791893 0.057391867
000010 14 fc b1 3d d9 2f 0d bb 9e 7d c8 bd be 74 41 bc
       0.08690658 -0.0021543412 -0.097895846 -0.011807619
000020 e3 93 0f 3c 78 bd bb ba 89 14 73 bd 6a bf 91 bd
       0.008763286 -0.0014323434 -0.059345756 -0.071165875
000030 9a f9 ea bc f6 53 ea bd 2f 5d b4 3c d8 5e f0 bc
       -0.028683472 -0.114417955 0.02201709 -0.0293421
000040 ef 80 ba 3b 96 61 81 bd 64 f9 d5 3d 6a 10 ba bd
       0.0056916396 -0.06317441 0.10447958 -0.09085162
000050 89 1b 51 bd 61 28 ae bb 2c b9 bf bd 0e 3c b4 3d
       -0.05105165 -0.005314872 -0.093614906 0.08800517
000060 57 6f 82 bd 9a ea b0 3c f6 5b 7d 3e 96 59 f2 ba
       -0.06368893 0.021596242 0.24742112 -0.0018489833
000070 a2 fb 39 bd 10 a6 12 3e 55 ae e9 3d 5e 8f 3a 3d
       -0.04540599 0.1432116 0.11410204 0.04554688
000080 30 0c 5f bd 62 7b 6d 3d 7b c3 30 3c 36 67 90 bc
       -0.054454982 0.057978995 0.010788794 -0.01762734
000090 d3 a6 8e 3a 65 a4 ed 3a 6e 94 29 3d 19 37 11 3e
       0.0010883458 0.0018130658 0.04140132 0.14181174
0000a0 77 1d c7 bc ec 87 f0 3d 4a 6e c1 3d 40 86 01 3e
       -0.024306042 0.11744675 0.09444864 0.12648869
0000b0 95 07 1c 3d 08 e2 64 3d 42 e6 22 bb e0 0b 21 3d
       0.03809317 0.055879623 -0.0024856483 0.039317966
0000c0 e5 dc 15 3d 91 b5 51 3d 30 16 41 bb 47 35 9c 3e
       0.036587615 0.051198546 -0.0029462688 0.30509397
0000d0 79 20 2b be 62 35 82 3e 1a b4 23 bc 39 94 87 3d
       -0.16711606 0.25431353 -0.00999167 0.06620068
0000e0 1c e5 2e 3a 85 93 4c 3d 8c ba d2 bd 96 14 c5 3d
       0.0006671713 0.049945373 -0.10289487 0.09623067
0000f0 f0 fe 17 bd ea 38 f1 bd 7a e6 c9 3d ad 5c bf b8
       -0.03710836 -0.117784336 0.09858413 -9.124852e-05
000100 50 95 3c be 4c 25 d2 bd 60 95 5a 3d fb d6 ad bd
       -0.18416333 -0.1026102 0.05336511 -0.0848827
000110 51 5d aa bd f9 3b 0f be 0b e4 85 3d c0 d9 c9 3c
       -0.0831858 -0.13987722 0.06537636 0.024639964
000120 7b ef 24 bd 67 1f 34 3d 9c 01 96 3d 4f c1 8c 3b
       -0.04026745 0.04397526 0.07324526 0.004295505
000130 e7 0b 16 bd c6 f0 fc 3c 79 83 e4 bd 59 90 ec 3c
       -0.036632445 0.030876528 -0.11157889 0.028877424
000140 69 b0 84 3c 7e 97 03 3d e0 9a 1d bd eb 41 c0 bc
       0.0161974 0.032126896 -0.03847778 -0.023468932
000150 d3 0f 24 bd 0f c8 08 3b 1e 7d 08 3e 58 25 ed 3c
       -0.040054154 0.0020871197 0.13328978 0.028948471
000160 40 03 11 3e b9 e0 36 3d 08 48 15 3e 48 0a 3f bd
       0.14161396 0.044647906 0.14578259 -0.046640664
000170 fd 3a 4a 3d 6a ed 96 3d 7d 9a 54 bc 64 a4 37 be
       0.04937266 0.07369502 -0.012976286 -0.17933804
000180 1e 7e dd bb 1d 7f f7 bc 6e ab 4c 3d 13 45 88 3d
       -0.006759419 -0.03021198 0.049968176 0.066538
000190 4f e4 c3 bd ac f2 31 3d 9a 12 43 bc fc c7 70 bd
       -0.09565031 0.04344432 -0.01190629 -0.05878447
0001a0 0e c8 17 3e a3 b5 49 3d a8 02 09 3d 84 42 66 3d
       0.14822409 0.049245488 0.0334498 0.056215778
0001b0 3e 90 5e be 6c ee 51 3d 20 36 44 be 2c e4 b2 bd
       -0.21734712 0.051252767 -0.19161272 -0.087349266
0001c0 07 36 37 3d c5 22 1c be 9c 11 6e be 7d 4a dd 3d
       0.04472926 -0.15247639 -0.23248905 0.10805223
0001d0 dd eb 5d be 97 fd 01 bc c5 77 5a bd 45 f9 7e bd
       -0.21672006 -0.007933996 -0.053336877 -0.06224944
0001e0 44 a8 0a bc 66 c2 97 3d 6a a4 01 be f1 30 bb bd
       -0.008462969 0.074101254 -0.12660375 -0.09140194
0001f0 a6 13 a3 3d ac 38 9f bc 46 be 88 3d fd 14 09 bc
       0.07962732 -0.019436203 0.06676917 -0.00836682
000200 bc 54 d6 3d 05 a7 af bd 59 17 d0 3b ab ee 93 bd
       0.104653805 -0.08576778 0.0063504395 -0.07223257
000210 6f d5 05 be ca 8e 8d 3d fb 31 6e 3d 70 8f e4 bc
       -0.130697 0.069120005 0.058153134 -0.027900428
000220 20 3c 59 ba 66 04 5f 3c 68 f8 b8 3d df 50 64 3d
       -0.00082868524 0.0136118885 0.09031755 0.055741187
000230 ec 85 40 3d 4c 6f e2 bc d9 bd af 3b af 72 e4 3d
       0.047002718 -0.027640961 0.005363208 0.11154687
000240 bf de 10 bd a6 ce 19 3e 32 98 1a 3d 21 88 dd bc
       -0.035368677 0.15020236 0.0377428 -0.02704245
000250 bd e3 5a 3b dd b2 d9 3d f7 8b 44 3e a6 9e 19 be
       0.0033399903 0.106298186 0.19194017 -0.15001926
000260 51 c9 2c be 7f 86 2f 3c 04 e9 13 3d f2 aa 3f bc
       -0.16873671 0.010713219 0.036110893 -0.011698471
000270 d9 8f 38 bd 6a 09 18 3d fd ee ba bc 4b 42 68 bc
       -0.04505906 0.037118353 -0.022819037 -0.014175962
000280 4c 4a f9 3c d1 11 49 3d f1 41 09 3e dd da b3 bd
       0.030430935 0.049089257 0.13404061 -0.08781979
000290 72 51 1d bc 79 4f 9a 3d 50 da 42 bc fa bc bd 3a
       -0.009601938 0.075346895 -0.01189287 0.0014475875
0002a0 af 61 1b be 4a 4f 05 3e 24 11 8f bd c8 44 c2 bc
       -0.15173982 0.13018528 -0.06985691 -0.023714438
0002b0 7e e1 a7 3c 1b bd 2c 3d 4d 0c ab 3d b6 47 b7 3d
       0.020493265 0.042172533 0.083519556 0.08949225
0002c0 1a 7c 8c 3c 07 e9 3c 3c d7 47 06 bd 93 5c f0 bc
       0.01714902 0.011530167 -0.032783356 -0.029341018
0002d0 de f3 ec bd fa 81 7d bc 15 3d a7 bd ff 18 a3 bc
       -0.115699515 -0.015472883 -0.08165947 -0.01990938
0002e0 dc e2 b5 bd 51 b7 5f 3d 8b e7 c8 bc 38 2d 78 3e
       -0.088811606 0.054618184 -0.02452447 0.24236
0002f0 49 58 e2 3d 44 bf 22 3b 49 bf 3d bd 50 8a d5 3c
       0.11051995 0.0024833241 -0.046325002 0.02606693
000300 55 c9 ce 3c 6e 0a 9d ba f7 a6 12 3e 17 6a 99 bd
       0.025242487 -0.0011981258 0.14321505 -0.07490938
000310 2d d3 6e 3c f9 ad 53 bd 5a 51 7d 3d df 33 c1 bd
       0.014576715 -0.051679585 0.06184516 -0.09433722
000320 90 ec 5a 3d c2 c8 97 3a 16 cc 56 bd 5d 41 75 bc
       0.05344826 0.0011580216 -0.052440725 -0.014969197
000330 2c 3b f8 bb 6c 22 4c 3d 86 d0 86 bd c3 e2 10 be
       -0.007575413 0.049837515 -0.065827414 -0.14149003
000340 ad fe fd ba d1 7c d2 bd 1c 82 e5 bb c8 26 a8 3c
       -0.0019378267 -0.10277713 -0.0070040356 0.020526305
000350 51 8a 5d 3e 5b 99 c2 3c 55 63 5b 3d be b6 b5 bd
       0.21634795 0.023754766 0.053561527 -0.08872746
000360 dc c0 b7 3d 5b 86 50 bc c1 f9 2c be a7 9b 35 3e
       0.08972332 -0.012727345 -0.16892149 0.17735158
000370 2f 9e f9 bd 3c 11 a4 3d 10 ff 09 3d d6 bd c6 bd
       -0.12188374 0.080111 0.033690512 -0.09704177
000380 6c d8 2c 3e 2c f7 4d 3d 20 a0 c3 bc e6 25 50 bd
       0.16879433 0.05028455 -0.023880064 -0.050817393
000390 dd a8 0b 3d 64 25 28 3c 88 1a 9e 3d b7 8f ac bd
       0.034096587 0.010262821 0.07719904 -0.08425849
0003a0 4d 47 ca bd bc 91 9a bd 8d 1e fd bc fe 6b d3 3d
       -0.09876881 -0.07547328 -0.030898357 0.10323332
0003b0 c9 49 e9 bd ae 48 fe bc 4a 10 5a bd 35 d9 6f bd
       -0.113910265 -0.031040516 -0.05323819 -0.058556754
0003c0 65 e4 56 bd f8 c3 b5 3d b6 3a 23 3d 72 7f df bd
       -0.052463908 0.08875269 0.039850913 -0.1091298
0003d0 29 25 18 bd 3f 0d ba 3c 9e 25 56 3d 1e e6 2d 3d
       -0.037144814 0.022711394 0.05228197 0.042455785
0003e0 54 b4 b2 bc 7f d9 b6 3d 2a 43 c5 3d 3c e7 13 3b
       -0.021814503 0.08928203 0.09631951 0.0022568246
0003f0 fb 90 ea bc 99 04 eb bc f2 a7 b0 3d 70 1f 06 bc
       -0.028633585 -0.028688716 0.08625783 -0.008186206
