results/agentTarget02/AgentTarget/AgentTarget-188117.pt (torch, 483039 bytes, 36 tensors)

network_body._body_endoder.seq_layers.0.weight f4 [128, 20]
000000 67 ee 1d be 56 7d 8e 3d 47 c9 6f be 8e 63 8d bd
       -0.15422975 0.069575 -0.23416625 -0.06903754
000010 5c a3 a6 be a5 32 d7 bd fd d6 3d be 68 a2 04 3e
       -0.32546508 -0.105077066 -0.18539043 0.12952578
000020 bc 67 06 3d 10 f1 41 be a8 b5 a9 3e ef 9d 5e be
       0.032813773 -0.18939614 0.33146405 -0.21739934
000030 18 5c c4 3d 3c ee 1e bf 67 39 9b 3c 4c 06 05 be
       0.09587878 -0.62082267 0.01894827 -0.12990683
000040 1e dd 15 be c0 94 0d be 19 ac 26 bd 7e 69 ba 3d
       -0.14635131 -0.13826275 -0.04069147 0.09102152
000050 f4 1e 13 3e e4 a2 00 3e 11 93 6a be 6b 25 65 bc
       0.14367276 0.12562138 -0.22907664 -0.013985972
000060 25 40 31 be a0 ad c3 3e 65 4d b1 bc c4 e4 98 be
       -0.17309625 0.38218403 -0.02164335 -0.29862034
000070 92 a5 9e bc 18 9f 9c 3d ae 05 c7 be 69 15 3f be
       -0.01936606 0.07647532 -0.3887152 -0.18660511
000080 78 11 43 be c6 e1 bc 3d 3d 0f d5 be 90 44 3c 3d
       -0.19049633 0.0922275 -0.41613188 0.045963824
000090 72 a2 d7 3d e6 fe 76 bc dc d6 34 3e e0 4a 38 3e
       0.10529031 -0.015075421 0.17660087 0.17997313
0000a0 7b 0b ec 3d e7 43 d5 3e 11 92 b7 bc dd 98 2a 3e
       0.11525627 0.41653368 -0.022408517 0.16659875
0000b0 d6 c9 c4 3c 01 61 a9 bc 26 fc 28 3e ea 26 48 3e
       0.024022024 -0.020676138 0.16502437 0.19546095
0000c0 a1 59 cd 3e 07 ed 8b be 9a 26 3d bd 35 b9 95 be
       0.40107444 -0.27329275 -0.04617939 -0.29242864
0000d0 72 4e 8e 3d fa 8c 1c bf e1 09 c5 3d e1 a2 58 3a
       0.06948556 -0.61152613 0.09621025 0.0008264017
0000e0 98 07 ad 3d d7 18 69 be c6 12 4b 3e 11 82 24 3d
       0.08448714 -0.22763382 0.1983138 0.040163103
0000f0 f8 8b bc bd 5e 38 50 3d f5 58 d3 be 53 28 b7 3d
       -0.092063844 0.050835006 -0.41278806 0.08943238
000100 c1 d8 74 3e d5 b0 9d bc 77 80 14 be d0 48 2b be
       0.2391081 -0.01924936 -0.1450213 -0.16726995
000110 69 42 03 bf 68 b5 1b 3e 1d d0 85 be c8 67 28 bd
       -0.5127321 0.1520592 -0.2613534 -0.0411146
000120 01 02 a5 3d 23 9b 5c bd f5 90 75 be ab 63 45 3d
       0.08057023 -0.053858887 -0.23981078 0.048190754
000130 5d 95 eb 3d 99 ab 00 3d 09 c8 f6 3d 06 4f 8a bd
       0.11503098 0.03141365 0.120498724 -0.06753354
000140 84 53 0b 3e 07 dd 46 be c1 a5 ae 3c d0 52 da bd
       0.13606077 -0.19420253 0.021319272 -0.106603265
000150 d8 05 ae 3b 22 8d a7 3e 42 82 0f 3c 46 69 a6 bc
       0.005310755 0.32724863 0.008759083 -0.02031387
000160 17 c7 1f be 1e 8e 2c 3e 47 74 22 be 8c 0a 3c bd
       -0.1560329 0.16851088 -0.15864669 -0.045908496
000170 f4 30 33 3c 68 65 0b be 2d ea 0f bd e5 8c 1c bd
       0.010936964 -0.13612902 -0.035135437 -0.038220305
000180 83 9c 23 be e0 10 01 be 61 1a 60 3c 60 9a 29 3d
       -0.15977673 -0.12604094 0.013678164 0.04140699
000190 96 26 e8 3b 3f 67 96 be cd 5f 13 3e 36 1f b6 bd
       0.007084678 -0.29375646 0.14392014 -0.08892672
0001a0 94 9e c6 3d de bc cd 3c a4 07 e2 3c 56 b1 61 3e
       0.09698215 0.025114473 0.027591534 0.22040305
0001b0 f2 7a 35 be 9c fe 29 3e dd 33 ba bc 0a 5f 42 bc
       -0.17722681 0.16601032 -0.022729808 -0.011863479
0001c0 e9 4e 3f be 9a 46 d8 be 94 3f 57 be 18 79 c3 be
       -0.18682446 -0.42241365 -0.21020347 -0.38178325
0001d0 9c 2e 2d be f8 6b cb bd c2 f5 a4 be f1 da 9c 3b
       -0.16912311 -0.09932703 -0.32218748 0.004786842
0001e0 f8 63 6b be 61 74 80 be 5d 89 59 be a8 36 02 be
       -0.22987354 -0.2508879 -0.21243806 -0.12716162
0001f0 39 7e 96 be 8b e7 58 be 60 dc 65 3e 14 22 d8 3d
       -0.29393175 -0.21182077 0.22447348 0.10553375
000200 7e 3e 3d 3e 59 3f cd be 0e 4b b8 bc ed 3d dc bd
       0.1848087 -0.40087393 -0.022496726 -0.10753999
000210 37 18 c3 bd 2a 4a 33 3e 3d 0b 69 3e 1f b3 a2 3e
       -0.09526103 0.1750876 0.22758193 0.31777284
000220 35 73 48 3e b3 53 1c be a8 74 18 bb d5 83 c2 3e
       0.19575198 -0.15266304 -0.0023262892 0.37991205
000230 75 6c fd be c3 98 2e bd 43 6b ae 3e ee 85 1d bf
       -0.4949681 -0.042626154 0.3406621 -0.61532485
000240 31 d0 b6 bd e0 83 9b 3e 92 b2 41 be 26 6b 66 bb
       -0.08926428 0.3037405 -0.18915775 -0.003515908
000250 0b c3 15 3e 11 dc aa 3e 88 de e8 be 0a 0d 11 3e
       0.14625184 0.33371022 -0.45482278 0.1416513
000260 16 5a c6 3e d0 c4 03 3d 52 05 0a 3c 3a 6d a3 3e
       0.38740605 0.032170117 0.00842412 0.3191927
000270 be af 81 3d 61 6f a1 be a2 ab 88 3e 4a 50 fd 3e
       0.06332348 -0.31530288 0.26693445 0.49475318
000280 0c 1a c4 3d f7 1c d3 be 82 17 b0 be 37 d7 24 be
       0.095752805 -0.41233036 -0.34392935 -0.16097723
000290 dd f8 b5 3d d2 c4 4d 3f 7c a2 47 be b7 46 86 be
       0.088853575 0.8037845 -0.19495577 -0.26225826
0002a0 54 c9 05 3e 01 54 c3 3d 9d 8f 3e be 7f e3 23 bd
       0.13065082 0.09537507 -0.18609472 -0.04001188
0002b0 9a de a9 3d 55 c1 a0 be 28 17 06 bf 9d b0 f0 be
       0.08294411 -0.313975 -0.52379084 -0.47009745
0002c0 63 1c b8 3e e0 64 03 3f 1d 92 0e 3e 6a ee 1e bc
       0.35959157 0.513258 0.13922925 -0.009700397
0002d0 92 c2 19 3d 53 45 c9 3d 3f eb fc bd 84 5a 0f bc
       0.037539072 0.09827676 -0.12349557 -0.008749608
0002e0 22 42 01 3e b4 51 fc 3e 28 d4 90 3e 2e 84 18 3d
       0.12622884 0.49281085 0.28286862 0.03723543
0002f0 a8 05 c2 bd 22 e3 bc 3d 9f fc 56 be 4b 9e d8 be
       -0.09473735 0.0922301 -0.20994805 -0.42308268
000300 76 00 49 3e e5 9f 1f 3e 06 d7 f9 3e 38 fc 98 bc
       0.19629082 0.15588339 0.48796862 -0.018674955
000310 95 8f 34 bf b6 1c bf 3d 86 f4 6b be 26 56 7f 3d
       -0.7053159 0.09331648 -0.23042497 0.062338017
000320 24 f7 15 3e df 69 09 bd 81 f0 7f be d0 35 8d be
       0.14645058 -0.033548232 -0.24994089 -0.27580118
000330 82 ef 33 3e 5c 4a 21 bd 37 73 42 be c0 62 c4 3d
       0.17571834 -0.039377555 -0.18989263 0.095891476
000340 24 28 fa 3e b6 e2 47 be 07 61 8d be c6 3b dd 3e
       0.4885875 -0.19520077 -0.27613088 0.43209666
000350 2e cd cf 3b db cc 2f 3e 01 68 94 be 64 6d 05 be
       0.006341598 0.1716799 -0.289856 -0.1303001
000360 01 df 8d 3e 56 a8 57 3e 10 34 fc bc 5f 32 14 bf
       0.277092 0.21060309 -0.030786544 -0.5788936
000370 53 eb de bc 05 e3 28 be cd 39 25 be 39 ec 51 3e
       -0.02721182 -0.16492851 -0.1613533 0.20500268
000380 95 8c c7 3d 02 3d ab 3d f2 86 d7 3d ed 1f 29 be
       0.09743611 0.08361246 0.10523786 -0.16516085
000390 23 a2 e6 be ef 20 ec 3d 40 01 95 3c 25 ef e5 bd
       -0.45045575 0.11529719 0.018189073 -0.11227254
0003a0 c8 46 05 bf 0a 7b 93 3d bf 55 2f 3e 26 ce fc bd
       -0.5206113 0.07201202 0.17122553 -0.12344007
0003b0 d8 f5 27 be 2b 55 9d 3e 23 ac ec bd c4 d6 31 3d
       -0.16402376 0.3072904 -0.1155627 0.043417707
0003c0 54 a2 fd 3d 51 69 4c 3e a5 0b 03 be 73 db f7 3d
       0.12384477 0.1996205 -0.12797411 0.121024035
0003d0 0b 62 dd be b3 e5 56 be 46 14 c4 bd fb aa f1 bd
       -0.43238863 -0.20986061 -0.09574179 -0.1180019
0003e0 ae 13 a4 3e 5e 6e a5 3c 56 92 c3 3e ae ad 8a 3d
       0.32046264 0.020194229 0.38197583 0.06771408
0003f0 8b c0 a4 be 95 72 00 be e8 5d da be ec 51 d2 bd
       -0.3217815 -0.1254371 -0.4264977 -0.102695316

network_body._body_endoder.seq_layers.0.bias f4 [128]
000000 70 f0 5f ba ff e5 98 b9 f4 e1 74 37 15 e8 9c bb
       -0.0008542603 -0.0002916306 1.4596142e-05 -0.0047884085
000010 76 36 b0 ba 6d d5 97 bb c6 c0 83 b9 b3 ef bc 3a
       -0.0013443965 -0.0046335966 -0.00025129894 0.0014414698
000020 98 df eb 3a 6b 65 ba b9 86 b2 ba ba d1 6d dc bb
       0.0017995713 -0.00035552247 -0.0014243878 -0.0067269583
000030 02 d3 14 3b 80 9a 99 3a 1a b2 3d bb 0a 2c be 3a
       0.0022708778 0.0011719018 -0.0028945268 0.0014508974
000040 e7 7b 73 3a 38 d0 bb ba 21 18 80 ba fb 7b 2c b8
       0.0009288177 -0.0014329022 -0.0009772816 -4.112346e-05
000050 fd f8 56 3b 19 21 32 3b 8e 15 b5 3a a3 74 43 bb
       0.0032802217 0.0027180372 0.0013815628 -0.002982416
000060 2b c9 fc 3a 5b 32 74 bb 37 46 5a ba 3e 42 69 ba
       0.0019286027 -0.003726146 -0.0008326503 -0.00088981155
000070 5f ff b3 ba d9 5d b0 b9 46 d7 74 b9 d2 31 16 3b
       -0.0013732723 -0.00033639258 -0.00023349849 0.0022917879
000080 28 bc a8 3a 99 20 36 ba d6 4b 98 ba 4a c9 76 37
       0.0012873458 -0.00069476065 -0.001161928 1.4709609e-05
000090 fd c4 4d 3b 20 fe 08 bb b9 2a bd ba 57 b9 a6 ba
       0.0031397932 -0.0020903423 -0.0014432288 -0.001272003
0000a0 3b 80 d1 39 83 ed 55 3b 5e a7 2a bb 68 64 9b 39
       0.00039959126 0.0032642789 -0.00260397 0.00029638712
0000b0 34 11 b8 bb f9 0a 4a 3a ab be 2e bb 51 bf ee 3a
       -0.005617285 0.00077073235 -0.002666394 0.0018214976
0000c0 53 0e 77 b8 67 8f 9a bb 44 65 24 3b 1d fa 65 ba
       -5.890273e-05 -0.004716802 0.0025084773 -0.00087729265
0000d0 24 5b b8 3a e0 c9 0f 3b 3e 9e e7 ba 5b d6 96 ba
       0.0014065248 0.0021940395 -0.0017671061 -0.0011507975
0000e0 43 10 c5 39 da 52 25 b9 78 d5 72 ba 56 6c f5 3a
       0.00037586884 -0.00015766491 -0.00092633767 0.0018724303
0000f0 ea 4e 37 bb 03 03 ca 3a eb 13 d2 3a a2 12 ad 3a
       -0.002797062 0.0015412275 0.0016027665 0.0013204406
000100 aa 31 ea b9 da e7 c0 ba 2f 45 f9 39 23 49 15 3b
       -0.0004466896 -0.0014717535 0.00047544527 0.0022779189
000110 80 13 18 bb ed 8c 4e 3b e3 8b b3 b9 68 e7 94 ba
       -0.0023204982 0.0031517104 -0.00034245764 -0.0011360468
000120 98 01 0f ba d4 bb d1 ba c2 e0 ab 3a 4a 96 33 3b
       -0.00054552546 -0.0016001412 0.0013113248 0.0027402812
000130 0b 61 a4 39 22 f7 65 ba 49 b6 0f bb 63 80 12 bb
       0.0003135282 -0.00087724824 -0.0021928719 -0.0022354356
000140 4f f9 9a b9 c1 07 d5 39 4a 38 e4 3a 69 ac 83 ba
       -0.00029558918 0.00040632303 0.0017411795 -0.0010045889
000150 ed bc 4a 3a 8a a7 ac 3a 05 c4 45 38 ac 68 63 ba
       0.00077338406 0.0013172489 4.7151017e-05 -0.000867496
000160 80 ef f4 3a 12 39 b9 3a 34 9f 75 ba b1 32 eb 38
       0.0018687099 0.0014131388 -0.00093697314 0.00011215115
000170 2c 95 5f 3b 0e 99 03 ba c5 0d d9 ba 34 9a 04 bb
       0.0034116013 -0.00050200603 -0.001655989 -0.0020233514
000180 11 b1 08 ba d1 e9 2f ba 80 75 ea 3a 41 27 f3 b9
       -0.0005214373 -0.00067105616 0.0017887801 -0.00046377818
000190 2a 33 f1 b9 e3 ed 4a ba c8 76 c3 3a f1 97 07 3b
       -0.00046005222 -0.00077411364 0.0014912719 0.002068993
0001a0 e2 c6 bd 36 48 b9 09 bb 12 0e a5 bb 92 b5 41 ba
       5.655792e-06 -0.0021014977 -0.0050370777 -0.0007389422
0001b0 f6 93 00 3b 75 6a dc ba b9 00 8f bb 43 4e 01 3b
       0.0019619442 -0.0016816395 -0.0043641 0.0019730486
0001c0 fe 29 4a bb 52 e3 90 bb d5 34 f5 ba ff 6e 43 ba
       -0.0030847783 -0.00442163 -0.0018707762 -0.00074551994
0001d0 c3 20 74 38 d7 78 da b9 13 3c a4 3a a8 a9 f1 ba
       5.8204645e-05 -0.00041670233 0.001253011 -0.0018437402
0001e0 cf c9 1d 3a df e4 39 39 dc 7b 1e 3c ed 9c 46 b9
       0.00060191465 0.00017728236 0.009673085 -0.00018941211
0001f0 82 71 02 3a f4 06 89 3a 5d 67 e0 3a 35 a4 07 ba
       0.00049760204 0.0010454343 0.0017120648 -0.000517431

network_body._body_endoder.seq_layers.2.weight f4 [128, 128]
000000 6a 2a 64 3d 74 dd bc 3d 90 91 cf bc 03 d5 5f bd
       0.05570451 0.09221926 -0.025337964 -0.054646503
000010 87 ba 0b 3d 5a c8 18 3e 93 e3 ae bc 18 90 c9 3c
       0.034113433 0.14920178 -0.02134875 0.024604842
000020 22 2d e4 3d 69 30 ca bd 07 17 0e 3d 34 99 43 bd
       0.11141421 -0.09872515 0.03468993 -0.047753528
000030 57 53 26 bd cd ac 2a be 53 b6 58 3d 48 c1 27 bd
       -0.040606823 -0.16667481 0.052908253 -0.04095581
000040 0d 81 46 3d 8f 89 f6 bc 2c 92 9f 3d d4 e1 6c bd
       0.048462916 -0.03009489 0.07791552 -0.057832554
000050 9a 93 45 3d 36 be 45 be d1 b2 ea 3c e0 e2 82 3d
       0.048236467 -0.19310841 0.02864972 0.06390929
000060 3f e6 7a bd 87 2d 08 3e 6e 79 a4 bd 66 46 d8 3d
       -0.061254736 0.13298617 -0.080309734 0.105603024
000070 6e 5b 06 3c 16 5e ab 3c 44 e2 d9 bd ee 0e c1 bd
       0.0082005095 0.020918887 -0.1063886 -0.09426676
000080 33 66 00 be 4d 60 af bd 19 41 2b 3c a0 6e bc 3c
       -0.12538986 -0.0856329 0.010452532 0.023001969
000090 d1 6d 2e bd 6e dd ac 3d bb 50 1c 3d d7 23 05 3d
       -0.042585198 0.08440672 0.038162928 0.032504883
0000a0 59 24 2f 3e 08 63 b5 3d db 31 9c bd 0a d7 37 bd
       0.1710371 0.08856779 -0.07626697 -0.04488281
0000b0 e6 ea 97 bd 0f be 05 bd 0c 1b 19 be 7e e9 4a 3c
       -0.0741785 -0.032651957 -0.14951724 0.01238477
0000c0 f9 5c 21 3d a6 59 68 bd 21 10 c9 3d 68 2b f9 3d
       0.039395306 -0.05672612 0.098175295 0.12166482
0000d0 75 84 11 3c d4 9d be bd 41 24 4b 3c 1d f3 9c bd
       0.008881678 -0.09307447 0.01239878 -0.07663558
0000e0 91 b9 9c bd 0e 34 8c 3d da 4c 25 3e f1 da 88 bd
       -0.076525815 0.06845866 0.16142598 -0.06682385
0000f0 0e d5 c3 3d a0 84 20 be a1 62 e9 bd a6 52 5b 3e
       0.09562121 -0.15675592 -0.11395765 0.21418247
000100 2a f2 85 38 b8 80 e5 3d 77 e5 02 bd ea 84 13 bd
       6.387041e-05 0.11206192 -0.031957116 -0.03601543
000110 c5 e4 98 3d 63 c6 8d bc ba 30 14 3d 96 d7 87 3c
       0.07465509 -0.017306512 0.03617928 0.016582292
000120 63 55 e4 3c 12 f3 e9 3d b8 4c 8f bd dd 16 68 be
       0.027872747 0.11423315 -0.06997055 -0.22664972
000130 bb 41 81 bd 73 e8 06 3c 27 8e 20 3d 04 e5 c0 bb
       -0.06311365 0.008234131 0.039198067 -0.005886676
000140 ad fa b5 bc 7d 07 09 3e 5b 1b 0b be 23 47 3f 3d
       -0.022214258 0.13381763 -0.13584654 0.0466987
000150 e0 e8 d6 3d c4 d9 69 3e 31 3e bf 3c 0a b7 e0 bc
       0.10493636 0.22836977 0.023345085 -0.02743103
000160 56 11 09 be 91 1b d6 3c 87 42 e5 bd 86 6d 23 bd
       -0.1338552 0.026136192 -0.1119433 -0.03989937
000170 fe 37 0b be 8f d5 05 be 66 1e 11 3e 77 6f 6e bd
       -0.13595578 -0.13069747 0.14171752 -0.05821177
000180 35 a7 49 3c e8 e2 95 3d ca a0 4f bd c5 88 8d 3d
       0.012307932 0.073186696 -0.05069045 0.06910852
000190 d5 c7 ec 3d cb 77 dc bd 75 dc de 3d 34 06 9d bd
       0.115615524 -0.10765036 0.108818926 -0.07667199
0001a0 aa e3 9f bd 47 fb f3 bd 78 60 20 3e 1f cb 8b be
       -0.07807095 -0.11913162 0.156618 -0.27303407
0001b0 bc 72 66 bd dc 7c 23 be 42 73 f4 bc 07 db 91 3d
       -0.056261763 -0.15965599 -0.029840115 0.07121854
0001c0 e5 42 a0 bd 0f f9 92 bd 11 4b c5 bd 4b f4 66 bd
       -0.07825259 -0.071764104 -0.096334584 -0.05638532
0001d0 bc 4b 94 bd f6 b0 6e bd 0b 80 25 3d 05 11 0b be
       -0.07241008 -0.05827423 0.040405314 -0.13580711
0001e0 39 58 86 bd d0 7f 27 bd b5 17 45 3b db a9 bb 3d
       -0.06559796 -0.040893376 0.0030073945 0.09163257
0001f0 fb 0f a4 bd 3d 9d 58 be e0 72 d4 bd b4 a2 58 bd
       -0.080108605 -0.21153732 -0.10373473 -0.05288954
000200 58 6b 48 bd 1d d9 f0 3c 10 bb a8 bd 9b 11 05 be
       -0.048930496 0.029400403 -0.08238804 -0.12994997
000210 b8 b9 21 bd 0a ce 75 3b a8 5d a7 bc b6 7e 72 3d
       -0.039483756 0.0037506842 -0.020430401 0.059202872
000220 c5 5e 84 bc 86 69 82 bc 44 da 19 be 55 09 68 3d
       -0.01615847 -0.015919458 -0.15024668 0.056649525
000230 08 9a 32 3d 76 04 72 be ea f4 ca bd 5e e2 07 3e
       0.043603927 -0.23634514 -0.09909995 0.13269946
000240 91 60 17 bc e7 ff d1 bb 50 57 ab bd ce 24 dd bd
       -0.009239332 -0.0064086798 -0.08366263 -0.107980356
000250 e0 69 9e 3d f9 1a 6f 3c 84 1c 34 3e 24 89 9e 3b
       0.07735038 0.014593833 0.17589003 0.004838126
000260 d6 71 42 bd 01 9a b0 3d ba 7c 22 bd 21 67 11 3d
       -0.047471844 0.08623124 -0.03966973 0.035498742
000270 8f 7b 6e 3d 91 56 9d bd 71 f0 c4 bd 5a 91 63 bd
       0.058223303 -0.07682527 -0.09616173 -0.05555854
000280 8a 52 26 be 4e 33 07 3d cf 2d 79 3d f5 23 77 bd
       -0.16242424 0.033007912 0.060834702 -0.060337026
000290 bd 8e 6c 3d 37 16 ff 3d 26 d3 0c 3d 30 26 26 bd
       0.057753313 0.12455409 0.034381054 -0.040563762
0002a0 07 2c 22 3d 34 3a 86 bc 21 c2 98 3c cd 2f b3 bd
       0.03959277 -0.016385175 0.018647255 -0.08749352
0002b0 ad 43 06 bd 43 0d 54 3c d9 6b 35 3e 07 0a b9 bd
       -0.032779384 0.012942615 0.17716922 -0.09035116
0002c0 6a a6 2c be 73 2a 9d bd 0b ad eb bc b8 75 23 be
       -0.16860357 -0.07674112 -0.028769037 -0.15962875
0002d0 99 94 fa 3d 1c 0e 8d bd 5f 20 81 bd de 84 9e 3d
       0.12235374 -0.06887457 -0.063050024 0.07740186
0002e0 4b 71 09 bd 08 ee 3d be a6 db 05 bd 50 a6 2e 3e
       -0.03355531 -0.18547833 -0.032680176 0.1705563
0002f0 ab 78 bd bd 21 24 b9 3c a9 59 af bb 16 3f c4 bc
       -0.09251531 0.022600235 -0.0053512645 -0.023955863
000300 b3 a8 b7 3d 9f aa 77 3d 0b 35 25 be f9 59 56 3d
       0.08967724 0.06046545 -0.16133516 0.0523319
000310 bb c3 8f 3d 33 a8 92 bd 4b 62 c2 bd 78 cf d1 bd
       0.070197545 -0.07160988 -0.09491404 -0.1024465
000320 ed d8 9f bc 4b 14 7a 3c 88 5c 85 bc fb 05 11 bd
       -0.019512618 0.015263627 -0.016279474 -0.035406094
000330 a1 46 98 bb ba bd 0a 3d 02 40 85 bc af 66 df 3c
       -0.0046470915 0.033872344 -0.016265873 0.027270643
000340 b1 39 3f 3d fb c3 0a bd 22 ed 64 3c 3f 05 4c bd
       0.04668588 -0.033878308 0.0139725525 -0.04980969
000350 5a 52 94 3d 97 ce fc bd b9 bc b5 bd 8c 86 6c 3c
       0.0724227 -0.123440914 -0.088738866 0.014436375
000360 1a 79 0e 3d 0b 04 13 bd fa be fa bd c8 a4 02 3d
       0.03478346 -0.035892528 -0.12243457 0.03189543
000370 29 23 5c 3e 81 5f bf bd 79 ec c9 3d 64 80 34 3e
       0.21497788 -0.09344388 0.09859557 0.17627102
000380 da 3f d8 bd 1c 5f a4 3c 04 a4 7a 3d d6 3e 62 bd
       -0.10559054 0.020064883 0.061191574 -0.055235706
000390 5e 95 c1 3c 7a 76 ee 3b a6 20 1b bd 82 f7 ff bb
       0.023630794 0.007277307 -0.037872933 -0.0078114877
0003a0 60 70 fd 3d ed bb 46 bd f4 ee ca 3d 01 b4 00 3e
       0.123749495 -0.048519064 0.09908858 0.12568666
0003b0 bc 6a 44 bd 32 17 21 3e 7f 7e 30 be 05 2f 09 be
       -0.047953352 0.15731505 -0.17235754 -0.13396843
0003c0 ab cc 20 bd 49 22 ab bd e0 58 ac 3a b0 4e e6 3d
       -0.039257687 -0.08356149 0.0013149045 0.11245477
0003d0 38 43 70 bd 65 80 d8 3c 16 91 8c bd 52 56 3c 3e
       -0.058657855 0.02642841 -0.068636104 0.18392304
0003e0 c2 73 c1 3c 79 20 96 bd 3b b3 ff 3d 5f 6a 13 3b
       0.023614768 -0.073304124 0.124853574 0.0022493822
0003f0 9d cd df bd de 3f a5 bd c7 14 06 bd c9 00 0b bc
       -0.109278895 -0.08068822 -0.03273466 -0.008484074

network_body._body_endoder.seq_layers.2.bias f4 [128]
000000 8d fb b1 ba 88 cc c5 3b 4d df 2d 3a e2 46 24 3b
       -0.0013578996 0.006036345 0.00066327007 0.0025066664
000010 6e 6c 94 3b 12 ad 18 bb 82 84 f3 3a ae 81 d6 b9
       0.0045295274 -0.0023296517 0.0018578919 -0.0004091388
000020 c5 dc b2 bb c2 89 5d 3b 18 c8 f7 39 62 fb 09 bb
       -0.0054584467 0.0033804034 0.00047260593 -0.0021054377
000030 f1 07 18 3c 07 19 a9 3a a6 c8 10 bb 1a 59 f2 ba
       0.009279237 0.0012901135 -0.0022092252 -0.0018489689
000040 4d 67 ee ba 8a 4d 37 ba 28 a3 39 bb fd c2 d2 39
       -0.0018188745 -0.000699245 -0.0028326008 0.000401996
000050 93 16 03 bb 76 49 fa 3b 21 df 9a ba 01 4c da 39
       -0.002000247 0.0076381518 -0.0011815765 0.00041636828
000060 25 b4 0a bb 11 32 e7 bb 7b a9 6c ba 4c 68 a8 b8
       -0.0021164503 -0.007055529 -0.000902794 -8.030291e-05
000070 de 2f cf ba db 6c 19 3a 3e ef b2 ba 88 dd 37 b7
       -0.0015807112 0.00058527075 -0.0013651622 -1.0959229e-05
000080 b2 a2 d8 ba 86 67 da ba 5a 5c 0c 3b e3 2b 0e bb
       -0.0016527979 -0.0016662932 0.002141735 -0.002169364
000090 f8 f3 79 ba e3 e3 c7 3b d8 1f c4 ba e9 c5 8f 3a
       -0.00095349504 0.0061001643 -0.0014963103 0.0010969016
0000a0 b2 1f 40 ba cd 6a a3 b9 77 06 ee ba ae 62 23 bb
       -0.0007328942 -0.00031169355 -0.0018159886 -0.0024930644
0000b0 2d ae e9 b9 f9 b3 ab 3a 53 db 04 3b 80 23 d7 ba
       -0.00044570994 0.0013099901 0.002027233 -0.0016413778
0000c0 8a 76 87 3b e8 4b 84 bb 4f a6 85 39 38 e7 5a bb
       0.004134004 -0.004037369 0.00025491646 -0.0033401977
0000d0 1f 80 0f ba ba 79 33 ba ce 4e 2b ba 72 05 c8 ba
       -0.00054741086 -0.0006846447 -0.0006534875 -0.0015260412
0000e0 84 a9 a4 3a 6e 83 1e 3b ac f9 06 ba f6 b0 3f 3b
       0.0012562727 0.0024187225 -0.00051488983 0.0029249764
0000f0 41 e8 2e 3a 0b 60 0f 3a e5 7c 40 b8 9f c8 59 ba
       0.0006672182 0.00054693286 -4.5892684e-05 -0.0008307788
000100 0d 14 1a bb f0 8f bf 3a 2c f3 a6 ba 5d 3a a7 3a
       -0.0023510486 0.001461504 -0.0012737266 0.0012758482
000110 24 71 f7 3a 7a b7 79 ba fa 7f 0e ba 94 e1 8a ba
       0.0018878323 -0.00095259363 -0.000543594 -0.0010595792
000120 46 62 1c 39 2a 14 05 ba 55 cd 5a ba ab e7 c8 ba
       0.00014913929 -0.0005076552 -0.0008346637 -0.0015327831
000130 e1 54 e1 39 e1 dc d9 ba ec 03 1c ba 67 f4 39 3b
       0.00042978584 -0.0016621613 -0.0005951512 0.0028374435
000140 89 a7 83 b9 94 b5 c6 ba af c1 1d 3a 08 83 81 bb
       -0.0002511109 -0.0015160316 0.0006017936 -0.0039523877
000150 70 40 22 bb 95 e5 89 ba ee 6a 2a 3b df c4 f3 ba
       -0.0024757646 -0.0010520691 0.0026003676 -0.0018598101
000160 04 ce 4c 3b 0b 0d 66 ba 5b f6 a4 b7 72 1b bb 3a
       0.0031250725 -0.0008775747 -1.9665042e-05 0.0014275147
000170 ec 2d 8c b8 4a 23 49 3b 8c 1f 32 3a c5 be 2d 3a
       -6.684274e-05 0.00306912 0.0006794862 0.0006627853
000180 d5 eb 1a bb a0 42 ee 37 f9 f1 d2 3a 11 7a 4e ba
       -0.0023639102 2.8402836e-05 0.0016093842 -0.00078764657
000190 57 99 c0 ba 26 3b f3 bb 5d a1 0f 3a e9 29 9d b9
       -0.0014694136 -0.0074228225 0.0005479062 -0.000299766
0001a0 57 4d 01 3b 01 78 b3 bb c1 0f 54 3b 66 41 cf ba
       0.0019729936 -0.005476952 0.0032358023 -0.0015812337
0001b0 2e 44 89 bb d7 ef ca ba 2a 9d 51 39 4b 16 fc 3b
       -0.004189036 -0.0015482855 0.00019990341 0.007693087
0001c0 90 4a 21 bb 5c b8 60 3a af 0e 7b ba 32 e2 16 bb
       -0.0024611093 0.00085723936 -0.0009577078 -0.0023023007
0001d0 2d 2e 33 ba 2a 4c 83 3b 39 71 17 bb eb 6f 03 bb
       -0.0006835189 0.004006882 -0.0023108257 -0.0020055722
0001e0 4b 37 89 ba ea ce 9c 3a 87 20 06 3b 6c 8f 89 3a
       -0.0010468749 0.0011963521 0.0020466165 0.0010495014
0001f0 a2 7a 89 ba cb 9e 22 bb 6a c5 55 3b 79 8a ef 3a
       -0.0010488818 -0.0024813886 0.0032618889 0.0018275521

action_model._continuous_distribution.log_sigma f4 [1, 3]
000000 c9 c4 b0 3c 43 d3 73 3c d7 a3 ec 3c
       0.02157821 0.014881912 0.028886719

action_model._continuous_distribution.mu.weight f4 [3, 128]
000000 03 20 92 3b ad 8a 09 3c f8 96 2e bb e0 25 c2 bc
       0.0044593825 0.008394879 -0.0026640277 -0.0236997
000010 88 20 94 3c 9f 2a 1d 3c 3d 47 9f bc f4 8f 00 bd
       0.018081918 0.009592681 -0.019443149 -0.031387284
000020 69 9a 05 3c eb 8c 1c 3d 7d e3 95 3a f6 05 9a 3c
       0.00815449 0.038220327 0.0011435595 0.01880167
000030 58 f1 8a 3c 34 cb 4a 3c 0a 48 19 bb 02 72 29 bc
       0.016960785 0.012377549 -0.0023388886 -0.010342123
000040 1f 46 06 3d 6d 99 2e bb 78 10 23 3d d4 b0 d1 bc
       0.032781716 -0.0026641742 0.039810628 -0.025597014
000050 35 bc 0f 3c ae ef 39 3c e2 8d 29 3c 8a 6a 97 bb
       0.008772899 0.011348648 0.010348769 -0.0046208547
000060 59 fb 20 3c d0 f1 8a bc 21 ac 32 3d 77 7c 8a 3c
       0.009825551 -0.016961008 0.043621186 0.016905053
000070 d4 2b 87 3c 55 a8 3d 3b d6 74 2d 3c 9c 2f 99 bc
       0.016500391 0.0028939445 0.010586938 -0.01869946
000080 e1 1c 05 3c 45 d7 1a 3c c6 42 97 bc c5 07 8f 3c
       0.008124561 0.009450738 -0.018464457 0.01745976
000090 c9 26 a9 3b 24 41 b4 bb 56 86 1e 3c 6b 5f 8a bd
       0.0051620943 -0.0055009294 0.009675583 -0.06756481
0000a0 e9 f1 28 3c 5d b9 bd 3b 24 7a 90 3c b5 1f 4f bc
       0.010311582 0.0057899193 0.017636366 -0.012641837
0000b0 e0 a6 30 3c 53 46 87 bc 72 b0 e6 bc a6 62 4a 3c
       0.010781974 -0.016513025 -0.028160308 0.012352621
0000c0 17 36 59 bc b7 b6 d0 3c 73 81 00 bc 37 d4 46 bb
       -0.013257525 0.02547775 -0.007843363 -0.0030338892
0000d0 38 c4 bd 3c 70 ef 05 3c 73 d3 8c bc 66 53 37 bc
       0.023164853 0.008174762 -0.01719067 -0.011189317
0000e0 30 31 1e ba c0 68 d7 bc df b4 91 3c 2b 74 48 bc
       -0.0006034551 -0.026295066 0.017786441 -0.012234728
0000f0 1d c9 b5 bb 3c 28 4a bc b2 9b 54 bc 85 05 7c 3c
       -0.005547656 -0.012338694 -0.012976574 0.015382175
000100 b3 bc 33 3d cb 5b 96 bc dc f4 8e 3c 88 7a 2a bc
       0.04388113 -0.018354317 0.017450742 -0.01040519
000110 bc 75 55 bc 86 f4 ea ba 80 73 06 b6 8a 3f 67 bc
       -0.013028558 -0.0017925657 -2.0034786e-06 -0.01411427
000120 6c c2 cf 3c 73 df 9d bc c8 5d 86 3c 92 74 b8 3b
       0.025361262 -0.019271588 0.01640214 0.0056291306
000130 01 cd 63 bb a0 49 0f ba 56 04 04 bc cd c3 38 bc
       -0.0034759643 -0.0005465988 -0.008057674 -0.011277151
000140 9b fe eb bc 92 7f d1 3a f3 07 e2 bc c5 84 93 3c
       -0.028807929 0.0015983453 -0.027591681 0.018007645
000150 02 45 c2 3c f2 85 07 3c 28 dd d6 bb 80 3d b8 3b
       0.023714546 0.008271681 -0.0065571256 0.0056225657
000160 98 47 b8 3a a7 2b 34 3a 71 b4 4b 3b a7 53 b3 bb
       0.0014059423 0.000687296 0.0031082893 -0.0054726186
000170 ac 44 c4 3c 7a 27 58 3a a2 97 03 bd 42 76 2c ba
       0.023958527 0.00082456286 -0.03212703 -0.0006578901
000180 36 2d bf 3c c0 47 e8 3a b7 12 3f 3b 30 63 9a 3b
       0.023336988 0.0017721578 0.0029155442 0.004711531
000190 e7 56 3c 3c a6 bc 1e bd b8 68 be ba 87 d5 29 bc
       0.0114953285 -0.038754128 -0.0014527058 -0.01036585
0001a0 c8 41 16 bc da dd e7 3c 7a ef f0 bc 0d 52 7a b7
       -0.009170957 0.02830403 -0.029411066 -1.4920265e-05
0001b0 1a bf 96 3c b3 5b b0 3c 84 6a d0 3a a9 3a 66 bc
       0.018401671 0.0215281 0.0015900885 -0.014052072
0001c0 bc 55 9c 3c a0 35 d6 bc ef 6b 18 bb 08 be ad 3c
       0.01908385 -0.026148617 -0.0023257693 0.021208778
0001d0 e6 a9 bf 3b 92 83 61 bc d0 e1 bb 3c 50 82 64 bb
       0.005849111 -0.013764279 0.022934824 -0.0034867711
0001e0 58 3e c2 3c 34 2d 4a bc 69 bf 44 bc c0 73 c0 bc
       0.023711368 -0.012339879 -0.012008526 -0.023492694
0001f0 82 61 35 bc a9 02 97 3c 09 49 a8 bc 12 02 a6 bc
       -0.011070611 0.018433886 -0.020542638 -0.02026466
000200 41 6e 88 3b 64 cc 08 bd 3a 63 91 bc 75 9e 9a 3b
       0.004163534 -0.033398047 -0.01774751 0.0047185966
000210 65 d4 2c bc 13 91 56 3c 6f 67 e3 bb 5b 79 67 b8
       -0.010548686 0.013096112 -0.0069398205 -5.5187713e-05
000220 1a 0b e7 3c 90 3a 42 bc 9f a4 37 3c 58 56 e9 bb
       0.028203536 -0.011854783 0.011208682 -0.0071208887
000230 45 9d 89 bb bf 2a 0f bc 41 34 30 3b 53 c8 92 bc
       -0.004199656 -0.008738219 0.0026886615 -0.017917788
000240 8d db 9c bc d1 c0 29 39 5a 86 66 3c cb a9 1f 3c
       -0.019147659 0.00016188926 0.014070118 0.009745072
000250 1d 18 62 bb 28 f2 6b bc 1b 95 36 3c 11 fb bc 3a
       -0.0034499236 -0.014400996 0.011143948 0.0014418085
000260 0d 5c c0 bc 03 32 76 3c d9 11 21 bc 42 95 00 bc
       -0.023481393 0.015026572 -0.009830915 -0.007848086
000270 88 0e 9d 3c 3a 1d e5 3b c8 7c ca 3c d2 7c 48 3c
       0.019171968 0.0069920095 0.024717703 0.012236791
000280 ef 5a b4 bc 45 3b af bb 99 2f 24 ba 3e 05 4a 3d
       -0.022016017 -0.0053476417 -0.0006263196 0.049321406
000290 24 42 34 3c 86 88 9f bb 65 84 66 3d c1 36 53 3b
       0.011002097 -0.00486857 0.056278605 0.003222868
0002a0 a0 e4 ad 3c a1 e1 60 3a 8a 4a 7d bc e3 2b 4e 3c
       0.021227181 0.0008578543 -0.015459666 0.012583706
0002b0 69 a0 99 bc b4 ae b5 bc c8 02 37 3d ac e4 ef bc
       -0.018753247 -0.022178032 0.044680387 -0.029283844
0002c0 db a9 4e 3c 8e 96 3b 3b 27 20 f9 bb 34 e2 60 3c
       0.012613739 0.0028623673 -0.00760271 0.013725806
0002d0 af 36 f4 bc 2a 62 88 3c ba 91 b5 bc e3 5f 8f 3c
       -0.029811231 0.01664837 -0.022164214 0.017501777
0002e0 f6 63 62 3c 6d 3c 67 3a 75 a1 98 3c b9 6e d7 3c
       0.013817778 0.0008820955 0.018631676 0.026297914
0002f0 2c dd c4 3c 21 65 86 bc f1 b8 23 3c 51 ef 30 3b
       0.024031244 -0.016405644 0.009992824 0.0026998112
000300 11 e2 04 bc cd 61 8a ba a0 3f 9c 3c 5b 22 af 3c
       -0.008110539 -0.0010557711 0.019073308 0.021378687
000310 ee d0 99 bc e3 b5 0f bc e4 24 4c 3b 52 f1 32 3c
       -0.018776383 -0.0087713925 0.0031149918 0.010921793
000320 18 c3 c5 3c 9d d9 c3 bb 68 ea d9 3c e2 8d bf 3c
       0.02414088 -0.0059768693 0.026601031 0.023383085
000330 d1 89 de bc 97 35 64 bc 09 2e b4 bc 90 1f cc 3c
       -0.027165325 -0.013928792 -0.021994608 0.024917394
000340 47 84 55 bc 72 2f 2a 3c 6c 06 21 bc 9b 4a 85 3b
       -0.013032026 0.010387288 -0.009828191 0.0040677316
000350 44 f4 b2 bc 1c 66 8f 3c 9b 61 88 bc 51 98 9f bb
       -0.02184499 0.017504744 -0.016648104 -0.0048704525
000360 99 b7 04 3d 81 9e 3c 3c 85 d9 d4 bc 05 0f d5 3b
       0.032401655 0.0115124 -0.025982628 0.0065020346
000370 1b f6 a3 bb 96 06 00 3d d8 4c 3f bc bd 92 d3 bc
       -0.0050037033 0.03125628 -0.011676036 -0.025826806
000380 bb d1 e9 bc e0 d1 1f 3c ac 5c a9 ba 21 3e 93 bc
       -0.02854239 0.009754628 -0.0012921295 -0.017973961
000390 ad 54 e8 bc ce 73 c1 bc c1 06 39 bd 11 52 e5 3c
       -0.028360689 -0.02361479 -0.045172457 0.027993234
0003a0 3d 9c 0c bd eb 57 3a 3b fe 6d 65 bd 0c 81 2a bc
       -0.034328688 0.002843375 -0.0560131 -0.010406744
0003b0 62 ee 82 3a e3 65 74 3c ff e2 eb 3c 63 45 20 bd
       0.0009989257 0.01491687 0.028794764 -0.039128672
0003c0 e6 ba f3 3b b0 1a 29 bb 00 69 44 bc 06 12 3a 3a
       0.0074380515 -0.002580326 -0.011987925 0.00070980226
0003d0 6b 30 bc bb 57 0c 89 3a 7e 81 08 bc 7b 94 f3 3b
       -0.0057430766 0.0010455948 -0.008331655 0.0074334717
0003e0 81 ee 99 bc 44 31 29 bc 30 81 10 bc 7f 5c c9 ba
       -0.018790485 -0.010326687 -0.008819863 -0.0015362649
0003f0 cf 6d a8 3c 27 6a 6a bc 04 84 39 ba 00 65 e0 bc
       0.020560173 -0.014307535 -0.0007076862 -0.02739191

action_model._continuous_distribution.mu.bias f4 [3]
000000 7d a9 1e bb 31 b3 69 ba 5e e7 5b 3a
       -0.002420991 -0.0008914946 0.00083886634

exp_avg f4 [128, 20]
000000 00 00 00 00 00 00 00 00 e1 5d 1f 34 4f 35 47 35
       0.0 0.0 1.4842182e-07 7.421085e-07
000010 76 31 33 ba 88 d7 bb ba 07 07 72 b8 69 d4 9f 37
       -0.00068356784 -0.0014331201 -5.770384e-05 1.9053188e-05
000020 0a 37 26 37 33 3d 26 37 00 00 00 00 00 00 00 00
       9.907186e-06 9.90862e-06 0.0 0.0
000030 67 bc 20 34 44 d8 48 35 a4 6e 3a ba 33 99 b2 ba
       1.4969702e-07 7.4820514e-07 -0.00071118237 -0.0013625979
000040 9c 12 d8 b7 80 b0 6e 34 15 18 1b 37 20 0a 1b 37
       -2.5757872e-05 2.2229688e-07 9.244327e-06 9.241077e-06
000050 64 dc 69 a8 2d ec 2b a9 a0 db 1f b8 e1 40 83 ba
       -1.2981888e-14 -3.8174477e-14 -3.8113096e-05 -0.0010013842
000060 50 0e b3 b8 da fb 7f ba 63 fd 17 35 bb 1a 14 b5
       -8.538051e-05 -0.0009765007 5.662061e-07 -5.5173194e-07
000070 3c 56 df b6 2c 62 df b6 75 f2 69 a8 57 fc 2b a9
       -6.655957e-06 -6.6573466e-06 -1.2986673e-14 -3.8188497e-14
000080 b0 3b 0c b8 19 52 83 ba 18 18 af b8 17 33 ad ba
       -3.343419e-05 -0.0010018974 -8.349138e-05 -0.0013214078
000090 1d a9 4a 35 be ee 28 b5 28 e4 22 b7 67 d8 22 b7
       7.5496956e-07 -6.293229e-07 -9.709074e-06 -9.706338e-06
0000a0 60 af 10 10 df ba d4 10 6e c5 77 ba f5 ca 79 b9
       2.8534097e-29 8.3907176e-29 -0.00094517216 -0.00023822098
0000b0 de f9 e0 ba 68 69 84 b9 ae de 62 b7 6b 3f f9 b6
       -0.001716431 -0.00025255536 -1.3522496e-05 -7.428161e-06
0000c0 0f bc 9d b7 a4 ba 9d b7 60 af 10 10 df ba d4 10
       -1.880343e-05 -1.880277e-05 2.8534097e-29 8.3907176e-29
0000d0 72 08 7a ba 5c 73 7c b9 98 0c 00 bb 35 1c 03 b9
       -0.00095380016 -0.00024075567 -0.0019538756 -0.00012503641
0000e0 f8 7c 46 36 24 9a b6 37 9c 8f a1 b7 ba 8d a1 b7
       2.957704e-06 2.1767868e-05 -1.9259569e-05 -1.9258692e-05
0000f0 29 37 0a 9b c8 37 cb 9b e0 21 2b b6 04 93 2d ba
       -1.1432916e-22 -3.361958e-22 -2.5500703e-06 -0.00066213333
000100 af 9e ed b9 84 e9 99 ba dc 0c 16 37 76 d3 20 37
       -0.0004532239 -0.0011742567 8.943691e-06 9.585978e-06
000110 c6 c2 6a b7 90 bc 6a b7 01 ff 9c 1c b8 d4 66 1d
       -1.3992836e-05 -1.399139e-05 1.0389131e-21 3.055022e-21
000120 a8 02 4f ba 7f 32 88 ba a0 57 de b9 d2 60 a6 ba
       -0.0007896819 -0.0010391026 -0.00042408425 -0.001269365
000130 38 46 18 b7 46 9a 2a b7 15 21 71 b7 1a 10 71 b7
       -9.076255e-06 -1.0168709e-05 -1.4372422e-05 -1.4368468e-05
000140 85 75 2b 14 72 18 fc 14 83 b6 cc 3a aa 65 f0 3a
       8.6564704e-27 2.545514e-26 0.0015618358 0.0018340845
000150 b1 a5 fa 3a dd c5 fd 3a a8 1b aa b4 80 ef 40 31
       0.0019122866 0.0019361336 -3.168509e-07 2.8075817e-09
000160 bc 7d 9f 37 08 72 9f 37 99 33 e6 a7 83 3b a9 a8
       1.9012827e-05 1.9007377e-05 -6.3893766e-15 -1.8788578e-14
000170 95 1c d2 3a 12 ba ef 3a 67 16 f9 3a ae 7a fc 3a
       0.0016030247 0.0018289706 0.0019003869 0.0019262636
000180 05 36 3c 37 ce 32 8f 36 e4 c1 9a 37 58 c3 9a 37
       1.1218251e-05 4.2676465e-06 1.8448518e-05 1.8449195e-05
000190 00 00 00 00 00 00 00 00 1e 3d 52 b4 80 a4 9c b5
       0.0 0.0 -1.9580008e-07 -1.1670782e-06
0001a0 1e 01 d8 3a f3 52 53 3b 24 20 f3 34 d0 06 14 35
       0.0016479825 0.0032245487 4.5285663e-07 5.514421e-07
0001b0 92 41 9f b7 9b 38 9f b7 00 00 00 00 00 00 00 00
       -1.898481e-05 -1.8980636e-05 0.0 0.0
0001c0 31 f5 55 b4 8c f8 9e b5 50 c1 d6 3a 7a d5 51 3b
       -1.9926371e-07 -1.1844254e-06 0.0016384516 0.003201811
0001d0 e8 75 7b 37 2c f3 56 37 7a 4e 9d b7 d0 4b 9d b7
       1.4988218e-05 1.2812012e-05 -1.8752402e-05 -1.8751161e-05
0001e0 19 e8 0e 00 96 d5 2b 00 04 9c a5 38 a0 46 7d b9
       1.368958e-39 4.025547e-39 7.896873e-05 -0.0002415427
0001f0 c0 ce 6a 37 2e b2 9b b9 26 64 9e b5 a0 70 21 36
       1.3995625e-05 -0.00029696658 -1.1801064e-06 2.4056426e-06
000200 d4 fe a7 35 40 a5 a7 35 87 69 32 28 d1 28 03 29
       1.2516634e-06 1.2490564e-06 9.9038675e-15 2.9123246e-14
000210 30 e5 6b 38 e4 a0 2f b9 ae c5 b9 39 a9 ae cb b9
       5.6241814e-05 -0.00016749237 0.00035433233 -0.0003884931
000220 43 ea f1 b5 48 a5 62 b6 52 eb ce 35 bc f2 ce 35
       -1.8024078e-06 -3.377283e-06 1.5416683e-06 1.5418841e-06
000230 41 a1 8e a8 58 b5 51 a9 63 fe 71 ba 7d 75 f6 3a
       -1.58351e-14 -4.6564613e-14 -0.0009231327 0.0018803325
000240 e4 9b 47 b9 15 17 0e 3b 81 6c 9e b7 9e 22 66 b7
       -0.00019036193 0.0021681238 -1.8885594e-05 -1.3717128e-05
000250 69 f2 a2 36 3d d8 a2 36 e4 52 b0 a8 c7 9f 81 a9
       4.8561965e-06 4.8531497e-06 -1.9575873e-14 -5.756468e-14
000260 6c b1 1c b9 38 68 0e 3b 34 29 a9 b9 c7 fb 1e 3b
       -0.00014943414 0.00217296 -0.0003226489 0.0024258958
000270 f3 c0 3b 36 64 62 fe 37 d9 ed c7 36 3f df c7 36
       2.7977483e-06 3.0324976e-05 5.9583513e-06 5.9566514e-06
000280 00 00 00 00 00 00 00 00 26 c4 cf b4 16 e9 01 b6
       0.0 0.0 -3.869947e-07 -1.9358172e-06
000290 62 82 26 b8 42 0a 34 b7 e1 77 1f 35 c9 bc 0e 35
       -3.9698913e-05 -1.0731224e-05 5.940656e-07 5.317384e-07
0002a0 47 d4 94 b5 7e d2 94 b5 dc a8 b5 93 f8 8b 85 94
       -1.108864e-06 -1.1088121e-06 -4.585733e-27 -1.3484776e-26
0002b0 6e b4 ad b5 c5 05 b4 38 d7 7c 24 b8 c1 73 53 b7
       -1.2942016e-06 8.5841435e-05 -3.9216913e-05 -1.2603531e-05
0002c0 9c 45 54 b5 e8 a0 5e b4 c8 28 8e b5 81 2f 8e b5
       -7.907745e-07 -2.0733899e-07 -1.0591693e-06 -1.059365e-06
0002d0 99 24 aa a7 2e 29 7a a8 50 d3 0e bb 72 db 0e 3a
       -4.7224158e-15 -1.3886717e-14 -0.0021793433 0.000544957
0002e0 20 0f 28 bb e8 51 fa 39 40 f8 3d b6 6c e6 27 37
       -0.002564378 0.0004774474 -2.8307695e-06 1.0007625e-05
0002f0 df b3 a4 b7 b6 ab a4 b7 65 e8 e8 26 c1 38 ab 27
       -1.9634082e-05 -1.9630283e-05 1.6161225e-15 4.7523567e-15
000300 75 4c 14 bb 91 bf 28 3a 58 f6 21 bb 88 57 6f 3a
       -0.002262858 0.0006437237 -0.0024713483 0.00091301696
000310 c0 78 b2 b7 fe 02 a2 b7 52 f2 93 b7 54 fc 93 b7
       -2.1275482e-05 -1.9313298e-05 -1.7636605e-05 -1.7641265e-05
000320 d3 ef 14 a5 41 fb da a5 2b 18 c8 b3 89 fd f9 b4
       -1.2918209e-16 -3.7987228e-16 -9.317622e-08 -4.6564335e-07
000330 f7 87 40 b9 a8 51 c0 b9 4d 88 32 b8 6c e2 32 37
       -0.00018361198 -0.00036681932 -4.2565447e-05 1.0662345e-05
000340 ea 8b 2b 36 a0 ae 2b 36 f4 f4 b1 25 1f d3 82 26
       2.5562426e-06 2.558263e-06 3.0870592e-16 9.077787e-16
000350 0d 45 81 33 8e 87 1e b7 45 91 46 b9 8f 19 c2 b9
       6.019591e-08 -9.449095e-06 -0.00018936869 -0.00037021606
000360 70 0f c6 b5 62 bc 38 37 d3 9c 2c 36 5e 95 2c 36
       -1.4756642e-06 1.1011116e-05 2.572128e-06 2.571694e-06
000370 3e 01 13 17 05 24 d8 17 3a a2 9e b9 4f ae ac b9
       4.749983e-25 1.3967765e-24 -0.00030256977 -0.00032936267
000380 08 c1 65 ba 61 d8 c3 b9 3b 2e c1 b6 1e c1 58 34
       -0.00087644206 -0.00037354513 -5.75723e-06 2.0186823e-07
000390 cc 5e af b6 86 51 af b6 4a c5 b8 17 79 d5 87 18
       -5.226442e-06 -5.224897e-06 1.1940524e-24 3.5112234e-24
0003a0 25 d5 9e b9 4a fc 90 b9 0c ac 33 ba bb 7a a0 b9
       -0.00030294913 -0.0002765379 -0.0006853945 -0.0003060902
0003b0 33 d9 4d 37 83 41 05 37 66 9a 76 b6 fa 6c 76 b6
       1.2269523e-05 7.942671e-06 -3.6746728e-06 -3.672029e-06
0003c0 a6 09 0e 08 70 d6 d0 08 eb 9a 8d b3 9c 01 b1 b4
       4.2742912e-34 1.2568959e-33 -6.5940036e-08 -3.296999e-07
0003d0 0f 1d 3b 39 9a a2 da 39 af 7a 4b 38 fc ed a0 b7
       0.00017844535 0.00041701348 4.851323e-05 -1.9184306e-05
0003e0 5a ca 86 b6 e3 e3 86 b6 a6 09 0e 08 70 d6 d0 08
       -4.017068e-06 -4.0200407e-06 4.2742912e-34 1.2568959e-33
0003f0 f6 f0 8d b3 2c 6d b1 b4 bd 36 22 39 e6 80 c3 39
       -6.609655e-08 -3.3048252e-07 0.00015469916 0.00037289335

exp_avg_sq f4 [128, 20]
000000 00 00 00 00 00 00 00 00 37 07 83 32 28 0d 91 31
       0.0 0.0 1.5253688e-08 4.221551e-09
000010 b6 51 8b 38 d7 d6 8a 39 dc 35 e5 32 0e 38 4d 32
       6.643256e-05 0.0002648148 2.6683601e-08 1.1945316e-08
000020 56 f7 0a 32 c9 87 0a 32 00 00 00 00 00 00 00 00
       8.088895e-09 8.063531e-09 0.0 0.0
000030 2f 08 83 32 53 17 91 31 ea 65 88 38 b1 66 89 39
       1.5254129e-08 4.222707e-09 6.503968e-05 0.00026207187
000040 7a 70 ea 32 93 07 3a 32 ca b2 09 32 d9 75 09 32
       2.7292334e-08 1.0828347e-08 8.0151015e-09 8.001245e-09
000050 d6 75 1c 31 af 1d a9 32 01 55 a4 36 a2 e6 ae 38
       2.276797e-09 1.9687688e-08 4.8974766e-06 8.339925e-05
000060 ac cf c5 36 77 6d ad 38 45 df 1b 2e 66 07 4d 2e
       5.8952337e-06 8.269672e-05 3.5441223e-11 4.6618175e-11
000070 a2 e7 a0 31 07 3a 9f 31 a8 74 1c 31 60 1c a9 32
       4.6829465e-09 4.634106e-09 2.27673e-09 1.9687093e-08
000080 85 c6 a4 36 2c 2f b4 38 fb f9 d1 36 14 f2 b4 38
       4.9106916e-06 8.591855e-05 6.257787e-06 8.6281594e-05
000090 ac 75 05 2f 00 8b 5a 2e 40 1e 9e 31 63 cf 9c 31
       1.2138085e-10 4.9690918e-11 4.6018442e-09 4.5637747e-09
0000a0 45 1c 65 00 fb 93 da 01 13 dd 82 37 48 0a e0 36
       9.285526e-39 8.0292894e-38 1.5600153e-05 6.676917e-06
0000b0 e5 01 43 39 66 42 21 39 c5 91 26 33 3b 66 9f 32
       0.00018597355 0.00015378892 3.8782463e-08 1.8556525e-08
0000c0 e7 c9 c9 30 13 75 c8 30 45 1c 65 00 fb 93 da 01
       1.4682059e-09 1.458519e-09 9.285526e-39 8.0292894e-38
0000d0 6c d5 82 37 0e 06 e0 36 e1 27 43 39 c4 86 21 39
       1.559659e-05 6.676425e-06 0.00018611505 0.0001540436
0000e0 a1 74 59 33 32 09 e8 32 79 df d0 30 ce ae ce 30
       5.0630323e-08 2.7012536e-08 1.5197507e-09 1.5038155e-09
0000f0 b0 8b 08 16 2b 97 93 17 f3 1c c2 31 f5 df 79 37
       1.103007e-25 9.537813e-25 5.6494343e-09 1.4893701e-05
000100 77 ff 9d 36 82 af b0 37 cc 3f 03 31 7e 91 2e 31
       4.7087046e-06 2.1062562e-05 1.9099273e-09 2.5403035e-09
000110 bf c4 0d 31 4e 77 04 31 99 99 be 18 58 04 4e 1a
       2.0630038e-09 1.9276345e-09 4.9268943e-24 4.260331e-23
000120 23 f3 b9 35 2a d2 84 37 bd 2e bf 36 74 b2 f1 37
       1.3854336e-06 1.5833491e-05 5.6976846e-06 2.8812537e-05
000130 fb 61 50 31 b6 a2 39 31 15 51 17 31 61 c4 0f 31
       3.032368e-09 2.7013534e-09 2.2019482e-09 2.0920867e-09
000140 4f 5a 5c 0b 2b 2d ee 0c ef 24 98 39 b1 07 65 3a
       4.24384e-32 3.669689e-31 0.00029019217 0.0008736803
000150 78 8c aa 39 e9 da 5d 3a a0 73 91 30 19 dd 9e 30
       0.00032529584 0.0008463101 1.0583001e-09 1.1558853e-09
000160 da 42 4e 33 01 e0 4b 33 12 3d 24 2f f3 85 b1 30
       4.8023914e-08 4.746835e-08 1.493741e-10 1.2916516e-09
000170 ac 3a 99 39 1a 4c 66 3a c9 f8 a9 39 fe 4b 5c 3a
       0.00029226148 0.0008785144 0.0003241955 0.00084036577
000180 eb d6 c5 30 57 b7 ae 30 d4 55 4f 33 20 76 4d 33
       1.439472e-09 1.2712275e-09 4.8274003e-08 4.7837716e-08
000190 00 00 00 00 00 00 00 00 45 76 fa 34 a6 26 58 34
       0.0 0.0 4.665218e-07 2.0130628e-07
0001a0 5e 4d 7f 38 7c a5 f4 38 ce 66 a5 32 29 eb 01 32
       6.086879e-05 0.000116656505 1.9255278e-08 7.5622575e-09
0001b0 d0 a9 42 31 8c 26 42 31 00 00 00 00 00 00 00 00
       2.8327243e-09 2.8252627e-09 0.0 0.0
0001c0 39 76 fa 34 a1 26 58 34 03 8e 80 38 45 f2 f5 38
       4.6652147e-07 2.0130621e-07 6.1299674e-05 0.000117276366
0001d0 35 7b b6 32 96 66 f0 31 9e f4 44 31 8e 74 44 31
       2.1243617e-08 6.996582e-09 2.8660803e-09 2.8588008e-09
0001e0 00 00 00 00 00 00 00 00 ee 2c e9 36 0e fa 07 39
       0.0 0.0 6.9491716e-06 0.00012967756
0001f0 2f 4b 27 37 3e 89 0d 39 05 cc 95 30 ec 15 9d 30
       9.971481e-06 0.00013497935 1.0899163e-09 1.1429484e-09
000200 b6 8c 08 32 69 6f 03 32 da 4c c5 2f 60 42 55 31
       7.948236e-09 7.650535e-09 3.5888698e-10 3.103331e-09
000210 fa 69 ee 36 c2 fd 0b 39 9d 07 2f 37 f2 96 0f 39
       7.10529e-06 0.00013350605 1.0432585e-05 0.00013693774
000220 e2 31 95 30 06 97 ad 30 02 82 0a 32 b3 c9 05 32
       1.0855354e-09 1.263033e-09 8.062218e-09 7.78748e-09
000230 10 90 70 31 bc 02 02 33 0b 35 53 39 43 74 02 3a
       3.5006487e-09 3.027047e-08 0.00020142288 0.0004976431
000240 73 f1 6c 39 33 57 fa 39 a4 67 03 31 b4 e7 04 31
       0.0002259666 0.00047748684 1.9121922e-09 1.9340236e-09
000250 ca fa 01 33 af 1f 01 33 e6 92 78 31 07 57 06 33
       3.0263244e-08 3.006397e-08 3.6172252e-09 3.1278457e-08
000260 1f 19 57 39 2d 94 03 3a 5e ec 6e 39 10 7b fa 39
       0.00020513356 0.00050193333 0.00022785502 0.00047775405
000270 22 f9 fc 30 af 7b 07 31 17 e3 02 33 0d bd 01 33
       1.8406221e-09 1.9715392e-09 3.047452e-08 3.0207094e-08
000280 00 00 00 00 00 00 00 00 08 b3 d5 29 db 25 27 2c
       0.0 0.0 9.490157e-14 2.3753141e-12
000290 29 67 7e 33 cb 0d e6 34 c5 1e 25 2e 63 44 2e 2e
       5.9232807e-08 4.2850874e-07 3.7543985e-11 3.962376e-11
0002a0 d7 8b c3 2d 71 37 9d 2d d8 3b 25 07 52 99 b2 08
       2.2231035e-11 1.7873454e-11 1.2430807e-34 1.0749031e-33
0002b0 d7 b4 f1 2d 9c 63 59 34 36 ca e0 33 84 af 27 35
       2.7478837e-11 2.0245938e-07 1.0467595e-07 6.2467757e-07
0002c0 54 ed ff 2e 81 ff 63 2e 7e da 0e 2e 43 be fd 2d
       1.16382154e-10 5.1840757e-11 3.2481122e-11 2.8847263e-11
0002d0 79 1d 85 32 ea e1 0f 34 ad bb b5 39 96 07 50 3a
       1.549664e-08 1.34001e-07 0.0003466284 0.00079357007
0002e0 e1 72 7d 3a 67 c8 4f 3a d5 de 0c 34 be 27 12 34
       0.00096683024 0.00079262856 1.3119582e-07 1.3611768e-07
0002f0 b8 32 4e 33 f5 78 4b 33 5a 7d 89 32 5e 9c 14 34
       4.800924e-08 4.737463e-08 1.6005902e-08 1.384046e-07
000300 9e 5b b7 39 a3 2f 51 3a 92 52 7f 3a ad 7f 50 3a
       0.0003497274 0.0007979816 0.0009739782 0.00079535955
000310 52 d1 0f 34 9a 71 0d 34 57 3c 4f 33 9b 1c 4d 33
       1.3394063e-07 1.3172976e-07 4.8250822e-08 4.77563e-08
000320 2f c5 54 2a 0b fb e5 2b 71 95 91 31 fc 1e 05 31
       1.8897794e-13 1.6341107e-12 4.237045e-09 1.937166e-09
000330 13 28 ac 38 f5 81 08 39 db 09 ed 32 b3 6f 11 32
       8.2090635e-05 0.00013018383 2.7594913e-08 8.465508e-09
000340 6a ff 03 31 9a b6 03 31 a0 2a bf 2c 27 a1 4e 2e
       1.9208195e-09 1.9166806e-09 5.433279e-12 4.698211e-11
000350 20 f6 90 31 f4 e2 6e 33 21 48 ab 38 33 0a 09 39
       4.2189328e-09 5.5620106e-08 8.1673505e-05 0.00013069138
000360 25 1f e4 32 ab 26 1a 32 6e d8 05 31 9d 99 05 31
       2.6556856e-08 8.972772e-09 1.9477073e-09 1.9441366e-09
000370 73 81 2c 10 86 75 ba 11 1a 4a a6 37 3a 93 f7 37
       3.4020743e-29 2.9418055e-28 1.9823248e-05 2.9513252e-05
000380 db 86 59 39 d1 b0 04 39 07 7b 25 33 67 dd 17 33
       0.0002074497 0.0001265437 3.852895e-08 3.535879e-08
000390 9e 06 2e 31 ac d3 2f 31 ba 73 2d 10 63 7b bb 11
       2.5324094e-09 2.5586173e-09 3.4207387e-29 2.957944e-28
0003a0 b2 4b a6 37 90 6b f9 37 4c dd 5a 39 3c 45 05 39
       1.982399e-05 2.97332e-05 0.0002087254 0.0001270966
0003b0 03 cb 27 33 50 5a 05 33 30 e5 35 31 98 92 36 31
       3.9067356e-08 3.1048614e-08 2.6469245e-09 2.6567815e-09
0003c0 00 00 00 00 00 00 00 00 36 9c 71 32 86 11 35 32
       0.0 0.0 1.40635645e-08 1.0539571e-08
0003d0 54 75 a6 37 60 b5 f4 38 bd ab a7 31 94 af 77 31
       1.9843377e-05 0.000116686104 4.879864e-09 3.6043035e-09
0003e0 8a 9a ac 31 71 fb ab 31 00 00 00 00 00 00 00 00
       5.023428e-09 5.0053406e-09 0.0 0.0
0003f0 65 9c 71 32 6f 12 35 32 f0 63 a3 37 b6 b2 f0 38
       1.4063606e-08 1.0539778e-08 1.9477651e-05 0.00011477379

exp_avg f4 [128]
000000 14 18 1b 37 26 e4 22 b7 9a 8f a1 b7 12 21 71 b7
       9.244326e-06 -9.709072e-06 -1.9259565e-05 -1.4372419e-05
000010 df c1 9a 37 7a 4e 9d b7 06 eb ce 35 e5 ed c7 36
       1.8448509e-05 -1.8752402e-05 1.5416597e-06 5.9583567e-06
000020 cb 28 8e b5 4c f2 93 b7 c8 9c 2c 36 62 9a 76 b6
       -1.0591697e-06 -1.7636594e-05 2.5721256e-06 -3.674672e-06
000030 52 e1 7c b6 49 54 40 36 1a 7b 98 b7 b1 54 5f b6
       -3.768208e-06 2.865929e-06 -1.8177136e-05 -3.3278886e-06
000040 30 ad 6c b4 d7 dc ff 37 aa 05 02 b7 f5 c6 77 37
       -2.2042218e-07 3.0501205e-05 -7.749923e-06 1.4768671e-05
000050 9d a5 aa 36 2d 2b c1 37 fc 33 9d 37 8a 3a fa b6
       5.0856747e-06 2.3027498e-05 1.8740066e-05 -7.4573954e-06
000060 15 d0 04 37 d8 cd cd 37 40 c5 d5 b6 06 0a a2 38
       7.916261e-06 2.4533758e-05 -6.3708576e-06 7.726629e-05
000070 7e 16 83 37 fa 94 80 37 78 1f a5 37 1d 8a 8a b7
       1.562689e-05 1.5328162e-05 1.9684187e-05 -1.6515196e-05
000080 fc 71 56 b6 18 c1 72 37 f0 81 d2 37 4f b0 dc b7
       -3.1954833e-06 1.4469282e-05 2.5094458e-05 -2.6308144e-05
000090 52 6a d3 35 75 63 94 37 78 a4 84 b7 b8 a2 c2 37
       1.5751668e-06 1.7689288e-05 -1.5812213e-05 2.3202374e-05
0000a0 6b 42 30 37 ec 73 93 37 60 1f f5 b4 8d f3 46 b7
       1.0505882e-05 1.7577746e-05 -4.5657634e-07 -1.1858426e-05
0000b0 c9 26 ea b6 bf 9b 5f 36 d4 ef b1 b6 3c 52 d2 b5
       -6.9782586e-06 3.3320246e-06 -5.3029307e-06 -1.5670153e-06
0000c0 26 ae 00 b7 28 0e c9 b6 b0 ae 67 b8 cc 50 f9 b5
       -7.669942e-06 -5.991915e-06 -5.5237382e-05 -1.8575461e-06
0000d0 f2 c0 af b7 f3 33 9e b7 22 35 37 38 04 a2 c1 37
       -2.0951473e-05 -1.8859258e-05 4.3680084e-05 2.3082837e-05
0000e0 96 0d 9c b6 af 3e 82 b7 74 1f 64 37 6c 4e 79 36
       -4.650744e-06 -1.5526397e-05 1.3597182e-05 3.714954e-06
0000f0 66 27 5d 38 56 d3 e2 36 ba 4c 04 b7 29 a9 0e b8
       5.27272e-05 6.7599276e-06 -7.885677e-06 -3.401298e-05
000100 6e fc d0 b7 1e a8 85 37 95 3a a2 b7 f3 88 a8 35
       -2.4913079e-05 1.5933121e-05 -1.9339184e-05 1.2556833e-06
000110 35 cc 08 38 46 77 14 b6 b4 23 8e 36 6c aa ed 37
       3.261511e-05 -2.2123145e-06 4.236086e-06 2.833196e-05
000120 b4 29 c7 37 94 01 b0 36 1a 8d 61 36 92 0f 7a 37
       2.3742068e-05 5.2453925e-06 3.3609745e-06 1.4904786e-05
000130 98 58 7d b8 4a f5 6d 38 8a 15 b0 37 7e 19 49 37
       -6.040241e-05 5.6733646e-05 2.0990865e-05 1.1986469e-05
000140 60 88 bb 36 80 b8 d4 b4 82 a0 16 b8 5a d5 77 b7
       5.5889104e-06 -3.962232e-07 -3.591227e-05 -1.4772022e-05
000150 d8 88 12 b8 df 70 37 36 68 ba cc b5 30 e2 03 38
       -3.493656e-05 2.7334825e-06 -1.5253436e-06 3.1443487e-05
000160 71 6d 2c 36 ee b7 4d b7 84 d3 1c b6 ca 0f eb 37
       2.56937e-06 -1.2261777e-05 -2.336893e-06 2.8021535e-05
000170 70 df 0b b5 f3 88 25 37 00 65 e9 37 0e 6d cd b6
       -5.210668e-07 9.866652e-06 2.7822796e-05 -6.1221717e-06
000180 1a 58 0b b7 dc 3f 64 36 76 a0 4b b7 e3 40 03 b7
       -8.305558e-06 3.4011819e-06 -1.2137103e-05 -7.823316e-06
000190 c8 79 9a 37 b5 ea be 37 60 c8 ec 36 b0 1d eb b4
       1.841494e-05 2.2759059e-05 7.056675e-06 -4.3793762e-07
0001a0 c2 94 33 b7 40 27 71 35 f4 52 03 36 3d 90 f5 37
       -1.0703867e-05 8.983661e-07 1.9568806e-06 2.9273442e-05
0001b0 bc 64 7b 37 4f e8 c0 b7 5f 8d 25 36 75 b7 29 b6
       1.498422e-05 -2.299636e-05 2.4669205e-06 -2.5289748e-06
0001c0 5c 8f 80 b6 58 36 92 36 90 cb 78 b6 40 41 db 37
       -3.8313865e-06 4.3574655e-06 -3.7073369e-06 2.6137219e-05
0001d0 f6 be fb 36 ce a9 e8 37 49 e3 05 36 3c 72 c3 36
       7.5026137e-06 2.7735627e-05 1.9950842e-06 5.8247515e-06
0001e0 64 7d 55 37 0a a4 62 38 48 11 81 b5 b9 f4 ed 37
       1.2724984e-05 5.4035372e-05 -9.616278e-07 2.836656e-05
0001f0 e6 3a c1 b6 33 03 25 36 c4 c6 f4 35 d0 0a 37 36
       -5.758705e-06 2.4588778e-06 1.8237265e-06 2.7275419e-06
