results/agentTarget02/AgentTarget/AgentTarget-31.pt (torch, 164111 bytes, 12 tensors)

network_body._body_endoder.seq_layers.0.weight f4 [128, 20]
00000000: 6e83 a6bd ae40 4e3e 0c18 633d 8ae5 6cbe
00000010: 8e26 43be 085d 993c 648c cc3e f605 a1be
00000020: abb6 813e f8c3 493e b5b0 cebc 99ee 80be
00000030: 0977 ac3d 9a46 fb3d 8682 1ebe 18d7 b43c
00000040: 9189 6dbd b403 ab3e feb3 9e3e 89f8 d8be
00000050: cabf ad3d 3e50 b43d c1ef f7be 81ce 57bd
00000060: b7d2 343d 085e aa3e 8ff5 55bc 9b65 763e
00000070: 2446 8bbe f0b2 8ebe 107a f63d 1c55 10bd
00000080: 79a7 653c 803e 42be 85e5 003e b53d aebd
00000090: 54ef fcbc f95f bc3e 3346 19bc a5ba 9e3e
000000a0: a8f2 0dbe 3cf6 893c 8b2e 70be 8fb0 7d3e
000000b0: 4b60 5abd 9d22 3a3e de6f f53d d0bb 12be
000000c0: 6590 d5be 4692 143f 5d43 3f3e b8f5 323c
000000d0: e8fa e5be 47fd d7be 76bf 4f3c 6f25 4cbd
000000e0: 43ff 463d 3402 2e3d 0d7d 4bbe dd99 ac3e
000000f0: 170b 053e 79ec b53d 1d37 8a3e e88c 58bd
00000100: 92d7 f7bc cd51 b9be e637 833e 7f9d ac3e
00000110: fbc9 48be c91f 47bd 18ff 923e 9a12 af3d
00000120: d165 b53e bff0 09bf 5ae1 86be 3408 953c
00000130: a033 07be 7f0f 6c3e e39b 26bf 6bb1 1ebb
00000140: 7c76 66be f2d4 1fbd 8c63 c6be 538d cabd
00000150: 015a 37bd cd46 3dbe 8d62 c63d a3e0 27bc
00000160: 0986 fbbd aeb0 2bbe 1a19 d9bd faf7 3ebe
00000170: baa3 d6bd 6a11 383e c3b6 abbd a5a1 01bf
00000180: a4d4 57be c7dd 8abe ec26 063e 56d5 ba3e
00000190: 0996 d63e 0907 f33d 973c a1be 2f36 45be
000001a0: c2e4 4ebd 5dd7 3cbd ccc0 cd3e d379 69bd
000001b0: 4f3c 8cbe 92e8 e83d 9142 ce3e bb82 89bd
000001c0: 12bd a43d 8980 56be f672 34be f20d 773b
000001d0: 9f88 a53e f963 363f 2901 133e 6794 91be
000001e0: be21 ff3d 2991 073e d518 bb3e 8ccd 103c
000001f0: 44e7 83be d20f babe 30c6 a43e 0e4e 0ebe
00000200: 89a7 30be 6237 f0bd 8473 bbbe 99ef 993d
00000210: 801c 073e 1e4a 52be 7596 ecbd be15 943e
00000220: a9d2 333e 53c7 593e 9adf aabd 6197 833d
00000230: fd8f 413e bc45 a63d 494e 26be 730a 53be
00000240: 9204 bd3e e15a c0be 496f 70bd cefc 14bf
00000250: f9a7 973e 92f6 203e a146 a03e 3b70 c7be
00000260: 3796 86be 775d 163b e4ab a7be 687b b3bd
00000270: 19e8 933e 454c 903e a16e 11bd 09ec 33be
00000280: caa9 583e 239e 68be f83d 4bbd a501 8bbe
00000290: b61e 24be e9e3 0b3e 2a3b 68be a586 efbd
000002a0: 3ad6 473d 85ca 49be 9a19 02be 3298 a33c
000002b0: 41e9 12be 07c5 d13d aa32 6ebe 8c65 76bd
000002c0: e0df 383d 5585 3abd 8779 cf3d 8997 e8bd
000002d0: 0274 a2be 7f00 74bd a902 b7be 6120 513c
000002e0: 3615 7abe 82aa bb3e 7217 a83e 3ca4 053d
000002f0: 424e 41be 6825 b83e 7306 1fbe 72a0 43be
00000300: 8a68 903e a084 013e fda2 d33d 443d 85bd
00000310: d622 7e3d e656 ec3e 6762 633e 6edf 35be
00000320: aa41 c7bd 8372 0f3e e784 3abe c967 7e3d
00000330: a194 293e 3544 86bd d50f 97be 0b45 e0bd
00000340: 5b13 5f3e 46a6 853e 527c 9f3e 158a cfbc
00000350: 2314 93be 334a 3fbc 86d3 a73e c790 b03e
00000360: b94c 7a3d 2711 e13e 8a27 88be c722 be3d
00000370: 11f5 833d 0a37 ab3d 3aed 0cbe 9218 a93e
00000380: b1b5 72be 593d e2bd e096 273c fadb e6be
00000390: dfcd e9be ba75 0cbe 5e15 d2bd 6234 cbbd
000003a0: 6615 fe3d 0030 19bf 0d0a 903e a2b5 963e
000003b0: 0832 51be efd5 7e3d b892 8fbe c2e3 e9bb
000003c0: 89d0 eabc a619 0fbe 8e6f b83d abb2 64be
000003d0: 0476 d8bd 8848 f03d 77ae ea3d 4ee0 a23c
000003e0: 6b7c 80be a740 4ebd 1186 c0be 68dc 8d3c
000003f0: 7d17 5ebe 7cad 3b3e 9c72 22be 953e 10be
-0.08130537 0.20141861 0.055442855 -0.23134437 -0.19057676 0.018721119 0.3995086 -0.3144986
0.25334677 0.19703662 -0.025230745 -0.25182036 0.08421142 0.122693256 -0.15479478 0.022075221
-0.05799252 0.33401263 0.30996698 -0.42377117 0.084838465 0.088043675 -0.48425105 -0.05268717
0.044146266 0.33274865 -0.013059034 0.24062197 -0.2720195 -0.27870893 0.12035 -0.035237417
0.014016979 -0.18969154 0.12587555 -0.085078634 -0.03087584 0.3679197 -0.009355116 0.31001773
-0.13862097 0.016841047 -0.23455255 0.24774383 -0.05331449 0.18177266 0.119842276 -0.14329457
-0.41711727 0.58035696 0.18678041 0.010922842 -0.4491799 -0.42185423 0.012679925 -0.049840387
0.04858328 0.04248257 -0.19871922 0.33711138 0.12992512 0.08882994 0.26995173 -0.052868754
-0.03025416 -0.36195222 0.25628585 0.3371391 -0.196083 -0.048614297 0.28710246 0.0854847
0.35429242 -0.53882974 -0.26343805 0.018192388 -0.13203287 0.23052786 -0.65081614 -0.0024214636
-0.22506136 -0.03902144 -0.38747823 -0.09890237 -0.04476357 -0.1848404 0.09686766 -0.010246429
-0.122814246 -0.16766617 -0.10600491 -0.18649283 -0.10480447 0.17975393 -0.083844684 -0.50637275
-0.2107721 -0.27122328 0.13100785 0.36490887 0.41911343 0.11866576 -0.3149154 -0.1925895
-0.05051113 -0.046103824 0.40186155 -0.057000946 -0.27389762 0.11372484 0.4028516 -0.06714388
0.08043875 -0.2094747 -0.17621979 0.003769752 0.32330796 0.71246296 0.14355911 -0.28433535
0.12457608 0.13238968 0.36542383 0.008838069 -0.2576238 -0.36340195 0.32182455 -0.13896963
-0.1725141 -0.117293134 -0.3661157 0.07516403 0.13194466 -0.20536086 -0.11552135 0.28922838
0.17560829 0.21267442 -0.0834343 0.064253576 0.18902583 0.081187695 -0.16240801 -0.20609455
0.3691755 -0.37569335 -0.05869988 -0.5819825 0.2962034 0.15719059 0.31303886 -0.38952813
-0.2628648 0.0022943893 -0.3274833 -0.08763772 0.28888014 0.2818319 -0.035505895 -0.17570509
0.2115852 -0.22716574 -0.049619645 -0.27149692 -0.1602734 0.1366116 -0.2267882 -0.11695603
0.048788287 -0.19706161 -0.12705079 0.019970033 -0.14346792 0.10242658 -0.23261514 -0.060155436
0.04513538 -0.04553731 0.101306014 -0.11357028 -0.31729132 -0.059570786 -0.35744217 0.012764067
-0.24422154 0.36653525 0.32830387 0.03262733 -0.18877509 0.3596604 -0.15529804 -0.19104174
0.28204757 0.12648249 0.10333822 -0.06505826 0.06204494 0.46160048 0.22205506 -0.17761013
-0.09729321 0.14008527 -0.1821476 0.062110696 0.16560604 -0.06555978 -0.29504266 -0.10950669
0.21784727 0.2610342 0.31149536 -0.025334397 -0.287263 -0.011675405 0.32778567 0.34485456
0.061108325 0.439584 -0.26592666 0.09283977 0.06443227 0.08360107 -0.1376237 0.33026558
-0.23702122 -0.110468574 0.0102288425 -0.45089704 -0.4566488 -0.13716784 -0.10257982 -0.099221006
0.12406425 -0.5983887 0.28132668 0.2943545 -0.20429242 0.06221574 -0.28041625 -0.0071377466
-0.02866389 -0.13974628 0.09005652 -0.22333781 -0.10569385 0.11732584 0.11459058 0.019882347
-0.25094923 -0.050354626 -0.37602285 0.017317012 -0.21688648 0.18327898 -0.15864033 -0.14086373

network_body._body_endoder.seq_layers.0.bias f4 [128]
00000000: 0000 0000 0000 0000 0000 0000 0000 0000
00000010: 0000 0000 0000 0000 0000 0000 0000 0000
00000020: 0000 0000 0000 0000 0000 0000 0000 0000
00000030: 0000 0000 0000 0000 0000 0000 0000 0000
00000040: 0000 0000 0000 0000 0000 0000 0000 0000
00000050: 0000 0000 0000 0000 0000 0000 0000 0000
00000060: 0000 0000 0000 0000 0000 0000 0000 0000
00000070: 0000 0000 0000 0000 0000 0000 0000 0000
00000080: 0000 0000 0000 0000 0000 0000 0000 0000
00000090: 0000 0000 0000 0000 0000 0000 0000 0000
000000a0: 0000 0000 0000 0000 0000 0000 0000 0000
000000b0: 0000 0000 0000 0000 0000 0000 0000 0000
000000c0: 0000 0000 0000 0000 0000 0000 0000 0000
000000d0: 0000 0000 0000 0000 0000 0000 0000 0000
000000e0: 0000 0000 0000 0000 0000 0000 0000 0000
000000f0: 0000 0000 0000 0000 0000 0000 0000 0000
00000100: 0000 0000 0000 0000 0000 0000 0000 0000
00000110: 0000 0000 0000 0000 0000 0000 0000 0000
00000120: 0000 0000 0000 0000 0000 0000 0000 0000
00000130: 0000 0000 0000 0000 0000 0000 0000 0000
00000140: 0000 0000 0000 0000 0000 0000 0000 0000
00000150: 0000 0000 0000 0000 0000 0000 0000 0000
00000160: 0000 0000 0000 0000 0000 0000 0000 0000
00000170: 0000 0000 0000 0000 0000 0000 0000 0000
00000180: 0000 0000 0000 0000 0000 0000 0000 0000
00000190: 0000 0000 0000 0000 0000 0000 0000 0000
000001a0: 0000 0000 0000 0000 0000 0000 0000 0000
000001b0: 0000 0000 0000 0000 0000 0000 0000 0000
000001c0: 0000 0000 0000 0000 0000 0000 0000 0000
000001d0: 0000 0000 0000 0000 0000 0000 0000 0000
000001e0: 0000 0000 0000 0000 0000 0000 0000 0000
000001f0: 0000 0000 0000 0000 0000 0000 0000 0000
0.0 0.0 0.0 0.0 0.0 0.0 0.0 0.0
0.0 0.0 0.0 0.0 0.0 0.0 0.0 0.0
0.0 0.0 0.0 0.0 0.0 0.0 0.0 0.0
0.0 0.0 0.0 0.0 0.0 0.0 0.0 0.0
0.0 0.0 0.0 0.0 0.0 0.0 0.0 0.0
0.0 0.0 0.0 0.0 0.0 0.0 0.0 0.0
0.0 0.0 0.0 0.0 0.0 0.0 0.0 0.0
0.0 0.0 0.0 0.0 0.0 0.0 0.0 0.0
0.0 0.0 0.0 0.0 0.0 0.0 0.0 0.0
0.0 0.0 0.0 0.0 0.0 0.0 0.0 0.0
0.0 0.0 0.0 0.0 0.0 0.0 0.0 0.0
0.0 0.0 0.0 0.0 0.0 0.0 0.0 0.0
0.0 0.0 0.0 0.0 0.0 0.0 0.0 0.0
0.0 0.0 0.0 0.0 0.0 0.0 0.0 0.0
0.0 0.0 0.0 0.0 0.0 0.0 0.0 0.0
0.0 0.0 0.0 0.0 0.0 0.0 0.0 0.0

network_body._body_endoder.seq_layers.2.weight f4 [128, 128]
00000000: 9757 ecbc 3a51 003e 611b 773d 8b23 1ebc
00000010: 9653 5a3b d2ea c83d c3c3 be3d c40c a6bd
00000020: 441b 43be 8e43 96bb 74f6 973c cdc9 8cbd
00000030: ed0b 6d3e ebcd aabb bb61 633c e0a3 f8bd
00000040: ec7e 77bd e9b4 983d c5c8 d3bc e56d 713e
00000050: a64f 5fbd 1365 e43d 689e a9bc 0d66 0bbe
00000060: bd2c b23d ccfe 973d 4dfe bf3d 7dc8 8f3d
00000070: 6c09 d63c 969e 013e a7fe 593c 6e11 4c3c
00000080: a21b 21bd a18f a93d eb4a 363c 2fe7 16be
00000090: 54f1 93bc 3d5b 943d deed 2c3d 48e5 27be
000000a0: 159c 6c3d 9e38 10bd ebbd 16be 94b4 f43c
000000b0: 04d4 6d3d fec0 8b3c 4212 183c d947 9b3d
000000c0: 76bb 52bc 337e 4fbb 057c b9bc 337d c33d
000000d0: 6e00 2d3e ac22 ff3d 3db3 2fbd 1079 e8bd
000000e0: 923c cdbd ae43 3c3d a7d8 25be 9e00 a23d
000000f0: a2d3 c2bc d08f 083e 4850 6bbc 2914 9b3c
00000100: 17e5 22bc befb f1bb c2ea 6cbe 8614 c83d
00000110: 7341 da3d c18e 853d 56ef 073e 76de 563c
00000120: 675a d0bd c4ac 57bd fb40 443e 25de d9bc
00000130: 341c cdbd b0b5 02be 2197 0cbe 1d07 36be
00000140: 9de1 a9bd f43f 5fbd 7546 f33d cb1c 5b3e
00000150: 70e3 c23d 9219 f13d 4e0c 3b3d 7b2e 96bd
00000160: 96d6 e9bc c682 7cbb d884 1ebc d8d6 da3c
00000170: 0e20 47bd 7a00 193d 8a15 843d 976d c9bd
00000180: 475d 333c 007c fdbd 71cb b33d afc1 59bd
00000190: d06f e8bd 4f43 4ebd 18c9 073e b18c a03c
000001a0: fa80 86bd 6075 113e 5f2c aabc 5f67 b5bd
000001b0: 6b0f 213d e697 e7bc 901d 333d 9288 5b3c
000001c0: b5a5 9abd 9fe9 063d c42c a33a 6f05 f2bd
000001d0: 6ad7 273d 142b 0e3e f694 34be f4ac 873d
000001e0: d8eb 8e3d 02d5 e6bd 10c1 ce3d 71ac 8e3c
000001f0: 7447 1c3d 03a8 a5bd 267d a2bd 0ea0 5cbd
00000200: eb84 23bd dccb 0b3e 4e4d 693b c458 b43d
00000210: 490f e33d 43d1 083e 043e f03d 85e3 31be
00000220: 021b 4e3d 119d 37bb 96c4 a6bd 96fd 2fbd
00000230: 7ce3 5d3d 66f0 383e 4859 5dbc 6e92 e53b
00000240: 4c50 bebd afaf 393e be05 40bd b89b 20bd
00000250: 9e09 13be 6b5c 853c 61f8 c2bd 756d b83b
00000260: 7951 34be e7f5 f73d b90d bb3c ab2d c3bb
00000270: 2c55 f2bc 2144 22be b09d 92bd 2a0b 983d
00000280: 3d02 7e3d 569e e13d 75c3 07be 99ab 523e
00000290: 7282 dbbc 9139 49bd acbe a33d f4c2 16be
000002a0: c49e f0bc 3912 67bd 964b b13b 60f6 0fbe
000002b0: 4d6d 873b 7611 803d 86e8 30bc 98a7 a93d
000002c0: 7ae8 a1bd 3b27 94bb 6fee 37bd 75c6 49bd
000002d0: d6fd 8cbd da45 56bd 772e b1bb 556d 7e3d
000002e0: 71a4 adbd 0833 c93c 44a3 f23c 148c b53d
000002f0: 4f94 8e3c 83c8 153d 7dde b3bc 88f5 74bd
00000300: 1dd9 0c3e 73d5 6bbd a788 69bd 4f9f 3c3e
00000310: 0fdc a33d 2ef7 aebd 491c 863c 9d00 06bc
00000320: 0d0f 0dbd 4ff4 7b3d fde4 023e 9119 a9bc
00000330: 06bd f93d 5495 64bc d377 813d 1de6 f93d
00000340: 6f01 4f3e 697d b4bd 0902 09be 0857 ae3d
00000350: 43d3 bdbd 61f9 75be 85dd 263d 2e85 073e
00000360: e337 103d 733d 143e 2e84 a83d 5ab8 bf3d
00000370: ff72 513a f82c 2f3d 351f 9ebd bceb d4bd
00000380: de3e e83c 8d51 1cbd 401e 763b 9a8f 033e
00000390: 0050 40bd fcc4 363e cf27 213d 703e b3bd
000003a0: 0feb 66bc 1672 83bd ff6f 54be 7122 93bc
000003b0: 23a1 6dbc 3b40 b53d e8f2 edbd eabb 253d
000003c0: 8a02 9d3c 3384 1abd 541f 1f3d 2910 223d
000003d0: 0529 10be cbdb a43c 8008 15bd a427 a43d
000003e0: 8b92 353d 4b5f 4bbd 37ae 94bd 73dd a4bb
000003f0: 3ce8 713d ba5a 17be f78b f73d 102d 343b
-0.02885036 0.12530985 0.060328845 -0.009652029 0.0033313981 0.098104134 0.09314682 -0.081079036
-0.1905337 -0.00458569 0.018550135 -0.06874428 0.2314908 -0.0052125356 0.013878281 -0.12140632
-0.060423777 0.07456381 -0.02585257 0.23577078 -0.054519318 0.11152091 -0.020705417 -0.13613148
0.086999394 0.074216455 0.09374676 0.07020662 0.02612754 0.12658152 0.013305343 0.012455327
-0.039332993 0.08279348 0.01112626 -0.14736627 -0.01805941 0.07243965 0.042219035 -0.16396058
0.05776604 -0.035210244 -0.14720885 0.029871263 0.058063522 0.0170598 0.009281697 0.07582063
-0.012862077 -0.0031660914 -0.022642145 0.09545364 0.16894695 0.12457785 -0.042895544 -0.11351216
-0.100213185 0.045962982 -0.16195928 0.07910274 -0.023782555 0.1333611 -0.014362402 0.018930512
-0.009942315 -0.0073847463 -0.23136428 0.097695395 0.10657015 0.06521369 0.13274893 0.013114562
-0.10173493 -0.052654997 0.19165413 -0.026595185 -0.10015145 -0.12764621 -0.13729526 -0.17776151
-0.082949854 -0.05450435 0.11878673 0.21397702 0.095160365 0.11772455 0.04566603 -0.07333084
-0.028544705 -0.0038530095 -0.009675227 0.026713774 -0.048614554 0.03735397 0.06449421 -0.09835356
0.010947532 -0.12377167 0.08779038 -0.053163227 -0.113494515 -0.05035716 0.13260305 0.019598337
-0.06567569 0.14204931 -0.02077311 -0.08857607 0.039321344 -0.028270673 0.043729365 0.01339926
-0.07551137 0.032937642 0.0012449254 -0.118174426 0.04097692 0.1388362 -0.17634949 0.06624785
0.069785774 -0.11271097 0.100954175 0.01741621 0.03815408 -0.08088686 -0.079340264 -0.053863578
-0.039921682 0.13651985 0.0035599056 0.08805993 0.110869 0.13361077 0.117305785 -0.17371948
0.050318725 -0.0028017203 -0.081429645 -0.042966448 0.054172024 0.18060455 -0.013510056 0.007005981
-0.09292659 0.18133424 -0.046880476 -0.039211005 -0.14359137 0.01627942 -0.09520031 0.0056282827
-0.17609204 0.12107449 0.022833692 -0.005956372 -0.029581629 -0.15846302 -0.07158983 0.074240044
0.062013853 0.11016528 -0.13258155 0.20573272 -0.0267956 -0.049127165 0.07995352 -0.14722806
-0.02937258 -0.056413863 0.005410622 -0.14058828 0.0041329027 0.062533304 -0.010797625 0.08283919
-0.079056695 -0.004521278 -0.044905122 -0.04926153 -0.06884353 -0.05231271 -0.0054071504 0.062115986
-0.0847863 0.024560466 0.029618867 0.088646084 0.017404703 0.036568176 -0.021956677 -0.05980447
0.13754697 -0.057576608 -0.057015087 0.18420146 0.08000957 -0.085432395 0.01637091 -0.008178857
-0.03443818 0.061512288 0.12782665 -0.020642074 0.121942565 -0.013951618 0.06321683 0.12202094
0.2021539 -0.088129826 -0.13379683 0.08512694 -0.092688106 -0.24020912 0.0407386 0.13234398
0.035209548 0.14476566 0.08228336 0.09361334 0.0007989853 0.042767495 -0.07720796 -0.10396525
0.02835029 -0.03816371 0.0037554651 0.12847748 -0.046951294 0.17848581 0.039344605 -0.087521434
-0.014094128 -0.064182445 -0.20745848 -0.017960759 -0.01450375 0.088501416 -0.11618596 0.040462412
0.01916625 -0.03772373 0.038848236 0.039566193 -0.14078148 0.020124337 -0.03638506 0.08015373
0.044329207 -0.049651425 -0.07259791 -0.0050312816 0.059059367 -0.14780703 0.12087243 0.002749268

network_body._body_endoder.seq_layers.2.bias f4 [128]
00000000: 0000 0000 0000 0000 0000 0000 0000 0000
00000010: 0000 0000 0000 0000 0000 0000 0000 0000
00000020: 0000 0000 0000 0000 0000 0000 0000 0000
00000030: 0000 0000 0000 0000 0000 0000 0000 0000
00000040: 0000 0000 0000 0000 0000 0000 0000 0000
00000050: 0000 0000 0000 0000 0000 0000 0000 0000
00000060: 0000 0000 0000 0000 0000 0000 0000 0000
00000070: 0000 0000 0000 0000 0000 0000 0000 0000
00000080: 0000 0000 0000 0000 0000 0000 0000 0000
00000090: 0000 0000 0000 0000 0000 0000 0000 0000
000000a0: 0000 0000 0000 0000 0000 0000 0000 0000
000000b0: 0000 0000 0000 0000 0000 0000 0000 0000
000000c0: 0000 0000 0000 0000 0000 0000 0000 0000
000000d0: 0000 0000 0000 0000 0000 0000 0000 0000
000000e0: 0000 0000 0000 0000 0000 0000 0000 0000
000000f0: 0000 0000 0000 0000 0000 0000 0000 0000
00000100: 0000 0000 0000 0000 0000 0000 0000 0000
00000110: 0000 0000 0000 0000 0000 0000 0000 0000
00000120: 0000 0000 0000 0000 0000 0000 0000 0000
00000130: 0000 0000 0000 0000 0000 0000 0000 0000
00000140: 0000 0000 0000 0000 0000 0000 0000 0000
00000150: 0000 0000 0000 0000 0000 0000 0000 0000
00000160: 0000 0000 0000 0000 0000 0000 0000 0000
00000170: 0000 0000 0000 0000 0000 0000 0000 0000
00000180: 0000 0000 0000 0000 0000 0000 0000 0000
00000190: 0000 0000 0000 0000 0000 0000 0000 0000
000001a0: 0000 0000 0000 0000 0000 0000 0000 0000
000001b0: 0000 0000 0000 0000 0000 0000 0000 0000
000001c0: 0000 0000 0000 0000 0000 0000 0000 0000
000001d0: 0000 0000 0000 0000 0000 0000 0000 0000
000001e0: 0000 0000 0000 0000 0000 0000 0000 0000
000001f0: 0000 0000 0000 0000 0000 0000 0000 0000
0.0 0.0 0.0 0.0 0.0 0.0 0.0 0.0
0.0 0.0 0.0 0.0 0.0 0.0 0.0 0.0
0.0 0.0 0.0 0.0 0.0 0.0 0.0 0.0
0.0 0.0 0.0 0.0 0.0 0.0 0.0 0.0
0.0 0.0 0.0 0.0 0.0 0.0 0.0 0.0
0.0 0.0 0.0 0.0 0.0 0.0 0.0 0.0
0.0 0.0 0.0 0.0 0.0 0.0 0.0 0.0
0.0 0.0 0.0 0.0 0.0 0.0 0.0 0.0
0.0 0.0 0.0 0.0 0.0 0.0 0.0 0.0
0.0 0.0 0.0 0.0 0.0 0.0 0.0 0.0
0.0 0.0 0.0 0.0 0.0 0.0 0.0 0.0
0.0 0.0 0.0 0.0 0.0 0.0 0.0 0.0
0.0 0.0 0.0 0.0 0.0 0.0 0.0 0.0
0.0 0.0 0.0 0.0 0.0 0.0 0.0 0.0
0.0 0.0 0.0 0.0 0.0 0.0 0.0 0.0
0.0 0.0 0.0 0.0 0.0 0.0 0.0 0.0

action_model._continuous_distribution.log_sigma f4 [1, 3]
00000000: 0000 0000 0000 0000 0000 0000
0.0 0.0 0.0

action_model._continuous_distribution.mu.weight f4 [3, 128]
00000000: b2cb c8bc 0eb9 c43b 93dd fd3c 7792 8e3c
00000010: ac29 003b 40fb a9bc e7b4 20bc dd4b 21bc
00000020: 5dc9 a9bb 25ab 083d 52b7 513c c5be 7bbc
00000030: 1f21 f8ba 4726 9bbc 3d07 edbc da93 fa3c
00000040: f3d7 53bb 0232 29bc e7f1 423b 1b9e 493b
00000050: e4a7 1d3a db8b 1f3c 9bec 78bc dd0d febb
00000060: d82a 97bb d079 013d 2b8c 203c 4050 43bc
00000070: dd1a f6bc 1d10 dd3c a267 e9bc 6502 d8bc
00000080: 7bb5 523c abae 313b c319 f5bb d30f 06bb
00000090: 2383 b43c d4ee 89bc 331b a93a 4dcd a43c
000000a0: 2fd5 70bb 3c05 99bc cb53 833c 21e8 bdb8
000000b0: f2fb f6bb 68b8 d4bc d08e eaba 7a2b f03b
000000c0: 87c0 f8ba fad7 813c ea67 92bc 639d eebb
000000d0: c234 763b bf44 883c 5767 40bb 0913 ae3c
000000e0: 5b8b ddbc 8d54 66bc 9bd1 1a3c d561 4c3c
000000f0: b371 7abc 6a59 0fbc 0b4e 563c 983d a8ba
00000100: 2db4 f23b 353d f43c 7f10 38bc e314 2d3d
00000110: efff a43b 0da5 02bc dfb9 1a3c 6c9a 2f3d
00000120: 377f d53c 4f01 06bd 6a15 553b d93a 41bc
00000130: 0de4 edbc e8be 1a3d 1e41 3bbc 5be4 b5bc
00000140: 874a 04bd 408b cebb ad2d 6b3c fc4b a3bc
00000150: a0b5 6bba cffd e63c 7071 903c b62a 933c
00000160: 440a 1b3d 783b 34bc 083f 173d 4be8 f63b
00000170: c378 f7ba f0f5 ecbb 3855 91bc bc33 383c
00000180: 5c43 2b3b f28b 3bbc d212 49ba 0f96 7bbc
00000190: fd53 283a 34b7 32bc d1c9 c73c 83d0 c53b
000001a0: 8672 33bd bb5e 033c 4b00 a43c ac67 8f3b
000001b0: bb16 92bc 5b62 adbc f686 943b 1764 143c
000001c0: 5f01 de39 ff32 3dbc 472e 89bb 72a3 7b3c
000001d0: edb6 9ebc 09e7 2f3c 0146 bb3c 0056 2d3b
000001e0: a5c0 9dbc 99b1 06bc f761 0c3c 550c c8bc
000001f0: 5b5f eaba e0ff 4ebc 52af 2b3b 4b0c 823c
00000200: 95b3 253c ec5e 433b 8955 a43c 82e2 02bd
00000210: c70d 403d cbb8 5b3a 6841 26ba c7d8 3cbd
00000220: 373b 41bc 282b 6ebb 5bc6 243d bca4 0e3d
00000230: 9279 1b3d c85c 873a ca1a 98bb b313 1cbd
00000240: fb78 b1bc f7e3 7bbc 23c3 64ba c6f1 0fbc
00000250: bba5 f43c 4d91 6c3b a7a7 a73c 7f3e 39bb
00000260: 9982 833c 8576 fd3b 2812 98bb e89b de3b
00000270: 8766 f73c e0b9 f43a 0774 bd3c d1b3 4cbb
00000280: 95d6 cc3c 4c4e c0bc 60c4 4fbc fd4b cd39
00000290: 9a2b 0f3c d73d 963b cd51 8fbc 4df3 72ba
000002a0: 6349 3f3c 900b 7d3a cdc8 e33b 7754 213d
000002b0: d3a3 f83c 9b1f c63c 674f 8fbb ec45 9d3c
000002c0: db4f 99bb 135e 2fbc 3dc4 d7bc fcd2 37b9
000002d0: c6bf 36bc d22c c33b 0b53 9c3b e79a 4a3c
000002e0: c83f 51bc 930f dbbc 899d 1f3c 7026 a9bb
000002f0: b016 83bc 968c 163c 087e 3dbb e3d3 b53c
00000300: f4f5 263c 37af 36bc 654d f13c 390f 973c
00000310: 0514 bcbc 87f6 0c3d 05dc 11bc d79b abbb
00000320: 6f9e 61bc c5f1 163d f87a dabc 53c4 04bc
00000330: 92fb 76bc f097 d93b 42c7 ffbc 8bf3 b0bb
00000340: efe3 3fbc 7208 d4bc 78a9 df39 480d 65bc
00000350: 20d6 cc3c a3dc 8e3b 983f e7bc f8c3 683b
00000360: f741 be3c f5d0 963c c554 5d3c 2a95 adbc
00000370: 6731 b63c 9131 2638 c029 eebb 4a2f a0bc
00000380: abd6 27bb f5b7 07bc eb91 feba 3c63 933c
00000390: 9aec 1c3c 40fb 313b 5fde f3bb fd69 763a
000003a0: 93ed b8bc 6940 a9bb 7f0a 4e3c cfaa 623c
000003b0: ab30 733a 7c46 2fbc 970e 1c3b 1644 0dbc
000003c0: bc15 88bc 6bb8 53bb ff49 d63c 6709 74bc
000003d0: 2a3a 9dbb 8539 7bbc 7819 e53b 7ac1 ae3a
000003e0: 8741 6e3c 8a26 dd3b cab2 15bb 4308 dd39
000003f0: c028 d03b e3f3 953c 6fb1 1c3c 58f4 91bb
-0.024511192 0.0060035056 0.030989444 0.017403824 0.0019556088 -0.020749688 -0.0098087555 -0.009844747
-0.005181475 0.03336634 0.012800055 -0.015365307 -0.0018930769 -0.01893915 -0.028934116 0.03058808
-0.003232476 -0.010326864 0.0029746236 0.0030764404 0.00060140924 0.009737934 -0.01519313 -0.0077531175
-0.0046132617 0.03161031 0.009799044 -0.011920989 -0.030042106 0.026985222 -0.028491799 -0.02636833
0.012860651 0.0027112167 -0.0074798777 -0.002045621 0.022035187 -0.016837515 0.0012901783 0.020117426
-0.003674816 -0.018679254 0.016031167 -9.05546e-05 -0.0075373584 -0.025966838 -0.0017895345 0.0073294016
-0.0018978276 0.015850056 -0.017871816 -0.0072819456 0.0037568067 0.016634343 -0.002935847 0.021249311
-0.027043989 -0.014058244 0.009449388 0.012474497 -0.015285897 -0.008749345 0.01308013 -0.0012835739
0.0074067325 0.029814342 -0.011234402 0.042256247 0.0050353925 -0.0079739215 0.009443729 0.042871878
0.026061637 -0.03271609 0.0032513984 -0.0117938155 -0.029039407 0.03777972 -0.011429099 -0.022203615
-0.032297637 -0.006303221 0.014354152 -0.019933693 -0.0008991603 0.028197197 0.017632216 0.017964702
0.037851587 -0.011000507 0.036925346 0.0075350157 -0.0018880594 -0.0072314665 -0.01774083 0.011242803
0.0026132679 -0.01144694 -0.0007670346 -0.015355601 0.00064212066 -0.010907937 0.024388226 0.0060368194
-0.04381039 0.008018191 0.020019671 0.0043763723 -0.017833104 -0.021165064 0.00453269 0.009057066
0.0004234416 -0.011547803 -0.004186425 0.015358793 -0.019374335 0.010736235 0.022860529 0.0026448965
-0.0192569 -0.0082210535 0.0085682785 -0.024419943 -0.0017881201 -0.012634248 0.0026197028 0.015875002
0.0101136165 0.0029811217 0.020060318 -0.031954296 0.04688814 0.00083817233 -0.0006342144 -0.046105172
-0.011793903 -0.003634164 0.04022823 0.03482507 0.037957735 0.0010327334 -0.0046418654 -0.038104724
-0.021664133 -0.015374175 -0.00087265874 -0.008785671 0.029864183 0.0036097348 0.020465685 -0.002826601
0.016053485 0.007735076 -0.0046408363 0.006793488 0.030200256 0.0018671118 0.023126615 -0.0031235109
0.025004664 -0.023474835 -0.012681097 0.00039157263 0.008738423 0.0045850086 -0.01749506 -0.0009267822
0.011675212 0.0009652907 0.0069514276 0.039387193 0.030351555 0.024184993 -0.004373479 0.01919838
-0.004678709 -0.010703581 -0.02633869 -0.00017530838 -0.011154121 0.0059562707 0.0047706417 0.012366033
-0.012771554 -0.026740825 0.009742149 -0.005162053 -0.01600203 0.009188792 -0.0028914232 0.022195762
0.010190476 -0.011150173 0.02945585 0.018439876 -0.022958765 0.034414794 -0.008902554 -0.0052370834
-0.013770684 0.036851663 -0.026669964 -0.008103448 -0.0150746275 0.006640427 -0.031222943 -0.0054001263
-0.011712058 -0.025882933 0.0004266014 -0.013980217 0.025004447 0.004359798 -0.028228566 0.0035517197
0.023224814 0.018410185 0.01350898 -0.021189291 0.022240354 3.9623646e-05 -0.0072681606 -0.0195538
-0.002561013 -0.008283605 -0.0019422149 0.017991655 0.009577895 0.0027157813 -0.00744228 0.0009399949
-0.022574222 -0.005165149 0.012575745 0.013834669 0.00092769664 -0.010697957 0.0023812407 -0.00862219
-0.016611926 -0.0032305967 0.026158331 -0.01489482 -0.0047981935 -0.015333538 0.0069915615 0.0013332807
0.01454199 0.006748979 -0.0022842162 0.0004215856 0.006352514 0.01830477 0.009563788 -0.004454177

action_model._continuous_distribution.mu.bias f4 [3]
00000000: 0000 0000 0000 0000 0000 0000
0.0 0.0 0.0

network_body._body_endoder.seq_layers.0.weight f4 [128, 20]
00000000: 6274 893c 7f47 673e 7a35 81be 7085 d7bd
00000010: 3a19 1abf fc80 d9bd 8233 a83e e45f 45be
00000020: 5404 afbc 5810 593e 8ed1 333e c02d 943c
00000030: 95d7 e1be 54ac a7be ab80 14be f834 aa3e
00000040: d1f1 e4bd 0a14 29be 1d43 90bd 9378 5cbd
00000050: bca5 97be 5ab6 10be a168 96be 77ad a23e
00000060: e6e9 053e 73bc 343e 1297 c5be 5bb0 303e
00000070: b636 6ebe b843 b63d cc9d 8dbe 7354 1d3e
00000080: 09d5 eebd 2c24 d3bc c271 003e 6738 35be
00000090: e54f 1cbe b621 853e fafe d3be df72 9cbe
000000a0: 07e7 043f 36df 663e f88d e03e f94c 5dbe
000000b0: 34d8 233e 77d6 a63e 22a9 b0be e19c a7bd
000000c0: 1f9d 87be 7e2b 04be 341d c7be 2f7a e33d
000000d0: d84c 523e 05f9 6d3e 9389 a73d f353 773e
000000e0: c74d e43e f587 913e 42e7 2f3e 6451 873d
000000f0: 6eae 49be 215d fe3d 5482 243e fc19 873e
00000100: 51d2 c53e a473 a2bd 59ba fc3c a2e9 443d
00000110: edfb 273e 6e92 403e 2caf e1bd c06a 103e
00000120: e410 76be b5ba b43d bf9d 04be 897c 5a3e
00000130: 3266 ecbd a8a0 e2be 9398 0f3f 7d34 51be
00000140: 7a02 1abf b009 8b3e c5ac c63e 85a9 493e
00000150: 8368 613d b3db 9f3e 4968 1cbd f69c 00bf
00000160: a595 a73d 98bf 76be 7805 b5bd 8ff9 34be
00000170: 1f0b 123d 28e4 91bc 433e 94be deef b6bd
00000180: c5f1 3dbd f80e 443e 12d3 afbd a015 38be
00000190: dcb4 7fbe c3ee 8d3e b7da a83e eb2d e43e
000001a0: 6c53 c03d 109b 0bbe 4665 113e d1d4 293e
000001b0: 8b51 fbbd 6261 b6be eeee a83e d389 d8be
000001c0: 73d1 0cbd 6276 30be 1109 3cbe aa58 3dbd
000001d0: 097e 39bd 459d 6c3e 0e44 43be 773a 5536
000001e0: 518f 893e 6801 cc3d ae30 3d3f a4d0 8bbe
000001f0: 5d50 a2be 4a52 c6bd ca4a fb3d a304 90bc
00000200: ea30 0d3d 99cb cf3e 8d4b b93d 742a 39be
00000210: 5b8b 993e 2934 c9be 4a2b 993d 1aa9 08be
00000220: 286f d73e ca95 483e c705 e0bd 9791 693c
00000230: 2799 a4be c895 62bd cde3 44be 36a3 92be
00000240: 59df 863e 4051 133f 8188 f1bd 06e7 2fbe
00000250: d8a3 0ebe dad2 dcbe b72b 933e 03f9 573e
00000260: ffc8 0abe 71e0 b93d 8df3 acbe e1cd d63e
00000270: ccdd 943e 10b8 493d fa73 a03d d756 733d
00000280: 40cf 433e cf72 6d3d b639 e23d 1fae bcbe
00000290: 381d b73d e38d 4bbd f038 9e3e 3589 7d3e
000002a0: d8fa ae3e 982c 943d 61ef 72be d825 0c3e
000002b0: 6af8 203e 4324 aabe cdab 753c df7c ddbd
000002c0: 9e6f 473e c04d 5d3c 993a 863c 1cfa 15be
000002d0: 90fb 373e d73c 81be b078 4cbe b697 8dbe
000002e0: 76b8 b4bd 27f0 4f3d 00e6 41bd e72a 973e
000002f0: b8aa 9a3d a2a9 8fbe 847a 703e 1f6d ab3e
00000300: d3cd 95be e458 e5be a11d 243e cb47 03be
00000310: 37fa 5cbc 02de f1bc b409 aa3e a507 a7be
00000320: 8a41 29be a567 823d 938a d1bc 52aa 753e
00000330: 58e6 db3c 6946 6dbc 49f2 7c3e 6083 403d
00000340: 9b1b 41be f83e c53d 364b 4e3e fdd6 e439
00000350: 99af 91b9 e435 093e 576f e3bd 6a9d 87be
00000360: 38a2 173d 3257 31be c1c4 183e 5ef1 4bbe
00000370: e69e ffbc 18ce 87be 7ed3 07be c1fe 663c
00000380: 9a9d bebc 9c9c 14be 869d 21be d342 bbbd
00000390: fc34 9cbd 514b 663e 46f5 0c3e 22ac 223e
000003a0: 09d4 8ebe 893c a1bc 0304 c53d 8b23 b2be
000003b0: 06d6 c53e 5f05 103e ee73 513d eb0a 11be
000003c0: efe5 cdbe 3dcc 1bbe 000c d83d ae7c f0be
000003d0: 7922 2e3e a8e7 063e ce90 4bbd 15a6 a13d
000003e0: 597f 143e 2cb8 7a3d cc7f 8bbe 456e ea3b
000003f0: 6581 a83e 8e9a 053d e8e4 a1be 6373 70be
0.016779128 0.22585867 -0.25236112 -0.10523498 -0.6019474 -0.10620305 0.32851797 -0.1927486
-0.021364368 0.21197641 0.17560408 0.018088222 -0.4410979 -0.32748663 -0.14502208 0.33243537
-0.11178935 -0.1651155 -0.07044051 -0.053825926 -0.29618633 -0.14132062 -0.293767 0.31772968
0.13077506 0.17650013 -0.3859182 0.17254774 -0.23263058 0.08899635 -0.27659452 0.15364246
-0.11661727 -0.025774084 0.12543395 -0.17697297 -0.15264852 0.26002282 -0.4140547 -0.3055639
0.5191502 0.22546086 0.43858314 -0.21611394 0.16000444 0.325855 -0.34504038 -0.08184219
-0.2648706 -0.12907216 -0.38889468 0.11107289 0.20537126 0.23239525 0.08180537 0.24153118
0.4459059 0.2842404 0.17178062 0.06607321 -0.19695446 0.12420107 0.16065341 0.26387012
0.3863702 -0.07932213 0.030850576 0.048074372 0.16404696 0.18805858 -0.110197395 0.14103222
-0.24029881 0.08824674 -0.129508 0.21336569 -0.1154293 -0.44263196 0.56092185 -0.20430179
-0.6016003 0.27155828 0.38803688 0.19693573 0.05503131 0.31222305 -0.03818539 -0.50239503
0.08182839 -0.24096525 -0.08838934 -0.17673324 0.035655137 -0.017808989 -0.28953752 -0.0893247
-0.046373148 0.19146335 -0.0858518 -0.17977 -0.24971336 0.27721223 0.32979366 0.44566283
0.093909115 -0.1363337 0.14198789 0.1658509 -0.122714125 -0.35621172 0.3299479 -0.42292652
-0.034379434 -0.1723266 -0.18362834 -0.046227135 -0.045286212 0.23106869 -0.1906893 3.1773504e-06
0.26867154 0.09961206 0.73902404 -0.27307618 -0.31701937 -0.09683664 0.12270124 -0.017580336
0.034470476 0.4058502 0.09047613 -0.18082601 0.29989132 -0.39297608 0.0747896 -0.13345757
0.42076993 0.1958839 -0.10938602 0.014255903 -0.32148096 -0.055318624 -0.19227524 -0.28640145
0.26342276 0.5754585 -0.11793614 -0.17177972 -0.13929689 -0.43129617 0.2874429 0.21091084
-0.13553236 0.09076012 -0.33779564 0.41953948 0.29075468 0.0492478 0.07834621 0.05940899
0.19122028 0.057970818 0.11046164 -0.36851594 0.0894112 -0.04969586 0.30902815 0.24759372
0.34175754 0.07235068 -0.23724128 0.13686311 0.15719762 -0.3323079 0.014994574 -0.10814833
0.19476172 0.013507307 0.016385363 -0.1464619 0.17967057 -0.2524173 -0.19967914 -0.2765481
-0.08824246 0.050766136 -0.047338486 0.2952492 0.07552093 -0.28059107 0.23484236 0.3348169
-0.29258594 -0.4479438 0.16026928 -0.12820356 -0.01348739 -0.029524807 0.33210528 -0.3262302
-0.16528907 0.06367425 -0.025578773 0.23990753 0.026843235 -0.014482119 0.247018 0.04700029
-0.18858187 0.09631151 0.20145878 0.00043647728 -0.00027787386 0.13399464 -0.11105221 -0.26487285
0.03701994 -0.17318419 0.14918806 -0.19916293 -0.031203698 -0.26524425 -0.13264272 0.014098824
-0.02326851 -0.14512867 -0.15782747 -0.09143605 -0.076272935 0.22489668 0.1376544 0.15885976
-0.27896145 -0.019682186 0.09619906 -0.34792742 0.3863985 0.14064549 0.05113595 -0.14164321
-0.40214488 -0.1521463 0.10549164 -0.46970123 0.17005338 0.13174307 -0.049698643 0.07893006
0.14501704 0.061210796 -0.2724594 0.0071542584 0.3291122 0.032618098 -0.31619954 -0.23481517

network_body._body_endoder.seq_layers.0.bias f4 [128]
00000000: 0000 0000 0000 0000 0000 0000 0000 0000
00000010: 0000 0000 0000 0000 0000 0000 0000 0000
00000020: 0000 0000 0000 0000 0000 0000 0000 0000
00000030: 0000 0000 0000 0000 0000 0000 0000 0000
00000040: 0000 0000 0000 0000 0000 0000 0000 0000
00000050: 0000 0000 0000 0000 0000 0000 0000 0000
00000060: 0000 0000 0000 0000 0000 0000 0000 0000
00000070: 0000 0000 0000 0000 0000 0000 0000 0000
00000080: 0000 0000 0000 0000 0000 0000 0000 0000
00000090: 0000 0000 0000 0000 0000 0000 0000 0000
000000a0: 0000 0000 0000 0000 0000 0000 0000 0000
000000b0: 0000 0000 0000 0000 0000 0000 0000 0000
000000c0: 0000 0000 0000 0000 0000 0000 0000 0000
000000d0: 0000 0000 0000 0000 0000 0000 0000 0000
000000e0: 0000 0000 0000 0000 0000 0000 0000 0000
000000f0: 0000 0000 0000 0000 0000 0000 0000 0000
00000100: 0000 0000 0000 0000 0000 0000 0000 0000
00000110: 0000 0000 0000 0000 0000 0000 0000 0000
00000120: 0000 0000 0000 0000 0000 0000 0000 0000
00000130: 0000 0000 0000 0000 0000 0000 0000 0000
00000140: 0000 0000 0000 0000 0000 0000 0000 0000
00000150: 0000 0000 0000 0000 0000 0000 0000 0000
00000160: 0000 0000 0000 0000 0000 0000 0000 0000
00000170: 0000 0000 0000 0000 0000 0000 0000 0000
00000180: 0000 0000 0000 0000 0000 0000 0000 0000
00000190: 0000 0000 0000 0000 0000 0000 0000 0000
000001a0: 0000 0000 0000 0000 0000 0000 0000 0000
000001b0: 0000 0000 0000 0000 0000 0000 0000 0000
000001c0: 0000 0000 0000 0000 0000 0000 0000 0000
000001d0: 0000 0000 0000 0000 0000 0000 0000 0000
000001e0: 0000 0000 0000 0000 0000 0000 0000 0000
000001f0: 0000 0000 0000 0000 0000 0000 0000 0000
0.0 0.0 0.0 0.0 0.0 0.0 0.0 0.0
0.0 0.0 0.0 0.0 0.0 0.0 0.0 0.0
0.0 0.0 0.0 0.0 0.0 0.0 0.0 0.0
0.0 0.0 0.0 0.0 0.0 0.0 0.0 0.0
0.0 0.0 0.0 0.0 0.0 0.0 0.0 0.0
0.0 0.0 0.0 0.0 0.0 0.0 0.0 0.0
0.0 0.0 0.0 0.0 0.0 0.0 0.0 0.0
0.0 0.0 0.0 0.0 0.0 0.0 0.0 0.0
0.0 0.0 0.0 0.0 0.0 0.0 0.0 0.0
0.0 0.0 0.0 0.0 0.0 0.0 0.0 0.0
0.0 0.0 0.0 0.0 0.0 0.0 0.0 0.0
0.0 0.0 0.0 0.0 0.0 0.0 0.0 0.0
0.0 0.0 0.0 0.0 0.0 0.0 0.0 0.0
0.0 0.0 0.0 0.0 0.0 0.0 0.0 0.0
0.0 0.0 0.0 0.0 0.0 0.0 0.0 0.0
0.0 0.0 0.0 0.0 0.0 0.0 0.0 0.0

network_body._body_endoder.seq_layers.2.weight f4 [128, 128]
00000000: bf28 813d bc1d 13bd 9ad5 71be 3ddb 53bd
00000010: 8e88 e03c 7c81 3b3b 87f5 36be f38e 10be
00000020: 20fd 0a3e cf63 afbd f7eb c13c 14f9 8ebd
00000030: 6e03 8e3b 26b5 313d c63f 783c 00cb 8b3c
00000040: 4a27 17be e724 b33d 1d6e 673d ca81 7ebd
00000050: a2fc a7bd 5b09 13bd 14f2 5d3c 6e7e 1d3d
00000060: 7a0a 8ebd 62c8 fabc dcdf e33d 6c84 a6bd
00000070: 0eee d83d f959 df3d 1032 a03a 86c2 ea3d
00000080: 1827 f0bc 91f2 2ebd d12c 253c b433 19bd
00000090: 9cb2 04bd 6101 a8bd 1d13 babd ca4e fcbc
000000a0: 4cb8 363d 2043 00be cdf2 043e db42 003e
000000b0: 0406 113c d93a 3dbc 9c46 57be 50ef e2bc
000000c0: 3e50 573d dca3 eb3d c621 05bb 9d50 0dbe
000000d0: f6b2 0c3d 8c94 f1bd 8d7a 21be 6967 f4bc
000000e0: 47b0 f03d 9985 b73d de4f 203d 4b24 33bd
000000f0: 5754 2cbb 6e07 893d 40fd 163d d477 353d
00000100: 127f d33d 5613 d23c d748 d1bd 793a 90bd
00000110: d51d 7ebd 82b4 b1bd 0f92 eebc 8a71 0ebd
00000120: e1fd f9bd 738a 05bd a964 2c3b b03f 90bc
00000130: 82c0 fabd f95a 6b3c 4cbf 813c a0c3 9ebc
00000140: c07a b53c e483 2cbd e714 8f3c b542 aabd
00000150: 805b 06be 42e3 b3bd 94c2 6b3c c5cf 53bc
00000160: b396 1dbd f6fb 8bbe 2958 c73d faf9 6c3e
00000170: 5873 ce3d f727 3d3c b136 5ebe 3b5f 013e
00000180: e563 983d 4374 16be 2b06 113c 96b3 8cbd
00000190: c121 af3d f923 13bd 2c5e e23c 48dd 2f3d
000001a0: e2fd f43d ba38 00be c121 e1bc 5873 6b3e
000001b0: c04f 9abd be72 fa3d ab50 7a3c 2058 12be
000001c0: 0402 a33a 7991 073d 1c56 bfbd 7796 61be
000001d0: dfb5 10be 3fc4 96bd 8db5 96bd 4d25 f6bd
000001e0: 1088 afbc 5a51 16bc c8df b03b 279c 0d3d
000001f0: 50bb 083d 6be2 d3bd 6c67 ecbd ce75 eebd
00000200: 299c 4cbd 08f0 a43d e7d1 1a3e 0048 053e
00000210: c39b 043c 6343 07be a95d 43be eabb a23c
00000220: 4012 0fbd 52d1 3dbd 2ca1 21bd ed42 cb3d
00000230: ea52 e6bd c9f8 d9bd 24fd 883d e4e9 5d3d
00000240: dce1 dcbd 7c22 a7bc 19a4 b1bd f7c9 7c3c
00000250: ff55 db3d 4f97 b8bd 4a3d 88bb f705 0ebd
00000260: 403c 6c3d 535e 25bd 4abb 28be bec2 dcbd
00000270: 3f3f 9abd 58af 5c3e 21bc 9f3d c9f5 283e
00000280: 22c5 91bc 952b 0ebe b288 52bd 0a39 21be
00000290: 3157 2dbd d9d6 b33d 8768 e4bd f2b8 fd3c
000002a0: 9a43 ce3d efbe 003d 2b43 8fbb 7b81 62bd
000002b0: 32ba f63d a42c 25be 2a3a a53d b143 d1bd
000002c0: 768a bebd f025 9fbc 572e 97bc 642e db3d
000002d0: d722 2a3e 4414 e8bd c6f7 dc3b cbd8 24bd
000002e0: cb33 9e3d 6c33 54bd c5ba f0bd 3ae4 da3d
000002f0: 29da 16be ab87 e5bd 137e f1bb de0e 3b3e
00000300: 7247 823b 98d5 6fbe 59ea 253d 095d 10be
00000310: f828 913d 0492 853c cdc7 053e 9237 933d
00000320: a349 cbbd 6eb0 cf3b dc4d a7bd 3079 8a3b
00000330: a211 e3bd 6c60 a23d 589d 013e afb2 55bc
00000340: 3cb3 e1bd 6ca7 213e 016f 303e 5826 23be
00000350: c5fe 603d 2094 293d b689 ad3d 1d15 893c
00000360: 89da 763d 3bf7 963d 89ef e93d b6ee 563e
00000370: 3e41 a0bd 540a 8ebd df12 353c 2f1e 6cbd
00000380: 5b3c c1bd e40a 40be b18e 1c3d fb5b 99ba
00000390: bee2 32bd a67b 1abd 9adb 963d 9622 edba
000003a0: 760a f1bd 71e3 01be a5eb 523d da7f 1cbd
000003b0: c969 8cbd 0037 e73d a1b7 073d e557 b2bc
000003c0: 225c eabc d99b 303c 2858 dcbd bd69 7bbd
000003d0: 2e89 7abd fdc8 20be 2bf9 21bd b4cd 6bbd
000003e0: caa9 873d a45c cbbc b02f a53c 28ee 033e
000003f0: 0234 07be a66c a73d f581 cdbd 7c78 63bd
0.063066 -0.03591703 -0.23616639 -0.051722754 0.027408864 0.0028611114 -0.17867099 -0.14117031
0.13573122 -0.08563959 0.023672087 -0.06981102 0.004333905 0.043385647 0.0151519235 0.017064571
-0.14761081 0.08747273 0.056501497 -0.062135495 -0.08202483 -0.035897594 0.013546485 0.03845065
-0.06935592 -0.030613128 0.11126682 -0.08130726 0.1059228 0.10905833 0.0012221951 0.11462884
-0.029315516 -0.042711798 0.010081486 -0.037402824 -0.032396898 -0.08203388 -0.09085677 -0.030799288
0.044609353 -0.12525606 0.12983246 0.12525503 0.008851532 -0.011549675 -0.21023029 -0.027702004
0.05256676 0.11505863 -0.002031432 -0.13800283 0.034350358 -0.11795911 -0.15769406 -0.029834466
0.11752372 0.089610286 0.039138667 -0.043735784 -0.0026295388 0.0669087 0.03686261 0.04430373
0.10326971 0.025643986 -0.10218971 -0.07042403 -0.06204017 -0.08677007 -0.02912238 -0.034776248
-0.12206627 -0.03260274 0.0026305115 -0.017608494 -0.12243749 0.014364951 0.015838288 -0.01938039
0.022153258 -0.04211797 0.017466022 -0.083135046 -0.13120842 -0.0878358 0.014389653 -0.012927954
-0.038473796 -0.27340668 0.09733612 0.23142233 0.10080594 0.011545173 -0.2170055 0.12633984
0.07440928 -0.14692788 0.008851568 -0.06870191 0.0855136 -0.035922978 0.027632795 0.04293564
0.11962487 -0.1252164 -0.027481915 0.22993219 -0.07534742 0.122289166 0.015278022 -0.1429143
0.0012436514 0.033097718 -0.09342596 -0.22030054 -0.14131878 -0.0736165 -0.07358847 -0.12018833
-0.021427184 -0.009174669 0.0053977706 0.034572747 0.03338176 -0.1034592 -0.11543164 -0.11643563
-0.049953613 0.08053595 0.15119134 0.13015747 0.008093777 -0.132093 -0.19078697 0.019864995
-0.034929514 -0.0463422 -0.039460346 0.099248745 -0.11246283 -0.10643155 0.06688908 0.054178134
-0.10785267 -0.020402186 -0.08673877 0.015429012 0.10709762 -0.09013235 -0.004157697 -0.034673657
0.057674646 -0.040373158 -0.16477695 -0.107793316 -0.075315945 0.21551263 0.077995546 0.1650001
-0.017794196 -0.13883813 -0.051399894 -0.15744415 -0.04231948 0.08781213 -0.111527495 0.030971978
0.10071488 0.03143209 -0.0043720207 -0.055299263 0.12047233 -0.1613031 0.080677345 -0.10217989
-0.09303753 -0.01942727 -0.018454714 0.10702208 0.16614853 -0.1133199 0.006743404 -0.040245812
0.077247225 -0.051806852 -0.117543735 0.10688062 -0.14731659 -0.11207517 -0.0073697655 0.1826739
0.003975802 -0.23421323 0.040506694 -0.1409799 0.07087892 0.016304977 0.13064499 0.071883336
-0.099261545 0.0063381707 -0.08169147 0.0042258725 -0.110873476 0.07928547 0.12657678 -0.01304309
-0.11020514 0.15786523 0.17229845 -0.15932596 0.054930467 0.04140103 0.08473532 0.0167337
0.060267005 0.07371374 0.11422641 0.20989498 -0.07824944 -0.06935564 0.0110518625 -0.057645973
-0.0943534 -0.18754154 0.03822202 -0.0011700386 -0.04367327 -0.037715577 0.073661044 -0.0018091972
-0.117695734 -0.12684418 0.05149426 -0.038207866 -0.068561144 0.11289787 0.033134107 -0.021770427
-0.028608385 0.0107793445 -0.10759002 -0.061380137 -0.06116598 -0.15701671 -0.039544266 -0.05756922
0.066241816 -0.024824448 0.02016434 0.12883818 -0.13203433 0.0817502 -0.10034553 -0.055534825

network_body._body_endoder.seq_layers.2.bias f4 [128]
00000000: 0000 0000 0000 0000 0000 0000 0000 0000
00000010: 0000 0000 0000 0000 0000 0000 0000 0000
00000020: 0000 0000 0000 0000 0000 0000 0000 0000
00000030: 0000 0000 0000 0000 0000 0000 0000 0000
00000040: 0000 0000 0000 0000 0000 0000 0000 0000
00000050: 0000 0000 0000 0000 0000 0000 0000 0000
00000060: 0000 0000 0000 0000 0000 0000 0000 0000
00000070: 0000 0000 0000 0000 0000 0000 0000 0000
00000080: 0000 0000 0000 0000 0000 0000 0000 0000
00000090: 0000 0000 0000 0000 0000 0000 0000 0000
000000a0: 0000 0000 0000 0000 0000 0000 0000 0000
000000b0: 0000 0000 0000 0000 0000 0000 0000 0000
000000c0: 0000 0000 0000 0000 0000 0000 0000 0000
000000d0: 0000 0000 0000 0000 0000 0000 0000 0000
000000e0: 0000 0000 0000 0000 0000 0000 0000 0000
000000f0: 0000 0000 0000 0000 0000 0000 0000 0000
00000100: 0000 0000 0000 0000 0000 0000 0000 0000
00000110: 0000 0000 0000 0000 0000 0000 0000 0000
00000120: 0000 0000 0000 0000 0000 0000 0000 0000
00000130: 0000 0000 0000 0000 0000 0000 0000 0000
00000140: 0000 0000 0000 0000 0000 0000 0000 0000
00000150: 0000 0000 0000 0000 0000 0000 0000 0000
00000160: 0000 0000 0000 0000 0000 0000 0000 0000
00000170: 0000 0000 0000 0000 0000 0000 0000 0000
00000180: 0000 0000 0000 0000 0000 0000 0000 0000
00000190: 0000 0000 0000 0000 0000 0000 0000 0000
000001a0: 0000 0000 0000 0000 0000 0000 0000 0000
000001b0: 0000 0000 0000 0000 0000 0000 0000 0000
000001c0: 0000 0000 0000 0000 0000 0000 0000 0000
000001d0: 0000 0000 0000 0000 0000 0000 0000 0000
000001e0: 0000 0000 0000 0000 0000 0000 0000 0000
000001f0: 0000 0000 0000 0000 0000 0000 0000 0000
0.0 0.0 0.0 0.0 0.0 0.0 0.0 0.0
0.0 0.0 0.0 0.0 0.0 0.0 0.0 0.0
0.0 0.0 0.0 0.0 0.0 0.0 0.0 0.0
0.0 0.0 0.0 0.0 0.0 0.0 0.0 0.0
0.0 0.0 0.0 0.0 0.0 0.0 0.0 0.0
0.0 0.0 0.0 0.0 0.0 0.0 0.0 0.0
0.0 0.0 0.0 0.0 0.0 0.0 0.0 0.0
0.0 0.0 0.0 0.0 0.0 0.0 0.0 0.0
0.0 0.0 0.0 0.0 0.0 0.0 0.0 0.0
0.0 0.0 0.0 0.0 0.0 0.0 0.0 0.0
0.0 0.0 0.0 0.0 0.0 0.0 0.0 0.0
0.0 0.0 0.0 0.0 0.0 0.0 0.0 0.0
0.0 0.0 0.0 0.0 0.0 0.0 0.0 0.0
0.0 0.0 0.0 0.0 0.0 0.0 0.0 0.0
0.0 0.0 0.0 0.0 0.0 0.0 0.0 0.0
0.0 0.0 0.0 0.0 0.0 0.0 0.0 0.0

value_heads.value_heads.extrinsic.weight f4 [1, 128]
00000000: 8371 bcbd 4699 b1bd 7452 4ebd 807f 55bc
00000010: 289f 7fbd 20b7 18be 28c7 15be b0b1 2d3e
00000020: 3830 943d 4060 d03d 802b 8ebb 2045 b8bb
00000030: fa9a e4bd 78c7 8cbd 84eb 42be 7466 72bd
00000040: 4a8d a4bd c8b6 f83c f416 ff3d 3c44 f53d
00000050: 4685 3dbe 1035 e1bd dcd0 a7bd 6020 3dbe
00000060: 0e6f 593e 10e4 27bd 483f 70bd ba44 543e
00000070: de08 4bbe bcb0 9e3d a262 3dbe 5840 b6bd
00000080: 2686 e2bd 8adb 443e 80ea 4bbc bedd b6bd
00000090: 8010 f7bc 409f 7e3b b0c8 173d 60b7 d8bc
000000a0: 22b9 4ebe 1417 e03d 9023 0c3d 634e 54be
000000b0: dc8e 813d 72a2 5cbe 801f 0bbd b0c1 633d
000000c0: 84d6 403e ae2f 46be 1016 483d 589c d2bc
000000d0: 20e4 c23c 1038 19be d8a2 6d3d 3cb0 b6bd
000000e0: 1fa0 27be 603f 84bb 6e8b 2e3e bda0 c8bd
000000f0: daa2 473e 8cb1 dc3d a97d 23be 4b3a 51be
00000100: c0f8 babb b0e7 9f3c 605f 4e3d 60db 163e
00000110: 0acb 8cbd 35c9 1dbe b0c2 cbbd 2a51 12be
00000120: 4082 e43c e0b6 d13c 984b 18be 7eeb 2c3e
00000130: c693 afbd 7cd9 8fbd 0a74 033e f42d 74bd
00000140: a2a4 8fbd 743d b83d 25f6 edbd 54cb 37be
00000150: 9c87 7cbd 8222 3f3e 9855 d3bc 262d 22be
00000160: 20c8 6fbc 16bf 4b3e 0133 40be 60fb 193e
00000170: c2cb d1bd 8424 04be 40e9 48bb 3e39 063e
00000180: 6843 a23c ba0f 0b3e 206b eb3d 0825 693d
00000190: bc3d ddbd ecf0 09bd 8f70 52be 585e acbd
000001a0: 5c8b e0bd 2876 943d 288b 43bd 64ba 2f3e
000001b0: 2e90 41be 356e 43be a457 79bd 44c1 d23d
000001c0: aa46 5cbe 6859 ebbc 3a80 85bd 98be 313d
000001d0: 2514 4dbe f4ef b23d 732b eabd af35 34be
000001e0: fc5a c53d 6854 b23d 0467 e1bd 280b 403e
000001f0: 47d7 4abe 98dc b53c 8015 e93b a0b6 ff3c
-0.09201338 -0.08671813 -0.050371602 -0.013030887 -0.062407643 -0.14913607 -0.14626753 0.16962314
0.072357595 0.10174608 -0.0043386817 -0.0056234747 -0.11162372 -0.06873983 -0.19035155 -0.05917974
-0.08034761 0.030360594 0.1245555 0.11975905 -0.18507871 -0.10996449 -0.08194134 -0.18469381
0.2123377 -0.04098898 -0.0586541 0.20729342 -0.19827601 0.07748553 -0.18494657 -0.08898991
-0.11060743 0.19224373 -0.012446046 -0.08929013 -0.030159235 0.0038852245 0.037056625 -0.026454628
-0.2018781 0.10941902 0.034213603 -0.20733027 0.063260764 -0.21546343 -0.033965588 0.055604637
0.18831831 -0.19354126 0.048849165 -0.025709316 0.02379042 -0.14962792 0.058016628 -0.08920333
-0.16369675 -0.004035875 0.17045376 -0.097962834 0.19495717 0.10776052 -0.15965904 -0.20432393
-0.005705923 0.019519657 0.050383925 0.14732122 -0.06874664 -0.15408786 -0.09949243 -0.14288774
0.02789414 0.025599897 -0.14872587 0.16886708 -0.085731074 -0.07023904 0.12837234 -0.059614137
-0.07013823 0.08996096 -0.11619214 -0.17948657 -0.061652765 0.18665507 -0.02579765 -0.15837535
-0.014635116 0.19897112 -0.18769456 0.15037298 -0.10243942 -0.12904555 -0.0030656606 0.13107774
0.019807532 0.13580218 0.11495042 0.05692008 -0.108027905 -0.033677027 -0.2055075 -0.08416432
-0.10964081 0.07249099 -0.04774013 0.17160946 -0.18902656 -0.1908501 -0.060874596 0.10290769
-0.21511331 -0.028729156 -0.06518598 0.043394655 -0.20027216 0.08737174 -0.114340685 -0.17598604
0.096364945 0.087075055 -0.11005977 0.18754256 -0.19808684 0.022199914 0.0071131587 0.031215012
