results/agentTarget02/AgentTarget/AgentTarget-3072.pt (torch, 164111 bytes, 12 tensors)

network_body._body_endoder.seq_layers.0.weight f4 [128, 20]
-0.13578585 -0.041624896 0.23327914 -0.06094105 -0.48783755 -0.21375708 -0.016600981 0.2840983
0.17644447 0.11199131 0.2717568 0.14117782 -0.1500695 0.4535005 0.09928989 0.103051454
-0.4470412 0.21728384 0.07321472 0.50429475 0.32103375 0.06525779 -0.12351526 0.075119115
0.043132022 -0.053202104 0.04745127 -0.51748675 -0.31781602 0.12735404 -0.20148796 0.16847166
0.27593946 0.099406354 -0.36017162 0.09601849 -0.022432078 0.45788187 -0.022850558 -0.3501985
-0.0185596 -0.3636012 0.08973947 -0.029890986 -0.094863735 0.23018698 0.08672297 -0.14768396
0.3219909 -0.047135573 -0.0015087769 -0.048015095 -0.058173016 -0.2502238 -0.07956574 0.16825108
0.06470913 -0.5254139 0.12831311 -0.21376786 0.10778655 -0.13247553 0.24773254 -0.4174837
0.16645555 -0.23106939 0.2985635 0.2401758 0.026771033 -0.40524188 0.29841217 0.00883542
-0.37613896 0.17702271 -0.50821275 -0.079954885 0.27444822 -0.17281929 0.056580376 0.16921932
0.08506523 -0.19143166 0.14444591 0.21254088 -0.09941334 -0.023457495 0.2523877 -0.35328093
0.06606373 -0.08990832 -0.059594102 -0.04018143 0.032678023 -0.03651567 -0.055964507 0.38564795
-0.012209576 -0.09892737 -0.15966165 -0.1423063 -0.0041375645 -0.1879511 0.124593854 0.33308345
0.10889818 0.11861883 -0.024512507 -0.074610144 -0.09823042 -0.0054222657 0.14888686 -0.055505376
-0.02834088 -0.23364776 -0.296583 0.4988596 0.132305 -0.072167926 -0.16387665 0.048233103
0.1692852 -0.26844168 0.20849358 -0.0023482305 0.08484496 -0.0592153 0.19531497 -0.29875442
0.18162844 0.69052094 -0.1768093 -0.16534126 0.22054204 -0.000750632 -0.24470894 -0.13263881
-0.091371916 0.061567605 -0.18950008 0.53773856 -0.16995095 -0.15218295 -0.38844743 -0.11208121
0.41000736 0.042277668 0.11022592 -0.28166607 -0.2871146 -0.10222827 0.006808124 -0.21058859
-0.4130577 0.36751112 -0.035466816 -0.09756338 -0.5089798 -0.004618343 -0.06374016 0.031801574
0.13119242 -0.11389079 0.4533491 -0.09971874 -0.42080203 -0.31394854 -0.09507713 -0.082493745
0.18545374 0.17431135 -0.103323154 0.055863813 0.004242335 -0.24814309 -0.3244715 0.25981832
0.4091753 0.19979562 0.22176827 0.19660982 -0.20282519 0.2038935 -0.048519623 -0.22373597
0.17327772 -0.00026062387 -0.008654272 0.29854482 -0.09262481 0.19273953 -0.36437827 -0.0645158
0.16723436 -0.15668836 0.32924467 0.0124352705 -0.24404183 -0.1791686 -0.11566944 0.2188159
0.17018256 0.065056875 -0.042301606 -0.59462357 0.26899847 0.16066293 0.2624457 -0.28471577
0.10522494 -0.24881127 -0.09547523 0.09584423 -0.37070677 0.16805927 0.16774102 0.23719998
-0.18117979 0.018013336 0.017141428 -0.056332674 -0.029686974 0.11204334 -0.31413874 -0.037680306
-0.034553815 0.05226739 -0.16923493 -0.08202843 -0.2661953 -0.4747977 -0.07318443 0.26597723
0.07074375 -0.48945922 -0.1814007 -0.06431289 -0.48010325 -0.2198679 0.026749905 0.30983856
0.33973497 -0.06898215 0.15644121 0.06681311 0.023177363 -0.37666497 0.17411435 -0.2183681
-0.037974767 0.35489658 -0.27795658 0.3220426 0.23527226 -0.07889162 0.084898494 0.02457348
00000000: 720b 0bbe de7e 2abd bae0 6e3e 539d 79bd
00000010: d8c5 f9be 23e3 5abe c8fe 87bc 5575 913e
00000020: dcad 343e b35b e53d b523 8b3e eb90 103e
00000030: d2ab 19be 3831 e83e 7f58 cb3d a40c d33d
00000040: 96e2 e4be a87f 5e3e 99f1 953d 7619 013f
00000050: 895e a43e e0a5 853d 92f5 fcbd 0dd8 993d
00000060: 34ab 303d 73ea 59bd 435c 423d 037a 04bf
00000070: c8b8 a2be 1969 023e dc52 4ebe d683 2c3e
00000080: f047 8d3e 8f95 cb3d 6a68 b8be 58a5 c43d
00000090: 7ac3 b7bc 7e6f ea3e 1831 bbbc 384d b3be
000000a0: 4d0a 98bc f029 babe 54c9 b73d f1dd f4bc
000000b0: eb47 c2bd 23b6 6b3e d09b b13d 773a 17be
000000c0: fedb a43e 3b11 41bd 27c2 c5ba 7aab 44bd
000000d0: d446 6ebd 551d 80be 5df3 a2bd 034a 2c3e
000000e0: 3886 843d 8681 06bf 8364 033e f6e5 5abe
000000f0: 32bf dc3d aaa7 07be 99ad 7d3e 6cc0 d5be
00000100: 5373 2a3e 749d 6cbe 51dd 983e a5f0 753e
00000110: ed4e db3c dd7b cfbe 7bc9 983e 70c2 103c
00000120: 4995 c0be 7145 353e 3b1a 02bf 63bf a3bd
00000130: 7a84 8c3e 8af7 30be d3c0 673d d447 2d3e
00000140: ae36 ae3d a906 44be a1e9 133e 51a4 593e
00000150: 3999 cbbd ef29 c0bc f638 813e 3de1 b4be
00000160: 6c4c 873d da21 b8bd f218 74bd 4895 24bd
00000170: 64d9 053d 7591 15bd 0a3b 65bd a673 c53e
00000180: ac0a 48bc 6f9a cabd 587e 23be beb8 11be
00000190: 6894 87bb 4176 40be 102b ff3d ea89 aa3e
000001a0: 0206 df3d 6eee f23d 74ce c8bc 34cd 98bd
000001b0: 082d c9bd 43ad b1bb cc75 183e 9b59 63bd
000001c0: 222b e8bc 5c41 6fbe bad9 97be 876a ff3e
000001d0: f67a 073e c7cc 93bd 48cf 27be 1390 453d
000001e0: 1959 2d3e 3071 89be 577f 553e c5e4 19bb
000001f0: 32c3 ad3d be8b 72bd a600 483e 57f6 98be
00000200: cefc 393e fbc5 303f 7f0d 35be 384f 29be
00000210: c6d5 613e 10c6 44ba fb94 7abe 78d2 07be
00000220: 3321 bbbd 502e 7c3d 4f0c 42be 3ca9 093f
00000230: 9f07 2ebe d9d5 1bbe 95e2 c6be d58a e5bd
00000240: 7cec d13e 592b 2d3d 21be e13d 8936 90be
00000250: af00 93be 0e5d d1bd af16 df3b 89a4 57be
00000260: 4d7c d3be 6b2a bc3e a745 11bd 4fcf c7bd
00000270: 804c 02bf 7855 97bb 338a 82bd 5e42 023d
00000280: 4e57 063e 933f e9bd 601d e83e 5739 ccbd
00000290: 5d73 d7be ddbd a0be ccb7 c2bd 7bf2 a8bd
000002a0: 96e7 3d3e ad7e 323e 179b d3bd 74d1 643d
000002b0: 4903 8b3b 3919 7ebe 2121 a6be e806 853e
000002c0: 6d7f d13e 3997 4c3e 3917 633e 1654 493e
000002d0: 68b1 4fbe 75c9 503e 83bc 46bd 0b1b 65be
000002e0: b76f 313e 58a4 88b9 a6ca 0dbc deda 983e
000002f0: 14b2 bdbd 835d 453e ca8f babe dc20 84bd
00000300: 7c3f 2b3e ea72 20be c292 a83e 4ebd 4b3c
00000310: 1ae6 79be f977 37be 19e4 ecbd 4611 603e
00000320: 5644 2e3e 8a3c 853d 7344 2dbd 4039 18bf
00000330: 2bba 893e d384 243e 485f 863e 44c6 91be
00000340: 2c80 d73d 62c8 7ebe 8488 c3bd fb49 c43d
00000350: 47cd bdbe bb17 2c3e 4dc4 2b3e 8de4 723e
00000360: 3287 39be b490 933c 2e6c 8c3c 17bd 66bd
00000370: 1932 f3bc fb76 e53d cbd6 a0be aa56 1abd
00000380: 4d88 0dbd 5516 563d ec4b 2dbe 86fe a7bd
00000390: c04a 88be af18 f3be b8e1 95bd 2b2e 883e
000003a0: 19e2 903d 669a fabe 1bc1 39be 7ab6 83bd
000003b0: 18d0 f5be 0d25 61be 9e22 db3c 29a3 9e3e
000003c0: bef1 ad3e 8346 8dbd 2032 203e 50d5 883d
000003d0: 74de bd3c 3bda c0be 084b 323e e39b 5fbe
000003e0: 6e8b 1bbd 01b5 b53e 5350 8ebe c5e2 a43e
000003f0: 36eb 703e ee91 a1bd 43df ad3d 534e c93c

network_body._body_endoder.seq_layers.0.bias f4 [128]
0.0 0.0 0.0 0.0 0.0 0.0 0.0 0.0
0.0 0.0 0.0 0.0 0.0 0.0 0.0 0.0
0.0 0.0 0.0 0.0 0.0 0.0 0.0 0.0
0.0 0.0 0.0 0.0 0.0 0.0 0.0 0.0
0.0 0.0 0.0 0.0 0.0 0.0 0.0 0.0
0.0 0.0 0.0 0.0 0.0 0.0 0.0 0.0
0.0 0.0 0.0 0.0 0.0 0.0 0.0 0.0
0.0 0.0 0.0 0.0 0.0 0.0 0.0 0.0
0.0 0.0 0.0 0.0 0.0 0.0 0.0 0.0
0.0 0.0 0.0 0.0 0.0 0.0 0.0 0.0
0.0 0.0 0.0 0.0 0.0 0.0 0.0 0.0
0.0 0.0 0.0 0.0 0.0 0.0 0.0 0.0
0.0 0.0 0.0 0.0 0.0 0.0 0.0 0.0
0.0 0.0 0.0 0.0 0.0 0.0 0.0 0.0
0.0 0.0 0.0 0.0 0.0 0.0 0.0 0.0
0.0 0.0 0.0 0.0 0.0 0.0 0.0 0.0
00000000: 0000 0000 0000 0000 0000 0000 0000 0000
00000010: 0000 0000 0000 0000 0000 0000 0000 0000
00000020: 0000 0000 0000 0000 0000 0000 0000 0000
00000030: 0000 0000 0000 0000 0000 0000 0000 0000
00000040: 0000 0000 0000 0000 0000 0000 0000 0000
00000050: 0000 0000 0000 0000 0000 0000 0000 0000
00000060: 0000 0000 0000 0000 0000 0000 0000 0000
00000070: 0000 0000 0000 0000 0000 0000 0000 0000
00000080: 0000 0000 0000 0000 0000 0000 0000 0000
00000090: 0000 0000 0000 0000 0000 0000 0000 0000
000000a0: 0000 0000 0000 0000 0000 0000 0000 0000
000000b0: 0000 0000 0000 0000 0000 0000 0000 0000
000000c0: 0000 0000 0000 0000 0000 0000 0000 0000
000000d0: 0000 0000 0000 0000 0000 0000 0000 0000
000000e0: 0000 0000 0000 0000 0000 0000 0000 0000
000000f0: 0000 0000 0000 0000 0000 0000 0000 0000
00000100: 0000 0000 0000 0000 0000 0000 0000 0000
00000110: 0000 0000 0000 0000 0000 0000 0000 0000
00000120: 0000 0000 0000 0000 0000 0000 0000 0000
00000130: 0000 0000 0000 0000 0000 0000 0000 0000
00000140: 0000 0000 0000 0000 0000 0000 0000 0000
00000150: 0000 0000 0000 0000 0000 0000 0000 0000
00000160: 0000 0000 0000 0000 0000 0000 0000 0000
00000170: 0000 0000 0000 0000 0000 0000 0000 0000
00000180: 0000 0000 0000 0000 0000 0000 0000 0000
00000190: 0000 0000 0000 0000 0000 0000 0000 0000
000001a0: 0000 0000 0000 0000 0000 0000 0000 0000
000001b0: 0000 0000 0000 0000 0000 0000 0000 0000
000001c0: 0000 0000 0000 0000 0000 0000 0000 0000
000001d0: 0000 0000 0000 0000 0000 0000 0000 0000
000001e0: 0000 0000 0000 0000 0000 0000 0000 0000
000001f0: 0000 0000 0000 0000 0000 0000 0000 0000

network_body._body_endoder.seq_layers.2.weight f4 [128, 128]
-0.042818766 -0.034697354 0.038264927 0.021250408 0.021842424 0.06834733 0.113369994 0.07066954
-0.075171836 0.13607273 -0.082979806 -0.061642032 -0.012779654 -0.07343627 -0.071907975 0.035561614
-0.019808792 -0.02516766 0.052990925 0.20851198 -0.015356386 -0.025271779 -0.049875174 0.058679987
-0.055267956 0.2092893 -0.023523225 0.0692712 -0.05918914 -0.017096924 0.071108066 0.04050608
0.12809207 0.10128687 -0.0024321233 0.021746472 -0.08028293 -0.056149125 0.047990218 0.054750632
-0.023445826 -0.073137045 -0.13297787 0.013278395 0.004152662 -0.053346515 -0.27695546 0.019612944
-0.1463497 0.022258263 -0.14227794 -0.04064343 -0.035314623 0.06847445 -0.031590067 -0.05660811
0.02527576 0.02095755 0.010021447 0.13836162 0.12230831 -0.028772302 -0.0872519 -0.042799853
0.08179522 -0.019005096 -0.07644237 0.03579303 -0.06417453 0.054651655 0.052361425 0.10531062
-0.040880166 0.12445271 -0.062175956 -0.054136235 0.18422343 -0.071372405 0.0040472616 0.13899317
-0.07225121 -0.1333211 -0.112634435 0.0859747 0.18669762 -0.10877838 -0.11064928 -0.11568492
-0.00942972 0.10696842 -0.10917106 0.10388309 -0.06841767 -0.039599232 0.0029238525 -0.010901037
0.025757179 -0.021597082 -0.26081002 0.05678568 0.0036328482 -0.09337213 -0.0055850605 -0.050463144
0.08258321 -0.037177794 -0.06720348 -0.06340673 0.00896842 0.103571884 0.032009676 -0.16242245
0.03197883 0.093398534 0.003042211 -0.024249224 0.19253129 -0.08375969 -0.018072028 0.06914182
0.10831671 0.007261369 -0.050461393 0.0060108094 0.15794495 0.027313458 0.020600542 0.068219185
0.10369833 -0.027352747 0.12434132 0.1885972 -0.024429072 -0.07475085 -0.03681083 0.045837473
-0.058803547 -0.0978585 -0.0089768795 0.015932538 0.034561 -0.02730368 0.05386984 0.039497666
-0.03260117 0.21589454 0.034782022 -0.18853778 0.11783673 -0.1019764 -0.040385447 0.10691378
-0.037598826 0.07567017 0.01788693 -0.0135696465 0.031329058 -0.06099216 0.02616193 0.068653755
0.09896436 0.030693373 -0.105311885 -0.0005401908 0.048517853 -0.049684037 0.15997984 -0.11110314
-0.056593344 -0.012195524 0.022546219 -0.209402 -0.13660248 -0.2923618 -0.065356396 -0.04130177
-0.11119653 -0.04639408 0.011758172 -0.1289974 0.0059644952 -0.08453686 0.039843824 -0.0153494
0.016782502 0.21955332 0.1299216 0.13092951 -0.08230533 0.17003639 0.11409673 -0.0074137687
0.07418169 0.02537472 0.033888534 0.17670338 -0.051677953 0.10413755 -0.07873706 -0.070570625
-0.018062988 0.12835224 0.036655717 0.20486759 -0.009529777 -0.01837222 -0.009865979 -0.19039647
-0.11076413 0.06667027 0.01672922 -0.1194878 0.030780463 0.02011679 0.07655234 -0.03329114
-0.07275923 0.028001657 0.065010004 0.15066792 0.024608389 -0.020388378 0.049543247 -0.10434551
0.07121753 0.009492126 -0.11825409 0.02464908 -0.0128790615 -0.02354616 -0.18908344 0.035396565
0.10282125 0.030749781 -0.01935493 0.050190665 -0.016790565 -0.018996116 -0.02690125 0.07334522
0.0990738 0.07931656 0.08987489 -0.013835157 -0.0151633555 0.06066867 -0.0318864 -0.16404688
0.10034254 0.08624702 0.033956204 0.069792494 0.04379575 0.002808118 -0.20097849 0.015484416
00000000: bb62 2fbd d01e 0ebd afbb 1c3d 5615 ae3c
00000010: e2ee b23c aff9 8b3d 872e e83d 31bb 903d
00000020: b1f3 99bd a656 0b3e 51f1 a9bd 5b7c 7cbd
00000030: c161 51bc c165 96bd 7d44 93bd 0ea9 113d
00000040: 0c46 a2bc 692c cebc 030d 593d 2a84 553e
00000050: 5a99 7bbc c306 cfbc e949 4cbd 6d5a 703d
00000060: a760 62bd ef4f 563e c7b3 c0bc 0fde 8d3d
00000070: 5070 72bd d90e 8cbc 1ba1 913d b4e9 253d
00000080: 912a 033e 7e6f cf3d 4264 1fbb a825 b23c
00000090: 606b a4bd a0fc 65bd 6491 443d 3342 603d
000000a0: 7611 c0bc e0c8 95bd 5a2b 08be a08d 593c
000000b0: 0e13 883b e081 5abd 1bcd 8dbe 53ab a03c
000000c0: b2dc 15be f656 b63c 4fb1 11be ba79 26bd
000000d0: 11a6 10bd 553c 8c3d 9664 01bd e8dd 67bd
000000e0: 1c0f cf3c 2baf ab3c ff30 243c abae 0d3e
000000f0: c77c fa3d e4b3 ebbc 20b1 b2bd e64e 2fbd
00000100: 4184 a73d 93b0 9bbc d18d 9cbd b69b 123d
00000110: f06d 83bd 6ada 5f3d ef78 563d 18ad d73d
00000120: f671 27bd 10e1 fe3d 37ac 7ebd f5bd 5dbd
00000130: 11a5 3c3e b22b 92bd e49e 843b 3a54 0e3e
00000140: 71f8 93bd 5485 08be e2ac e6bd 8113 b03d
00000150: a92d 3f3e 33c7 debd 179c e2bd 37ec ecbd
00000160: 1d7f 1abc 4212 db3d 1495 dfbd a8c0 d43d
00000170: 901e 8cbd ce32 22bd 1b9e 3f3b 439a 32bc
00000180: b800 d33c 5dec b0bc e488 85be 1a98 683d
00000190: 1415 6e3b e339 bfbd e202 b7bb 71b2 4ebd
000001a0: 6321 a93d be47 18bd faa1 89bd 63db 81bd
000001b0: 48f0 123c 7f1d d43d 941c 033d 1252 26be
000001c0: 3cfc 023d bb47 bf3d d55f 473b 4fa6 c6bc
000001d0: ec26 453e 338a abbd ca0b 94bc 3a9a 8d3d
000001e0: 27d5 dd3d c7f0 ed3b 9bb0 4ebd 53f6 c43b
000001f0: 52bc 213e 79c0 df3c 78c2 a83c 80b6 8b3d
00000200: ca5f d43d de12 e0bc a9a6 fe3d a01f 413e
00000210: 7a1f c8bc f916 99bd f4c6 16bd 13c0 3b3d
00000220: fddb 70bd 0a6a c8bd c313 13bc f484 823c
00000230: d68f 0d3d f8ab dfbc 9fa6 5c3d 4ec8 213d
00000240: ce88 05bd 7513 5d3e 9877 0e3d 0c10 41be
00000250: 6254 f13d 01d9 d0bd 366b 25bd 9df5 da3d
00000260: 3a01 1abd f6f8 9a3d 9c87 923c 3953 5ebc
00000270: e652 003d ead2 79bd 8b51 d63c 579a 8c3d
00000280: d4ad ca3d ab70 fb3c c2ad d7bd 979b 0dba
00000290: a8ba 463d 7d81 4bbd c1d1 233e 0b8a e3bd
000002a0: 6cce 67bd bccf 47bc d9b2 b83c 7a6d 56be
000002b0: 85e1 0bbe 72b0 95be 93d9 85bd 0b2c 29bd
000002c0: 02bb e3bd b807 3ebd 59a5 403c e517 04be
000002d0: d071 c33b a921 adbd 4733 233d 0d7c 7bbc
000002e0: 757b 893c 96d2 603e 2b0a 053e 6312 063e
000002f0: b28f a8bd 051e 2e3e 8cab e93d 33ef f2bb
00000300: 92ec 973d a5de cf3c b4ce 0a3d bbf1 343e
00000310: 43ac 53bd 1146 d53d e540 a1bd 5587 90bd
00000320: d5f8 93bc c56e 033e 4e24 163d cfc8 513e
00000330: c822 1cbc 5781 96bc eaa4 21bc 4bf7 42be
00000340: 4ed8 e2bd 6c8a 883d b80b 893c 05b6 f4bd
00000350: 4f27 fc3c f7cb a43c 79c7 9c3d 4a5c 08bd
00000360: cb02 95bd bb63 e53c f723 853d b148 1a3e
00000370: 8897 c93c 8705 a7bc dced 4a3d 19b3 d5bd
00000380: 7fda 913d dd84 1b3c 332f f2bd deec c93c
00000390: b302 53bc e0e3 c0bc 179f 41be fdfb 103d
000003a0: f393 d23d f7e6 fb3c 3b8e 9ebc ba94 4d3d
000003b0: 5e8c 89bc be9d 9bbc 0360 dcbc 0536 963d
000003c0: 34e7 ca3d b870 a23d 5410 b83d dbac 62bc
000003d0: b96f 78bc b67f 783d 509b 02bd e8fb 27be
000003e0: 6480 cd3d 47a2 b03d a915 0b3d 5eef 8e3d
000003f0: 2c63 333d 6708 383b 4ecd 4dbe 59b2 7d3c

network_body._body_endoder.seq_layers.2.bias f4 [128]
0.0 0.0 0.0 0.0 0.0 0.0 0.0 0.0
0.0 0.0 0.0 0.0 0.0 0.0 0.0 0.0
0.0 0.0 0.0 0.0 0.0 0.0 0.0 0.0
0.0 0.0 0.0 0.0 0.0 0.0 0.0 0.0
0.0 0.0 0.0 0.0 0.0 0.0 0.0 0.0
0.0 0.0 0.0 0.0 0.0 0.0 0.0 0.0
0.0 0.0 0.0 0.0 0.0 0.0 0.0 0.0
0.0 0.0 0.0 0.0 0.0 0.0 0.0 0.0
0.0 0.0 0.0 0.0 0.0 0.0 0.0 0.0
0.0 0.0 0.0 0.0 0.0 0.0 0.0 0.0
0.0 0.0 0.0 0.0 0.0 0.0 0.0 0.0
0.0 0.0 0.0 0.0 0.0 0.0 0.0 0.0
0.0 0.0 0.0 0.0 0.0 0.0 0.0 0.0
0.0 0.0 0.0 0.0 0.0 0.0 0.0 0.0
0.0 0.0 0.0 0.0 0.0 0.0 0.0 0.0
0.0 0.0 0.0 0.0 0.0 0.0 0.0 0.0
00000000: 0000 0000 0000 0000 0000 0000 0000 0000
00000010: 0000 0000 0000 0000 0000 0000 0000 0000
00000020: 0000 0000 0000 0000 0000 0000 0000 0000
00000030: 0000 0000 0000 0000 0000 0000 0000 0000
00000040: 0000 0000 0000 0000 0000 0000 0000 0000
00000050: 0000 0000 0000 0000 0000 0000 0000 0000
00000060: 0000 0000 0000 0000 0000 0000 0000 0000
00000070: 0000 0000 0000 0000 0000 0000 0000 0000
00000080: 0000 0000 0000 0000 0000 0000 0000 0000
00000090: 0000 0000 0000 0000 0000 0000 0000 0000
000000a0: 0000 0000 0000 0000 0000 0000 0000 0000
000000b0: 0000 0000 0000 0000 0000 0000 0000 0000
000000c0: 0000 0000 0000 0000 0000 0000 0000 0000
000000d0: 0000 0000 0000 0000 0000 0000 0000 0000
000000e0: 0000 0000 0000 0000 0000 0000 0000 0000
000000f0: 0000 0000 0000 0000 0000 0000 0000 0000
00000100: 0000 0000 0000 0000 0000 0000 0000 0000
00000110: 0000 0000 0000 0000 0000 0000 0000 0000
00000120: 0000 0000 0000 0000 0000 0000 0000 0000
00000130: 0000 0000 0000 0000 0000 0000 0000 0000
00000140: 0000 0000 0000 0000 0000 0000 0000 0000
00000150: 0000 0000 0000 0000 0000 0000 0000 0000
00000160: 0000 0000 0000 0000 0000 0000 0000 0000
00000170: 0000 0000 0000 0000 0000 0000 0000 0000
00000180: 0000 0000 0000 0000 0000 0000 0000 0000
00000190: 0000 0000 0000 0000 0000 0000 0000 0000
000001a0: 0000 0000 0000 0000 0000 0000 0000 0000
000001b0: 0000 0000 0000 0000 0000 0000 0000 0000
000001c0: 0000 0000 0000 0000 0000 0000 0000 0000
000001d0: 0000 0000 0000 0000 0000 0000 0000 0000
000001e0: 0000 0000 0000 0000 0000 0000 0000 0000
000001f0: 0000 0000 0000 0000 0000 0000 0000 0000

action_model._continuous_distribution.log_sigma f4 [1, 3]
0.0 0.0 0.0
00000000: 0000 0000 0000 0000 0000 0000

action_model._continuous_distribution.mu.weight f4 [3, 128]
-0.011829716 0.0002089093 0.0144657185 0.002149794 0.016323056 6.9382e-05 -0.010431782 0.0037582833
-0.030263428 0.016690059 -0.024411751 -0.030354667 -0.0036825314 -0.019452337 -0.020828335 -0.018356988
0.0115052 0.036639806 0.016632726 -0.012052043 -0.007478026 -0.011887833 0.0065830494 -0.025834708
0.0024488948 -0.00083351455 0.020421058 0.0014728247 -0.012436435 0.008506084 0.01712048 0.0052953335
-0.025722146 0.0020760566 0.022107719 -0.011612368 -0.0069612176 0.008381962 0.012383473 0.011371445
-0.008039842 0.00019551544 -0.011864702 -0.0028253554 -0.019590959 0.010991126 -0.018305283 0.015296072
0.0043330123 -0.030572182 -0.010956334 -0.0048418096 -0.016007883 0.007865745 -0.00039533302 -0.0007840489
0.012785298 0.016029546 -0.0016086892 -0.035356134 -0.00092092104 -0.007794916 -0.02249813 0.02346471
0.016179373 0.013881226 -0.013866377 0.030035084 0.0037694739 -0.007413642 0.035937067 -0.008916211
0.0026945814 0.015859528 0.015872078 0.011767439 -0.013256447 -0.012616227 0.015372827 -0.019176595
-0.013933124 0.0020980975 -0.016680619 -0.015708698 -0.0010635683 0.0076201274 0.004798552 0.0013462886
0.0173486 -0.013723916 0.03508323 0.0022143757 -0.036641236 -0.010891326 0.0057262573 -0.00042858385
-0.024664694 -0.0010156677 0.015233879 -0.03340911 0.006924336 0.004986583 -0.010590891 -0.023161158
-0.005737519 0.028781367 0.0154809905 0.016053602 -0.009847267 -0.021061411 0.001698521 0.03026301
-0.0015455299 -0.010002727 0.021613156 0.0053025368 -0.010814244 0.02017591 -0.036896374 -0.043557193
-0.027196152 0.014936204 -0.0028899459 0.005788983 -0.0026407028 0.003533677 -0.015235511 -0.016930403
-0.01968204 -0.013913161 0.0100113945 0.006191463 -0.017836373 0.0063633374 -0.024654444 -0.04169173
-0.01802425 -0.0062401346 -0.01206915 0.012996316 -0.00042866185 -0.014598298 -0.023996886 0.0063985037
0.004816132 -0.020102432 -0.012355693 -0.010063427 -0.017071819 0.0192262 -0.004719975 -0.014817729
-0.015728163 0.002611162 -0.017047837 0.022106646 0.033544697 0.008486396 -4.3894037e-05 -0.013463879
0.034461454 -0.006465327 0.0014464947 0.015149553 -0.009302503 0.0031940702 0.0176865 0.021694718
-0.035395477 0.011775668 0.0020188836 -0.025826052 -0.0011490292 0.027032364 0.018961938 0.027162656
-0.012695198 0.0001619133 0.019364165 -0.005845546 0.001969762 -0.028792059 0.0333656 0.0028918195
0.01332957 0.0071577555 -0.009181021 -0.0059267185 -0.016356764 0.011807418 -0.007875422 0.01789851
0.002479733 -0.007835503 -0.03622353 0.0022217308 0.0012539543 0.013724278 0.010332084 -0.002513892
0.032028306 -0.02869218 -0.02165098 -0.021534896 -0.0021386333 -0.008612797 -0.016098743 0.0037794632
0.0016182952 -0.02701166 0.006261653 -0.025137583 -0.011798792 0.0078210775 0.0063556046 0.004916368
0.00965756 0.004816925 -0.014481507 -0.0328869 0.031162033 -0.021060545 -0.02649926 -0.020733409
0.0045453566 -0.0010495668 0.0119877355 -0.019041924 -0.0039305054 -0.018549018 0.0075264536 0.013678761
-0.0011743453 -0.018757166 0.005747025 0.020020721 -0.007455448 -0.021337308 0.0160451 0.025309894
0.04045726 -0.027606813 -0.012233903 -0.0025700585 -0.00747149 0.019733101 0.005213968 0.011638891
0.045627054 0.01532715 -0.0076725185 -0.013386376 -0.016248869 -0.004141412 0.0046162377 0.0053417236
00000000: 6dd1 41bc aa0e 5b39 9f01 6d3c 8fe3 0c3b
00000010: eeb7 853c 2d81 9138 11ea 2abc 884d 763b
00000020: 02eb f7bc 97b9 883c 27fb c7bc 5aaa f8bc
00000030: a056 71bb 825a 9fbc 2fa0 aabc 6561 96bc
00000040: 4e80 3c3c 9f13 163d 5b41 883c ef75 45bc
00000050: 3b0a f5bb 2fc5 42bc 9fb6 d73b 4fa3 d3bc
00000060: a37d 203b 3780 5aba 104a a73c cc0b c13a
00000070: 30c2 4bbc 1a5d 0b3c 4040 8c3c 7a84 ad3b
00000080: 40b7 d2bc 730e 083b 3f1b b53c cd41 3ebc
00000090: ed1a e4bb 7f54 093c 0de4 4a3c 4c4f 3a3c
000000a0: 8bb9 03bc 4703 4d39 2b64 42bc 9929 39bb
000000b0: 387d a0bc 2014 343c f6f4 95bc 609c 7a3c
000000c0: f1fb 8d3b 8372 fabc 3282 33bc 0ba8 9ebb
000000d0: f722 83bc 53df 003c b344 cfb9 a288 4dba
000000e0: 6d79 513c 6550 833c a7da d2ba 98d1 10bd
000000f0: f769 71ba 7f6c ffbb 004e b8bc 1039 c03c
00000100: 9b8a 843c 156e 633c cd2f 63bc 230c f63c
00000110: 4709 773b 23ee f2bb bf32 133d 4d15 12bc
00000120: 9397 303b d7eb 813c 2906 823c 37cc 403c
00000130: 9231 59bc 4bb4 4ebc 4fde 7b3c 3c18 9dbc
00000140: c247 64bc 3c80 093b cba5 88bc 87af 80bc
00000150: 6e67 8bba 43b2 f93b 2c3d 9d3b f375 b03a
00000160: a71e 8e3c 47da 60bc 6fb3 0f3d 0f1f 113b
00000170: 1f15 16bd 8871 32bc 54a3 bb3b 8db3 e0b9
00000180: 9d0d cabc 2720 85ba 8597 793c fed7 08bd
00000190: 8ae5 e23b 7d66 a33b 6b85 2dbc 78bc bdbc
000001a0: cc01 bcbb e7c6 eb3c fba3 7d3c d882 833c
000001b0: 6e56 21bc fb88 acbc e8a0 de3a 22ea f73c
000001c0: 6193 caba 7ae2 23bc 130e b13c e7c0 ad3b
000001d0: 3a2e 31bc f347 a53c a720 17bd 0769 32bd
000001e0: 77ca debc fbb6 743c 3f65 3dbb 82b1 bd3b
000001f0: a40f 2dbb 4395 673b 5d9e 79bc a1b1 8abc
00000200: 3b3c a1bc 07f4 63bc d506 243c c2e1 ca3b
00000210: 961d 92bc 8b83 d03b 1ef8 c9bc f3c4 2abd
00000220: 98a7 93bc 0b7a ccbb afbd 45bc 80ee 543c
00000230: 05be e0b9 b32d 6fbc 1e95 c4bc 8aaa d13b
00000240: a5d0 9d3b dbad a4bc 886f 4abc 12e1 24bc
00000250: 33da 8bbc 4480 9d3c 05aa 9abb 0fc6 72bc
00000260: 59d8 80bc 0720 2b3b e8a7 8bbc ff18 b53c
00000270: 2a66 093d 860a 0b3c dd1a 38b8 9a97 5cbc
00000280: 7427 0d3d 18db d3bb 4f98 bd3a d535 783c
00000290: 8769 18bc 9b53 513b 47e3 903c 1fb9 b13c
000002a0: d9fa 10bd bbee 403c 3f4f 043b 2891 d3bc
000002b0: 069b 96ba fa72 dd3c 1156 9b3c 3884 de3c
000002c0: 85ff 4fbc 45c7 2939 99a1 9e3c fe8b bfbb
000002d0: 1f17 013b 53dd ebbc 5eaa 083d ae84 3d3b
000002e0: 4564 5a3c 9b8b ea3b fe6b 16bc eb34 c2bb
000002f0: 9ffe 85bc e773 413c ea07 01bc e59f 923c
00000300: 0483 223b 7b60 00bc 205f 14bd 759a 113b
00000310: b95b a43a cbdb 603c e747 293c 1cc0 24bb
00000320: 1d30 033d dd0b ebbc 655d b1bc f369 b0bc
00000330: 5028 0cbb b01c 0dbc 83e1 83bc dfb0 773b
00000340: fa1c d43a 8f47 ddbc 8d2e cd3b 55ed cdbc
00000350: b84f 41bc fa23 003c ad42 d03b 7c19 a13b
00000360: be3a 1e3c 4cd7 9d3b d843 6dbc 6ab4 06bd
00000370: 8547 ff3c 2a87 acbc fa14 d9bc 1cd9 a9bc
00000380: 37f1 943b 9e91 89ba 3568 443c cffd 9bbc
00000390: 78cb 80bb 1cf4 97bc 78a0 f63b e21c 603c
000003a0: 7dec 99ba a1a8 99bc 8a51 bc3b 7f02 a43c
000003b0: d54c f4bb 94cb aebc 0371 833c b256 cf3c
000003c0: 83b6 253d af27 e2bc b570 48bc 6d6e 28bb
000003d0: 67d3 f4bb 50a7 a13c efd9 aa3b 0cb1 3e3c
000003e0: 6fe3 3a3d ba1e 7b3c c069 fbbb 8852 5bbc
000003f0: 591c 85bc afb4 87bb cf43 973b a009 af3b

action_model._continuous_distribution.mu.bias f4 [3]
0.0 0.0 0.0
00000000: 0000 0000 0000 0000 0000 0000

network_body._body_endoder.seq_layers.0.weight f4 [128, 20]
-0.18769284 0.11819038 0.12402671 0.070797555 -0.54749405 0.20375505 0.20959406 0.20386256
-0.377809 -0.093530625 0.20106323 0.03262357 -0.40388942 -0.16680157 0.058775183 0.0036215652
-0.21789712 0.15311728 0.105091125 0.019309847 0.0025343255 0.026960421 -0.24950884 -0.09399942
-0.3639536 -0.14100792 0.08300036 0.19974196 0.01863374 -0.26320663 -0.49202883 -0.22243328
0.05601147 -0.15457793 -0.38937354 0.022345683 0.12718514 0.05377296 0.10126181 -0.22020195
-0.4185498 -0.39666915 -0.3087453 0.28212973 -0.31031895 0.25242478 -0.05807971 0.021914732
0.11189327 0.07619048 -0.4297418 0.16757737 -0.118472755 0.42390978 0.07428092 -0.096488036
-0.27954558 0.08025237 0.1571708 0.117309846 -0.042115666 -0.38337153 0.001066365 0.22439365
0.17190008 0.10816531 -0.06394349 0.012990093 0.21005325 -0.31983736 -0.3492547 -0.17140436
0.0031211851 0.118164785 -0.24300264 -0.3520614 -0.102753915 0.3371577 0.1585885 0.34354916
-0.15038633 -0.20712845 0.11460726 -0.10466895 0.080463134 -0.54275036 0.017533524 0.07469024
-0.09327971 -0.18368635 0.05770351 -0.16026966 -0.16787098 0.013908122 0.09486882 -0.2915686
-0.09278581 0.19861324 0.13807209 0.6847052 -0.19373961 0.16126533 0.50924116 0.5521363
0.17964603 0.56009424 0.10048762 0.13606893 -0.087371774 -0.18511811 -0.22725028 -0.11575114
-0.21903734 0.12451502 -0.054489136 -0.13586527 0.26279175 -0.009739525 0.0049764593 -0.12887098
0.05158494 -0.08190502 0.12363524 0.10087698 0.0069924314 0.050543565 -0.24956957 -0.07170697
0.13942423 -0.16742787 0.5540589 -0.346953 0.087630235 0.051001314 -0.070952676 -0.08228067
-0.45464277 -0.2703299 -0.15992177 -0.078826986 0.6198927 0.463678 -0.1962961 -0.119278155
0.027759476 -0.5338131 -0.035823073 0.37281415 -0.06970532 0.10812109 0.06664971 0.2900812
-0.16332531 -0.27460307 0.038315423 -0.21227147 0.37599504 -0.06708436 0.32993835 0.4287657
0.18171327 -0.19036421 0.36715922 -0.3800862 0.22296025 0.13614444 -0.105595835 0.093160875
-0.1511988 -0.09032852 -0.0073735164 -0.1675062 0.07611816 -0.2033709 -0.66342527 0.20618844
0.22783513 -0.14366879 0.41394457 -0.042304777 0.3149168 0.11640248 -0.013072251 0.13826875
-0.28136533 0.036329042 -0.15199995 -0.37059155 -0.2119358 -0.0475668 -0.19493061 0.014714784
-0.3483825 0.012574642 -0.07875277 -0.6290675 0.299325 0.022195082 -0.22200648 0.026940828
0.12602025 -0.33840623 0.13728078 0.20091961 -0.19166565 0.20028159 0.24253085 -0.53588253
-0.026789205 0.2864703 -0.08230151 0.28666764 0.07451567 -0.08823662 0.010689086 0.1478937
0.20487343 0.29361677 -0.41556543 0.0025278346 -0.2810582 -0.0788496 0.77893126 -0.21488254
0.2633201 0.46084285 0.1514493 0.2814532 -0.1785253 -0.026413636 0.19134443 -0.06854565
0.22658001 0.018379752 -0.09710063 -0.072120115 -0.16517757 0.2832126 0.2639294 -0.11386556
-0.25766674 0.028351663 0.1444408 -0.19283773 0.106473014 0.094922364 0.049465787 -0.033605926
-0.113544956 0.25443438 -0.18526278 0.3136013 0.029718656 -0.12511419 -0.11153611 -0.113789015
00000000: 8d32 40be cc0d f23d b701 fe3d 4ffe 903d
00000010: 9228 0cbf 2aa5 503e d39f 563e 59c1 503e
00000020: 2e70 c1be fc8c bfbd 85e3 4d3e 4ba0 053d
00000030: 98ca cebe 08ce 2abe 3fbe 703d c857 6d3b
00000040: 6c20 5fbe c7ca 1c3e 043a d73d af2f 9e3c
00000050: ed16 263b 1adc dc3c 3f7f 7fbe c582 c0bd
00000060: 2058 babe 6164 10be 18fc a93d 2889 4c3e
00000070: c9a5 983c 05c3 86be 34eb fbbe 8dc5 63be
00000080: 486c 653d ad49 1ebe f85b c7be 4b0e b73c
00000090: d23c 023e 0941 5c3d 5a62 cf3d 9f7c 61be
000000a0: 294c d6be 3818 cbbe dd13 9ebe 4f73 903e
000000b0: 20e2 9ebe d23d 813e fde4 6dbd 8686 b33c
000000c0: 4c28 e53d c109 9c3d 1e07 dcbe 6799 2b3e
000000d0: d8a1 f2bd b40a d93e 9820 983d 859b c5bd
000000e0: 9920 8fbe 5b5b a43d 62f1 203e 2540 f03d
000000f0: 7a81 2cbd 4649 c4be 46c5 8b3a 73c7 653e
00000100: 9306 303e c685 dd3d cef4 82bd 66d4 543c
00000110: 3318 573e b9c1 a3be 83d1 b2be a084 2fbe
00000120: cc8c 4c3b 6100 f23d afd5 78be 6441 b4be
00000130: a570 d2bd ef9f ac3e 0665 223e ade5 af3e
00000140: e0fe 19be 7b19 54be 36b7 ea3d ad5c d6bd
00000150: dbc9 a43d b0f1 0abf 77a2 8f3c 32f7 983d
00000160: 6f09 bfbd 4618 3cbe 845a 6c3d bb1d 24be
00000170: 5fe6 2bbe e4de 633c 954a c23d 7b48 95be
00000180: 7d06 bebd 4561 4b3e c562 0d3e d748 2f3f
00000190: ad63 46be bd22 253e a15d 023f ce58 0d3f
000001a0: 21f5 373e 5662 0f3f 74cc cd3d a755 0b3e
000001b0: f9ef b2bd 9a8f 3dbe 4cb4 68be ef0e edbd
000001c0: 534b 60be bb01 ff3d 0030 5fbd 4420 0bbe
000001d0: a48c 863e 8792 1fbc 9111 a33b c1f6 03be
000001e0: bb4a 533d d2bd a7bd 7934 fd3d 9798 ce3d
000001f0: c420 e53b c506 4f3d 2a8f 7fbe 1bdb 92bd
00000200: 3ac5 0e3e 3672 2bbe ced6 0d3f d3a3 b1be
00000210: 7b77 b33d c1e6 503d a34f 91bd c582 a8bd
00000220: f0c6 e8be ae68 8abe 88c2 23be 0b70 a1bd
00000230: 4ab1 1e3f 3467 ed3e d801 49be 1b48 f4bd
00000240: d767 e33c faa7 08bf 37bb 12bd 7fe1 be3e
00000250: aac1 8ebd 976e dd3d a57f 883d 8685 943e
00000260: c03e 27be c698 8cbe a2f0 1c3d b15d 59be
00000270: 6c82 c03e 8663 89bd aeed a83e 2e87 db3e
00000280: 0b13 3a3e d6ee 42be 4bfc bb3e a99a c2be
00000290: b14f 643e 7369 0b3e a142 d8bd 21cb be3d
000002a0: dcd3 1abe 29fe b8bd 8a9d f1bb bf86 2bbe
000002b0: d6e3 9b3d 7640 50be 3dd6 29bf 1023 533e
000002c0: 9d4d 693e e91d 13be 8bf0 d33e c647 2dbd
000002d0: c63c a13e 6c64 ee3d ff2c 56bc 5396 0d3e
000002e0: 1e0f 90be c3cd 143d e0a5 1bbe 2dbe bdbe
000002f0: b305 59be 68d5 42bd e49b 47be 4716 713c
00000300: 315f b2be df05 4e3c 2249 a1bd 910a 21bf
00000310: 2041 993e 76d2 b53c ab55 63be 03b3 dc3c
00000320: 740b 013e 9543 adbe 5593 0c3e dfbd 4d3e
00000330: 0044 44be 9e16 4d3e 025a 783e 992f 09bf
00000340: 0975 dbbc 3cac 923e b28d a8bd 1ac6 923e
00000350: ac9b 983d 67b5 b4bd 4721 2f3c 7271 173e
00000360: 57ca 513e f054 963e fec4 d4be 07aa 253b
00000370: dce6 8fbe e67b a1bd 0a68 473f 2b0a 5cbe
00000380: e4d1 863e 98f3 eb3e 8615 1b3e a21a 903e
00000390: 56cf 36be 6961 d8bc cbef 433e a961 8cbd
000003a0: 9704 683e 2291 963c b2dc c6bd b6b3 93bd
000003b0: 4f24 29be 3e01 913e c121 873e 5932 e9bd
000003c0: e5ec 83be bf41 e83c 4ae8 133e 4177 45be
000003d0: 860e da3d a866 c23d a39c 4a3d 5ea6 09bd
000003e0: 428a e8bd 3945 823e 87b5 3dbe 5990 a03e
000003f0: 8a74 f33c ef1d 00be 0b6d e4bd 370a e9bd

network_body._body_endoder.seq_layers.0.bias f4 [128]
0.0 0.0 0.0 0.0 0.0 0.0 0.0 0.0
0.0 0.0 0.0 0.0 0.0 0.0 0.0 0.0
0.0 0.0 0.0 0.0 0.0 0.0 0.0 0.0
0.0 0.0 0.0 0.0 0.0 0.0 0.0 0.0
0.0 0.0 0.0 0.0 0.0 0.0 0.0 0.0
0.0 0.0 0.0 0.0 0.0 0.0 0.0 0.0
0.0 0.0 0.0 0.0 0.0 0.0 0.0 0.0
0.0 0.0 0.0 0.0 0.0 0.0 0.0 0.0
0.0 0.0 0.0 0.0 0.0 0.0 0.0 0.0
0.0 0.0 0.0 0.0 0.0 0.0 0.0 0.0
0.0 0.0 0.0 0.0 0.0 0.0 0.0 0.0
0.0 0.0 0.0 0.0 0.0 0.0 0.0 0.0
0.0 0.0 0.0 0.0 0.0 0.0 0.0 0.0
0.0 0.0 0.0 0.0 0.0 0.0 0.0 0.0
0.0 0.0 0.0 0.0 0.0 0.0 0.0 0.0
0.0 0.0 0.0 0.0 0.0 0.0 0.0 0.0
00000000: 0000 0000 0000 0000 0000 0000 0000 0000
00000010: 0000 0000 0000 0000 0000 0000 0000 0000
00000020: 0000 0000 0000 0000 0000 0000 0000 0000
00000030: 0000 0000 0000 0000 0000 0000 0000 0000
00000040: 0000 0000 0000 0000 0000 0000 0000 0000
00000050: 0000 0000 0000 0000 0000 0000 0000 0000
00000060: 0000 0000 0000 0000 0000 0000 0000 0000
00000070: 0000 0000 0000 0000 0000 0000 0000 0000
00000080: 0000 0000 0000 0000 0000 0000 0000 0000
00000090: 0000 0000 0000 0000 0000 0000 0000 0000
000000a0: 0000 0000 0000 0000 0000 0000 0000 0000
000000b0: 0000 0000 0000 0000 0000 0000 0000 0000
000000c0: 0000 0000 0000 0000 0000 0000 0000 0000
000000d0: 0000 0000 0000 0000 0000 0000 0000 0000
000000e0: 0000 0000 0000 0000 0000 0000 0000 0000
000000f0: 0000 0000 0000 0000 0000 0000 0000 0000
00000100: 0000 0000 0000 0000 0000 0000 0000 0000
00000110: 0000 0000 0000 0000 0000 0000 0000 0000
00000120: 0000 0000 0000 0000 0000 0000 0000 0000
00000130: 0000 0000 0000 0000 0000 0000 0000 0000
00000140: 0000 0000 0000 0000 0000 0000 0000 0000
00000150: 0000 0000 0000 0000 0000 0000 0000 0000
00000160: 0000 0000 0000 0000 0000 0000 0000 0000
00000170: 0000 0000 0000 0000 0000 0000 0000 0000
00000180: 0000 0000 0000 0000 0000 0000 0000 0000
00000190: 0000 0000 0000 0000 0000 0000 0000 0000
000001a0: 0000 0000 0000 0000 0000 0000 0000 0000
000001b0: 0000 0000 0000 0000 0000 0000 0000 0000
000001c0: 0000 0000 0000 0000 0000 0000 0000 0000
000001d0: 0000 0000 0000 0000 0000 0000 0000 0000
000001e0: 0000 0000 0000 0000 0000 0000 0000 0000
000001f0: 0000 0000 0000 0000 0000 0000 0000 0000

network_body._body_endoder.seq_layers.2.weight f4 [128, 128]
0.13992707 0.025585517 -0.019444406 -0.011302385 0.038193304 0.11273852 -0.14207783 -0.05543638
-0.011882725 0.13624087 0.08651299 0.16544525 -0.031067811 -0.0042054215 0.08251126 0.09097849
-0.051274 0.09319951 -0.0998663 -0.14871863 0.058713958 0.05693237 -0.0837535 0.048805043
0.13189428 0.018101908 -0.02791748 -0.042769264 -0.05539598 0.103532985 -0.07732772 -0.1784098
-0.15015414 0.0059461556 0.060727987 -0.093291186 -0.021543385 0.19147953 0.000649224 0.003135194
0.052272502 -0.11578176 -0.0120690055 -0.16379933 -0.040782735 -0.04427318 -0.0977737 0.08363681
0.04471679 0.059655543 0.014879395 0.060289744 0.111601554 -0.12193426 0.009774482 -0.1231234
0.102966666 -0.115743525 0.11227945 -0.099061824 0.04281475 0.048514303 0.039148867 0.03110413
-0.025932215 -0.053554423 -0.06662306 0.12935771 -0.039660804 0.03545194 -0.050940223 -0.09595279
0.036743023 -0.08803153 0.20571944 -0.11452039 0.0006560386 -0.13458514 0.0104968 -0.06317153
-0.014748091 -0.009709854 -0.19275469 -0.12276232 0.053666193 0.048132665 -0.14899458 0.14196888
0.05315649 0.021918412 0.029400622 0.13399337 -0.008676804 0.11879978 -0.08504077 -0.024251314
0.099033184 0.0022579215 0.08758636 0.02491503 -0.18919054 0.12791352 0.11240801 0.12639366
-0.10251657 -0.111949295 0.0748502 0.10319777 0.058606062 -0.0011337622 -0.094847605 0.022126231
-0.018465854 0.09297996 -0.06096542 -0.15667418 0.011319708 -0.0771328 -0.070070274 0.06513611
0.06628568 -0.0036652116 -0.018508244 0.078016505 -0.04109801 -0.04696347 0.02430056 0.005728639
0.057726957 -0.008154505 0.036482822 0.0389928 -0.10587126 -0.1092382 0.17951931 -0.10443099
0.08277225 0.09241458 -0.07507411 0.06577602 -0.02948004 -0.005933753 0.08566965 -0.13304907
0.14699946 -0.0033795875 -0.14000373 -0.06883998 -0.19666748 0.16555874 -0.20904158 0.0887029
-0.043916795 0.17312133 -0.055972837 0.15096337 0.09078734 0.07085926 0.232147 -0.0213282
0.06523345 0.09619772 -0.11008783 0.055518247 0.07677858 -0.023722598 0.11141211 0.13662508
0.056223053 0.05751912 -0.06815269 0.028463913 -0.019527344 -0.061690904 -0.0894645 -0.15392855
-0.0901123 -0.015778497 0.0045605944 0.07962828 0.014222729 -0.00043360688 0.08421974 -0.11091668
-0.05800208 0.11025723 -0.022976253 0.028705077 0.03978283 0.005657181 0.019730283 -0.16064394
0.1106579 0.05852651 0.020030899 -0.07186438 -0.0670515 0.11596649 0.063372135 0.012998508
0.037139315 0.064548686 0.14932792 -0.095790975 0.05005839 0.01204126 0.06794367 -0.122635834
-0.086215615 0.030365221 -0.07667168 -0.026193779 0.10065304 0.022314353 -0.08144747 0.13653144
-0.01620294 0.0066253045 0.056271415 -0.0315627 -0.012095942 0.028424751 -0.051031593 -0.075375
-0.16452481 -0.12469353 -0.032984894 0.0024839637 -0.11140631 0.004368801 -0.03602823 -0.008838355
0.16215207 0.0062499936 -0.011855378 -0.016735466 0.021893946 0.041371908 0.001844711 -0.017452551
0.06504826 -0.09779947 -0.19846807 0.10755963 0.049302466 -0.099878706 0.13207453 0.05285386
-0.044330567 0.020997299 -0.009244064 -0.10666704 0.0962161 -0.01712735 0.13568535 0.12536608
00000000: 0b49 0f3e b898 d13c e049 9fbc a32d 39bc
00000010: 9570 1c3d 74e3 e63d da7c 11be 4211 63bd
00000020: c3af 42bc ba82 0b3e b92d b13d 7b6a 293e
00000030: ec81 febc a2cd 89bb aafb a83d ee52 ba3d
00000040: b004 52bd 62df be3d b486 ccbd b249 18be
00000050: 0c7e 703d eb31 693d f486 abbd cce7 473d
00000060: 4b0f 073e 744a 943c 33b3 e4bc d32e 2fbd
00000070: e5e6 62bd 1a09 d43d ff5d 9ebd 0fb1 36be
00000080: 02c2 19be f8d7 c23b e9bd 783d 730f bfbd
00000090: c17b b0bc 3613 443e af30 2a3a d477 4d3b
000000a0: b11b 563d fd1e edbd 14bd 45bc 03bb 27be
000000b0: cc0b 27bd cb57 35bd 943d c8bd c749 ab3d
000000c0: f428 373d 5f59 743d b5c8 733c 61f2 763d
000000d0: 5b8f e43d abb8 f9bd 2625 203c 1f28 fcbd
000000e0: 30e0 d23d f10a edbd c5f2 e53d ede0 cabd
000000f0: 855e 2f3d efb6 463d 905a 203d 17ce fe3c
00000100: cc6f d4bc e25b 5bbd ac71 88bd 5976 043e
00000110: 5e73 22bd 0e36 113d b2a6 50bd e582 c4bd
00000120: da7f 163d e049 b4bd 1ea8 523e ab89 eabd
00000130: 01fa 2b3a b0d0 09be c5fa 2b3c 1360 81bd
00000140: faa1 71bc 1416 1fbc 7c61 45be d06a fbbd
00000150: 15d1 5b3d c226 453d 0992 18be 4a60 113e
00000160: 9fba 593d 3e8e b33c 93d9 f03c 8f35 093e
00000170: 2729 0ebc 4d4d f33d db29 aebd b1aa c6bc
00000180: e9d1 ca3d a3f9 133b 7a60 b33d 9b1a cc3c
00000190: 2abb 41be c3fb 023e 2c36 e63d 576d 013e
000001a0: 35f4 d1bd ac45 e5bd 104b 993d 5a59 d33d
000001b0: e90c 703d bf9a 94ba 763f c2bd 1242 b53c
000001c0: b445 97bc 476c be3d e0b6 79bd 326f 20be
000001d0: 4c76 393c cdf7 9dbd 0181 8fbd 1566 853d
000001e0: c9c0 873d 0c34 70bb 9a9e 97bc 1ec7 9f3d
000001f0: 6356 28bd c45c 40bd f811 c73c 4fb7 bb3b
00000200: 1a73 6c3d 799a 05bc 036f 153d eab6 1f3d
00000210: 08d3 d8bd 47b8 dfbd e9d3 373e eadf d5bd
00000220: 7f84 a93d db43 bd3d 74c0 99bd 94b5 863d
00000230: 2080 f1bc ee6f c2bb 9273 af3d 043e 08be
00000240: 0787 163e 127c 5dbb 235d 0fbe fafb 8cbd
00000250: 3363 49be 3b88 293e ff0e 56be dea9 b53d
00000260: 19e2 33bd b846 313e c643 65bd 2496 1a3e
00000270: b7ee b93d a91e 913d f1b7 6d3e 7ab8 aebc
00000280: 1d99 853d 4f03 c53d ba75 e1bd 1a67 633d
00000290: 173e 9d3d e555 c2bc 082c e43d 72e7 0b3e
000002a0: 254a 663d 2b99 6b3d a393 8bbd 272d e93c
000002b0: cff7 9fbc 9aaf 7cbd 2a39 b7bd 729f 1dbe
000002c0: cc8c b8bd e841 81bc 0a71 953b 2714 a33d
000002d0: 7306 693c bb55 e3b9 667b ac3d 4928 e3bd
000002e0: 9793 6dbd 8bce e13d b238 bcbc e926 eb3c
000002f0: 52f3 223d e05f b93b 67a1 a13c d87f 24be
00000300: 9ca0 e23d 7eb9 6f3d d717 a43c a22d 93bd
00000310: 4c52 89bd d77f ed3d 40c9 813d b2f7 543c
00000320: 651f 183d 1a32 843d 6be9 183e 0f2e c4bd
00000330: 070a 4d3d b448 453c 0d26 8b3d 7f28 fbbd
00000340: d091 b0bd 7cc0 f83c 0b06 9dbd 5694 d6bc
00000350: 2e23 ce3d 97cc b63c eecd a6bd e6ce 0b3e
00000360: 07bc 84bc 1519 d93b db7c 663d e447 01bd
00000370: 0f2e 46bc 06db e83c 8106 51bd 355e 9abd
00000380: 3179 28be 525f ffbd 2b1b 07bd ffc9 223b
00000390: fe28 e4bd 2928 8f3b 5692 13bd bfce 10bc
000003a0: 310b 263e bfcc cc3b 0f3d 42bc d118 89bc
000003b0: ef5a b33c 9775 293d 3bca f13a a7f8 8ebc
000003c0: 0638 853d 174b c8bd 373b 4bbe 3948 dc3d
000003d0: 62f1 493d 358d ccbd 8c3e 073e 4a7d 583d
000003e0: f893 35bd 8702 ac3c 6a74 17bc 4074 dabd
000003f0: f20c c53d a84e 8cbc 1af1 0a3e f75f 003e

network_body._body_endoder.seq_layers.2.bias f4 [128]
0.0 0.0 0.0 0.0 0.0 0.0 0.0 0.0
0.0 0.0 0.0 0.0 0.0 0.0 0.0 0.0
0.0 0.0 0.0 0.0 0.0 0.0 0.0 0.0
0.0 0.0 0.0 0.0 0.0 0.0 0.0 0.0
0.0 0.0 0.0 0.0 0.0 0.0 0.0 0.0
0.0 0.0 0.0 0.0 0.0 0.0 0.0 0.0
0.0 0.0 0.0 0.0 0.0 0.0 0.0 0.0
0.0 0.0 0.0 0.0 0.0 0.0 0.0 0.0
0.0 0.0 0.0 0.0 0.0 0.0 0.0 0.0
0.0 0.0 0.0 0.0 0.0 0.0 0.0 0.0
0.0 0.0 0.0 0.0 0.0 0.0 0.0 0.0
0.0 0.0 0.0 0.0 0.0 0.0 0.0 0.0
0.0 0.0 0.0 0.0 0.0 0.0 0.0 0.0
0.0 0.0 0.0 0.0 0.0 0.0 0.0 0.0
0.0 0.0 0.0 0.0 0.0 0.0 0.0 0.0
0.0 0.0 0.0 0.0 0.0 0.0 0.0 0.0
00000000: 0000 0000 0000 0000 0000 0000 0000 0000
00000010: 0000 0000 0000 0000 0000 0000 0000 0000
00000020: 0000 0000 0000 0000 0000 0000 0000 0000
00000030: 0000 0000 0000 0000 0000 0000 0000 0000
00000040: 0000 0000 0000 0000 0000 0000 0000 0000
00000050: 0000 0000 0000 0000 0000 0000 0000 0000
00000060: 0000 0000 0000 0000 0000 0000 0000 0000
00000070: 0000 0000 0000 0000 0000 0000 0000 0000
00000080: 0000 0000 0000 0000 0000 0000 0000 0000
00000090: 0000 0000 0000 0000 0000 0000 0000 0000
000000a0: 0000 0000 0000 0000 0000 0000 0000 0000
000000b0: 0000 0000 0000 0000 0000 0000 0000 0000
000000c0: 0000 0000 0000 0000 0000 0000 0000 0000
000000d0: 0000 0000 0000 0000 0000 0000 0000 0000
000000e0: 0000 0000 0000 0000 0000 0000 0000 0000
000000f0: 0000 0000 0000 0000 0000 0000 0000 0000
00000100: 0000 0000 0000 0000 0000 0000 0000 0000
00000110: 0000 0000 0000 0000 0000 0000 0000 0000
00000120: 0000 0000 0000 0000 0000 0000 0000 0000
00000130: 0000 0000 0000 0000 0000 0000 0000 0000
00000140: 0000 0000 0000 0000 0000 0000 0000 0000
00000150: 0000 0000 0000 0000 0000 0000 0000 0000
00000160: 0000 0000 0000 0000 0000 0000 0000 0000
00000170: 0000 0000 0000 0000 0000 0000 0000 0000
00000180: 0000 0000 0000 0000 0000 0000 0000 0000
00000190: 0000 0000 0000 0000 0000 0000 0000 0000
000001a0: 0000 0000 0000 0000 0000 0000 0000 0000
000001b0: 0000 0000 0000 0000 0000 0000 0000 0000
000001c0: 0000 0000 0000 0000 0000 0000 0000 0000
000001d0: 0000 0000 0000 0000 0000 0000 0000 0000
000001e0: 0000 0000 0000 0000 0000 0000 0000 0000
000001f0: 0000 0000 0000 0000 0000 0000 0000 0000

value_heads.value_heads.extrinsic.weight f4 [1, 128]
0.14495301 0.04094264 0.018952131 0.116108716 0.054599762 -0.10417968 0.21079352 -0.1624164
-0.06679049 -0.10044085 0.20342714 0.037908733 -0.113233946 0.16494343 0.15398851 -0.19479518
0.13776574 0.121486455 -0.011967599 -0.20442851 -0.14802867 0.1956712 -0.20476286 0.0333647
-0.0594043 -0.12714535 0.04989603 0.056935072 -0.092320375 0.032653436 0.09297845 -0.15430585
0.00029473007 -0.14727885 0.12549806 -0.19673645 0.071932524 -0.073103055 -0.085121244 0.21103302
0.14691088 -0.013776138 0.029953867 0.10359004 -0.12752771 0.168376 0.15100265 0.05006787
-0.075266674 -0.019392446 0.15774906 -0.10699838 -0.020723268 0.04471901 0.05181989 -0.12372202
0.0755249 -0.08645487 -0.13404536 -0.17447641 -0.060059324 0.04462561 0.20671356 -0.1465939
-0.025375277 0.13253173 -0.064679116 0.19879863 0.039278686 0.013427004 -0.061076283 -0.07076171
0.15993774 0.19894108 -0.045378387 -0.08310327 0.1614475 -0.13669811 -0.2117505 0.0534797
0.0152697265 0.21280837 -0.066121146 -0.10895992 0.13942033 -0.20454068 0.17778161 0.15119115
0.02540034 0.1562407 0.024018899 0.09361553 0.113957405 0.004561782 -0.0915617 -0.19163097
0.10415864 -0.10698249 -0.20765616 -0.031520262 0.15204045 0.19925392 -0.050533146 -0.014019296
0.20983559 -0.00211218 -0.046189517 0.17448884 0.081783384 -0.077629656 -0.1969103 0.07819441
-0.18820463 -0.10417246 -0.048592836 -0.21286182 0.020226076 -0.19162145 -0.14340504 -0.17895067
0.063584715 0.115596235 0.16425613 -0.14274713 0.09480405 0.08744988 0.1455152 0.10591638
00000000: 906e 143e 78b3 273d 8041 9b3c 68ca ed3d
00000010: 00a4 5f3d 285c d5bd 42da 573e 7c50 26be
00000020: 74c9 88bd efb3 cdbd 344f 503e 3046 1b3d
00000030: 33e7 e7bd eee6 283e 2aaf 1d3e 6378 47be
00000040: 7612 0d3e e4cd f83d c013 44bc b555 51be
00000050: d494 17be 085e 483e 5bad 51be 6ca9 083d
00000060: ec51 73bd 6432 02be c85f 4c3d c034 693d
00000070: 7712 bdbd 9cbf 053d 7c6b be3d 5a02 1ebe
00000080: 0086 9a39 44d0 16be 9082 003e 4875 49be
00000090: 5c51 933d 0eb7 95bd 0c54 aebd 0a19 583e
000000a0: ce6f 163e 50b5 61bc d061 f53c 0427 d43d
000000b0: a096 02be c26a 2c3e 70a0 1a3e f813 4d3d
000000c0: 6a25 9abd e8dc 9ebc f888 213e f721 dbbd
000000d0: d8c3 a9bc 482b 373d 1841 543d f861 fdbd
000000e0: ccac 9a3d 400f b1bd 3043 09be f2a9 32be
000000f0: c400 76bd 58c9 363d b8ac 533e b61c 16be
00000100: d0df cfbc 66b6 073e 7c76 84bd de91 4b3e
00000110: b0e2 203d f0fc 5b3c 202b 7abd 84eb 90bd
00000120: b8c6 233e 36b7 4b3e b0de 39bd 0c32 aabd
00000130: 7e52 253e 97fa 0bbe 20d5 58be 880d 5b3d
00000140: e02d 7a3c 70ea 593e 866a 87bd 6126 dfbd
00000150: 34c4 0e3e 1d73 51be 620c 363e dad1 1a3e
00000160: 6014 d03c 90fd 1f3e 48c3 c43c 80b9 bf3d
00000170: 8062 e93d 007b 953b b384 bbbd e93a 44be
00000180: 2051 d53d a319 dbbd d1a3 54be 641b 01bd
00000190: 7eb0 1b3e 3809 4c3e d8fb 4ebd 30b1 65bc
000001a0: 24df 563e 806c 0abb 3831 3dbd 34ad 323e
000001b0: 0c7e a73d 4cfc 9ebd dba2 49be 6424 a03d
000001c0: b7b8 40be 5f58 d5bd 4809 47bd 73f8 59be
000001d0: 28b1 a53c 6a38 44be c5d8 12be d83e 37be
000001e0: b438 823d b8bd ec3d c232 283e 4e2c 12be
000001f0: a028 c23d ec18 b33d f001 153e b0ea d83d
