results/agentTarget02/AgentTarget/AgentTarget-44193.pt (torch, 452319 bytes, 36 tensors)

network_body._body_endoder.seq_layers.0.weight f4 [128, 10]
0	0x3ecadee9	0.39623192
1	0x3e879d46	0.26487178
2	0x3d891c78	0.06694883
3	0x3e5b6718	0.21426046
4	0x3ee2447b	0.4419287
5	0x3e9f74ce	0.31143802
6	0x3e73abdc	0.23796028
7	0x3f30bfb1	0.690425
8	0xbed39402	-0.41323858
9	0xbe80827e	-0.25099558
10	0xbdc54835	-0.09632913
11	0xbea7c176	-0.32764786
12	0xbdfe2b69	-0.124106236
13	0xbd074006	-0.033020042
14	0xbdcbfcb5	-0.099603094
15	0xbd634988	-0.055490047
16	0xbf8044a3	-1.0020946
17	0x3ca5ce6b	0.02024003
18	0x3f0a5cc3	0.54047793
19	0xbe143052	-0.14471558
20	0x3e75da75	0.24009116
21	0x3e87163d	0.26384154
22	0x3ea24a73	0.31697425
23	0x3ee0e717	0.43926308
24	0xbde329c5	-0.11091951
25	0x3e50befa	0.20385352
26	0x3e807aa7	0.25093576
27	0x3e5eef97	0.21771084
28	0x3dbbfdd6	0.09179275
29	0xbd355d92	-0.04427869
30	0x3d514120	0.0510875
31	0x3cc78827	0.024356915
32	0xbde13066	-0.109955594
33	0xbf44884e	-0.76770484
34	0xbeb34d23	-0.35019788
35	0xbe02b7cb	-0.12765424
36	0x3ea42990	0.3206296
37	0xbf0562bb	-0.52103776
38	0xbd8c7805	-0.068588294
39	0xbd66f5c8	-0.05638674
40	0x3e5e713d	0.21722884
41	0x3e9b62d2	0.3034883
42	0xbeaa8001	-0.33300784
43	0x3e31df28	0.17370284
44	0x3f0ce102	0.55030835
45	0x3eeb42f3	0.45949516
46	0xbd94bf23	-0.07263019
47	0x3ed321ab	0.41236624
48	0x3e3be9d3	0.18350916
49	0x3e8f3560	0.2797041
50	0x3ea5e63e	0.32402223
51	0x3e8d40bb	0.27588448
52	0xbe5a1325	-0.21296366
53	0x3e9efd65	0.310527
54	0xbeca4a72	-0.39509922
55	0x3e4cb2d1	0.19990088
56	0x3e0aa957	0.1354116
57	0xbf2e3b29	-0.6805902
58	0xbd4017c8	-0.04689768
59	0x3f3032eb	0.68827695
60	0xbe585dc7	-0.21129523
61	0x3ea92cc5	0.3304197
62	0x3ae0eb1a	0.001715991
63	0xbf73c848	-0.9522748
64	0x3da22ad2	0.079183236
65	0x3f0e3341	0.5554696
66	0xbc603c5d	-0.013686267
67	0xbea4fbb9	-0.322233
68	0xbd558f9c	-0.05213891
69	0xbe896500	-0.2683487
70	0xbea79558	-0.32731128
71	0x3aebf2ab	0.0018001398
72	0x3e99c5ce	0.30033726
73	0x3ee16fc9	0.44030598
74	0x3e77b0aa	0.24188486
75	0xbc74b758	-0.014936291
76	0xbe3582f9	-0.17725743
77	0x3ef0b25c	0.47011077
78	0x3e8e3db5	0.27781454
79	0xbf2d6ffb	-0.67748994
80	0xbe5fa2c0	-0.21839428
81	0x3efefaa0	0.49800587
82	0xbd820203	-0.0634804
83	0x3e43c0ca	0.19116512
84	0xbeb1138c	-0.34585226
85	0x3de45186	0.11148362
86	0x3ec7e485	0.39041534
87	0x3db1357f	0.08652782
88	0xbd6ccb43	-0.057811033
89	0x3e59112c	0.21197957
90	0xbd65a8fd	-0.056069363
91	0xbe875869	-0.2643464
92	0x3ef7c8aa	0.48395282
93	0xbead6472	-0.33865696
94	0xbed3a43d	-0.4133624
95	0x3eb0d598	0.3453796
96	0x3edf3a78	0.43599296
97	0xbe3048e2	-0.17215303
98	0x3f006443	0.5015299
99	0xbe6bd8b8	-0.2303189
100	0xbc01f67c	-0.007932302
101	0x3e8d6eba	0.2762354
102	0xbeb48541	-0.35257915
103	0x3f099fa7	0.53759235
104	0x3e993c58	0.2992885
105	0xbf42e605	-0.7613223
106	0xbdfc8139	-0.12329335
107	0x3e830460	0.25589275
108	0xbea94b02	-0.3306504
109	0xbea53033	-0.32263336
110	0x3e9eddf3	0.3102871
111	0x3e5fde12	0.21862057
112	0xbe1b88ea	-0.15188947
113	0xbe480ca8	-0.19536078
114	0x3e9e6f87	0.30944464
115	0xbeb9a887	-0.3626139
116	0x3e169b83	0.1470776
117	0xbd36695e	-0.04453408
118	0x3f1a4947	0.6026806
119	0xbcd067e3	-0.025440162
120	0xbeacd0e2	-0.33753115
121	0xbea09e6b	-0.31370863
122	0x3e74dbeb	0.23912017
123	0xbe36029f	-0.17774437
124	0x3d1d00ee	0.038330965
125	0xbe69c03e	-0.22827241
126	0x3d3471b0	0.044053733
127	0x3e867ad6	0.2626559
128	0xbe2234e1	-0.15840484
129	0xbecf7cc8	-0.40524888
130	0x3e0c3c99	0.13694991
131	0xbe2c2ef3	-0.16814785
132	0x3efcca56	0.4937312
133	0xbd572419	-0.05252466
134	0x3f45407b	0.77051514
135	0xbe0b51af	-0.13605379
136	0x3eaccb0f	0.3374867
137	0x3d818870	0.063248515
138	0xbdff7ecd	-0.12475357
139	0xbacea8b6	-0.0015766833
140	0x3d9b6b63	0.07588842
141	0xbe0585d4	-0.13039333
142	0xbea93e22	-0.33055216
143	0xbe7b3725	-0.24532755
144	0x3d981b0b	0.07427033
145	0xbe633626	-0.22188625
146	0xbec85f71	-0.39135316
147	0x3ee6625e	0.44996923
148	0xbe9e7abb	-0.3095301
149	0xbd3a7656	-0.04552301
150	0xbdbcf593	-0.09226527
151	0xbe4ba762	-0.1988807
152	0xbee873eb	-0.45400938
153	0xbee06e94	-0.43834364
154	0xbe814e41	-0.25255015
155	0x3ece593f	0.40302464
156	0xbbda841c	-0.0066685807
157	0xbe2c6a56	-0.16837439
158	0xbeaaeb3d	-0.33382598
159	0x3f10fb9d	0.5663393
160	0x3e2498fe	0.16073987
161	0x3e1ecd0e	0.1550791
162	0x3e94e687	0.29082128
163	0x3f223e7c	0.63376594
164	0xbefbc857	-0.49176285
165	0xbe837c6f	-0.25680873
166	0x3e8fa937	0.28058788
167	0x3d2f8e0e	0.042860083
168	0xbe27882b	-0.16360538
169	0x3db696bf	0.08915471
170	0x3e5c0470	0.21486068
171	0xbd5473b8	-0.05186817
172	0xbc30e465	-0.010796641
173	0x3e667bd7	0.22508179
174	0xbe84b471	-0.25918916
175	0x3d66c107	0.05633643
176	0x3d93c8c8	0.0721603
177	0xbd9ce6f0	-0.07661235
178	0x3d0597ad	0.032615352
179	0x3e0c2c0c	0.13688678
180	0xbf5f95f4	-0.87338185
181	0xbd85f888	-0.06541544
182	0xbe92b5d4	-0.2865435
183	0x3db56f7b	0.08859154
184	0xbca98030	-0.020691007
185	0xbeedb3ca	-0.4642623
186	0xbe8f8374	-0.28029978
187	0xbd57f532	-0.05272407
188	0x3d0f76dc	0.035025463
189	0xbe13021d	-0.14356275
190	0x3ea12e2a	0.31480533
191	0x3e54ead7	0.2079271
192	0xbe2c2c0b	-0.16813676
193	0xbe26d081	-0.16290475
194	0xbe652cba	-0.22380343
195	0x3f0a2541	0.53963095
196	0xbdf56c5b	-0.11983558
197	0x3d17a84e	0.037025742
198	0xbdc78573	-0.0974225
199	0x3f0811cb	0.5315215
200	0x3e6e316c	0.2326104
201	0x3e7bb507	0.24580775
202	0xbd897673	-0.067120455
203	0x3eae9fe8	0.34106374
204	0x3e7f9e43	0.24962716
205	0x3e15849e	0.1460137
206	0x3d2a0254	0.041506127
207	0xbe92ed2c	-0.28696573
208	0x3cd242cc	0.025666617
209	0x3ec52c39	0.38510302
210	0x3b858fad	0.0040759654
211	0x3e7deda1	0.2479768
212	0x3e5815ff	0.21102141
213	0x3e32e355	0.17469533
214	0x3e57b154	0.21063739
215	0x3edd6435	0.43240514
216	0xbf0282db	-0.5098092
217	0x3e4ff27c	0.20307344
218	0xbe8d7fe7	-0.27636644
219	0xbe888ff9	-0.26672342
220	0xbe86a685	-0.2629892
221	0xbdfcc1b2	-0.12341632
222	0x3cfea6b7	0.031085355
223	0x3e8422e1	0.2580786
224	0x3ea72abd	0.32649794
225	0x3e58f8e1	0.2118869
226	0x3f45ddad	0.77291375
227	0xbed2a175	-0.41138807
228	0xbe484e15	-0.19561036
229	0xbd389c24	-0.045070782
230	0x3d12bb94	0.03582342
231	0xbf1c8008	-0.6113286
232	0x3f0951e8	0.53640604
233	0xbec305a3	-0.38090238
234	0x3cdf03b9	0.027223455
235	0xbdf0bb42	-0.117544666
236	0xbdc08d27	-0.09401923
237	0x3ef6d8d7	0.4821231
238	0x3d8536a3	0.06504562
239	0x3e46020f	0.19336723
240	0x3ea1cd61	0.31602004
241	0x3e701339	0.23444833
242	0x3edb1342	0.4278813
243	0xbe1fa3d8	-0.15589845
244	0xbe021b52	-0.12705734
245	0xbce2a578	-0.027666792
246	0xbed5e910	-0.41779375
247	0xbeb06bf3	-0.3445736
248	0xbef47506	-0.47745532
249	0x3d10a7af	0.035316166
250	0x3e19759a	0.14986268
251	0x3dfa2a33	0.1221508
252	0xbb0b713b	-0.0021277207
253	0xbb585d98	-0.003301477
254	0x3ebc847d	0.3681983
255	0x3f212ac0	0.62955856

network_body._body_endoder.seq_layers.0.bias f4 [128]
0	0xb8fd941e	-0.00012091569
1	0xbae5778e	-0.0017506944
2	0x3858fb0c	5.173222e-05
3	0xbb98d3a2	-0.0046639005
4	0xb950f356	-0.00019927075
5	0x36bd3e08	5.6398603e-06
6	0xb9e4fb7f	-0.00043674928
7	0xb9507dd4	-0.000198833
8	0xb9cc325f	-0.00038947441
9	0x3949d634	0.0001924865
10	0xb9b0f59e	-0.00033752335
11	0xb9aac761	-0.00032573476
12	0xb923e435	-0.00015629905
13	0xb996aa0e	-0.0002873693
14	0x3ab3d682	0.0013720545
15	0xbacf3cab	-0.0015810927
16	0x39a18ecc	0.00030814705
17	0x39c17c9d	0.00036904673
18	0x3abe44f9	0.0014516405
19	0x3a7c26af	0.00096188014
20	0x38cc3c48	9.738706e-05
21	0xb896b186	-7.185624e-05
22	0x39db3ba4	0.0004181537
23	0xb9d61949	-0.000408361
24	0xb8448860	-4.685705e-05
25	0xb923a413	-0.00015606014
26	0x389ebb55	7.5689204e-05
27	0xb8f1bf8a	-0.000115274524
28	0x39538df2	0.00020175407
29	0xb9713b67	-0.0002300568
30	0x39d848c5	0.00041252948
31	0x3a79dd3d	0.0009531563
32	0xba0707b2	-0.0005150988
33	0xb9629616	-0.00021608951
34	0xb998a3fd	-0.0002911388
35	0xba1dc090	-0.0006017769
36	0xb72139df	-9.609822e-06
37	0xba08a83f	-0.0005213059
38	0xba12093a	-0.0005570833
39	0xba7a9e3b	-0.00095603213
40	0xb9bb5c52	-0.00035736203
41	0xb908b093	-0.0001303575
42	0x3b64cd85	0.0034912538
43	0xb9abec24	-0.000327916
44	0xb884f3a5	-6.339633e-05
45	0x3af7e677	0.0018913288
46	0x3a2203ab	0.0006180356
47	0x3a58b289	0.000826635
48	0xb8e7e229	-0.00011057064
49	0xba494dfd	-0.00076791627
50	0x395377e4	0.00020167191
51	0xba2e8496	-0.000665733
52	0x37ecfbec	2.8250703e-05
53	0x3963172c	0.00021657039
54	0xb9e650e1	-0.00043929278
55	0x3a2a1a95	0.00064889464
56	0xba4dedbf	-0.00078555563
57	0xb7135ded	-8.783752e-06
58	0xb9eba5bc	-0.00044946175
59	0xb9ddb8b1	-0.0004229001
60	0x39f46a04	0.00046618294
61	0xb9b21f99	-0.00033974348
62	0xb99321f8	-0.00028063334
63	0x38b8e556	8.816521e-05
64	0x38fbb5cc	0.00012002475
65	0x39a7914b	0.00031960974
66	0x371876d8	9.0875765e-06
67	0x385e4a01	5.2997846e-05
68	0xb9d7d36a	-0.0004116551
69	0x38ffeaf5	0.00012203112
70	0xb9c36a2e	-0.00037272408
71	0x3a5deec0	0.00084660575
72	0x39d662e9	0.00040890955
73	0x3782b724	1.558249e-05
74	0xb9969c62	-0.00028726744
75	0xb8101a1e	-3.43566e-05
76	0x38a499ef	7.848802e-05
77	0xbab7e093	-0.001402872
78	0xba840a2e	-0.0010073835
79	0xb8f37a66	-0.000116099414
80	0xbb80f9d5	-0.0039360323
81	0x392f743c	0.00016732601
82	0xba1b767b	-0.0005930436
83	0xb9291b18	-0.00016127189
84	0xba92b669	-0.0011193278
85	0xbb8cb8e7	-0.004294503
86	0x3bd12798	0.006382894
87	0xbb64bff5	-0.0034904454
88	0x39a2967e	0.00031011173
89	0xb9b42f63	-0.0003436758
90	0xb6e676c0	-6.8683585e-06
91	0xbac06c10	-0.0014680643
92	0xba8914e9	-0.0010458502
93	0xba7c408e	-0.00096226565
94	0x365c7024	3.284783e-06
95	0x39e37826	0.00043386332
96	0xb97b9c5e	-0.00023995477
97	0xb9bd48d0	-0.0003610314
98	0xb89183a1	-6.9386566e-05
99	0xb93804ce	-0.00017549397
100	0xba0df68f	-0.0005415463
101	0x361ad8e8	2.3074044e-06
102	0x3963e566	0.00021733865
103	0xb93e5b42	-0.00018153808
104	0xba9c0a02	-0.0011904838
105	0xba436170	-0.0007453179
106	0xba161895	-0.0005725709
107	0x3a6c3e24	0.0009011945
108	0x3a1928c6	0.00058425625
109	0xb9f2b510	-0.0004629274
110	0xb8055de1	-3.1797103e-05
111	0x3a86cfba	0.0010285296
112	0xb9f327d7	-0.00046378255
113	0xbb59b5de	-0.0033219974
114	0xb8bb99fb	-8.945536e-05
115	0xb81f34e8	-3.7957827e-05
116	0xba1b5e45	-0.0005926828
117	0x39d93db1	0.0004143543
118	0x3a07251c	0.0005155371
119	0x38d36ff0	0.00010082114
120	0xb9841657	-0.00025193646
121	0x3a74a423	0.00093323196
122	0xb8cfb01d	-9.903333e-05
123	0xb6ed6c88	-7.075785e-06
124	0xb9ff1446	-0.00048652495
125	0x39eaca1b	0.00044782538
126	0x3b0500d9	0.0020294695
127	0xb93ff186	-0.00018305154

network_body._body_endoder.seq_layers.2.weight f4 [128, 128]
0	0x3c22bea7	0.00993315
1	0xbe070264	-0.13184506
2	0x3d1e4918	0.038643926
3	0x3da6c101	0.08142281
4	0x3c569acb	0.013098429
5	0xbcda72de	-0.026666101
6	0x3d8fb673	0.07017221
7	0x3de2d1ef	0.11075198
8	0xbdfadd43	-0.122492336
9	0xbddb0532	-0.1069435
10	0x3bdf4c92	0.006814548
11	0xbe33e001	-0.1756592
12	0xbd9345e6	-0.071910664
13	0xbdc05ce5	-0.09392718
14	0x3c5c5627	0.013448275
15	0xbd6a7519	-0.05724058
16	0xbd4a6162	-0.049409278
17	0xbdb3d3aa	-0.08780606
18	0x3e18bbc7	0.14915381
19	0x3d555576	0.052083455
20	0xbd1e970f	-0.03871828
21	0xbcc008a4	-0.02344162
22	0x3dadd975	0.08488742
23	0x3d89a6db	0.06721278
24	0xbe086da5	-0.13323076
25	0x3e664c3f	0.22490023
26	0xbbb055e2	-0.005381332
27	0x3cf1ac38	0.029501066
28	0xbd148f28	-0.036269337
29	0xbc38c752	-0.01127799
30	0x3ce83355	0.02834479
31	0xbddac7bd	-0.10682628
32	0x3ca177b9	0.019710409
33	0xbdd7c9df	-0.10536551
34	0xbcaca86f	-0.02107641
35	0xbd9faeb7	-0.07796996
36	0xbd952683	-0.07282736
37	0xb99aa11f	-0.00029493214
38	0x3d992ccb	0.07479247
39	0xbc1c6129	-0.009544649
40	0x3d426437	0.047458854
41	0x3daa72de	0.083226904
42	0xbe038f5c	-0.12847656
43	0x3e154581	0.14577295
44	0x3d9ccb99	0.07656021
45	0xbe207523	-0.15669684
46	0x3d016dff	0.03159904
47	0xbd44305d	-0.047897685
48	0xbdc6d2b7	-0.097081594
49	0x3cf625b4	0.030047275
50	0x3ca842ce	0.020539667
51	0xbd0b38f9	-0.03398988
52	0x3dc8fab1	0.098134406
53	0xbe2b839d	-0.16749425
54	0xbd12c928	-0.03583637
55	0x3e59c9a2	0.21268323
56	0xbdb3c1d5	-0.08777205
57	0x3d747724	0.059683934
58	0xbdb1356c	-0.086527675
59	0x3dd99545	0.10624174
60	0x3d8b3989	0.06798083
61	0xbcfff566	-0.031244945
62	0x3d0a9af5	0.033839185
63	0xbcac2ba9	-0.021016913
64	0xbd15278e	-0.036414675
65	0x3ca25220	0.01981455
66	0x3d8a194a	0.06743105
67	0x3d998595	0.07496182
68	0x3b539bb2	0.0032288847
69	0x3d4abda3	0.049497258
70	0xbd24934f	-0.040179547
71	0xbd6e4b31	-0.058177177
72	0x3d9b3c3c	0.07579848
73	0xbdaa8d11	-0.083276875
74	0x3dcde3bb	0.10053202
75	0xbd8bd815	-0.06828324
76	0x3b17cc19	0.0023162423
77	0xbd184239	-0.03717253
78	0x3dc431b8	0.095797956
79	0x3d7ef67e	0.062246792
80	0xbd80e004	-0.062927276
81	0x3d403d2d	0.04693334
82	0x3d8a44b9	0.06751389
83	0xbd91cf0a	-0.07119568
84	0xbcfff4cd	-0.03124466
85	0x3dc24014	0.09484878
86	0xbd1a4775	-0.037665803
87	0xbd754f4d	-0.05989008
88	0xbd923888	-0.07139689
89	0x3b189396	0.0023281327
90	0x3ccb4c5c	0.024816684
91	0xbd8290aa	-0.06375249
92	0x3d88d5a8	0.06681377
93	0xbe09fbe4	-0.13474995
94	0xbe3a13fd	-0.18171687
95	0xbd893d06	-0.067010924
96	0x3da61805	0.0811005
97	0xbe02ac74	-0.12761098
98	0x3d688367	0.05676594
99	0xbd9893c1	-0.07450057
100	0xbdcff92d	-0.101549484
101	0x3da90f2b	0.08254846
102	0x3dd40ca4	0.103539735
103	0x3e02114f	0.12701915
104	0xbc339b20	-0.010962278
105	0xbd469abb	-0.048487406
106	0x3d249f32	0.040190883
107	0x3d65133c	0.055926546
108	0x3e0cf0e5	0.13763769
109	0x3e2a560f	0.16634391
110	0x3c00597b	0.007833834
111	0x3dc58a41	0.096455105
112	0x3d73d719	0.059531305
113	0xbe0e43e8	-0.13893092
114	0xbb6ec3ef	-0.0036432703
115	0x3dd0201f	0.101623766
116	0x3dabcf9c	0.08389208
117	0xbe26b9ca	-0.1628181
118	0xbd67d4a1	-0.056599263
119	0x3e461929	0.19345535
120	0xbc833d7e	-0.016020533
121	0xbda77dd7	-0.08178299
122	0xbd8668ac	-0.06562933
123	0x3a6c20e2	0.00090075855
124	0x3e540c41	0.207078
125	0x3dd865f1	0.10566319
126	0x3d145c65	0.036220927
127	0x3c870aeb	0.016484698
128	0xbe02b820	-0.1276555
129	0x3da0e09e	0.07855342
130	0xbd316c91	-0.043316428
131	0x3d9522ce	0.07282029
132	0xbd85e376	-0.06537525
133	0xbdd5919a	-0.10428162
134	0xbb64e058	-0.0034923758
135	0xbe4bcec7	-0.19903098
136	0xbb9d8dd4	-0.004808167
137	0x3c980f10	0.01856187
138	0x3d6bc1b2	0.05755777
139	0x3e722861	0.23648216
140	0xbd6356a1	-0.055502538
141	0x3d7d9080	0.061905384
142	0xbda7d934	-0.08195725
143	0x3e5d7a2c	0.21628636
144	0x3e0ebfbd	0.1394033
145	0xbcafc653	-0.021456873
146	0xbdec6cc7	-0.11544185
147	0xbcbda886	-0.023151647
148	0xbd411c6d	-0.04714625
149	0x3e18363c	0.14864439
150	0x3d6628ba	0.056191184
151	0xbe67609a	-0.22595444
152	0xbdf851fb	-0.121250115
153	0x3d9e4a40	0.07729006
154	0xbcb2deae	-0.021834698
155	0x3d2af3b4	0.04173632
156	0x3d80a0d4	0.062806755
157	0xbd78474b	-0.060614865
158	0xbd4498d0	-0.047997296
159	0x3dd1491e	0.10219024
160	0xba400ed7	-0.000732643
161	0xbd3f6e95	-0.04673632
162	0x3ce9a1cf	0.02851954
163	0xbd638862	-0.055549987
164	0x3c10760b	0.008817206
165	0xba69dbd5	-0.0008921002
166	0x3d026510	0.031834662
167	0xbd4d6701	-0.05014706
168	0x3dca2748	0.098707736
169	0x3d6d5a85	0.057947654
170	0x3cfb9d97	0.030714793
171	0x3c81e24c	0.015854977
172	0x3db4912d	0.088167526
173	0xbddcc04b	-0.107788645
174	0xbc075008	-0.008258827
175	0x3b2553c1	0.0025226923
176	0x3ce2aa9a	0.02766924
177	0x3e25ea4d	0.1620266
178	0xbd00172b	-0.031272095
179	0x3ca78281	0.020447971
180	0xbcbc88b2	-0.0230144
181	0x3e334cd5	0.17509778
182	0x3db5589b	0.08854791
183	0x3d9e41a9	0.077273674
184	0xbdfcabd8	-0.12337464
185	0x3dca8e1c	0.098903865
186	0xbe22b846	-0.15890607
187	0x3db7c22c	0.08972582
188	0x3db239aa	0.08702405
189	0x3d0de591	0.03464276
190	0xbd888cac	-0.06667456
191	0x3d927ce6	0.07152729
192	0x3d5f5a2c	0.054529354
193	0x3e1c5c36	0.1526955
194	0xbd68e905	-0.05686285
195	0xbd7d746a	-0.0618786
196	0xbcc2853a	-0.023745168
197	0x3e38de9c	0.18053669
198	0x3de102ec	0.109868854
199	0xb919a514	-0.00014652713
200	0x3d3ceac1	0.046122316
201	0xbe12e8fa	-0.14346686
202	0xbba8726e	-0.005140594
203	0x3de438a8	0.11143619
204	0xbdd41129	-0.103548355
205	0x3dc58dbd	0.09646175
206	0xbdf06507	-0.117380194
207	0xbe3b40fb	-0.18286507
208	0xbdcab9a5	-0.0989869
209	0x3e3dd0f0	0.18536735
210	0xbd545782	-0.051841266
211	0x3d6ae86e	0.05735057
212	0x3d419852	0.047264405
213	0x3e6442c4	0.22291094
214	0xbbb038bf	-0.0053778584
215	0xbd17634a	-0.036959924
216	0xbd1ef7da	-0.03881059
217	0x39b72c8a	0.00034937664
218	0xbe03e0aa	-0.12878671
219	0xbbc5f19b	-0.0060407645
220	0xbdd7b405	-0.10532383
221	0x3c86467e	0.016391035
222	0xbd2bf633	-0.04198284
223	0xbe295eac	-0.1654002
224	0xbd12e23f	-0.035860296
225	0x3dc7f9cb	0.09764441
226	0xbd2b8d10	-0.041882575
227	0xbe179a08	-0.14804852
228	0x3d676043	0.056488287
229	0x3e0817cb	0.13290326
230	0xbdfb47b0	-0.12269533
231	0x3dcbc85b	0.09950324
232	0xbd9183b9	-0.07105202
233	0x3d93012c	0.07177958
234	0xbd4c69fc	-0.049905762
235	0xbd00cc89	-0.03144506
236	0xbe05fb7b	-0.13084213
237	0x3c0c7de7	0.008574939
238	0xbcb52a73	-0.022114968
239	0xbd0e1851	-0.03469116
240	0xb974568e	-0.00023301897
241	0xbd5db549	-0.054127965
242	0x3bf43bba	0.007453409
243	0x3d8e1d6b	0.06939205
244	0x3e1e8b30	0.15482783
245	0x3e1d3f59	0.15356196
246	0xbdaf1288	-0.085484564
247	0xbdef96ad	-0.11698661
248	0xbd514854	-0.051094368
249	0x3d613042	0.054977663
250	0x3e08513d	0.1331224
251	0x3d5bf96e	0.05370467
252	0xbc9c8f8e	-0.019111421
253	0x3ce56d9f	0.028006373
254	0x3d57bdd4	0.05267127
255	0xbe68e60d	-0.22744007

network_body._body_endoder.seq_layers.2.bias f4 [128]
0	0xb9781bf3	-0.00023661535
1	0xb99ab750	-0.00029509747
2	0x3ad0104c	0.0015873997
3	0xbb98f225	-0.0046675378
4	0x397a3b18	0.00023863872
5	0x398e18b4	0.00027102756
6	0xb9df32ab	-0.00042571625
7	0xb976357b	-0.00023480311
8	0x38dab7a8	0.00010429259
9	0xb889c405	-6.5691806e-05
10	0x398f3328	0.000273132
11	0x39af0ec3	0.000333896
12	0x38a66d90	7.9359044e-05
13	0xb9a92717	-0.00032263316
14	0x37d7db89	2.5732226e-05
15	0x38c622b9	9.447843e-05
16	0xb95daa87	-0.00021139729
17	0x3a9825f0	0.0011607986
18	0xb880d161	-6.1425155e-05
19	0xbb00fa1f	-0.0019680334
20	0x39522682	0.00020041506
21	0xb93b20d2	-0.00017845936
22	0x38e00558	0.00010682148
23	0x39f0283c	0.00045806344
24	0xba184874	-0.0005809136
25	0xba1b8337	-0.00059323333
26	0xb86f1ecc	-5.7010722e-05
27	0x3894622a	7.0754744e-05
28	0x38376c20	4.37313e-05
29	0x38537a96	5.0420487e-05
30	0xb7f6747c	-2.9379727e-05
31	0xba3528bc	-0.0006910672
32	0x3bbe54bb	0.0058084405
33	0x39d6d7c2	0.00040978013
34	0xb99d784f	-0.0003003501
35	0x381bf5ca	3.718379e-05
36	0xb98e9c4f	-0.0002720081
37	0x3af86a9a	0.0018952668
38	0xba42edb5	-0.0007435934
39	0xb8baa9ef	-8.900824e-05
40	0xb975dd57	-0.00023447476
41	0xb9496d89	-0.00019209659
42	0x3a1572cb	0.00057010044
43	0xb9db7ff2	-0.00041866262
44	0xbac400d7	-0.0014953864
45	0xba13c51a	-0.00056369754
46	0xb8874530	-6.450189e-05
47	0x39320cc4	0.00016980158
48	0x398ee2cd	0.0002725333
49	0x3845bb43	4.714286e-05
50	0xb7f58e14	-2.9272436e-05
51	0xba8bc409	-0.0010663281
52	0x3b10976d	0.0022062913
53	0xba164c30	-0.0005733399
54	0xba93638f	-0.0011244881
55	0xb89bacb8	-7.423147e-05
56	0xb9e44545	-0.0004353916
57	0xb9181a74	-0.00014505704
58	0xba46a4d4	-0.0007577662
59	0x3906b3df	0.00012846243
60	0x39a98778	0.00032335124
61	0xb9acf812	-0.00032991223
62	0x3932e385	0.0001706016
63	0xb9e3acfa	-0.00043425692
64	0xb98a7142	-0.00026405795
65	0xb8e72d69	-0.00011023397
66	0xb96c5828	-0.00022539555
67	0xb9fd15d3	-0.0004827218
68	0x398a1a60	0.00026341062
69	0x38533b4e	5.0361552e-05
70	0xbac43318	-0.001496884
71	0x399f4384	0.00030377146
72	0xb7b013d7	-2.0990074e-05
73	0x39129755	0.0001398002
74	0xb7a61a10	-1.9800878e-05
75	0xb916c798	-0.00014379469
76	0xb9197608	-0.00014635187
77	0xba7bc382	-0.0009604023
78	0xbb8cce56	-0.004297058
79	0xb9f54c65	-0.0004678696
80	0xba13ee8b	-0.00056431507
81	0x38e979ee	0.00011133017
82	0x368ef8a4	4.2608754e-06
83	0xb973eccd	-0.00023262501
84	0xb8f5f9c3	-0.00011729032
85	0x3a32b45a	0.00068170356
86	0xba0a5a1a	-0.00052777084
87	0x383497ca	4.305671e-05
88	0xb8e1477c	-0.00010742151
89	0x3b546b4c	0.0032412587
90	0xb96d0899	-0.00022605284
91	0xba86189f	-0.0010230726
92	0x39e98427	0.00044539684
93	0xba01706c	-0.00049377116
94	0xbb1e5edb	-0.0024165425
95	0x39788a73	0.000237027
96	0x391e20f2	0.00015080327
97	0x39bd5c0d	0.00036117472
98	0x3b2f723f	0.0026770977
99	0x39c16a81	0.0003689118
100	0x36b765d2	5.4656784e-06
101	0x37adb1b4	2.0705957e-05
102	0xb995d7e4	-0.00028580346
103	0xb9076e21	-0.0001291563
104	0x3b2c33a6	0.0026275902
105	0x38dc836a	0.00010514895
106	0x38fa6107	0.00011939002
107	0xbb06fb6f	-0.0020596643
108	0xb9f8d41c	-0.0004746028
109	0x39948af7	0.00028332297
110	0x394eca51	0.0001972106
111	0x3af897bd	0.001896612
112	0xb8483028	-4.7728565e-05
113	0xb9ba90e6	-0.00035584642
114	0xb9bb98cf	-0.0003578127
115	0xb897634c	-7.2187366e-05
116	0x399f122f	0.0003034039
117	0xba5b58f1	-0.00083674403
118	0xb9d6cfc2	-0.00040972052
119	0xba4d389f	-0.00078285666
120	0x38bdcf5e	9.0508474e-05
121	0xb9845cad	-0.0002524605
122	0xba5edc6f	-0.0008501475
123	0xb881dd98	-6.1924744e-05
124	0x3a915a61	0.0011089557
125	0x3b05d7ed	0.0020422891
126	0xba6e6f85	-0.0009095597
127	0x38ad4103	8.261392e-05

action_model._continuous_distribution.log_sigma f4 [1, 3]
0	0x3b0d230e	0.0021535787
1	0x3beb8983	0.0071880235
2	0x3be732e5	0.0070556276

action_model._continuous_distribution.mu.weight f4 [3, 128]
0	0x3bccd629	0.006251116
1	0x3c4a421a	0.012344861
2	0xbc624e0e	-0.013812555
3	0x3b95d69a	0.0045727016
4	0xbc9268d6	-0.017872255
5	0x3a1e62ec	0.0006041962
6	0xbb243e8b	-0.0025061693
7	0xbc1ad784	-0.009450797
8	0xbcbaa892	-0.022785459
9	0x3be3574f	0.006937898
10	0xbb8f69a9	-0.0043766093
11	0xbc1e90b0	-0.009678051
12	0xbbe2e007	-0.006923679
13	0xbc97510e	-0.018471267
14	0x3c64e2de	0.013970105
15	0xba0d37ee	-0.00053870573
16	0xbbdc23ba	-0.006718126
17	0xbbc463ab	-0.0059933267
18	0x3a82226a	0.0009928469
19	0xbced7b4e	-0.02898946
20	0xbcb9152d	-0.022593105
21	0x3c6d1a72	0.014471637
22	0xbcb0db66	-0.021588992
23	0x3cda4c47	0.0266477
24	0x3ae77c52	0.0017660952
25	0x3b36dc2c	0.0027902229
26	0x3c87ab11	0.016561063
27	0xbc27b273	-0.010235417
28	0x3cadb26b	0.02120324
29	0xbca1d7e2	-0.019756261
30	0x3c96d1b6	0.018410545
31	0x3c4fc739	0.012681776
32	0x3b5c0387	0.0033571438
33	0x3cb1f907	0.02172519
34	0x3c7c8e51	0.01541479
35	0xbc469da5	-0.012122546
36	0x3d156e44	0.03648211
37	0x3c118c51	0.008883552
38	0x3bc2728b	0.0059340647
39	0x3ca09fbd	0.01960742
40	0xbaa8c37c	-0.0012875642
41	0x3a975dd9	0.0011548355
42	0x3c2ec3c4	0.010666791
43	0x3c4d381c	0.012525585
44	0x3c8da693	0.017291343
45	0xbc4bc8f1	-0.012438045
46	0x3cf9bebf	0.030486463
47	0xbbec07c0	-0.0072030723
48	0x3bb78f79	0.00560182
49	0xbbea8fda	-0.0071582617
50	0x3bcd96e2	0.00627409
51	0xbcdd9db6	-0.027052741
52	0xbb2cf39b	-0.0026390317
53	0x3c2446c6	0.010026639
54	0xbc6e761e	-0.0145545285
55	0x3bf58ac7	0.00749335
56	0xbaede5bc	-0.0018150131
57	0xbb8203be	-0.0039677313
58	0x3ba7df33	0.005123043
59	0xbb2b29dd	-0.0026117482
60	0xbc8c6a7d	-0.017140621
61	0x3b8207f6	0.003968234
62	0x3b06798e	0.002051923
63	0xbb1b1e44	-0.0023669163
64	0x3c551adf	0.013006895
65	0x3c60dee3	0.013725015
66	0x3cbac018	0.022796676
67	0x3ca61295	0.020272532
68	0xbc6644a2	-0.014054449
69	0x3aa7ed0a	0.0012811732
70	0x39bc2b63	0.0003589048
71	0x3ab30439	0.0013657875
72	0xbc3180aa	-0.010833899
73	0xbceff16a	-0.02928992
74	0x3cd4f1e3	0.025994247
75	0x3c32ffa4	0.010925207
76	0xbcbde49e	-0.023180302
77	0x3bee3425	0.0072693997
78	0x3c9d0417	0.01916699
79	0xbcadadc0	-0.021201015
80	0x3ba75f33	0.005107784
81	0xbcd00ea2	-0.025397602
82	0xbbb378d5	-0.005477051
83	0xbc8d62f2	-0.017259095
84	0x3ccedd01	0.025251867
85	0x3c992ff3	0.018699622
86	0x3ba5a946	0.0050555794
87	0xbad44253	-0.0016194083
88	0xbc05e7e0	-0.008172959
89	0xbc67c632	-0.014146375
90	0xbc6354f9	-0.0138752395
91	0x3bcabb3a	0.00618687
92	0xbbd0eb7c	-0.006375728
93	0x3c2b7f8b	0.01046742
94	0xbb1aec1c	-0.0023639267
95	0xbc1c3ec2	-0.009536447
96	0x3b7edd1d	0.0038889118
97	0xbce96d76	-0.028494578
98	0x3b3f4f48	0.0029191542
99	0x3c7b98e4	0.015356276
100	0xbd0222d8	-0.03177151
101	0xbc447bf5	-0.011992444
102	0x3c7888d5	0.015169342
103	0xbba3da16	-0.005000363
104	0x3a305a93	0.0006727364
105	0xbc90e0ad	-0.017685259
106	0x3c8faf1e	0.017539557
107	0x3c790df6	0.015201082
108	0x3c0c4f36	0.008563807
109	0xbc80757f	-0.015681027
110	0xbb9b93b3	-0.0047478317
111	0x3d2b3c89	0.041805778
112	0x3ca6c167	0.020355893
113	0xbc841c53	-0.016126787
114	0x3cbd6522	0.023119513
115	0xbc7b7927	-0.015348709
116	0xbcadd499	-0.021219539
117	0xbc117eeb	-0.008880357
118	0x3d0beb45	0.034159917
119	0xbc09b9d5	-0.008406122
120	0xbc2159fd	-0.009848115
121	0xbbe072cf	-0.0068496238
122	0xbc8e2f2d	-0.01735648
123	0x3c86e6f4	0.016467549
124	0x3bd3cd79	0.0064637032
125	0xbc9cf496	-0.019159596
126	0x3c05f1e6	0.008175349
127	0xbc31e746	-0.010858363
128	0xbc4ad5a6	-0.012380039
129	0xbc671040	-0.014102995
130	0x3c1de8fd	0.009638068
131	0x3d2f207a	0.04275558
132	0xbcc36769	-0.02385302
133	0x3c59a423	0.013283762
134	0x3c7281d1	0.014801458
135	0xbbf21518	-0.0073877685
136	0x3b3ed948	0.002912121
137	0x3c9fbcf6	0.019499283
138	0x3cd510b0	0.026008934
139	0xbbdf3bda	-0.006812555
140	0x3c90201a	0.017593432
141	0x3cc601d7	0.0241708
142	0xbca9cf63	-0.020728773
143	0x3cbde9df	0.023182807
144	0xbb9e95a6	-0.004839617
145	0xbc178b16	-0.009249469
146	0x3c5bb17e	0.013409017
147	0x3d1ee14d	0.038789082
148	0x3b887e8a	0.0041654753
149	0x3c532e50	0.01288946
150	0xbcb9f08e	-0.022697713
151	0x3c1d079c	0.009584334
152	0x3b74278e	0.0037255022
153	0x3c295200	0.010334492
154	0xba8bc046	-0.001066216
155	0x3ba2690d	0.0049563707
156	0xbce5f9a7	-0.028073145
157	0x3c27e189	0.010246643
158	0x3bc911fc	0.006136177
159	0xbca6bfdc	-0.020355158
160	0x3c8cf0e2	0.017204706
161	0xbd10b177	-0.035325494
162	0xbd064d25	-0.032788415
163	0xbb9bd91c	-0.004756106
164	0x3cfcb5e4	0.030848451
165	0x3d1622a0	0.036654115
166	0xbc11b94a	-0.008894274
167	0x3ac4062b	0.0014955451
168	0x3cce398b	0.025173923
169	0xbd0c2038	-0.034210414
170	0xbc68e052	-0.014213638
171	0xbc069065	-0.008213137
172	0x3b24e534	0.002516103
173	0x3bc3017b	0.005951104
174	0xbc3c52cf	-0.0114943525
175	0xbc81a602	-0.015826229
176	0x3c4e8fa2	0.012607487
177	0x3ce794f9	0.028269278
178	0x3d6d66cf	0.057959374
179	0x3c9a8009	0.01885988
180	0xbbea1d00	-0.0071445704
181	0x3cb0f8d8	0.021603033
182	0x3c9acdb2	0.018896911
183	0xbbead1ce	-0.007166124
184	0x3cf13a9d	0.029446894
185	0x3c2ef8f9	0.010679477
186	0x3bcefdf7	0.006316896
187	0x3ae1d57d	0.0017229762
188	0x3ccce3c3	0.025010949
189	0xbc1c2767	-0.009530879
190	0xbc998b59	-0.018743204
191	0xbc6b2c4b	-0.014353822
192	0xbac9cfe6	-0.0015397042
193	0xbc89912a	-0.016792852
194	0x3bcb03f8	0.0061955415
195	0xba42df26	-0.00074337644
196	0xbc81e307	-0.015855325
197	0xba9a67a2	-0.0011780153
198	0x3b5460a9	0.0032406247
199	0xbc970409	-0.018434541
200	0xbb945d42	-0.0045277188
201	0xbc05790e	-0.0081465375
202	0x3c0d6566	0.008630132
203	0xbc71e8ec	-0.014765006
204	0x3b252592	0.0025199396
205	0x3c935c22	0.017988268
206	0x3b05081d	0.0020299025
207	0xbc16b697	-0.009198806
208	0x3c9d69c5	0.019215474
209	0xbc6abf62	-0.014327856
210	0xbbc05a5c	-0.0058701467
211	0x3c004cae	0.007830782
212	0x3cf40d62	0.029791538
213	0x3c8e93c0	0.017404437
214	0x3c8ea542	0.017412785
215	0xbd7f68f3	-0.062355947
216	0xbca41f21	-0.020034375
217	0x3be1fa62	0.006896303
218	0x3b70ee78	0.0036763232
219	0x3ccb3f2f	0.024810402
220	0xbca6c76b	-0.020358762
221	0x3c6f797f	0.014616369
222	0xbba73305	-0.0051025175
223	0xbc949f3a	-0.018142331
224	0x3c86d9d0	0.016461283
225	0x3c73e863	0.014886948
226	0x3cc61c0b	0.024183294
227	0xbc89fe3f	-0.016844867
228	0xbb63711a	-0.0034704865
229	0xbb901f16	-0.004398237
230	0xbc8ed07c	-0.017433397
231	0xbc0e9b97	-0.008704088
232	0x3c0b0a0e	0.008486284
233	0x3c9f6644	0.019457944
234	0x3c94d5bb	0.01816832
235	0xbca19507	-0.019724382
236	0xbc296426	-0.010338819
237	0xbcc29625	-0.023753235
238	0xbcb123a9	-0.02162345
239	0xbb28d4c0	-0.0025761575
240	0x3c8f73d4	0.017511286
241	0x3d03a30b	0.03213791
242	0x3cc448d5	0.02396051
243	0xbb173235	-0.0023070697
244	0xba410967	-0.0007363767
245	0x3bf2d687	0.0074108276
246	0xbc6434c2	-0.013928594
247	0x3c84644b	0.016161105
248	0xbcc7bd90	-0.024382383
249	0xbce620da	-0.028091837
250	0xbc25be26	-0.010116136
251	0xbc93aa49	-0.018025534
252	0xbced5ba8	-0.02897437
253	0xbb0983f5	-0.0020983194
254	0xbc145889	-0.009054312
255	0xbbf35cb5	-0.007426823

action_model._continuous_distribution.mu.bias f4 [3]
0	0xb9120b01	-0.00013927744
1	0xb951b63c	-0.00019999681
2	0x395f52a9	0.0002129773

exp_avg f4 [128, 10]
0	0x35ac2abb	1.2827435e-06
1	0xb84a1650	-4.8181333e-05
2	0x3b2be583	0.002622933
3	0x3a664aee	0.0008784969
4	0x3b33fb7f	0.0027463136
5	0x3a49a3f0	0.000769197
6	0x37a9a46d	2.0222937e-05
7	0x377de9b4	1.5134388e-05
8	0x3803b538	3.1401607e-05
9	0x38039622	3.1372656e-05
10	0xb3f69b19	-1.148348e-07
11	0xb2f20005	-2.8172517e-08
12	0xb684fe70	-3.963527e-06
13	0xb79a846a	-1.841989e-05
14	0x372c8fce	1.0285481e-05
15	0xb7a83ea2	-2.0056326e-05
16	0x354b32c6	7.569728e-07
17	0x3692c850	4.3744585e-06
18	0x34b50908	3.3720448e-07
19	0x34b5b1c8	3.384323e-07
20	0x37c68a78	2.3667919e-05
21	0xb8a4d2c4	-7.8593876e-05
22	0xbb632c2d	-0.0034663782
23	0xbb45f54a	-0.0030206018
24	0xbb6f6929	-0.0036531186
25	0xbb48652e	-0.0030577886
26	0xb61a4218	-2.298626e-06
27	0xb6aefdc3	-5.215146e-06
28	0xb821ec73	-3.86056e-05
29	0xb821fa7d	-3.8618677e-05
30	0x3300476a	2.9867273e-08
31	0x3000df80	4.688374e-10
32	0x361a8afc	2.3028688e-06
33	0xb5cf8200	-1.5460537e-06
34	0x35aade84	1.2730748e-06
35	0xb5d53692	-1.5885619e-06
36	0xb55f75bc	-8.32453e-07
37	0x32765f70	1.4340785e-08
38	0xb4e1fb7e	-4.20925e-07
39	0xb4e1589b	-4.1973985e-07
40	0x37ee0eb8	2.8378665e-05
41	0xb86caf33	-5.642995e-05
42	0xba50cda0	-0.0007965211
43	0x39ec9b58	0.00045129168
44	0xba10e1c4	-0.0005526806
45	0x3a84f268	0.0010143043
46	0xb7211101	-9.600307e-06
47	0xb64145d4	-2.8799886e-06
48	0x36a0d288	4.7928806e-06
49	0x36a009c8	4.7695103e-06
50	0x38af05dc	8.345742e-05
51	0x38536c49	5.040717e-05
52	0x3ac5cd38	0.0015091067
53	0x3b7953e0	0.0038044378
54	0x3a93ea2a	0.0011284996
55	0x3b4eadb4	0.003153664
56	0x363f4432	2.8500913e-06
57	0x371cc1b8	9.343428e-06
58	0x38143d64	3.5343124e-05
59	0x38142077	3.5316185e-05
60	0xb32fe29c	-4.0951463e-08
61	0xb5a08cc9	-1.1961903e-06
62	0xbb06906e	-0.0020532864
63	0xb7c97722	-2.4016543e-05
64	0xbb1328a9	-0.0022454655
65	0xb9b63c24	-0.00034758553
66	0xb7782eb4	-1.4792826e-05
67	0xb756412e	-1.277057e-05
68	0xb7b90ca4	-2.2059605e-05
69	0xb7b8714f	-2.1987273e-05
70	0x38a08979	7.655001e-05
71	0x392b5210	0.00016338401
72	0x3a9ea830	0.0012104567
73	0xbb267be6	-0.002540344
74	0x3a7bc520	0.0009604264
75	0xbb481a26	-0.0030533164
76	0x36857a9b	3.977982e-06
77	0xb651cd50	-3.1262934e-06
78	0x37526a78	1.2541765e-05
79	0x37528b68	1.2549433e-05
80	0xb5dba0b4	-1.6363542e-06
81	0xb80f2758	-3.41305e-05
82	0x39aa53ac	0.00032487267
83	0xb9db3c70	-0.00041815965
84	0x39c8176a	0.00038164417
85	0xb9ae1210	-0.00033201324
86	0x34a4c910	3.0693673e-07
87	0x3611ab3f	2.1706362e-06
88	0xb70440f5	-7.882937e-06
89	0xb703e5aa	-7.861681e-06
90	0x365dddf8	3.306077e-06
91	0xb3463019	-4.6144212e-08
92	0xbb56dc1c	-0.0032785004
93	0xbbd9bd72	-0.006644898
94	0xbb428434	-0.002968085
95	0xbbc9c264	-0.0061572064
96	0x36c0fe72	5.7516672e-06
97	0x3761ef78	1.3466801e-05
98	0xb88f2e41	-6.827387e-05
99	0xb88f6e17	-6.839277e-05
100	0x36b963da	5.525054e-06
101	0x3673a3ef	3.6305244e-06
102	0xb8f1606c	-0.000115097355
103	0x38843e41	6.305846e-05
104	0xba209417	-0.0006125583
105	0xb9794840	-0.00023773406
106	0x37322e96	1.0620473e-05
107	0xb7703ed9	-1.4319748e-05
108	0x36ba9a7a	5.5612154e-06
109	0x36c0c29e	5.7447023e-06
110	0x38affff9	8.392329e-05
111	0x380e482c	3.3922654e-05
112	0x3affda14	0.0019519948
113	0x38e979d8	0.00011133001
114	0x3b0330e0	0.0020018145
115	0x385b1c01	5.223975e-05
116	0xb6954d06	-4.4495127e-06
117	0x36b5479e	5.4025577e-06
118	0x37b8cad6	2.2028962e-05
119	0x37b8bc8e	2.2022312e-05
120	0x33571514	5.007776e-08
121	0x3079d237	9.0884406e-10
122	0x3aa20586	0.0012361265
123	0x3a1d6ddc	0.0006005445
124	0x3aaad87d	0.0013034489
125	0x3a195e44	0.00058505335
126	0xb7274d85	-9.972025e-06
127	0xb6a4ae5a	-4.907878e-06
128	0x36ea0b02	6.975025e-06
129	0x36ea0550	6.974362e-06
130	0xb89d65da	-7.505315e-05
131	0xb8067ee5	-3.206627e-05
132	0xbbf3db98	-0.007441949
133	0xba407a1b	-0.0007342414
134	0xbbf22e00	-0.0073907375
135	0xba1f53e1	-0.00060778676
136	0xb5d8fb70	-1.6166432e-06
137	0xb7441b40	-1.1688855e-05
138	0xb86ad5c4	-5.5989032e-05
139	0xb86a79fd	-5.5903558e-05
140	0xb419f8ab	-1.43397e-07
141	0xb2baedb2	-2.1761341e-08
142	0xb6520840	-3.129724e-06
143	0x3607d64c	2.0241305e-06
144	0x38bc4baa	8.978632e-05
145	0x37b8dbd2	2.2036871e-05
146	0xb5238190	-6.091077e-07
147	0x35f8f76e	1.8549451e-06
148	0x35f3af38	1.8155906e-06
149	0x35f27bf0	1.8066476e-06
150	0xb2945fea	-1.7273084e-08
151	0x32e478c6	2.6597615e-08
152	0xb7b48cf1	-2.1523303e-05
153	0xb8510754	-4.9836308e-05
154	0xb980a250	-0.00024534995
155	0xba525b88	-0.00080245035
156	0xb593ddfb	-1.1016958e-06
157	0xb73770eb	-1.0933941e-05
158	0xb6b989fc	-5.529493e-06
159	0xb6b64bca	-5.4328457e-06
160	0xb85a2243	-5.200716e-05
161	0xb89430d5	-7.0662856e-05
162	0xba6c1da8	-0.00090071047
163	0xbb68b0da	-0.0035505802
164	0xba53a51c	-0.00080736144
165	0xbb67e1a8	-0.0035382304
166	0xb6c674a8	-5.9144404e-06
167	0x375385ae	1.2607705e-05
168	0xb81fd87e	-3.8110178e-05
169	0xb81fcdea	-3.8100326e-05
170	0xb82465d6	-3.919549e-05
171	0x385db990	5.2863325e-05
172	0xb91e5490	-0.00015099556
173	0xba48b6a3	-0.00076566095
174	0xb91da8fc	-0.00015035638
175	0xba2a9005	-0.0006506446
176	0xb5f5b47f	-1.8306454e-06
177	0x378ffefd	1.7165667e-05
178	0xb707e1ff	-8.099246e-06
179	0xb7078b87	-8.079113e-06
180	0xb319d987	-3.582093e-08
181	0x30406b05	7.0001277e-10
182	0xb86a585a	-5.587223e-05
183	0x38203dd0	3.820454e-05
184	0xb82184c9	-3.8509057e-05
185	0x381253d0	3.488717e-05
186	0x3601ccc2	1.9341683e-06
187	0x36a73093	4.9826426e-06
188	0x36c0ce3a	5.746054e-06
189	0x36bf653d	5.7040293e-06
190	0x37b29132	2.1286865e-05
191	0xb79cd08e	-1.8693765e-05
192	0xb940272a	-0.00018325137
193	0xba4a9b93	-0.0007728871
194	0xb911a195	-0.00013888472
195	0xba3cc56e	-0.000720105
196	0x36967da6	4.4849758e-06
197	0xb4f9f040	-4.655467e-07
198	0xb680c160	-3.837209e-06
199	0xb6808c5e	-3.831038e-06
200	0x386cc8be	5.645374e-05
201	0x38bbfc4f	8.963851e-05
202	0xbac0a4e1	-0.0014697575
203	0xbab5a75c	-0.0013859081
204	0xbad8d940	-0.0016544238
205	0xbad6fb32	-0.0016401766
206	0xb50bd698	-5.209381e-07
207	0xb6f3a053	-7.2606285e-06
208	0xb76d1019	-1.4130049e-05
209	0xb76d365d	-1.4138958e-05
210	0x373c8767	1.1237199e-05
211	0xb80f914b	-3.422917e-05
212	0xbb7c7a0c	-0.0038524894
213	0xbb2506ab	-0.0025180976
214	0xbb702b54	-0.003664692
215	0xbb1b6bce	-0.002371538
216	0xb6972321	-4.50424e-06
217	0xb76d83cd	-1.4156988e-05
218	0xb7f73587	-2.946962e-05
219	0xb7f66df5	-2.9376688e-05
220	0xb8615032	-5.3718868e-05
221	0xb7c58a1a	-2.3548539e-05
222	0xbaca0dd2	-0.0015415496
223	0xbb82cfea	-0.0039920704
224	0xbacd942e	-0.001568442
225	0xbb819652	-0.003954687
226	0xb6981436	-4.532306e-06
227	0x370f4caa	8.541314e-06
228	0xb83252ef	-4.2515745e-05
229	0xb832da40	-4.264177e-05
230	0x39138ccc	0.00014071463
231	0x385b4753	5.2280095e-05
232	0x3b55b9b6	0.0032611913
233	0xbb59a0a1	-0.0033207315
234	0x3b53a83f	0.0032296327
235	0xbb65a087	-0.0035038309
236	0x36e9c0f2	6.966403e-06
237	0x378d7154	1.6861282e-05
238	0x37f3c914	2.9061492e-05
239	0x37f36634	2.901545e-05
240	0x3893c668	7.046462e-05
241	0x3903d27e	0.00012571548
242	0x3b2e07e0	0.0026554987
243	0xb9e560a0	-0.00043750275
244	0x3b34c334	0.002758217
245	0xb9da5710	-0.00041645067
246	0x3710b7b6	8.625842e-06
247	0x365458ac	3.1642076e-06
248	0x37af5d42	2.0905052e-05
249	0x37af849c	2.0923377e-05
250	0x38aa1129	8.109428e-05
251	0xb962d49a	-0.0002163224
252	0x3b62bbd5	0.003459682
253	0xbb06d802	-0.0020575528
254	0x3b735735	0.0037130837
255	0xbae8fa2b	-0.0017774751

exp_avg_sq f4 [128, 10]
0	0x36b8c851	5.506947e-06
1	0x378e0133	1.6928278e-05
2	0x3958f43c	0.0002069035
3	0x399d0d5b	0.00029955324
4	0x3953e5ca	0.00020208131
5	0x39a15c12	0.0003077691
6	0x2f8b4a96	2.533695e-10
7	0x2f34ccd0	1.6443669e-10
8	0x32f62752	2.865605e-08
9	0x32f1b9e5	2.8140628e-08
10	0x2bd40da3	1.5067291e-12
11	0x2a35a3a9	1.613281e-13
12	0x31f8e5c7	7.2438726e-09
13	0x319b634c	4.5223825e-09
14	0x30ab7a29	1.2476608e-09
15	0x30f85b76	1.807037e-09
16	0x2eb08cb4	8.028547e-11
17	0x2f024193	1.1846728e-10
18	0x2eb6f59e	8.320032e-11
19	0x2eb57e6c	8.253384e-11
20	0x3779ea5b	1.4896122e-05
21	0x37a1c7df	1.9285768e-05
22	0x39b5c0f6	0.00034666777
23	0x39a75f80	0.00031923875
24	0x39b308ca	0.0003414809
25	0x39ae9550	0.00033299113
26	0x2f767255	2.2414189e-10
27	0x2f8e7c27	2.5917865e-10
28	0x332ce333	4.0253507e-08
29	0x3329b1f7	3.9510237e-08
30	0x28ff436a	2.8339923e-14
31	0x26a384c2	1.1346381e-15
32	0x2cf09bff	6.8385293e-12
33	0x2c6888b5	3.304507e-12
34	0x2c9b9b0b	4.422578e-12
35	0x2c9b9b97	4.422639e-12
36	0x2ae9dceb	4.1542407e-13
37	0x2b2949cd	6.014328e-13
38	0x2ac1d8b7	3.4434063e-13
39	0x2abee6d9	3.3910963e-13
40	0x356bb4df	8.7807524e-07
41	0x3763fde5	1.3589369e-05
42	0x3950c28f	0.00019908905
43	0x394dd3bc	0.000196292
44	0x395685a9	0.00020458423
45	0x395cca99	0.00021056308
46	0x2f84c968	2.4153768e-10
47	0x2f8c9872	2.557417e-10
48	0x32d32753	2.4581515e-08
49	0x32cd5765	2.3904883e-08
50	0x364ff481	3.0987724e-06
51	0x36eefa7b	7.1221125e-06
52	0x381636d1	3.581384e-05
53	0x39183300	0.00014514849
54	0x38088822	3.255171e-05
55	0x39154f5a	0.00014239308
56	0x2f60e882	2.0455285e-10
57	0x2fb46f93	3.2821088e-10
58	0x321977c6	8.9330054e-09
59	0x3216d8ac	8.780415e-09
60	0x2bb89d38	1.3117623e-12
61	0x308a2fa1	1.0054358e-09
62	0x376a26df	1.3956537e-05
63	0x31a9ca32	4.9415343e-09
64	0x377a16fa	1.4906511e-05
65	0x3497741c	2.8210422e-07
66	0x2ec701a3	9.049763e-11
67	0x2ef74669	1.1244767e-10
68	0x30c9fdeb	1.4696843e-09
69	0x30c3e996	1.4254506e-09
70	0x375719b8	1.2820987e-05
71	0x37a62bc0	1.9809115e-05
72	0x3992a3b9	0.00027969273
73	0x3999206f	0.000292066
74	0x399834cf	0.00029031045
75	0x39a0a69a	0.00030641706
76	0x2fbafebf	3.401421e-10
77	0x2fa5ef48	3.0183345e-10
78	0x331c212d	3.6351754e-08
79	0x33179559	3.5293258e-08
80	0x30216126	5.8709515e-10
81	0x365c8cbd	3.2864475e-06
82	0x3655737b	3.1806692e-06
83	0x377851d4	1.4801004e-05
84	0x36389f32	2.75108e-06
85	0x3770c713	1.4351465e-05
86	0x2e434824	4.440194e-11
87	0x2e5911a7	4.9355766e-11
88	0x3064ee83	8.328486e-10
89	0x30602029	8.153643e-10
90	0x32aa0ea6	1.9797266e-08
91	0x2cfe5eb6	7.2296292e-12
92	0x3a12e1b0	0.0005603088
93	0x3a0c72bd	0.00053576735
94	0x3a0d31cc	0.00053861435
95	0x3a11b737	0.0005558612
96	0x2f84605c	2.4079128e-10
97	0x2fe21f2c	4.113131e-10
98	0x33840f0a	6.1494646e-08
99	0x3381e7b1	6.049175e-08
100	0x31ba698e	5.4253126e-09
101	0x379dbb40	1.8803054e-05
102	0x3237c998	1.0697839e-08
103	0x379d5e25	1.8759698e-05
104	0x354f5494	7.7236587e-07
105	0x37a90f32	2.0153446e-05
106	0x2f896ac9	2.499603e-10
107	0x2fd8bfa4	3.942634e-10
108	0x30a42439	1.1942866e-09
109	0x309eb344	1.1546963e-09
110	0x37493eac	1.19951255e-05
111	0x357605d4	9.165062e-07
112	0x38aafe88	8.153642e-05
113	0x35890e5c	1.0211475e-06
114	0x38b95f39	8.839224e-05
115	0x35c2cab9	1.4513126e-06
116	0x2ee4ccd0	1.04046216e-10
117	0x2f93c79c	2.6880975e-10
118	0x31dfd40b	6.5142607e-09
119	0x31db5eb8	6.384507e-09
120	0x2be06cc7	1.5946349e-12
121	0x27ff0181	7.077835e-15
122	0x37e8d398	2.7755086e-05
123	0x35924a3a	1.089945e-06
124	0x37f4af80	2.916879e-05
125	0x35acd906	1.2878161e-06
126	0x2e74ff29	5.5705805e-11
127	0x2ef9f9b7	1.1367567e-10
128	0x311df116	2.2983548e-09
129	0x311a190b	2.2424185e-09
130	0x370d15f8	8.40937e-06
131	0x355ada0d	8.1528634e-07
132	0x3983e911	0.00025159915
133	0x37f0e0fa	2.8714992e-05
134	0x3988c11c	0.0002608382
135	0x380738d9	3.223945e-05
136	0x2f924b8e	2.661093e-10
137	0x301210f6	5.3138594e-10
138	0x32a85995	1.9598511e-08
139	0x32a623c4	1.9341208e-08
140	0x2bd5dac6	1.5195282e-12
141	0x296659e1	5.1148217e-14
142	0x3111a1f4	2.1192337e-09
143	0x30872e52	9.835708e-10
144	0x34493521	1.8738912e-07
145	0x32081155	7.920183e-09
146	0x2e47dced	4.5443583e-11
147	0x2e86b302	6.125413e-11
148	0x2e008e56	2.923025e-11
149	0x2de8960a	2.6441977e-11
150	0x29fbdd41	1.11850206e-13
151	0x29b21227	7.907937e-14
152	0x31352b56	2.63636e-09
153	0x312ac133	2.4848077e-09
154	0x33b21de4	8.294208e-08
155	0x34c33730	3.6361735e-07
156	0x2e7b3b28	5.7123334e-11
157	0x2e600e03	5.0944148e-11
158	0x2e8b0422	6.321722e-11
159	0x2e8290c0	5.937428e-11
160	0x376bce1d	1.4055081e-05
161	0x373cc03c	1.1250431e-05
162	0x38ccd036	9.76626e-05
163	0x3918f0a4	0.00014585495
164	0x38c519ff	9.398534e-05
165	0x391c7d34	0.00014923961
166	0x2f591f23	1.9747097e-10
167	0x2f4bf554	1.85499e-10
168	0x3238badb	1.0752696e-08
169	0x32352d08	1.05458255e-08
170	0x3655b3c8	3.184412e-06
171	0x36bdcfac	5.656815e-06
172	0x37c1ac34	2.3087581e-05
173	0x38095871	3.2745713e-05
174	0x37b79b97	2.1887752e-05
175	0x380c68f1	3.3476335e-05
176	0x2f007a09	1.1684888e-10
177	0x2f284737	1.5304812e-10
178	0x311713af	2.198458e-09
179	0x3115afea	2.178235e-09
180	0x29732f09	5.3997635e-14
181	0x281a596e	8.568109e-15
182	0x31d880c5	6.301067e-09
183	0x314aa1ba	2.94868e-09
184	0x312ab433	2.4840687e-09
185	0x304ffc85	7.5665013e-10
186	0x2edc48f5	1.00174015e-10
187	0x2ed1198d	9.5087584e-11
188	0x2e982b5d	6.9198626e-11
189	0x2e97bb55	6.899962e-11
190	0x3554b6f8	7.924241e-07
191	0x36cab41a	6.0410357e-06
192	0x36b33f31	5.341972e-06
193	0x374bf1fe	1.2156086e-05
194	0x36b78285	5.4690195e-06
195	0x3752b629	1.2559388e-05
196	0x2e3845b4	4.1898665e-11
197	0x2dbadadc	2.1242945e-11
198	0x30580a28	7.8594775e-10
199	0x30538cbf	7.6961365e-10
200	0x365eaa47	3.3179692e-06
201	0x3620cc31	2.3960713e-06
202	0x39236aa7	0.00015584622
203	0x39574405	0.00020529337
204	0x391f99cf	0.0001522072
205	0x395d9e29	0.00021135122
206	0x2f1afe41	1.4096548e-10
207	0x2f232c7e	1.484057e-10
208	0x32a221e1	1.8874688e-08
209	0x329f2992	1.852894e-08
210	0x3422343c	1.5106428e-07
211	0x3472e718	2.2622078e-07
212	0x391cd15b	0.0001495531
213	0x391a007f	0.0001468677
214	0x391bafb5	0.00014847408
215	0x39226fb7	0.00015491141
216	0x2eccb495	9.308924e-11
217	0x2f316bc4	1.6136342e-10
218	0x328b04e3	1.6183952e-08
219	0x3287f39d	1.5826851e-08
220	0x37878d0a	1.615893e-05
221	0x36f83261	7.396841e-06
222	0x39ce2aac	0.00039323175
223	0x39814ed3	0.00024663526
224	0x39d1a99b	0.00039989952
225	0x39897dfa	0.00026224536
226	0x2f789f82	2.2612137e-10
227	0x2fc17321	3.51883e-10
228	0x332cb749	4.0213568e-08
229	0x3328ba4d	3.9284988e-08
230	0x37621ff9	1.3478094e-05
231	0x35b7eb39	1.3703021e-06
232	0x39c18074	0.00036907534
233	0x38d131ae	9.97515e-05
234	0x39c51fb0	0.00037598377
235	0x38e8de41	0.0001110402
236	0x2f723211	2.2027559e-10
237	0x3009e348	5.0163296e-10
238	0x32df659e	2.6006827e-08
239	0x32dc1349	2.562014e-08
240	0x37ae1f32	2.0756943e-05
241	0x37cfae37	2.4757448e-05
242	0x39f8e7ed	0.00047475044
243	0x3994e13e	0.00028396578
244	0x39f78700	0.00047212094
245	0x399c41f9	0.00029803792
246	0x2faf41b0	3.1878988e-10
247	0x2fa8965d	3.0665862e-10
248	0x33319cc3	4.1353598e-08
249	0x332eb24c	4.0674692e-08
250	0x3745acf9	1.1782388e-05
251	0x380f51a3	3.4169887e-05
252	0x39e4b48b	0.00043622064
253	0x39cd68ca	0.0003917872
254	0x39eca7c7	0.00045138432
255	0x39de1e6c	0.00042365806

exp_avg f4 [128]
0	0x3803b536	3.14016e-05
1	0x34b50918	3.3720494e-07
2	0xb821ec6e	-3.8605584e-05
3	0xb4e1fb7e	-4.20925e-07
4	0x36a0d268	4.792866e-06
5	0x38143d66	3.534313e-05
6	0xb7b90ca2	-2.2059601e-05
7	0x37526a88	1.2541779e-05
8	0xb70440f6	-7.882938e-06
9	0xb88f2e40	-6.827386e-05
10	0x36ba9a76	5.5612136e-06
11	0x37b8cad7	2.2028964e-05
12	0x36ea0b02	6.975025e-06
13	0xb86ad5c3	-5.598903e-05
14	0x35f3af36	1.8155904e-06
15	0xb6b989f8	-5.5294913e-06
16	0xb81fd87e	-3.8110178e-05
17	0xb707e201	-8.099248e-06
18	0x36c0ce3b	5.7460543e-06
19	0xb680c164	-3.837211e-06
20	0xb76d101a	-1.413005e-05
21	0xb7f73584	-2.9469615e-05
22	0xb83252f0	-4.251575e-05
23	0x37f3c90c	2.9061477e-05
24	0x37af5d4a	2.0905067e-05
25	0x380a05e2	3.2907243e-05
26	0xb7f61df4	-2.9339433e-05
27	0x378a7b00	1.6508158e-05
28	0xb82f95c6	-4.186274e-05
29	0x35cda24b	1.5320924e-06
30	0xb779cd38	-1.4889338e-05
31	0xb5b77fef	-1.3671796e-06
32	0xb78f722c	-1.7100094e-05
33	0x383f442b	4.5601435e-05
34	0x3806471d	3.201432e-05
35	0xb522aed0	-6.060409e-07
36	0xb814af43	-3.5449175e-05
37	0x37bbdd44	2.2395172e-05
38	0x372ab20c	1.0174244e-05
39	0x35ca372a	1.5066228e-06
40	0x38044eb2	3.1544543e-05
41	0xb7353810	-1.0801494e-05
42	0x3665c64c	3.4239083e-06
43	0x38a9711c	8.079616e-05
44	0x37f1335a	2.8753351e-05
45	0xb785c452	-1.5946254e-05
46	0xb4f8f612	-4.637264e-07
47	0xb68da2f1	-4.2210963e-06
48	0xb81fef86	-3.8131628e-05
49	0xb6ef94ba	-7.140069e-06
50	0x38287649	4.0164483e-05
51	0xb718618f	-9.082621e-06
52	0x3756401c	1.2770321e-05
53	0xb7c5ff85	-2.3603216e-05
54	0xb7622b47	-1.3480726e-05
55	0x368556be	3.973807e-06
56	0x36d84a15	6.445926e-06
57	0xb3f39840	-1.13432634e-07
58	0xb734b041	-1.0769873e-05
59	0x382314de	3.8881662e-05
60	0xb8230397	-3.886557e-05
61	0x381cbb43	3.73677e-05
62	0x37c97a92	2.4018143e-05
63	0xb867f670	-5.5304205e-05
64	0x34993ea4	2.8544048e-07
65	0x3636a5f4	2.721671e-06
66	0x374da57c	1.2257482e-05
67	0x370d3289	8.416021e-06
68	0xb811f742	-3.480097e-05
69	0x34a96140	3.1549462e-07
70	0xb8921d71	-6.9673064e-05
71	0x3715c61a	8.927216e-06
72	0xb8539477	-5.044459e-05
73	0xb7ca5191	-2.4118259e-05
74	0xb80d04ec	-3.3621604e-05
75	0xb61808d4	-2.2654904e-06
76	0xb6564d07	-3.193332e-06
77	0x37c8bae2	2.3928882e-05
78	0xb64dfa2a	-3.0692995e-06
79	0x378303b7	1.5618147e-05
80	0xb64645fc	-2.9545035e-06
81	0x352a4220	6.342616e-07
82	0x3808180a	3.2447315e-05
83	0x372b4da4	1.0210471e-05
84	0x361cda06	2.3372718e-06
85	0xb4c58d8c	-3.6797098e-07
86	0xb5035470	-4.8924176e-07
87	0x3694c580	4.4337357e-06
88	0xb8407cb6	-4.5892513e-05
89	0x3762d9a5	1.3521324e-05
90	0x3680146d	3.817075e-06
91	0x340993e0	1.2812916e-07
92	0x36a439ef	4.8943252e-06
93	0x37e6d67a	2.751801e-05
94	0xb7bb665b	-2.23398e-05
95	0x37642cf4	1.36003255e-05
96	0xb81504e0	-3.552891e-05
97	0x358c5bf0	1.045757e-06
98	0x379a4140	1.8388615e-05
99	0xb80e2b80	-3.389595e-05
100	0xb846fb8c	-4.744115e-05
101	0x3824eec0	3.9323e-05
102	0xb69fd797	-4.763667e-06
103	0x368877be	4.0670557e-06
104	0x36411557	2.8771663e-06
105	0x380be7ce	3.3356067e-05
106	0xb819c6b2	-3.6663092e-05
107	0xb3bffd00	-8.940151e-08
108	0xb6b11470	-5.2773903e-06
109	0x37a5367e	1.9694908e-05
110	0x3745007c	1.1742228e-05
111	0xb3f6e540	-1.1496968e-07
112	0xb84b03bb	-4.8402446e-05
113	0x354d7642	7.654054e-07
114	0x37fd86b8	3.0222684e-05
115	0xb80471d2	-3.1577256e-05
116	0x37a8b50e	2.011147e-05
117	0xb841deeb	-4.6222394e-05
118	0xb872c3d7	-5.7879686e-05
119	0xb7d2d7ac	-2.513438e-05
120	0x385e90b2	5.3063683e-05
121	0x370abda4	8.269595e-06
122	0xb807b675	-3.2356435e-05
123	0x37ec4f6c	2.8170376e-05
124	0xb605c249	-1.9931633e-06
125	0x380e8b75	3.3985318e-05
126	0x348e06b8	2.645445e-07
127	0xb69ad3be	-4.6142077e-06

exp_avg_sq f4 [128]
0	0x32f62751	2.8656048e-08
1	0x2eb6f59c	8.320031e-11
2	0x332ce333	4.0253507e-08
3	0x2ac1d8b7	3.4434063e-13
4	0x32d32751	2.4581512e-08
5	0x321977c6	8.9330054e-09
6	0x30c9fdec	1.4696844e-09
7	0x331c212c	3.635175e-08
8	0x3064ee83	8.328486e-10
9	0x33840f0a	6.1494646e-08
10	0x30a42438	1.1942864e-09
11	0x31dfd40a	6.5142602e-09
12	0x311df114	2.2983544e-09
13	0x32a85995	1.9598511e-08
14	0x2e008e55	2.9230247e-11
15	0x2e8b0422	6.321722e-11
16	0x3238badb	1.0752696e-08
17	0x311713ae	2.1984579e-09
18	0x2e982b5c	6.919862e-11
19	0x30580a28	7.8594775e-10
20	0x32a221e1	1.8874688e-08
21	0x328b04e2	1.618395e-08
22	0x332cb748	4.0213564e-08
23	0x32df659e	2.6006827e-08
24	0x33319cc2	4.1353594e-08
25	0x337afdc5	5.8438463e-08
26	0x323f4895	1.11341665e-08
27	0x30ef32fb	1.7404028e-09
28	0x31d3fb06	6.1694463e-09
29	0x329f9073	1.8575724e-08
30	0x31cc02b3	5.9374883e-09
31	0x2d0b4040	7.915502e-12
32	0x327ff6bd	1.4899055e-08
33	0x32f5660d	2.8568161e-08
34	0x32c87007	2.3334009e-08
35	0x31794356	3.6272545e-09
36	0x3321679d	3.757997e-08
37	0x31afc686	5.11574e-09
38	0x31d9eef7	6.3426984e-09
39	0x2de91c43	2.6501584e-11
40	0x332c7ea1	4.016204e-08
41	0x331ccb52	3.65065e-08
42	0x2e6613b6	5.2313452e-11
43	0x33ae72fe	8.1234234e-08
44	0x335ae041	5.0961038e-08
45	0x2fccff92	3.7288977e-10
46	0x2e4ae0dd	4.61292e-11
47	0x30d052db	1.5157541e-09
48	0x3293cb60	1.7205537e-08
49	0x3193ccd1	4.301548e-09
50	0x32111f12	8.447175e-09
51	0x31802abf	3.73015e-09
52	0x2feac5c1	4.2704865e-10
53	0x330e2ad2	3.3100896e-08
54	0x3110ed74	2.1089734e-09
55	0x3074ad82	8.901325e-10
56	0x324a657f	1.1781025e-08
57	0x2fdb6bfd	3.9912598e-10
58	0x31ce309f	6.0009167e-09
59	0x32bd1cb8	2.2015556e-08
60	0x32b17837	2.066018e-08
61	0x32b9884b	2.1598813e-08
62	0x327c73df	1.4694677e-08
63	0x33dbd22b	1.02362115e-07
64	0x2cb65e8a	5.183247e-12
65	0x30230f14	5.932048e-10
66	0x315314ba	3.0716323e-09
67	0x31b361d1	5.220706e-09
68	0x31a5f006	4.8294195e-09
69	0x32e35b8b	2.6467907e-08
70	0x338ac05e	6.461117e-08
71	0x2f491c36	1.8290866e-10
72	0x33b40852	8.3834166e-08
73	0x30d3a41a	1.5398911e-09
74	0x31b7d603	5.3503313e-09
75	0x2e2d5e7b	3.941956e-11
76	0x2f921d2b	2.657797e-10
77	0x31b1eca0	5.178279e-09
78	0x2d5019dd	1.1829174e-11
79	0x329c9e23	1.8232702e-08
80	0x2ce37c59	6.4655334e-12
81	0x330ae59a	3.233945e-08
82	0x3114cba8	2.16526e-09
83	0x31d594d9	6.216038e-09
84	0x2fa222e7	2.9492428e-10
85	0x2d849873	1.5074364e-11
86	0x2b2dce5f	6.1748344e-13
87	0x2ece61b1	9.385149e-11
88	0x32b67bf0	2.1243949e-08
89	0x329e91af	1.845987e-08
90	0x31d5e478	6.2250898e-09
91	0x2edf3c06	1.0151528e-10
92	0x30046f2c	4.8179305e-10
93	0x302c7aae	6.2747574e-10
94	0x328dc1f4	1.650276e-08
95	0x323e789f	1.1086882e-08
96	0x327ad2f5	1.4599881e-08
97	0x32bfff05	2.2351296e-08
98	0x3285ee9d	1.5591747e-08
99	0x32b2eca2	2.0829535e-08
100	0x32273b44	9.734155e-09
101	0x322a813a	9.924685e-09
102	0x308ca1d6	1.0232337e-09
103	0x3279f799	1.4550005e-08
104	0x301e3aa3	5.7563393e-10
105	0x313deca6	2.7637639e-09
106	0x32982e2f	1.771613e-08
107	0x2fe4d6ff	4.1625722e-10
108	0x2e1571be	3.39797e-11
109	0x2fd34fe9	3.8437456e-10
110	0x3200f8ae	7.507124e-09
111	0x2f4d4e27	1.8672407e-10
112	0x32fd1632	2.946317e-08
113	0x2cb12791	5.0350353e-12
114	0x328f9068	1.671306e-08
115	0x32fc8121	2.9395382e-08
116	0x32428bf5	1.1324109e-08
117	0x32d42f56	2.4701574e-08
118	0x323ea95c	1.1097963e-08
119	0x31fa30ab	7.2814905e-09
120	0x32720de3	1.4089411e-08
121	0x30a75b8f	1.2176872e-09
122	0x339a13f6	7.174815e-08
123	0x30c9f489	1.4694176e-09
124	0x2bdee97c	1.5838854e-12
125	0x3219b747	8.947445e-09
126	0x2d6b0572	1.33594125e-11
127	0x31cff80f	6.052694e-09
