results/agentTarget02/AgentTarget/AgentTarget-4096.onnx (onnx, 80149 bytes, 7 tensors)

action_model._continuous_distribution.log_sigma f4 [1, 3]
0.0 0.0 0.0
00000000: 0000 0000 0000 0000 0000 0000

action_model._continuous_distribution.mu.bias f4 [3]
0.0 0.0 0.0
00000000: 0000 0000 0000 0000 0000 0000

action_model._continuous_distribution.mu.weight f4 [3, 128]
0.01716317 -0.013761614 -0.0053356024 0.005478309 -0.009654119 -0.023617452 0.007036343 -1.6064596e-05
0.014055078 0.016952373 0.0037876826 0.0068877973 0.027992368 0.0021765414 -0.0033179552 -0.012304669
0.01795423 0.025156042 -0.007950299 0.031123726 0.012092942 -0.004727167 -0.0023941735 -0.010197948
0.010215456 0.028344825 -0.024166066 0.008940897 -0.010125185 -0.022495018 -0.01460478 -0.0052878
0.000970799 0.0071344348 -0.021232618 -0.009340198 0.030355403 -0.0372726 0.02432576 -0.026418803
-0.0021532937 -0.05459116 -0.02452979 0.011838219 0.0086148 0.0059706722 -0.014121011 -0.0266751
-0.0077767665 -0.00417688 -0.043697458 0.010905688 -0.007307897 -0.0052640173 0.0019888817 -0.038763296
0.0012062135 0.0051665585 -0.016539698 -0.0066621313 0.0014628145 0.025562579 0.01525361 0.010022805
0.017341072 -0.015311382 0.012392775 -0.0028741693 -0.028610349 0.011175427 -0.020963004 -0.005411717
0.016258841 -0.032901824 0.043362815 0.014147349 0.007699588 0.0026131307 -0.03349476 0.04858317
-0.010305318 0.013383324 0.025801474 0.010821404 0.017494373 0.0024119958 0.004050694 -0.0009821054
0.029026663 0.01497339 0.004304137 0.016067585 0.014035356 0.022298235 0.00865379 0.035701808
-0.013870199 0.022970483 -0.0073028295 -0.0020875472 0.01277073 0.016306577 0.020521028 0.00080890546
-0.023429468 0.006667323 -0.008128877 0.017554834 0.0016864206 -0.02300052 -0.020290038 -0.0071545765
-0.006248834 -0.0048606363 -0.025542324 -0.008748577 -0.0075749205 0.03282412 0.018248178 0.007751677
0.025660688 0.02824368 0.008433893 0.007679183 -0.012025859 -0.010484198 -0.035056494 0.00017373064
-0.022382649 0.0021606802 0.021396065 -0.002865685 -0.00231589 -0.0054297843 0.03182256 -0.015139269
-0.019771568 0.0041442597 0.0053400914 0.0018845535 0.032457735 -0.00779086 -0.0074328384 0.008097137
-0.021636637 -0.017909082 -0.03925225 0.008305061 0.0070838677 -0.0020198303 -0.006529206 -0.038320653
0.0003461578 -0.011595838 -0.01576104 -0.0055512753 -0.025094403 -0.024862703 -0.026522076 -0.016996274
-8.544353e-06 -0.024562439 0.01629918 0.003678482 -0.021824228 0.008342112 -0.00825927 -0.00039486305
-0.021589573 0.026475219 -0.045816228 0.022055876 0.013884659 -0.005263507 -0.0013238706 0.01181583
0.026787981 0.004300981 0.0060019405 0.015234793 0.016389797 -0.003461073 0.017577076 0.009744973
0.015130167 -0.01695082 0.003638468 -0.029944096 0.012000823 -0.019014476 -0.014706753 -0.012703192
-0.02213174 0.0146126365 0.025011966 0.005457459 0.020555487 0.0043207402 0.018383002 -0.0057918224
-0.027326668 0.01149994 -0.042707283 0.023539728 -0.007752869 0.0026853245 -0.032695577 -0.016001161
0.031332467 -0.010362148 -0.022853198 0.0081368415 0.011062956 -0.007091357 0.008399165 -0.021596689
-0.016362598 0.0010350895 0.041565806 -0.0027966397 0.017881287 -0.022587225 0.01259091 0.017235303
0.011135405 0.018805949 0.03055932 0.027137091 0.013276664 0.003095151 -0.029706022 -0.016742991
-0.010387057 0.026769042 0.020111956 -0.035127427 0.00086217094 0.030477649 -0.014375979 -0.014790996
-0.0100018885 -0.00061894185 0.019382425 0.0049100905 -0.01844691 0.032840237 0.02751236 0.0054875794
-0.012719045 0.0023278992 -0.012167742 -0.006643974 -0.006829388 0.00379508 0.037796948 -0.024238676
00000000: c799 8c3c 6578 61bc 47d6 aebb 6383 b33b
00000010: 4f2c 1ebc 6379 c1bc 2091 e63b 75c2 86b7
00000020: 4547 663c b4df 8a3c c53a 783b 08b3 e13b
00000030: 4050 e53c 4ea4 0e3b 0d72 59bb 8699 49bc
00000040: c014 933c 0b14 ce3c f941 02bc 2ff7 fe3c
00000050: 7a21 463c 5ae6 9abb 91e7 1cbb 4b15 27bc
00000060: ba5e 273c 6833 e83c eaf7 c5bc d77c 123c
00000070: 1be4 25bc 7947 b8bc e348 6fbc 4845 adbb
00000080: 387d 7e3a fac7 e93b 07f0 adbc a107 19bc
00000090: e5ab f83c 27ab 18bd d146 c73c 3f6c d8bc
000000a0: 461e 0dbb fb9a 5fbd b3f2 c8bc 17f5 413c
000000b0: 1725 0d3c a1a5 c33b d05b 67bc bd85 dabc
000000c0: 3fd4 febb 35de 88bb 1bfc 32bd c5ad 323c
000000d0: 1577 efbb c77d acbb e657 023b 43c6 1ebd
000000e0: cf19 9e3a 3c4c a93b 437e 87bc 024e dabb
000000f0: e9bb bf3a 9d68 d13c 47ea 793c b136 243c
00000100: dd0e 8e3c 97dc 7abc 110b 4b3c 8f5c 3cbb
00000110: 4060 eabc 2319 373c 9bba abbc c654 b1bb
00000120: 4331 853c 10c4 06bd 359d 313d 48ca 673c
00000130: d34c fc3b 0f41 2b3b cd31 09bd 25ff 463d
00000140: a3d7 28bc bb45 5b3c 9d5d d33c 424c 313c
00000150: 5c50 8f3c 9312 1e3b afbb 843b fdb9 80ba
00000160: 53c9 ed3c f352 753c b809 8d3b 2ba0 833c
00000170: 8df4 653c caaa b63c a0c8 0d3c 0f3c 123d
00000180: d53f 63bc 982c bc3c 934c efbb 3bcf 08bb
00000190: 533c 513c 5f95 853c b71b a83c ba0c 543a
000001a0: 28ef bfbc 8f79 da3b fb2e 05bc 28cf 8f3c
000001b0: e30a dd3a 966b bcbc 4b37 a6bc f070 eabb
000001c0: 05c3 ccbb f945 9fbb 233e d1bc 3156 0fbc
000001d0: 0a37 f8bb 9672 063d 347d 953c c801 fe3b
000001e0: 5d36 d23c 4a5f e73c 502e 0a3c a8a1 fb3b
000001f0: 1c08 45bc eac5 2bbc 6697 0fbd 772b 3639
00000200: d15b b7bc 339a 0d3b cd46 af3c 37ce 3bbb
00000210: 30c6 17bb 55ec b1bb 5f58 023d b20a 78bc
00000220: fcf7 a1bc 92cc 873b effb ae3b 1f03 f73a
00000230: 67f2 043d 784a ffbb 2b8f f3bb dba9 043c
00000240: 513f b1bc 11b6 92bc f8c6 20bd f311 083c
00000250: ca1f e83b 215f 04bb f3f2 d5bb 1ef6 1cbd
00000260: 837c b539 78fc 3dbc 4c1d 81bc 79e7 b5bb
00000270: c792 cdbc deac cbbc d344 d9bc c53b 8bbc
00000280: b759 0fb7 2b37 c9bc dc85 853c b012 713b
00000290: b9c8 b2bc 5bad 083c e451 07bc 9f05 cfb9
000002a0: 9edc b0bc 8fe2 d83c cca9 3bbd 86ae b43c
000002b0: 7b7c 633c 7f79 acbb ba85 adba 2f97 413c
000002c0: 7872 db3c 3eef 8c3b edab c43b 5a9b 793c
000002d0: e543 863c 2bd3 62bb cdfd 8f3c 61a9 1f3c
000002e0: 85e4 773c 72dc 8abc 5d73 6e3b 524d f5bc
000002f0: 1a9f 443c 3fc4 9bbc 98f4 70bc 0d21 50bc
00000300: 9f4d b5bc d769 6f3c e5e5 cc3c 7cd4 b23b
00000310: fb63 a83c ff94 8d3b f397 963c 54c9 bdbb
00000320: 2ddc dfbc 3f6a 3c3c d5ed 2ebd 63d6 c03c
00000330: c70b febb 45fc 2f3b cceb 05bd de14 83bc
00000340: 7956 003d 00c6 29bc a136 bbbc 6350 053c
00000350: 6741 353c 9d5e e8bb a79c 093c 8aeb b0bc
00000360: db0a 86bc d7ab 873a e840 2a3d d447 37bb
00000370: c77b 923c d808 b9bc 1b4a 4e3c 0d31 8d3c
00000380: 4671 363c ef0e 9a3c 8a57 fa3c 9b4e de3c
00000390: 5d86 593c 04d8 4a3b 0b5a f3bc 9928 89bc
000003a0: 7a2e 2abc c04a db3c d4c1 a43c c7e1 0fbd
000003b0: 5003 623a 43ac f93c 3a89 6bbc ef55 72bc
000003c0: f6de 23bc 7c40 22ba e4c7 9e3c d3e4 a03b
000003d0: f91d 97bc 7c83 063d 9a61 e13c 27d1 b33b
000003e0: 8b63 50bc ab8f 183b 355b 47bc b2b5 d9bb
000003f0: 0fc9 dfbb e0b6 783b f9d0 1a3d 3090 c6bc

network_body._body_endoder.seq_layers.0.bias f4 [128]
0.0 0.0 0.0 0.0 0.0 0.0 0.0 0.0
0.0 0.0 0.0 0.0 0.0 0.0 0.0 0.0
0.0 0.0 0.0 0.0 0.0 0.0 0.0 0.0
0.0 0.0 0.0 0.0 0.0 0.0 0.0 0.0
0.0 0.0 0.0 0.0 0.0 0.0 0.0 0.0
0.0 0.0 0.0 0.0 0.0 0.0 0.0 0.0
0.0 0.0 0.0 0.0 0.0 0.0 0.0 0.0
0.0 0.0 0.0 0.0 0.0 0.0 0.0 0.0
0.0 0.0 0.0 0.0 0.0 0.0 0.0 0.0
0.0 0.0 0.0 0.0 0.0 0.0 0.0 0.0
0.0 0.0 0.0 0.0 0.0 0.0 0.0 0.0
0.0 0.0 0.0 0.0 0.0 0.0 0.0 0.0
0.0 0.0 0.0 0.0 0.0 0.0 0.0 0.0
0.0 0.0 0.0 0.0 0.0 0.0 0.0 0.0
0.0 0.0 0.0 0.0 0.0 0.0 0.0 0.0
0.0 0.0 0.0 0.0 0.0 0.0 0.0 0.0
00000000: 0000 0000 0000 0000 0000 0000 0000 0000
00000010: 0000 0000 0000 0000 0000 0000 0000 0000
00000020: 0000 0000 0000 0000 0000 0000 0000 0000
00000030: 0000 0000 0000 0000 0000 0000 0000 0000
00000040: 0000 0000 0000 0000 0000 0000 0000 0000
00000050: 0000 0000 0000 0000 0000 0000 0000 0000
00000060: 0000 0000 0000 0000 0000 0000 0000 0000
00000070: 0000 0000 0000 0000 0000 0000 0000 0000
00000080: 0000 0000 0000 0000 0000 0000 0000 0000
00000090: 0000 0000 0000 0000 0000 0000 0000 0000
000000a0: 0000 0000 0000 0000 0000 0000 0000 0000
000000b0: 0000 0000 0000 0000 0000 0000 0000 0000
000000c0: 0000 0000 0000 0000 0000 0000 0000 0000
000000d0: 0000 0000 0000 0000 0000 0000 0000 0000
000000e0: 0000 0000 0000 0000 0000 0000 0000 0000
000000f0: 0000 0000 0000 0000 0000 0000 0000 0000
00000100: 0000 0000 0000 0000 0000 0000 0000 0000
00000110: 0000 0000 0000 0000 0000 0000 0000 0000
00000120: 0000 0000 0000 0000 0000 0000 0000 0000
00000130: 0000 0000 0000 0000 0000 0000 0000 0000
00000140: 0000 0000 0000 0000 0000 0000 0000 0000
00000150: 0000 0000 0000 0000 0000 0000 0000 0000
00000160: 0000 0000 0000 0000 0000 0000 0000 0000
00000170: 0000 0000 0000 0000 0000 0000 0000 0000
00000180: 0000 0000 0000 0000 0000 0000 0000 0000
00000190: 0000 0000 0000 0000 0000 0000 0000 0000
000001a0: 0000 0000 0000 0000 0000 0000 0000 0000
000001b0: 0000 0000 0000 0000 0000 0000 0000 0000
000001c0: 0000 0000 0000 0000 0000 0000 0000 0000
000001d0: 0000 0000 0000 0000 0000 0000 0000 0000
000001e0: 0000 0000 0000 0000 0000 0000 0000 0000
000001f0: 0000 0000 0000 0000 0000 0000 0000 0000

network_body._body_endoder.seq_layers.0.weight f4 [128, 20]
0.11577679 0.0002810959 0.23937708 -0.44216433 -0.3215189 0.098531574 -0.15699102 0.18216851
-0.16566333 0.33420146 -0.11964276 -0.2754923 -0.029090123 -0.02981102 0.24511604 0.41157588
0.15148245 -0.114930734 -0.28241327 -0.19755805 -0.26947114 0.04377317 -0.31672472 0.26577896
-0.13286899 0.047556255 -0.14374201 -0.12257191 0.16982907 -0.07729666 -0.2743699 0.6656721
-0.08095846 -0.1573038 -0.14204946 0.05992843 -0.112518035 0.049488455 -0.30054507 -0.22527562
-0.21347964 0.33814466 0.060336877 -0.07909587 -0.26279384 -0.30736086 0.33489874 0.0069833747
0.417437 0.2674627 0.030976333 0.021209873 0.2726317 -0.16622779 0.2030314 -0.009400827
0.21891937 -0.46897626 -0.113791905 0.038687337 0.18001404 0.38467938 0.1345067 0.14625147
0.16604182 0.06436064 0.14972113 -0.39672136 -0.068602376 0.03970721 -0.07938549 0.0044199536
0.17733718 -0.55236197 0.08845196 -0.31913665 -0.28364697 0.27587965 0.23793 0.2613427
-0.067361176 0.5488073 -0.22226854 -0.2355746 0.10827223 0.12166496 -0.038991224 0.15258665
0.09060452 -0.0059156744 -0.4263015 0.10491954 -0.10911168 -0.27324504 0.34091243 -0.14883731
-0.07515471 -0.05408163 0.047774382 0.1168072 0.4643387 0.026017258 0.11193392 -0.114635505
-0.26231954 -0.18911318 0.225528 -0.24498403 0.406013 -0.16511014 0.19913773 -0.13768122
0.23651981 -0.068787456 0.1527096 0.114933625 0.096287385 -0.11530148 -0.423253 0.2131625
-0.16398025 -0.06255187 0.6486455 0.104169294 0.072541915 -0.30563432 -0.39711377 -0.08391565
-0.1246403 -0.17458951 0.12964486 -0.15991668 -0.1545499 0.070981905 0.21154332 -0.22576092
0.13576645 -0.040019564 0.051295333 -0.030746674 -0.20202196 -0.09764468 0.09464241 -0.04046886
0.020429876 0.20566472 0.0324164 0.1817363 0.21225779 0.1264285 -0.10687629 -0.2528767
-0.017349133 0.16092996 -0.2018892 0.15472426 0.3967296 0.11335855 0.1814806 0.10427492
-0.013007316 0.29669112 0.09733673 0.037206456 0.3083673 0.27099934 0.3620989 0.25875896
-0.3938815 0.4372753 -0.22050865 0.12742695 -0.20167157 -0.26892048 0.18519588 0.09816843
-0.2446668 -0.10348022 -0.07130307 -0.22692478 -0.0952412 -0.09238758 0.23738587 -0.22040477
0.06722308 -0.2636548 0.19159721 -0.063613154 0.2690982 -0.25394663 -0.17047486 0.18842083
-0.24675636 -0.07228526 0.27141753 -0.12917735 -0.1469669 0.07626606 -0.119075835 -0.07346369
0.13540992 0.00023561981 -0.15676379 0.13857044 -0.32934597 0.026807204 0.019542666 0.019698758
0.22576393 0.087912165 -0.18524574 -0.17920111 0.13503204 -0.17545778 0.3651107 -0.026407933
0.28233835 -0.030698758 -0.40006736 -0.66138357 -0.078816004 -0.35481507 0.20168495 -0.55679077
0.008807912 0.0007986153 0.113542035 -0.16613436 -0.19593666 -0.03005028 0.30656043 -0.36514857
0.27884638 -0.59180284 -0.0119240265 0.32118973 0.06918949 -0.1393283 -0.3052547 0.32877308
-0.14350589 -0.14488131 -0.20281301 0.0048900065 -0.058198027 0.14972548 -0.07691799 -0.10518258
-0.210569 0.17387795 0.15803435 0.15835102 -0.73363906 0.054224905 0.25562686 -0.19531769
00000000: 621c ed3d 0e60 9339 441f 753e 5d63 e2be
00000010: 209e a4be ecca c93d 41c2 20be 628a 3a3e
00000020: a6a3 29be 741c ab3e 4307 f5bd 540d 8dbe
00000030: 694e eebc 3d36 f4bc b3ff 7a3e 13ba d23e
00000040: 371e 1b3e ce60 ebbd 7998 90be a84c 4abe
00000050: 1ff8 89be 7f4b 333d be29 a2be 2e14 883e
00000060: cf0e 08be 59ca 423d 1b31 13be fb06 fbbd
00000070: ace7 2d3e b64d 9ebd 367a 8cbe 7d69 2a3f
00000080: 8dcd a5bd 3f14 21be 6a75 11be 8377 753d
00000090: db6f e6bd 68b4 4a3d 0be1 99be a7ae 66be
000000a0: 689a 5abe 4c21 ad3e cd23 773d 04fd a1bd
000000b0: ea8c 86be 675e 9dbe d977 ab3e cbd4 e43b
000000c0: 4dba d53e dff0 883e 14c2 fd3c 54c0 ad3c
000000d0: 6296 8b3e 9e37 2abe 77e7 4f3e ed05 1abc
000000e0: 662c 603e a81d f0be bb0b e9bd 9d76 1e3d
000000f0: 9a55 383e b2f4 c43e 20bc 093e f2c2 153e
00000100: de06 2a3e 83cf 833d 7f50 193e 101f cbbe
00000110: 677f 8cbd 07a4 223d dc94 a2bd 42d5 903b
00000120: e197 353e 9867 0dbf 4d26 b53d e165 a3be
00000130: 2d3a 91be 1940 8d3e eca3 733e b6ce 853e
00000140: a8f4 89bd a37e 0c3f 5d9a 63be 783a 71be
00000150: d5bd dd3d 7b2b f93d 43b5 1fbd ad3f 1c3e
00000160: dd8e b93d 46d8 c1bb 3144 dabe 0ee0 d63d
00000170: f275 dfbd c6e6 8bbe 138c ae3e cf68 18be
00000180: b6ea 99bd b384 5dbd 12af 433d 9d38 ef3d
00000190: cdbd ed3e 2522 d53c 9c3d e53d 05c6 eabd
000001a0: bf4e 86be e3a6 41be d0f0 663e 18dd 7abe
000001b0: f0e0 cf3e a212 29be c3ea 4b3e 4efc 0cbe
000001c0: 4032 723e 70e0 8cbd e85f 1c3e 5262 eb3d
000001d0: 5232 c53d 2f23 ecbd 9eb4 d8be 4547 5a3e
000001e0: 70ea 27be 321b 80bd a20d 263f b656 d53d
000001f0: db90 943d 1a7c 9cbe 7f52 cbbe f8db abbd
00000200: 6a43 ffbd 98c7 32be 9fc1 043e 33c1 23be
00000210: 5442 1ebe f65e 913d d09e 583e df2d 67be
00000220: 5c06 0b3e 8eeb 23bd 0e1b 523d 73e0 fbbc
00000230: d8de 4ebe eff9 c7bd e1d3 c13d adc2 25bd
00000240: 8e5c a73c c699 523e 0fc7 043d 1519 3a3e
00000250: 1b5a 593e 7976 013e f5e1 dabd 0e79 81be
00000260: c51f 8ebc d3ca 243e 0bbc 4ebe 0970 1e3e
00000270: 2420 cb3e 8728 e83d 0dd6 393e 178e d53d
00000280: a31c 55bc e6e7 973e 7b58 c73d cc65 183d
00000290: 52e2 9d3e 6dc0 8a3e 0765 b93e 0e7c 843e
000002a0: d6aa c9be 8ce2 df3e 05cd 61be 367c 023e
000002b0: fe82 4ebe f2af 89be fda3 3d3e 880c c93d
000002c0: ef89 7abe 70ed d3bd 5807 92bd f85e 68be
000002d0: d10d c3bd b335 bdbd 4815 733e cab1 61be
000002e0: 41ac 893d c3fd 86be 0f32 443e 9d47 82bd
000002f0: 3dc7 893e 4b05 82be f690 2ebe 64f1 403e
00000300: b3ad 7cbe 4b0a 94bd 3df7 8a3e 1147 04be
00000310: 7e7e 16be 6131 9c3d 08de f3bd 2274 96bd
00000320: e6a8 0a3e b610 7739 b086 20be 69e5 0d3e
00000330: 09a0 a8be c89a db3c f117 a03c 4a5f a13c
00000340: a92e 673e 4b0b b43d 0fb1 3dbe 7f80 37be
00000350: d745 0a3e 34ab 33be caef ba3e 7355 d8bc
00000360: a78e 903e f67b fbbc a1d5 ccbe 6f50 29bf
00000370: 496a a1bd 52aa b5be 8086 4e3e d789 0ebf
00000380: 0f4f 103c 2a5a 513a ba88 e83d 201f 2abe
00000390: 9fa3 48be 012c f6bc 7df5 9c3e c1f4 babe
000003a0: f4c4 8e3e 6480 17bf fe5c 43bc fb72 a43e
000003b0: 38b3 8d3d 14ac 0ebe 584a 9cbe f254 a83e
000003c0: 35f3 12be c45b 14be 37ae 4fbe 593c a03b
000003d0: 0e61 6ebd a351 193e 2e87 9dbd f769 d7bd
000003e0: 669f 57be 100d 323e c2d3 213e c526 223e
000003f0: c5cf 3bbf ef1a 5e3d 86e1 823e 5c01 48be

network_body._body_endoder.seq_layers.2.bias f4 [128]
0.0 0.0 0.0 0.0 0.0 0.0 0.0 0.0
0.0 0.0 0.0 0.0 0.0 0.0 0.0 0.0
0.0 0.0 0.0 0.0 0.0 0.0 0.0 0.0
0.0 0.0 0.0 0.0 0.0 0.0 0.0 0.0
0.0 0.0 0.0 0.0 0.0 0.0 0.0 0.0
0.0 0.0 0.0 0.0 0.0 0.0 0.0 0.0
0.0 0.0 0.0 0.0 0.0 0.0 0.0 0.0
0.0 0.0 0.0 0.0 0.0 0.0 0.0 0.0
0.0 0.0 0.0 0.0 0.0 0.0 0.0 0.0
0.0 0.0 0.0 0.0 0.0 0.0 0.0 0.0
0.0 0.0 0.0 0.0 0.0 0.0 0.0 0.0
0.0 0.0 0.0 0.0 0.0 0.0 0.0 0.0
0.0 0.0 0.0 0.0 0.0 0.0 0.0 0.0
0.0 0.0 0.0 0.0 0.0 0.0 0.0 0.0
0.0 0.0 0.0 0.0 0.0 0.0 0.0 0.0
0.0 0.0 0.0 0.0 0.0 0.0 0.0 0.0
00000000: 0000 0000 0000 0000 0000 0000 0000 0000
00000010: 0000 0000 0000 0000 0000 0000 0000 0000
00000020: 0000 0000 0000 0000 0000 0000 0000 0000
00000030: 0000 0000 0000 0000 0000 0000 0000 0000
00000040: 0000 0000 0000 0000 0000 0000 0000 0000
00000050: 0000 0000 0000 0000 0000 0000 0000 0000
00000060: 0000 0000 0000 0000 0000 0000 0000 0000
00000070: 0000 0000 0000 0000 0000 0000 0000 0000
00000080: 0000 0000 0000 0000 0000 0000 0000 0000
00000090: 0000 0000 0000 0000 0000 0000 0000 0000
000000a0: 0000 0000 0000 0000 0000 0000 0000 0000
000000b0: 0000 0000 0000 0000 0000 0000 0000 0000
000000c0: 0000 0000 0000 0000 0000 0000 0000 0000
000000d0: 0000 0000 0000 0000 0000 0000 0000 0000
000000e0: 0000 0000 0000 0000 0000 0000 0000 0000
000000f0: 0000 0000 0000 0000 0000 0000 0000 0000
00000100: 0000 0000 0000 0000 0000 0000 0000 0000
00000110: 0000 0000 0000 0000 0000 0000 0000 0000
00000120: 0000 0000 0000 0000 0000 0000 0000 0000
00000130: 0000 0000 0000 0000 0000 0000 0000 0000
00000140: 0000 0000 0000 0000 0000 0000 0000 0000
00000150: 0000 0000 0000 0000 0000 0000 0000 0000
00000160: 0000 0000 0000 0000 0000 0000 0000 0000
00000170: 0000 0000 0000 0000 0000 0000 0000 0000
00000180: 0000 0000 0000 0000 0000 0000 0000 0000
00000190: 0000 0000 0000 0000 0000 0000 0000 0000
000001a0: 0000 0000 0000 0000 0000 0000 0000 0000
000001b0: 0000 0000 0000 0000 0000 0000 0000 0000
000001c0: 0000 0000 0000 0000 0000 0000 0000 0000
000001d0: 0000 0000 0000 0000 0000 0000 0000 0000
000001e0: 0000 0000 0000 0000 0000 0000 0000 0000
000001f0: 0000 0000 0000 0000 0000 0000 0000 0000

network_body._body_endoder.seq_layers.2.weight f4 [128, 128]
0.1286413 0.023770338 0.006256555 0.1920668 -0.110071786 -0.097226046 -0.12606618 0.0882289
0.04762768 0.0009523636 -0.016318914 -0.13370311 -0.07953742 -0.075485244 0.15005642 -0.033285566
-0.09821102 -0.023510387 -0.06812991 0.11144607 0.02009862 -0.052328482 0.053685945 0.09967073
0.05441235 -0.17115608 -0.069441855 0.01690834 0.023266906 -0.15045111 0.0012995485 -0.06806836
-0.060041245 -0.08056764 -0.029924767 -0.07165619 0.050175216 -0.051664475 0.10802661 0.039910264
0.047750402 -0.034536153 0.093716845 0.025650667 0.080939814 0.044294324 -0.04974936 -0.09505775
0.09380473 0.055097975 0.03128377 -0.094228856 -0.06896809 0.026734328 -0.10984343 0.019774852
0.13387305 -0.027118575 0.11792457 0.0013866205 0.09541093 -0.11536224 -0.15749656 -0.12501626
-0.07626983 -0.07014377 -0.14684887 -0.09002227 -0.016849378 0.042961672 0.21739562 0.033097513
0.042212438 -0.13861366 -0.16173224 0.013371034 -0.13318448 -0.08938004 0.019123692 0.041453037
-0.08213846 0.0998675 -0.12516555 0.111887366 -0.112630896 -0.10090671 0.14108509 -0.0879065
-0.074498296 0.057908084 0.010223243 -0.0046900227 -0.081473306 0.1438504 -0.014468404 -0.008009701
-0.10989192 0.0021882604 -0.028485008 -0.06671122 -0.12847246 -0.043562997 -0.017093614 0.027245384
0.06507055 -0.02279135 0.12308362 0.023273755 0.0018831472 2.0830967e-05 0.005862508 0.070270084
0.17127542 0.10409029 -0.09075511 -0.083103135 -0.006498763 0.09977408 0.023327082 -0.12922566
-0.017399158 0.090043224 0.030329984 0.24660471 -0.09236185 0.14057238 0.022667179 0.10766436
0.06709464 -0.17047262 0.04002859 -0.04711417 -0.04433233 -0.06105281 0.038116813 0.03940848
0.122100644 -0.014367058 0.15025243 -0.06204299 0.073842354 0.16124947 0.10700033 -0.008928459
-0.12513979 -0.0938148 -0.06532752 -0.050571933 0.14189722 -0.065662116 0.01945083 0.08282143
-0.05906294 -0.030981012 -0.12987573 -0.03855609 -0.12540501 0.061176583 0.036716122 -0.1602862
0.0025949108 0.010112747 0.03872533 -0.031949524 0.099168815 -0.11375362 -0.19446304 -0.018656317
-0.11416246 -0.031464387 0.06516492 -0.11309717 0.11809289 0.06401171 0.104886256 -0.040972445
0.05302174 0.03635115 0.006952437 -0.09500227 -0.017189473 0.04514587 0.13452484 0.16505678
0.025666257 -0.17559245 0.06796864 -0.009244137 -0.12979531 0.12199145 0.0054199416 -0.061812818
0.06071983 0.07408011 0.22638425 -0.05009823 -0.022654524 -0.033057734 0.060108226 0.11430313
-0.22610058 -0.038708925 0.14607732 -0.044493932 -0.08998188 -0.0077011306 0.15766522 -0.111176364
0.0373726 -0.14970666 0.11292165 0.065208815 0.025212895 -0.06048552 -0.09145798 -0.10042771
-0.08896424 0.071458824 -0.022465307 0.012501508 0.065590784 0.09153859 -0.091708235 -0.10898542
0.08439784 -0.060987074 -0.05431646 -0.02370469 -0.07385004 0.024782913 -0.07470253 0.022236327
0.1472904 -0.09579138 -0.01496589 0.12425782 0.0066340533 -0.05577137 0.07984609 -0.024505263
0.026912335 -0.10607344 -0.041512996 0.06497542 0.055556167 -0.10916902 -0.08512911 0.014327186
0.07923385 -0.04727335 -0.018161578 -0.11971339 0.014909612 -0.058163963 -0.03971862 0.002519057
00000000: 8cba 033e 03ba c23c ca03 cd3b 29ad 443e
00000010: 516d e1bd 731e c7bd 7e17 01be 5bb1 b43d
00000020: 3e15 433d 0aa8 793a 3eaf 85bc 78e9 08be
00000030: 84e4 a2bd 0298 9abd 64a8 193e 7256 08bd
00000040: dc22 c9bd db98 c0bc b287 8bbd d63d e43d
00000050: dca5 a43c 6456 56bd cbe5 5b3d 2b20 cc3d
00000060: 7cdf 5e3d 8a43 2fbe 8837 8ebd 5c83 8a3c
00000070: 3d9a be3c db0f 1abe 9d55 aa3a 6d67 8bbd
00000080: cfed 75bd a600 a5bd c924 f5bc 7bc0 92bd
00000090: 8784 4d3d 219e 53bd 0e3d dd3d f278 233d
000000a0: ed95 433d c875 0dbd 9eee bf3d 5921 d23c
000000b0: c6c3 a53d f76d 353d fcc5 4bbd a3ad c2bd
000000c0: b21c c03d 6aae 613d 6923 003d 0ffb c0bd
000000d0: 243f 8dbd f301 db3c 98f5 e0bd dffe a13c
000000e0: 0416 093e c627 debc 7082 f13d 43bf b53a
000000f0: ce66 c33d 0a43 ecbd c746 21be 4304 00be
00000100: 5b33 9cbd 89a7 8fbd 8d5f 16be 995d b8bd
00000110: b507 8abc 94f8 2f3d f59c 5e3e 4291 073d
00000120: f3e6 2c3d bdf0 0dbe 239d 25be 2e12 5b3c
00000130: 8361 08be e20c b7bd 4aa9 9c3c a9ca 293d
00000140: 3538 a8bd 5587 cc3d 662b 00be 3425 e53d
00000150: 07ab e6bd 2da8 cebd 9c78 103e 5308 b4bd
00000160: 9092 98bd 0731 6d3d 647f 273c c3ae 99bb
00000170: 7adb a6bd 854d 133e e30c 6dbc 1f3b 03bc
00000180: 040f e1bd eb68 0f3b 6459 e9bc e49f 88bd
00000190: 498e 03be 1d6f 32bd e807 8cbc b631 df3c
000001a0: b543 853d edb4 babc 4413 fc3d 9aa8 be3c
000001b0: efd3 f63a 29be ae37 481a c03b c3e9 8f3d
000001c0: d362 2f3e 4a2d d53d d1dd b9bd fa31 aabd
000001d0: 93f3 d4bb 5a56 cc3d 7018 bf3c bb53 04be
000001e0: ae88 8ebc 9568 b83d 9676 f83c f285 7c3e
000001f0: 3628 bdbd 35f2 0f3e 85b0 b93c 227f dc3d
00000200: ea68 893d 6090 2ebe 05f5 233d cafa 40bd
00000210: d195 35bd 8312 7abd 6020 1c3d c96a 213d
00000220: e70f fa3d cf63 6bbc c6db 193e ca20 7ebd
00000230: a93a 973d 951e 253e fd22 db3d ac48 12bc
00000240: a524 00be f921 c0bd 6fca 85bd 8424 4fbd
00000250: 814d 113e dc79 86bd 5957 9f3c 489e a93d
00000260: fbeb 71bd e4cb fdbc 25fe 04be feec 1dbd
00000270: 2c6a 00be 4c94 7a3d a563 163d 1122 24be
00000280: 610f 2a3b efaf 253c 749e 1e3d 81dd 02bd
00000290: 0519 cb3d a8f7 e8bd 5221 47be 22d5 98bc
000002a0: 02ce e9bd cde0 00bd 3075 853d 7d9f e7bd
000002b0: afda f13d 9218 833d 9bce d63d b9d2 27bd
000002c0: 532d 593d f2e4 143d 45d1 e33b 8d90 c2bd
000002d0: f0d0 8cbc e0ea 383d e1c0 093e a504 293e
000002e0: 0b42 d23c 82ce 33be 2433 8b3d b974 17bc
000002f0: 10e9 04be a7d6 f93d c499 b13b 702f 7dbd
00000300: 5bb5 783d 50b7 973d 46d1 673e cd33 4dbd
00000310: fb95 b9bc 8c67 07bd 0b34 763d c217 ea3d
00000320: e986 67be 408d 1ebd 4b95 153e 453f 36bd
00000330: 6b48 b8bd c459 fcbb fe72 213e 6fb0 e3bd
00000340: 0314 193d b44c 19be 7743 e73d 338c 853d
00000350: 468b ce3c aabf 77bd 524e bbbd 0bad cdbd
00000360: e232 b6bd 0159 923d 2a09 b8bc 20d3 4c3c
00000370: 7654 863d 9678 bb3d 87d1 bbbd bf33 dfbd
00000380: c6d8 ac3d 95cd 79bd f07a 5ebd 5730 c2bc
00000390: b13e 97bd 8905 cb3c a4fd 98bd f528 b63c
000003a0: 4bd3 163e 452e c4bd 7e33 75bc e27a fe3d
000003b0: 7962 d93b 8570 64bd 5986 a33d 43bf c8bc
000003c0: 4277 dc3c 083d d9bd 8809 2abd d511 853d
000003d0: dd8e 633d 0294 dfbd 2c58 aebd 93bc 6a3c
000003e0: 5b45 a23d b3a1 41bd 97c7 94bc 4b2c f5bd
000003f0: 7247 743c 563d 6ebd feaf 22bd c316 253b
