results/agentTarget02/AgentTarget/AgentTarget-499938.onnx (onnx, 75029 bytes, 7 tensors)

action_model._continuous_distribution.log_sigma f4 [1, 3]
-0.043999784 -0.032350387 -0.008128047
00000000: 1e39 34bd d781 04bd 802b 05bc

action_model._continuous_distribution.mu.bias f4 [3]
0.0061266725 -0.005794564 0.017184593
00000000: 41c2 c83b 53e0 bdbb b4c6 8c3c

action_model._continuous_distribution.mu.weight f4 [3, 128]
-0.037081223 -0.019068427 0.003328677 0.043204974 0.035008762 0.01728033 -0.0038953456 0.030088436
-0.0020604942 -0.017494245 0.019930946 0.036060996 0.02213148 0.004831744 0.00655047 -0.02006164
-0.040609673 0.010405262 0.03626562 -0.038311906 -0.051144417 0.009048074 -0.006596712 0.01495644
0.0050662574 -0.0012510167 -0.019350857 -0.008654087 0.044876073 -0.023835117 -0.05413887 -0.02367905
-0.0029723593 0.004715905 0.034095723 0.031271826 -0.00086872897 -0.026584277 0.019810233 0.004415869
0.0073251184 0.010867948 -0.031100325 -0.0038570743 -0.011079536 -0.0013061662 -0.012330358 -0.064363174
0.03993654 -0.02928097 0.023732472 -0.022315418 -0.006571588 0.0031965324 -0.015074103 -0.036364116
-0.014619135 -0.0055536698 -0.004349664 -0.035641927 0.028887495 -0.0084742345 0.021026025 -0.010779012
0.001872083 -0.008018423 -0.020629758 -0.022823477 -0.006580599 0.01938131 -0.015633428 -0.018482147
-0.024709769 0.033452075 -0.009419465 0.007831455 0.03222129 0.017222807 0.0039724885 -0.0031179748
0.00974393 0.049326874 -0.022693671 -0.0030511061 0.023354512 -0.004180345 -0.013241355 0.011802877
0.011605569 -0.022410678 0.008920652 0.016025096 -0.017453216 0.026258603 0.040536195 -0.02563367
0.0043712873 -0.013364118 0.014247748 -0.012410612 -0.021247685 -0.022361418 0.028619215 -0.014607115
0.015229755 -0.015246224 -0.04675226 -0.015088005 0.007669441 0.04328112 0.00930071 -0.013863119
-0.0069284905 -0.04506381 -0.0052599115 0.025150487 -0.008724547 0.0061771977 -0.007957024 0.0036766557
0.0020564003 -0.0039382605 0.028121786 -0.033939343 -0.001164013 0.016007101 0.010255265 -0.0027862997
0.019718992 -0.002473646 0.039108075 0.018826593 0.004114428 0.025199639 0.027924156 0.03546047
-0.02308406 -0.026478942 -0.022375254 -0.0030222011 -0.03873167 -0.004793951 -0.002499445 0.046770897
0.031718757 0.022724412 -0.010357408 -0.01892017 0.039170742 -0.014445302 0.015254068 0.009222373
0.022933751 -0.036570348 -0.009368649 -0.0034686797 -0.009699856 -0.008735629 0.013621416 -0.0045588207
0.0064120167 -0.010525819 -0.018922364 -0.021659307 -0.005031193 0.010527448 0.0042607733 0.0079388125
-0.01692984 -0.025911177 0.009934777 -0.006785899 0.0009673293 -0.0012000336 -0.013934026 0.030740565
0.0054310886 0.021709828 0.015624062 -0.01307167 0.009203987 0.049746886 -0.007193426 -0.036664635
0.008252138 0.01744487 -0.018837614 0.02931765 -0.003315223 0.03983339 -0.041722372 0.011291057
0.00085346354 0.0026979395 0.024086064 0.007185682 -0.040735535 -0.0024103343 0.017177181 -0.0031142838
0.055518754 -0.021134607 0.027366715 -0.019601855 0.009550171 -0.007262441 -0.018611485 0.03744368
-0.030125268 -0.006463176 0.043484192 0.021886988 0.008746011 -0.021044608 0.013404696 0.059996385
-0.025999097 0.013454515 -0.012206964 -0.005381201 -0.016431252 -0.021197872 0.000862139 0.011586536
0.006771294 0.012860229 -0.01517621 0.012475376 0.004119338 0.025960892 0.0207942 0.007900586
0.0218396 0.014798952 0.04361454 0.013242542 0.0029676675 -0.030191017 -0.016267512 -0.032153133
-0.026156584 0.0060266037 -0.02637518 -0.0043913387 0.048874512 0.00047773623 0.043950267 0.048978455
-0.02460465 -0.031250298 -0.015845358 0.03283234 0.0005521339 0.04000415 0.024305515 0.01299436
00000000: 7be2 17bd 6435 9cbc ef25 5a3b b3f7 303d
00000010: 5965 0f3d 7b8f 8d3c 0e49 7fbb 067c f63c
00000020: 5b09 07bb 1750 8fbc 3946 a33c b2b4 133d
00000030: 144d b53c 9b53 9e3b 53a5 d63b 4f58 a4bc
00000040: 5456 26bd d57a 2a3c 428b 143d f2ec 1cbd
00000050: cf7c 51bd 5f3e 143c 3b29 d8bb db0b 753c
00000060: d902 a63b 28f9 a3ba b085 9ebc dfc9 0dbc
00000070: f9cf 373d dd41 c3bc b8c0 5dbd 91fa c1bc
00000080: eacb 42bb e187 9a3b f5a7 0b3d e316 003d
00000090: 6abb 63ba 45c7 d9bc 1249 a23c feb2 903b
000000a0: 8c07 f03b 7a0f 323c 1cc6 febc f8c6 7cbb
000000b0: f186 35bc aa33 abba 4505 4abc d7d0 83bd
000000c0: 7f94 233d a5de efbc 9a6a c23c d3ce b6bc
000000d0: 7a56 d7bb ea7c 513b 5ff9 76bc 8af2 14bd
000000e0: 1985 6fbc 8ffb b5bb a087 8ebb 45fd 11bd
000000f0: 78a5 ec3c 84d7 0abc c53e ac3c 749a 30bc
00000100: af60 f53a b45f 03bc bdff a8bc 4df8 babc
00000110: 11a2 d7bb 8ec5 9e3c ad11 80bc df67 97bc
00000120: 246c cabc 0b05 093d 1a54 1abc 814f 003c
00000130: 79fa 033d d816 8d3c a62b 823b f056 4cbb
00000140: 01a5 1f3c fa0a 4a3d 14e8 b9bc 11f5 47bb
00000150: f651 bf3c 47fb 88bb 45f2 58bc db60 413c
00000160: 4925 3e3c 9996 b7bc ed27 123c 1047 833c
00000170: 0cfa 8ebc 481c d73c 4809 263d b4fd d1bc
00000180: 043d 8f3b 2cf5 5abc 636f 693c e155 4bbc
00000190: a00f aebc 4b2f b7bc d872 ea3c ae52 6fbc
000001a0: 3986 793c 4ccb 79bc 4c7f 3fbd ae33 77bc
000001b0: ef4f fb3b 8b47 313d 0162 183c 2322 63bc
000001c0: 6408 e3bb d494 38bd 565b acbb 6508 ce3c
000001d0: 67f1 0ebc 176a ca3b 2d5e 02bc 0cf4 703b
000001e0: acc4 063b 860c 81bb a95f e63c fb03 0bbd
000001f0: cc91 98ba 5321 833c b305 283c 5a9a 36bb
00000200: b989 a13c e51c 22bb ca2f 203d 3a3a 9a3c
00000210: 53d2 863b 796f ce3c 33c1 e43c ff3e 113d
00000220: c81a bdbc 5eea d8bc 4f4c b7bc 1f10 46bb
00000230: 19a5 1ebd 9316 9dbb bbcd 23bb d792 3f3d
00000240: 87eb 013d 8c28 ba3c 1eb2 29bc 79fe 9abc
00000250: 8071 203d fdab 6cbc 33ec 793c 7019 173c
00000260: 90df bb3c caca 15bd f67e 19bc ca52 63bb
00000270: 25ec 1ebc e21f 0fbc 5c2c 5f3c 2962 95bb
00000280: e51b d23b 7c74 2cbc 1303 9bbc dc6e b1bc
00000290: b5dc a4bb 517b 2c3c f59d 8b3b cb11 023c
000002a0: 73b0 8abc ad43 d4bc 7ac5 223c 3f5c debb
000002b0: 5f94 7d3a 724a 9dba 8a4b 64bc a3d3 fb3c
000002c0: 46f7 b13b cfd8 b13c 11fc 7f3c 8f2a 56bc
000002d0: 52cc 163c 64c3 4b3d d5b6 ebbb a82d 16bd
000002e0: fa33 073c 8be8 8e3c 5751 9abc 912b f03c
000002f0: 3644 59bb 5628 233d 14e5 2abd 20fe 383c
00000300: f8ba 5f3a eacf 303b 2350 c53c df75 eb3b
00000310: 4eda 26bd b3f6 1dbb 29b7 8c3c 0319 4cbb
00000320: a267 633d 7c22 adbc 2930 e03c 1294 a0bc
00000330: 5278 1c3c c5f9 edbb 1d77 98bc 8b5e 193d
00000340: 44c9 f6bc 0dc9 d3bb 7b1c 323d 574c b33c
00000350: 6e4b 0f3c be65 acbc 5f9f 5b3c c5be 753d
00000360: 0ffc d4bc 5370 5c3c b8ff 47bc c954 b0bb
00000370: d59a 86bc 29a7 adbc 2b01 623a 74d5 3d3c
00000380: bbe1 dd3b b6b3 523c a3a5 78bc 8565 4c3c
00000390: 83fb 863b f0ab d43c 9958 aa3c 7671 013c
000003a0: f6e8 b23c 4e77 723c 29a5 323d 3ff7 583c
000003b0: 337d 423b 2753 f7bc 7243 85bc 01b3 03bd
000003c0: 5546 d6bc d17a c53b c310 d8bc 38e5 8fbb
000003d0: a430 483d ac78 fa39 3205 343d a29d 483d
000003e0: b18f c9bc 5000 00bd 20ce 81bc 347b 063d
000003f0: 14bd 103a 64db 233d 5c1c c73c 4ce6 543c

network_body._body_endoder.seq_layers.0.bias f4 [128]
-0.018761568 -0.0135158 0.011445614 -0.008901789 0.023156168 0.010214366 0.0108402325 -0.00200616
-0.017505908 0.037767656 0.038513117 0.022966737 -0.009645161 0.02212329 -0.006679502 0.003572363
0.0015931816 0.009041772 0.0009208111 0.006673077 -0.010871846 0.009202773 -0.005368742 0.0019029297
0.017237162 -0.016868506 -0.005491349 -0.010505656 0.013168621 0.012455288 -0.028060436 0.02599395
-0.034795772 0.00157018 0.010784183 -0.012229703 0.0045810044 -0.007732093 0.0009521583 0.0018334888
0.0014692923 0.01288314 -0.010822227 0.028167523 -0.013483338 0.0012294356 0.012264632 0.0066863075
-0.006876586 -0.0019879937 0.018359113 -0.007858928 0.01607279 -0.029632676 0.011886709 0.034894265
0.013025736 0.029466484 -0.001483516 0.004118663 0.020730097 0.011555771 -0.004806251 0.0077565475
0.005899436 -0.0206982 0.0013790592 -0.012586494 0.01791836 0.026185034 0.014318799 -0.0012930859
0.001560204 0.012042007 0.00220175 0.0016620295 -0.00089350424 0.022489518 -0.015462789 0.02032632
0.012182149 0.0075967684 -0.012200697 0.019548668 -0.0084557105 0.003531359 0.0351963 0.008829405
-0.01139158 0.021310005 0.01724662 -0.00033743161 0.012057605 -0.0005186549 0.027326096 0.021505902
0.0011958741 0.024821065 0.010449204 0.0012840853 0.017637793 -0.004379116 0.0077273976 0.006438013
-0.0073911687 0.033559747 -0.0019846344 0.016504897 -0.019257743 -0.02578929 -0.0008432064 -0.014183214
0.035789844 0.021552293 0.004918948 0.004380708 0.020710945 -0.0022967735 0.00347671 -1.5119254e-05
-0.0061786463 -0.021465672 -0.018887948 0.023644615 0.031491257 -0.019105742 -0.0073173167 0.032071106
00000000: dcb1 99bc 6071 5dbc 6286 3b3c cfd8 11bc
00000010: 01b2 bd3c 285a 273c 3b9b 313c c879 03bb
00000020: 8d68 8fbc 42b2 1a3d eebf 1d3d bd24 bc3c
00000030: bd06 1ebc e73b b53c b9df dabb 4e1e 6a3b
00000040: 4ed2 d03a f123 143c 9662 713a d4a9 da3b
00000050: d41f 32bc 3ac7 163c 46ec afbb ba6b f93a
00000060: f334 8d3c d22f 8abc c6f0 b3bb ea1f 2cbc
00000070: 33c1 573c 4411 4c3c 00df e5bc 44f1 d43c
00000080: 0386 0ebd 7fce cd3a 24b0 303c 185f 48bc
00000090: 401c 963b 7f5d fdbb 439a 793a ad51 f03a
000000a0: 4595 c03a ce13 533c b64f 31bc 94bf e63c
000000b0: 38e9 5cbc 0325 a13a 98f1 483c d018 db3b
000000c0: fc54 e1bb 0049 02bb da65 963c bcc2 00bc
000000d0: 15ab 833c 3ac0 f2bc 79c0 423c 4aed 0e3d
000000e0: e669 553c b263 f13c 8972 c2ba d9f5 863b
000000f0: 2ad2 a93c 6b54 3d3c c17d 9dbb a32a fe3b
00000100: 0e50 c13b 468f a9bc 8cc1 b43a 9537 4ebc
00000110: 86c9 923c ff81 d63c 6599 6a3c c37c a9ba
00000120: c27f cc3a d74b 453c 3c4b 103b 75d8 d93a
00000130: 0e3a 6aba f03b b83c a357 7dbc 6283 a63c
00000140: a397 473c 50ee f83b 6fe5 47bc 8724 a03c
00000150: d289 0abc 5f6e 673b ff29 103d 35a9 103c
00000160: c0a3 3abc 5292 ae3c c948 8d3c 4ee9 b0b9
00000170: 438d 453c 57f6 07ba fada df3c 252d b03c
00000180: e0be 9c3a 8c55 cb3c 2333 2b3c c14e a83a
00000190: 227d 903c b07e 8fbb 1c36 fd3b f8f5 d23b
000001a0: 9e31 f2bb f275 093d a410 02bb 4735 873c
000001b0: 6ac2 9dbc 1044 d3bc a00a 5dba b660 68bc
000001c0: 5f98 123d 6f8e b03c 202f a13b 0b8c 8f3b
000001d0: 00aa a93c 7785 16bb 84d9 633b b4a8 7db7
000001e0: 3e76 cabb c7d8 afbc e6ba 9abc 5ab2 c13c
000001f0: fafc 003d a583 9cbc 1ac6 efbb fe5c 033d

network_body._body_endoder.seq_layers.0.weight f4 [128, 10]
0.31781742 -0.6458685 0.011208347 -0.140658 -0.043301646 -0.012531503 -0.106674284 0.17370115
0.024044752 -0.32967705 0.18296413 -0.23350234 -0.023376044 -0.050507642 -0.34127486 -0.25048706
0.45169783 0.046457052 -0.33629277 0.22992353 0.18511721 0.22015111 -0.2771362 0.041268412
0.4816095 -0.37684005 0.8292978 0.08105291 0.44840464 0.027846262 0.4451762 -0.37068027
0.2630261 0.2156994 0.20214558 0.43837523 0.018375948 0.5009147 -0.23984742 -0.661465
-0.01792869 -0.6451056 0.091964304 0.15501197 0.08327162 0.06264009 -0.27514434 -0.13945137
0.22126603 0.14872764 -0.56509006 -0.19065185 -0.2975117 -0.186164 -0.21185598 -0.13067545
0.35282344 0.10957397 -0.1452884 -0.15899125 -0.11850664 -0.26494336 -0.030815616 0.49969536
0.14824328 0.05645909 0.09016937 0.51813287 0.5210271 0.024750145 0.12590645 -0.279786
-0.6378002 0.14461671 0.2572236 0.0832879 0.34722835 -0.32116526 0.25080985 0.020672662
-0.7759763 -0.15194562 -0.16298556 -0.65000707 -0.012288588 0.29957354 0.095913105 0.16264537
-0.21351287 0.01685897 -0.35144773 0.04900262 0.19204545 -0.3394152 -0.15207466 0.090532154
-0.27235833 -0.37912184 0.13960811 0.09621943 0.06916593 0.031308662 -0.61469907 0.3466237
0.16147947 -0.12861358 0.07240936 -0.019072266 0.29604825 0.10399447 0.142971 0.17250092
0.07590504 -0.0014500964 -0.035117544 -0.22208086 0.01594662 0.506799 -0.23083279 0.603079
0.24823682 0.16694407 0.12332576 0.24766244 0.2799192 0.3903357 0.098795906 -0.00994794
0.3936883 0.0610815 0.24037513 0.04919388 0.09176111 -0.35972846 -0.5720783 0.05268874
-0.19397637 -0.09563037 0.13140014 0.21583453 0.50960577 -0.23016833 0.2352473 0.2715461
0.26193982 0.4518297 -0.03413616 0.7505539 0.5145815 0.35840338 -0.13464579 -0.0002497134
-0.28604904 -0.4822115 0.042739674 -0.33765873 -0.07616172 0.37377617 0.45652506 -0.14764543
-0.3180285 0.13290584 -0.27286735 -0.18236774 0.12615691 0.09173387 0.032223087 -0.48014814
-0.22923046 0.06191457 0.028139789 0.4893253 0.6622761 -0.11277743 0.028123103 -0.41520423
0.060229845 -0.1506623 -0.036277205 0.44374743 0.07205992 -0.19908005 -0.36720002 -0.17292249
-0.15648389 -0.3548244 -0.15111065 -0.054857124 0.102543935 -0.2819753 0.11627995 -0.027332222
-0.002179873 -0.17298384 -0.96378195 -0.37013853 -0.06510375 0.36784795 -0.113147154 0.4905643
0.25109407 0.27185178 0.27494112 0.31817695 0.12826794 0.16836797 -0.1947601 -0.042389385
0.4550866 0.24124148 0.117521346 0.095707186 0.14431562 0.44848228 0.13526197 0.08289174
-0.05656064 -0.19357696 -0.15697137 -0.48072717 -0.47829765 -0.12646605 -0.12473116 -0.007657386
0.14444886 0.00087471795 -0.45263118 -0.23520574 0.32198685 0.16995716 0.35329205 0.3251182
-0.04614749 -0.09637781 -0.10912252 0.32397157 0.1910658 -0.19306679 -0.3263701 0.44941124
-0.10314784 -0.09038394 0.13575596 -0.13045365 -0.3072317 -0.08644026 0.47551644 -0.47273362
-0.19964918 0.07964556 -0.014352181 -0.03784643 0.6355275 -0.05510871 -0.18143108 0.45512533
00000000: f7b8 a23e a357 25bf 37a3 373c a708 10be
00000010: 115d 31bd ef50 4dbc 0c78 dabd b7de 313e
00000020: 80f9 c43c 6ecb a8be f35a 3b3e 3d1b 6fbe
00000030: 1e7f bfbc 1ae1 4ebd 94bb aebe d73f 80be
00000040: f044 e73e c049 3e3d 912e acbe 1371 6b3e
00000050: 5e8f 3d3e 4b6f 613e cce4 8dbe 1109 293d
00000060: 8595 f63e 2ef1 c0be dc4c 543f 11ff a53d
00000070: 4b95 e53e d81d e43c 23ee e33e cec9 bdbe
00000080: 5bab 863e 4ee0 5c3e 40ff 4e3e b872 e03e
00000090: 2889 963c f23b 003f 909a 75be c555 29bf
000000a0: 30df 92bc a425 25bf c857 bc3d 75bb 1e3e
000000b0: 508a aa3d 7349 803d b8df 8cbe 57cc 0ebe
000000c0: 9093 623e 0f4c 183e bea9 10bf 3d3a 43be
000000d0: 7453 98be c7a1 3ebe c6f0 58be c9cf 05be
000000e0: 46a5 b43e 5168 e03d 7bc6 14be 9ace 22be
000000f0: 9cb3 f2bd a8a6 87be 0871 fcbc 12d8 ff3e
00000100: 16cd 173e a641 673d b8aa b83d 5ba4 043f
00000110: 0862 053f d1c0 ca3c 9fed 003e 1c40 8fbe
00000120: e046 23bf 6716 143e d0b2 833e d992 aa3d
00000130: eac7 b13e c66f a4be 266a 803e b759 a93c
00000140: 62a6 46bf a297 1bbe b0e5 26be dd66 26bf
00000150: 1356 49bc b461 993e 176e c43d 828c 263e
00000160: 1ea3 5abe d31b 8a3c f5f0 b3be f9b6 483d
00000170: 90a7 443e d4c7 adbe 76b9 1bbe ec68 b93d
00000180: 8d72 8bbe 421c c2be 6ef5 0e3e b10e c53d
00000190: dea6 8d3d 833d 003d eb5c 1dbf a978 b13e
000001a0: e05a 253e 47b3 03be 5c4b 943d 713d 9cbc
000001b0: a393 973e 0dfb d43d fd66 123e 15a4 303e
000001c0: 1a74 9b3d 2911 beba 6ad7 0fbd 2a69 63be
000001d0: 7ca2 823c 94bd 013f 6e5f 6cbe 6363 1a3f
000001e0: cb31 7e3e 63f3 2a3e 3792 fc3d 399b 7d3e
000001f0: 9251 8f3e 15da c73e 8255 ca3d affc 22bc
00000200: 8391 c93e 9830 7a3d e624 763e 867f 493d
00000210: 40ed bb3d 542e b8be b973 12bf 26d0 573d
00000220: bea1 46be dbd9 c3bd c28d 063e ba03 5d3e
00000230: 8675 023f 3fb1 6bbe abe4 703e 1708 8b3e
00000240: fa1c 863e 3956 e73e 5cd2 0bbd 4d24 403f
00000250: 9dbb 033f a680 b73e 96e0 09be f7eb 82b9
00000260: 0575 92be 6de4 f6be cc0f 2f3d 9be1 acbe
00000270: adfa 9bbd 975f bf3e a7bd e93e 5d30 17be
00000280: a2d4 a2be 7818 083e 45b5 8bbe 9cbe 3abe
00000290: 472f 013e f8de bb3d 5bfc 033d fad5 f5be
000002a0: 64bb 6abe 229a 7d3d 6a85 e63c d988 fa3e
000002b0: ed8a 293f daf7 e6bd 6c62 e63c a695 d4be
000002c0: 92b3 763d 3847 1abe 6897 14bd dd32 e33e
000002d0: 2794 933d a4db 4bbe a401 bcbe 9812 31be
000002e0: 503d 20be 8bab b5be c0bc 1abe ddb1 60bd
000002f0: 8e02 d23d 115f 90be 2f24 ee3d d3e7 dfbc
00000300: 33dc 0ebb ad22 31be 6aba 76bf cc82 bdbe
00000310: 1d55 85bd 9156 bc3e b2b9 e7bd 3e2b fb3e
00000320: 678f 803e 2830 8b3e 15c5 8c3e 17e8 a23e
00000330: ac58 033e a768 2c3e 316f 47be 7ea0 2dbd
00000340: 1c01 e93e 0208 773e 08af f03d 2102 c43d
00000350: 79c7 133e 789f e53e 1d82 0a3e 25c3 a93d
00000360: 21ac 67bd 0a39 46be 1abd 20be df21 f6be
00000370: 6ee3 f4be 5180 01be 0d73 ffbd cfea fabb
00000380: 67ea 133e 544d 653a 46bf e7be c6d9 70be
00000390: 76db a43e 4009 2e3e b2e2 b43e e575 a63e
000003a0: 2705 3dbd bb61 c5bd a17b dfbd 9adf a53e
000003b0: c1a6 433e 4db3 45be fb19 a7be 3b19 e63e
000003c0: 2d3f d3bd 371b b9bd 9c03 0b3e a495 05be
000003d0: 794d 9dbe 9707 b1bd e476 f33e 240a f2be
000003e0: d670 4cbe 361d a33d 6925 6bbc dc04 1bbd
000003f0: eeb1 223f acb9 61bd 12c9 39be 3006 e93e

network_body._body_endoder.seq_layers.2.bias f4 [128]
-0.028564412 -0.007266372 -0.005077331 0.011768784 0.015151169 0.015581531 0.013053435 0.016715767
-0.0012865509 -0.005535657 0.0025631983 0.017424893 0.02929281 -0.002760229 0.0059045237 0.024795407
0.022433503 0.00901119 0.008567862 0.0034408164 0.021074148 0.0033508113 -0.00978552 0.009477997
0.001742872 0.01944966 0.016888395 -0.0054599964 0.005517241 -0.006374042 0.0059461114 0.0006233132
-0.0016629061 0.0052251085 0.013918805 0.012339541 -0.0051043388 -0.011725341 -0.00919674 0.023162607
0.013818581 0.0059070494 0.009133292 -0.019829214 -0.010254502 0.009897626 0.008107423 0.03958267
0.0076007233 0.017370438 0.010399199 0.009999491 0.018241195 -0.009489675 0.010052536 0.00507346
-0.020775072 0.0037448362 0.026908007 0.00072721345 -0.006676098 0.012075465 0.02478655 0.009168601
0.010732399 -0.011239327 0.017736282 0.004851023 0.014471074 0.0058138436 -0.0069025215 0.004718086
0.023031937 0.026307933 0.029116986 -0.007558986 0.003137696 -0.004678025 0.0077648303 -0.00015600337
0.00033464294 -0.0019261213 0.007305951 -0.006243725 -0.0030153932 -0.00030699186 0.029524716 0.031910952
0.010579706 0.0035433709 0.012201388 0.015322048 -0.007307639 0.008350296 0.008932797 0.006245446
0.021325283 -0.016242929 0.005118783 -0.006639387 -0.012863551 -0.008332937 0.009874788 -0.0092892675
0.003499899 -0.009338178 0.041483756 -0.0048007546 -0.018329471 0.041348595 -0.011599242 0.0100973565
0.0028911454 0.0010275238 0.0006630116 0.026054839 0.04458946 -0.010830475 0.012992223 0.017149072
-0.0044885604 -0.0027992844 0.031652987 -0.006883685 -0.01273725 0.018770546 0.014839341 -0.012818917
00000000: eaff e9bc bf1a eebb bd5f a6bb dcd1 403c
00000010: 9c3c 783c ae49 7f3c 13de 553c 81ef 883c
00000020: 7ca1 a8ba 7564 b5bb 55fb 273b a6be 8e3c
00000030: 7af7 ef3c f5e4 34bb bc7a c13b bd1f cb3c
00000040: 77c6 b73c aca3 133c 3860 0c3c 527f 613b
00000050: b1a3 ac3c 4999 5b3b 7253 20bc 9a49 1b3c
00000060: 1471 e43a e554 9f3c 8859 8a3c c5e9 b2bb
00000070: f9c9 b43b 57dd d0bb 99d7 c23b d765 233a
00000080: dff5 d9ba 6337 ab3b b30b 643c c92b 4a3c
00000090: 4c42 a7bb a51b 40bc ecad 16bc 82bf bd3c
000000a0: 5467 623c ec8f c13b cea3 153c e070 a2bc
000000b0: 8002 28bc a729 223c ffd4 043c 7021 223d
000000c0: 7d0f f93b 734c 8e3c 6761 2a3c e8d4 233c
000000d0: 8f6e 953c 957a 1bbc 64b3 243c 443f a63b
000000e0: 7c30 aabc ed6b 753b 2e6e dc3c 78a2 3e3a
000000f0: 2bc3 dabb 2cd8 453c 2a0d cb3c e637 163c
00000100: f2d6 2f3c 2725 38bc ae4b 913c 55f5 9e3b
00000110: 1518 6d3c 0e82 be3b 8c2e e2bb 2d9a 9a3b
00000120: 79ad bc3c bc83 d73c bf86 ee3c 5fb1 f7bb
00000130: cea1 4d3b 1e4a 99bb 1e70 fe3b d694 23b9
00000140: 0473 af39 e875 fcba c266 ef3b 2998 ccbb
00000150: e79d 45bb c0f3 a0b9 d1dd f13c 0fb5 023d
00000160: 8156 2d3c e637 683b 55e8 473c 5409 7b3c
00000170: eb74 efbb aecf 083c de5a 123c 99a6 cc3b
00000180: 5cb2 ae3c e40f 85bc 77bb a73b 378f d9bb
00000190: a5c1 52bc df86 08bc ddc9 213c 0332 18bc
000001a0: 905e 653b 28ff 18bc dfea 293d a64f 9dbb
000001b0: b027 96bc 255d 293d bf0a 3ebc 626f 253c
000001c0: 5f79 3d3b faad 863a f5cd 2d3a f570 d53c
000001d0: 70a3 363d 4e72 31bc 55dd 543c 367c 8c3c
000001e0: c614 93bb 3374 37bb 90a6 013d 8990 e1bb
000001f0: e6af 50bc b0c4 993c b520 733c 6f06 52bc

network_body._body_endoder.seq_layers.2.weight f4 [128, 128]
-0.14935859 -0.023168858 -0.07786025 0.09565246 -0.13929306 -0.0034922007 -0.053039413 0.035635836
0.013470251 0.10141795 0.0106963115 -0.03116216 -0.046567753 -0.10183728 -0.024934398 0.033333935
-0.030475521 -0.028982978 0.10549503 -0.03742724 -0.057451565 0.08777466 -0.07215324 -0.0078101913
-0.05764135 0.13797973 -0.046061646 0.1516385 0.01211201 0.17888841 -0.25203055 -0.105745785
0.007192194 -0.02775548 -0.117124476 -0.0044631395 0.08554445 0.070483096 -0.10189529 -0.03423602
-0.057710014 -0.087120175 0.15458739 -0.098019555 -0.026278641 -0.04017738 -0.25598982 -0.029890886
-0.15549237 -0.013797593 -0.0064965747 0.093363844 0.035282854 -0.051511303 -0.11097001 -0.036817983
-0.02006705 0.086376205 -0.06887377 0.0021123057 -0.10882349 -0.07759909 -0.14836286 0.14104474
-0.038240436 -0.015016848 0.037964642 -0.17932495 0.02961991 0.11299656 -0.1269807 0.05908683
-0.1338303 0.13076544 -0.051034592 0.005221737 -0.030054634 0.018525094 0.18423414 -0.08538923
0.06300917 0.08000159 -0.15583454 0.0023358727 0.044568505 0.0072244606 -0.012535953 -0.041201875
-0.15929209 0.014975082 0.13234922 -0.08080534 -0.035140187 0.013284233 -0.1275716 -0.10032044
0.039884176 -0.12077528 -0.064446606 -0.03660679 -0.15277667 0.04587625 0.024889685 0.07500673
-0.030748943 0.031621326 -0.05542084 -0.100576594 -0.020290237 0.019474994 -0.13986394 0.17970584
0.026045978 0.2210314 0.044485126 0.056893174 0.07935752 0.03612292 0.017353665 0.037433725
0.07355298 0.026434025 0.11953681 -0.015097145 -0.05350292 -0.13443413 -0.08742836 0.093377456
-0.0013759868 -0.06164785 -0.016886078 -0.030811174 0.026644452 0.018510085 -0.055112902 0.08622389
-0.0041111354 -0.09237897 -0.0096558705 -0.083487414 0.05720414 0.017622322 -0.13918681 0.07189999
-0.005394402 -0.09971085 0.054745045 0.015654562 0.002523616 0.13328347 0.08910791 -0.06384374
-0.11827882 0.046184003 0.14500679 0.119005896 0.08100963 0.022570347 0.0149271 0.116633564
0.054907717 0.16121586 0.076317586 0.11942158 0.08564058 0.0054544127 -0.08227218 0.08624726
-0.11616725 -0.085705265 -0.005942691 0.03371632 0.07140051 -0.057949167 -0.041501738 0.11394255
-0.058948614 -0.012546894 -0.020303996 0.15713312 0.20012815 -0.015577473 -0.25917342 0.12153835
0.0746664 -0.02622752 0.02014208 0.025234822 -0.1408756 -0.0051340167 0.004834403 -0.1594435
0.034835562 -0.02049843 0.052383564 -0.1289165 0.15328231 -0.022169823 -0.000716598 -0.013459886
0.057581447 -0.03402538 -0.005234128 -0.01578166 0.07221322 0.04614437 0.0038999456 -0.09622197
0.1458303 -0.020501219 -0.11076929 -0.0014771953 0.06138549 -0.0963275 -0.053207166 0.09843201
0.22492759 0.19493613 0.03442625 0.101230845 0.094996616 0.09426829 -0.073451266 -0.014324546
0.03500095 -0.0433168 0.14496326 0.021876695 0.0012376813 -0.047204178 -0.032001417 -0.05192035
-0.20243634 -0.068725035 0.11073054 -0.042953663 0.0792342 -0.119032994 -0.0017601767 -0.06353049
0.08280408 -0.07432101 0.0030399512 -0.05951092 0.07412087 0.15036558 0.0044776066 -0.08515102
0.011011801 0.021867411 0.16619052 -0.0018958926 -0.1944859 0.042794842 0.06956248 -0.0392627
00000000: 75f1 18be 9ecc bdbc 3275 9fbd 70e5 c33d
00000010: d7a2 0ebe 68dd 64bb db3f 59bd e2f6 113d
00000020: 54b2 5c3c 37b4 cf3d 953f 2f3c c947 ffbc
00000030: d4bd 3ebd 1090 d0bd 3943 ccbc 2a89 083d
00000040: cda7 f9bc b66d edbc c70d d83d 4e4d 19bd
00000050: 5552 6bbd 33c3 b33d 14c5 93bd a2ec ffbb
00000060: 5619 6cbd 8f4a 0d3e 23ab 3cbd 1f47 1b3e
00000070: 7471 463c 862e 373e 260a 81be 3f91 d8bd
00000080: 7fac eb3b 765f e3bc f5de efbd 873f 92bb
00000090: ee31 af3d 7159 903d 7aae d0bd 123b 0cbd
000000a0: 5661 6cbd 106c b2bd 284c 1e3e 7abe c8bd
000000b0: 4e46 d7bc 0991 24bd 1911 83be bbdd f4bc
000000c0: 6439 1fbe 4d0f 62bc 38e1 d4bb 8b35 bf3d
000000d0: c184 103d 84fd 52bd 3f44 e3bd 74ce 16bd
000000e0: a763 a4bc 02e6 b03d b10d 8dbd 9c6e 0a3b
000000f0: dade debd 46ec 9ebd 6fec 17be 086e 103e
00000100: 01a2 1cbd 3a09 76bc d080 1b3d f6a0 37be
00000110: 74a5 f23c be6a e73d 3b07 02be 0805 723d
00000120: cf0a 09be 60e7 053e a609 51bd 1b1b ab3b
00000130: 2335 f6bc f0c1 973c e0a7 3c3e 8ce0 aebd
00000140: f40a 813d e0d7 a33d 1793 1fbe 7115 193b
00000150: 778d 363d 2bbb ec3b 9963 4dbc 4cc3 28bd
00000160: 771d 23be 0c5a 753c 8e86 073e 457d a5bd
00000170: 28ef 0fbd 1da6 593c 21a2 02be ce74 cdbd
00000180: 975d 233d 0859 f7bd 95fc 83bd 00f1 15bd
00000190: 7d71 1cbe bce8 3b3d 74e5 cb3c 219d 993d
000001a0: 35e5 fbbc 5d85 013d f600 63bd 1afb cdbd
000001b0: b637 a6bc 068a 9f3c 7e38 0fbe cf04 383e
000001c0: 605e d53c 0e56 623e 0936 363d d108 693d
000001d0: 3286 a23d a1f5 133d 4629 8e3c 1b54 193d
000001e0: f2a2 963d 2b8c d83c b7cf f43d 045a 77bc
000001f0: e125 5bbd 1aa9 09be a40d b3bd ae3c bf3d
00000200: 755a b4ba 7582 7cbd ac54 8abc b767 fcbc
00000210: 7745 da3c 76a2 973c 11be 61bd 2796 b03d
00000220: b4b6 86bb 2f31 bdbd a833 1ebc 73fb aabd
00000230: e34e 6a3d b05c 903c fd86 0ebe 4d40 933d
00000240: 86c3 b0bb 3435 ccbd 573c 603d ff3d 803c
00000250: 4063 253b 767b 083e 357e b63d 82c0 82bd
00000260: 2a3c f2bd 702b 3d3d a97c 143e 5db9 f33d
00000270: 60e8 a53d 73e5 b83c cc90 743c 94dd ee3d
00000280: eae6 603d c515 253e 654c 9c3d 4d93 f43d
00000290: 5464 af3d eeba b23b 517e a8bd 67a2 b03d
000002a0: 18e9 edbd 3e86 afbd e8ba c2bb 201a 0a3d
000002b0: 6e3a 923d 1b5c 6dbd bafd 29bd b65a e93d
000002c0: 1a74 71bd 7d91 4dbc 9154 a6bc 81e7 203e
000002d0: 65ee 4c3e a838 7fbc 61b2 84be 19e9 f83d
000002e0: b3ea 983d 19db d6bc 0101 a53c 42b9 ce3c
000002f0: b141 10be 413b a8bb e969 9e3b 2845 23be
00000300: bcaf 0e3d 53ec a7bc 2690 563d b002 04be
00000310: 0af6 1c3e 7d9d b5bc 14da 3bba db86 5cbc
00000320: 86da 6b3d 325e 0bbd 0c83 abbb 8a48 81bc
00000330: 86e4 933d e101 3d3d 3b96 7f3b 0610 c5bd
00000340: 8a54 153e 2cf2 a7bc 02db e2bd 739e c1ba
00000350: 5a6f 7b3d 5a47 c5bd c2ef 59bd b996 c93d
00000360: 6b53 663e 569d 473e 8a02 0d3d 1e52 cf3d
00000370: 968d c23d bc0f c13d 9e6d 96bd 80b1 6abc
00000380: 285d 0f3d f56c 31bd 4071 143e c136 b33c
00000390: b139 a23a 2b59 41bd eb13 03bd 6faa 54bd
000003a0: 794b 4fbe b6bf 8cbd b1c6 e23d 2ef0 2fbd
000003b0: 8a45 a23d 92c7 f3bd bbb5 e6ba 461c 82bd
000003c0: 2f95 a93d 9d35 98bd eb39 473b b9c1 73bd
000003d0: afcc 973d 6ff9 193e e3b8 923b a863 aebd
000003e0: d76a 343c 4923 b33c d92d 2a3e 997f f8ba
000003f0: 5027 47be a549 2f3d c676 8e3d edd1 20bd
