results/agentTarget02/AgentTarget/AgentTarget-16980.onnx (onnx, 80149 bytes, 7 tensors)

action_model._continuous_distribution.log_sigma f4 [1, 3]
0.0 0.0 0.0
00000000: 0000 0000 0000 0000 0000 0000

action_model._continuous_distribution.mu.bias f4 [3]
0.0 0.0 0.0
00000000: 0000 0000 0000 0000 0000 0000

action_model._continuous_distribution.mu.weight f4 [3, 128]
0.022521306 -0.013627479 0.0049326494 -0.0014289507 -0.0029501196 9.083928e-05 -0.0043005175 0.017639212
-0.005117532 -0.019187449 0.013938944 0.014409937 0.005127131 0.033245735 -0.037792962 0.031591818
-0.010941171 -0.020222232 -0.010694561 -0.017557634 -0.026186159 -0.004237266 -0.02646313 -0.0050000334
-0.013257267 0.01870363 0.012295562 -0.008763635 0.026742382 -0.011093622 0.023651568 0.016332433
0.042950924 -0.010924466 -0.006896384 -0.007986983 -0.0139158415 0.028545022 0.005613171 -0.0024147804
0.017201805 1.630643e-05 -0.052343428 -0.004982752 0.017493585 0.031194359 -0.007741362 0.01422278
-0.0017849872 -0.01846958 -0.01308994 -0.026908467 0.007616326 0.0042558243 -0.0081068035 0.013858147
0.015177629 -0.004484571 -0.03544377 -0.0033712909 -0.037572827 -0.017450687 0.0013603487 -0.008496829
-0.007871157 0.006616329 -0.01538627 0.03575208 -0.014729723 0.02675346 0.014821437 0.023895608
0.008051513 0.005395753 0.0031011656 0.008781502 0.019952217 -0.00054817845 0.0036392254 -0.014061247
0.013311967 -0.022448799 0.0019565793 0.0028294537 0.017784093 -0.030359706 -0.01064268 0.0070074606
-0.010977148 0.016925702 -0.004415237 -0.010743326 -0.0076088584 0.031010065 -0.0025817663 -0.037942663
-0.01006345 0.003498882 -0.011829884 0.024387604 0.017739387 0.0045173746 0.0033519734 0.014142062
-0.002184271 0.0038547346 0.011317504 0.009481068 -0.014661372 -0.0049327184 -0.018045343 -0.04485249
-0.041008174 -0.013729221 0.004365483 0.017767614 -0.03791112 -0.020992804 -0.0138192 -0.032936428
0.039190203 -0.004243988 0.023822127 -0.012448449 0.008279278 0.009969848 -0.019113054 -0.009079794
-0.028025532 0.02314888 0.017449329 -0.015093751 0.030827899 -0.0041751284 -0.011546913 -0.0007246128
0.028991345 -0.004815639 0.027954994 0.015870722 0.013970355 0.0007014234 0.024927769 -0.014419654
0.03492252 0.010822967 0.011497568 0.0058463435 -0.020862315 -0.0113141285 0.015165995 -0.004618221
-0.01457804 -0.0027523767 -0.00016774598 -0.004850074 0.007325335 -0.0003684476 -0.036659315 0.024305463
0.011223282 0.024649834 0.0035955806 -0.010619224 0.007850225 -0.00039785603 -0.0028336958 -0.009375664
0.017828366 -0.00012671623 -0.025316987 -0.0019616238 -0.02574015 0.002796565 -0.0031891202 0.053055674
0.0024337173 0.010010463 0.019073773 0.021508822 -0.010149466 0.030861497 -0.0029556234 0.0024234008
0.026088938 0.01225461 0.02289486 -0.006975919 0.027567288 0.013777486 -0.0039096065 -0.009255747
0.029836092 0.04481696 0.037798405 -0.011878806 0.010803 -0.0014932746 0.015336801 0.0029238358
0.0036885634 0.016253605 0.012528481 0.00090146234 -0.014931991 0.010575336 0.015361324 0.020301359
0.022746108 0.0198407 -0.0007146455 0.02224595 0.026924541 -0.018044421 -0.016449105 -0.025392307
0.0007996955 -0.030540705 0.036587797 -0.021627134 0.0016647937 -0.001469795 -0.002282052 -0.018588854
0.0007171012 0.0042639365 0.00750867 -0.008073543 -0.015160138 0.0120287035 -0.019574463 -0.026679581
-0.00265983 0.002269307 0.0073134857 -0.018042078 -0.0027872764 -0.008326023 -0.0052872826 0.01728838
0.0012478956 -0.02714777 -0.0020904124 0.011907975 -0.03546913 -0.00042843036 0.0007451179 0.0033030498
-0.0009645054 -0.011694757 -0.01952783 0.00037470498 0.0022810951 0.00555142 0.0031398144 0.0013601956
00000000: 9a7e b83c ca45 5fbc 10a2 a13b a14b bbba
00000010: cb56 41bb f880 be38 5beb 8cbb 1c80 903c
00000020: f8b0 a7bb ff2e 9dbc 2b60 643c a817 6c3c
00000030: 7e01 a83b ae2c 083d cbcc 1abd 6c66 013d
00000040: 9942 33bc 18a9 a5bc 3d38 2fbc 07d5 8fbc
00000050: 5b84 d6bc c3d8 8abb 35c9 d8bc 52d7 a3bb
00000060: 0235 59bc 5b38 993c 5373 493c 5995 0fbc
00000070: d712 db3c 06c2 35bc efc0 c13c 98cb 853c
00000080: 4fed 2f3d 88fc 32bc 10fb e1bb d6db 02bc
00000090: 45ff 63bc 40d7 e93c b1ee b73b 4b41 1ebb
000000a0: cdea 8c3c cbc9 8837 1066 56bd 5a46 a3bb
000000b0: b54e 8f3c 508b ff3c 40ab fdbb aa06 693c
000000c0: 3bf6 e9ba 844d 97bc 3077 56bc 256f dcbc
000000d0: 6092 f93b 7174 8b3b 66d2 04bc 480d 633c
000000e0: 97ab 783c 4ff3 92bb 7d2d 11bd e0f0 5cbb
000000f0: f7e5 19bd bef4 8ebc ba4d b23a 4936 0bbc
00000100: 06f6 00bc cacd d83b b216 7cbc c670 123d
00000110: f054 71bc 122a db3c 9dd5 723c b9c0 c33c
00000120: 7eea 033c dbce b03b ed3c 4b3b 4ae0 0f3c
00000130: d572 a33c a2b3 0fba 1280 6e3b 2561 66bc
00000140: 701a 5a3c 8be6 b7bc f439 003b 5b6e 393b
00000150: f2af 913c ebb4 f8bc a35e 2ebc d79e e53b
00000160: 7fd9 33bc c5a7 8a3c b1ad 90bb c604 30bc
00000170: bb53 f9bb d208 fe3c da32 29bb c469 1bbd
00000180: 2be1 24bc 804d 653b 21d2 41bc 83c8 c73c
00000190: 3152 913c 7c06 943b c8ac 5b3b 1bb4 673c
000001a0: fd25 0fbb b79f 7c3b 0d6d 393c 7b56 1b3c
000001b0: 4036 70bc a4a2 a1bb d4d3 93bc 3fb7 37bd
000001c0: 30f8 27bd 87f0 60bc 530c 8f3b 638d 913c
000001d0: b148 1bbd 1af9 abbc ed69 62bc 59e8 06bd
000001e0: e885 203d 2711 8bbb 9f26 c33c 94f4 4bbc
000001f0: cfa5 073c 9358 233c fb92 9cbc 6bc3 14bc
00000200: cd95 e5bc b8a2 bd3c e5f1 8e3c c84b 77bc
00000210: ca8a fc3c 84cf 88bb 432f 3dbc f1f3 3dba
00000220: 427f ed3c 82cc 9dbb df01 e53c 5103 823c
00000230: eae3 643c badf 373a 5235 cc3c 6a40 6cbc
00000240: eb0a 0f3d d052 313c 4c60 3c3c af92 bf3b
00000250: 72e7 aabc e55e 39bc cb7a 783c 7254 97bb
00000260: bbd8 6ebc 3861 34bb f8e4 2fb9 5fed 9ebb
00000270: 5d09 f03b 332c c1b9 1428 16bd 401c c73c
00000280: dbe1 373c 73ee c93c d5a3 6b3b 41fc 2dbc
00000290: 3b9e 003c 5597 d0b9 87b5 39bb 639c 19bc
000002a0: cb0c 923c 21df 04b9 9265 cfbc 968e 00bb
000002b0: 02dd d2bc 9346 373b 8f00 51bb e850 593d
000002c0: 007f 1f3b ed02 243c 9a40 9c3c 4533 b03c
000002d0: f249 26bc 40d1 fc3c 22b3 41bb ebd1 1e3b
000002e0: 78b8 d53c 8fc7 483c 008e bb3c 4096 e4bb
000002f0: cbd4 e13c f7ba 613c 281c 80bb 6ba5 17bc
00000300: d26a f43c fd91 373d 80d2 1a3d 539f 42bc
00000310: 11ff 303c fbb9 c3ba 3547 7b3c d39d 3f3b
00000320: d3bb 713b 4826 853c 4244 4d3c 1d50 6c3a
00000330: 4fa5 74bc 2d44 2d3c 10ae 7b3c 094f a63c
00000340: 0c56 ba3c f788 a23c 0c57 3bba 233d b63c
00000350: db90 dc3c e5d1 93bc 46c0 86bc 8703 d0bc
00000360: a8a2 513a 8030 fabc 16dd 153d 632b b1bc
00000370: 3535 da3a 23a6 c0ba 7b8e 15bb a747 98bc
00000380: d9fb 3b3a 7eb8 8b3b 4a0b f63b e546 04bc
00000390: 3a62 78bc 0a14 453c a05a a0bc 238f dabc
000003a0: 8b50 2ebb a7b8 143b f7a5 ef3b fbcc 93bc
000003b0: bdaa 36bb df69 08bc f140 adbb 5ca0 8d3c
000003c0: 6e90 a33a 0065 debc 4dff 08bb ab19 433c
000003d0: 1448 11bd f39e e0b9 0454 433a fb77 583b
000003e0: ddd6 7cba 5e9b 3fbc d4f8 9fbc 0d74 c439
000003f0: 6d7e 153b b0e8 b53b 58c5 4d3b 9748 b23a

network_body._body_endoder.seq_layers.0.bias f4 [128]
0.0 0.0 0.0 0.0 0.0 0.0 0.0 0.0
0.0 0.0 0.0 0.0 0.0 0.0 0.0 0.0
0.0 0.0 0.0 0.0 0.0 0.0 0.0 0.0
0.0 0.0 0.0 0.0 0.0 0.0 0.0 0.0
0.0 0.0 0.0 0.0 0.0 0.0 0.0 0.0
0.0 0.0 0.0 0.0 0.0 0.0 0.0 0.0
0.0 0.0 0.0 0.0 0.0 0.0 0.0 0.0
0.0 0.0 0.0 0.0 0.0 0.0 0.0 0.0
0.0 0.0 0.0 0.0 0.0 0.0 0.0 0.0
0.0 0.0 0.0 0.0 0.0 0.0 0.0 0.0
0.0 0.0 0.0 0.0 0.0 0.0 0.0 0.0
0.0 0.0 0.0 0.0 0.0 0.0 0.0 0.0
0.0 0.0 0.0 0.0 0.0 0.0 0.0 0.0
0.0 0.0 0.0 0.0 0.0 0.0 0.0 0.0
0.0 0.0 0.0 0.0 0.0 0.0 0.0 0.0
0.0 0.0 0.0 0.0 0.0 0.0 0.0 0.0
00000000: 0000 0000 0000 0000 0000 0000 0000 0000
00000010: 0000 0000 0000 0000 0000 0000 0000 0000
00000020: 0000 0000 0000 0000 0000 0000 0000 0000
00000030: 0000 0000 0000 0000 0000 0000 0000 0000
00000040: 0000 0000 0000 0000 0000 0000 0000 0000
00000050: 0000 0000 0000 0000 0000 0000 0000 0000
00000060: 0000 0000 0000 0000 0000 0000 0000 0000
00000070: 0000 0000 0000 0000 0000 0000 0000 0000
00000080: 0000 0000 0000 0000 0000 0000 0000 0000
00000090: 0000 0000 0000 0000 0000 0000 0000 0000
000000a0: 0000 0000 0000 0000 0000 0000 0000 0000
000000b0: 0000 0000 0000 0000 0000 0000 0000 0000
000000c0: 0000 0000 0000 0000 0000 0000 0000 0000
000000d0: 0000 0000 0000 0000 0000 0000 0000 0000
000000e0: 0000 0000 0000 0000 0000 0000 0000 0000
000000f0: 0000 0000 0000 0000 0000 0000 0000 0000
00000100: 0000 0000 0000 0000 0000 0000 0000 0000
00000110: 0000 0000 0000 0000 0000 0000 0000 0000
00000120: 0000 0000 0000 0000 0000 0000 0000 0000
00000130: 0000 0000 0000 0000 0000 0000 0000 0000
00000140: 0000 0000 0000 0000 0000 0000 0000 0000
00000150: 0000 0000 0000 0000 0000 0000 0000 0000
00000160: 0000 0000 0000 0000 0000 0000 0000 0000
00000170: 0000 0000 0000 0000 0000 0000 0000 0000
00000180: 0000 0000 0000 0000 0000 0000 0000 0000
00000190: 0000 0000 0000 0000 0000 0000 0000 0000
000001a0: 0000 0000 0000 0000 0000 0000 0000 0000
000001b0: 0000 0000 0000 0000 0000 0000 0000 0000
000001c0: 0000 0000 0000 0000 0000 0000 0000 0000
000001d0: 0000 0000 0000 0000 0000 0000 0000 0000
000001e0: 0000 0000 0000 0000 0000 0000 0000 0000
000001f0: 0000 0000 0000 0000 0000 0000 0000 0000

network_body._body_endoder.seq_layers.0.weight f4 [128, 20]
-0.095301054 0.14584729 0.076007366 -0.015133305 0.56065834 0.2590611 0.03387774 0.23136637
-0.2678342 0.030841643 -0.05056547 -0.07916806 -0.021445092 0.4614783 0.21238519 0.20257194
-0.3608582 -0.32714266 -0.12262584 -0.11332985 0.006255678 0.13184051 0.14579064 0.15731506
0.17422427 -0.4162709 -0.24686123 0.09623098 -0.29235518 0.50654984 0.14761925 -0.19654147
0.06187625 0.5006989 0.25434628 0.04203062 -0.14576249 0.399922 0.16543712 0.2761287
0.078654386 -0.1409854 -0.11007756 0.06967206 0.1905854 -0.16098969 0.092164874 0.05773034
-0.19531713 0.17874932 0.082373574 0.14688447 -0.1684055 0.101863 -0.071147874 -0.09131014
-0.00047966052 0.24326394 0.26367456 0.09511201 0.13018231 0.21853317 -0.1542815 -0.23435986
0.25370452 -0.25638878 -0.19610861 -0.120090365 -0.33084366 0.3041308 0.03143531 -0.10092761
-0.41641364 0.040935583 0.5449161 -0.15127876 -0.028571717 0.109592915 0.06810597 0.05093375
0.18617497 0.03843398 0.08619384 -0.0043928875 -0.43500283 0.15085684 0.08555257 -0.36119995
0.2273005 -0.1978865 -0.25848037 0.1229994 0.4454723 -0.009117554 0.06623196 0.14246598
-0.20950048 0.4265774 0.5182557 0.08556817 -0.18040949 -0.13533056 -0.22863102 0.105726056
0.16204107 0.07105811 -0.12274774 0.24932678 -0.14888029 0.087015666 0.06650398 0.07504877
0.058164213 -0.02596799 -0.1013694 0.2763336 -0.3256537 -0.38505858 -0.26749763 -0.31160784
-0.19392042 -0.34808365 -0.23371273 -0.29841214 -0.07813259 0.21415174 -0.2130176 0.08598616
-0.26288855 0.14701128 -0.17849803 -0.06363324 -0.21957847 -0.17553934 0.15500852 0.17348175
0.5495326 -0.37935072 0.4544941 0.052534707 -0.2777593 0.07250303 -0.083428994 0.122544274
0.14250399 -0.12712704 -0.034948964 0.4919603 -0.28127274 -0.029453792 0.23020013 0.18408954
-0.12807253 -0.037468556 -0.36514544 0.06825035 -0.116385855 0.10777143 -0.010572882 0.3217348
-0.030256707 0.0010644554 0.1262988 0.602238 -0.53649044 0.27154636 0.16579728 -0.23220448
-0.17777887 -0.23063363 -0.032176685 0.20556599 -0.26717842 -0.077004336 0.3836457 -0.008627759
-0.18901908 -0.08830719 0.18052877 0.100582995 -0.24917127 -0.32133454 -0.44218457 -0.3771541
-0.08655314 0.008877184 0.09468853 -0.15981789 0.037269935 -0.032393757 -0.12199705 0.34261486
0.020018592 -0.105797045 0.0780001 -0.33005854 -0.4462129 0.13585688 0.07576788 0.11016601
0.035359744 0.2124679 0.26664135 0.09264438 -0.2100015 0.34310046 0.053088006 0.015686044
0.095823534 0.055438872 -0.31835422 0.38859308 -0.08288521 -0.11923864 0.011269741 0.2858076
0.25779438 -0.36760852 -0.6501985 0.055705737 -0.19669034 0.16771954 0.30048132 -0.3852848
-0.3017186 -0.2687732 0.09245805 -0.37450272 -0.30099407 0.08367879 -0.3394782 -0.20639996
-0.15577011 0.13800493 -0.14448227 0.29475725 0.21382073 -0.030656671 0.25306174 0.2613928
-0.1301054 -0.35360134 -0.2787781 -0.3061329 0.5388064 0.21476546 0.108444124 -0.015967714
-0.35069382 0.36015794 0.04604504 -0.24232814 0.2372524 -0.042168826 0.025393713 0.01624645
00000000: 332d c3bd fe58 153e c0a9 9b3d aff1 77bc
00000010: 4e87 0f3f a8a3 843e 63c3 0a3d 4eeb 6c3e
00000020: 9021 89be 9da7 fc3c bd1d 4fbd dd22 a2bd
00000030: 9ead afbc e246 ec3e 817b 593e 056f 4f3e
00000040: 68c2 b8be 3e7f a7be 4223 fbbd 7b19 e8bd
00000050: 6efc cc3b 3301 073e 244a 153e 3317 213e
00000060: d967 323e 7621 d5be 31c9 7cbe bf14 c53d
00000070: 94af 95be 40ad 013f 8029 173e 2b42 49be
00000080: f371 7d3d ce2d 003f ad39 823e 4d28 2c3d
00000090: c342 15be 94c2 cc3e 5968 293e be60 8d3e
000000a0: 8d15 a13d 7a5e 10be 5870 e1bd 3ab0 8e3d
000000b0: d228 433e 7bda 24be f0c0 bc3d a676 6c3d
000000c0: 3701 48be 100a 373e 7ab3 a83d e268 163e
000000d0: 7e72 2cbe 8c9d d03d fab5 91bd d000 bbbd
000000e0: f27a fbb9 2f1a 793e 5a00 873e 16ca c23d
000000f0: 834e 053e 29c7 5f3e f8fb 1dbe 08fc 6fbe
00000100: 8fe5 813e 6445 83be b2d0 48be f0f1 f5bd
00000110: 5764 a9be 08b7 9b3e 50c2 003d 23b3 cebd
00000120: 2b34 d5be 12ac 273d 9f7f 0b3f d2e8 1abe
00000130: 3c0f eabc 4072 e03d 257b 8b3d e89f 503d
00000140: a7a4 3e3e f36c 1d3d 6586 b03d 36f2 8fbb
00000150: b1b8 debe 377a 1a3e 3036 af3d 33ef b8be
00000160: 76c1 683e c2a2 4abe 8a57 84be 1ce7 fb3d
00000170: f214 e43e cb61 15bc 9fa4 873d 9ae2 113e
00000180: 4b87 56be 5a68 da3e 68ac 043f 5d3e af3d
00000190: 44bd 38be 1894 0abe 401e 6abe e786 d83d
000001a0: 18ee 253e ea86 913d 2b63 fbbd 854f 7f3e
000001b0: 1374 18be 4535 b23d 3d33 883d 2bb3 993d
000001c0: 993d 6e3d d2ba d4bc c39a cfbd 997b 8d3e
000001d0: 15bc a6be 6626 c5be 73f5 88be 108b 9fbe
000001e0: 1393 46be 0538 b2be 6452 6fbe 7ac9 98be
000001f0: fb03 a0bd 984a 5b3e 4921 5abe 8319 b03d
00000200: 5499 86be 208a 163e 30c8 36be 2552 82bd
00000210: 2ed9 60be 96c0 33be 8eba 1e3e 33a5 313e
00000220: 2bae 0c3f 423a c2be 73b3 e83e a22e 573d
00000230: 7836 8ebe 787c 943d d2dc aabd 7ef8 fa3d
00000240: 91ec 113e 972d 02be a526 0fbd 38e2 fb3e
00000250: fb02 90be 1449 f1bc 95b9 6b3e f881 3c3e
00000260: 7225 03be a178 19bd 58f4 babe d7c6 8b3d
00000270: b55b eebd 44b7 dc3d e239 2dbc 6cba a43e
00000280: eadc f7bc 3285 8b3a 7954 013e 452c 1a3f
00000290: 7057 09bf 2008 8b3e c3c6 293e 03c7 6dbe
000002a0: aa0b 36be 392b 6cbe b3cb 03bd e47f 523e
000002b0: 9ccb 88be 73b4 9dbd 366d c43e 725b 0dbc
000002c0: 388e 41be 66da b4bd 89dc 383e 75fe cd3d
000002d0: c126 7fbe f685 a4be 0466 e2be 581a c1be
000002e0: c642 b1bd 9c71 113c 0fec c13d 4da7 23be
000002f0: 5ca8 183d 51af 04bd 97d9 f9bd 376b af3e
00000300: 08fe a33c 1fac d8bd 84be 9f3d 6ffd a8be
00000310: 0476 e4be 111e 0b3e 312c 9b3d b89e e13d
00000320: 61d5 103d 2f91 593e 3785 883e 56bc bd3d
00000330: a20a 57be ddaa af3e cf72 593d 0580 803c
00000340: 213f c43d df13 633d 53ff a2be acf5 c63e
00000350: b9bf a9bd 6333 f4bd b8a4 383c 6055 923e
00000360: a0fd 833e 2f37 bcbe 6973 26bf b32b 643d
00000370: 3169 49be acbe 2b3e b0d8 993e 0d44 c5be
00000380: dc7a 9abe a49c 89be a55a bd3d d2be bfbe
00000390: e51b 9abe c95f ab3d 16d0 adbe 835a 53be
000003a0: 3382 1fbe 2a51 0d3e 29f3 13be 6cea 963e
000003b0: d2f3 5a3e b323 fbbc 4f91 813e 47d5 853e
000003c0: 5a3a 05be 3c0b b5be 01bc 8ebe 74bd 9cbe
000003d0: 37ef 093f 7aeb 5b3e f417 de3d b9ce 82bc
000003e0: 248e b3be 9f66 b83e b999 3c3d de24 78be
000003f0: 4bf2 723e 38b9 2cbd 7a06 d03c 4617 853c

network_body._body_endoder.seq_layers.2.bias f4 [128]
0.0 0.0 0.0 0.0 0.0 0.0 0.0 0.0
0.0 0.0 0.0 0.0 0.0 0.0 0.0 0.0
0.0 0.0 0.0 0.0 0.0 0.0 0.0 0.0
0.0 0.0 0.0 0.0 0.0 0.0 0.0 0.0
0.0 0.0 0.0 0.0 0.0 0.0 0.0 0.0
0.0 0.0 0.0 0.0 0.0 0.0 0.0 0.0
0.0 0.0 0.0 0.0 0.0 0.0 0.0 0.0
0.0 0.0 0.0 0.0 0.0 0.0 0.0 0.0
0.0 0.0 0.0 0.0 0.0 0.0 0.0 0.0
0.0 0.0 0.0 0.0 0.0 0.0 0.0 0.0
0.0 0.0 0.0 0.0 0.0 0.0 0.0 0.0
0.0 0.0 0.0 0.0 0.0 0.0 0.0 0.0
0.0 0.0 0.0 0.0 0.0 0.0 0.0 0.0
0.0 0.0 0.0 0.0 0.0 0.0 0.0 0.0
0.0 0.0 0.0 0.0 0.0 0.0 0.0 0.0
0.0 0.0 0.0 0.0 0.0 0.0 0.0 0.0
00000000: 0000 0000 0000 0000 0000 0000 0000 0000
00000010: 0000 0000 0000 0000 0000 0000 0000 0000
00000020: 0000 0000 0000 0000 0000 0000 0000 0000
00000030: 0000 0000 0000 0000 0000 0000 0000 0000
00000040: 0000 0000 0000 0000 0000 0000 0000 0000
00000050: 0000 0000 0000 0000 0000 0000 0000 0000
00000060: 0000 0000 0000 0000 0000 0000 0000 0000
00000070: 0000 0000 0000 0000 0000 0000 0000 0000
00000080: 0000 0000 0000 0000 0000 0000 0000 0000
00000090: 0000 0000 0000 0000 0000 0000 0000 0000
000000a0: 0000 0000 0000 0000 0000 0000 0000 0000
000000b0: 0000 0000 0000 0000 0000 0000 0000 0000
000000c0: 0000 0000 0000 0000 0000 0000 0000 0000
000000d0: 0000 0000 0000 0000 0000 0000 0000 0000
000000e0: 0000 0000 0000 0000 0000 0000 0000 0000
000000f0: 0000 0000 0000 0000 0000 0000 0000 0000
00000100: 0000 0000 0000 0000 0000 0000 0000 0000
00000110: 0000 0000 0000 0000 0000 0000 0000 0000
00000120: 0000 0000 0000 0000 0000 0000 0000 0000
00000130: 0000 0000 0000 0000 0000 0000 0000 0000
00000140: 0000 0000 0000 0000 0000 0000 0000 0000
00000150: 0000 0000 0000 0000 0000 0000 0000 0000
00000160: 0000 0000 0000 0000 0000 0000 0000 0000
00000170: 0000 0000 0000 0000 0000 0000 0000 0000
00000180: 0000 0000 0000 0000 0000 0000 0000 0000
00000190: 0000 0000 0000 0000 0000 0000 0000 0000
000001a0: 0000 0000 0000 0000 0000 0000 0000 0000
000001b0: 0000 0000 0000 0000 0000 0000 0000 0000
000001c0: 0000 0000 0000 0000 0000 0000 0000 0000
000001d0: 0000 0000 0000 0000 0000 0000 0000 0000
000001e0: 0000 0000 0000 0000 0000 0000 0000 0000
000001f0: 0000 0000 0000 0000 0000 0000 0000 0000

network_body._body_endoder.seq_layers.2.weight f4 [128, 128]
0.041017324 -0.06155041 0.020175342 0.059474282 0.0052284836 -0.030370302 -0.10065996 0.06003276
-0.0663693 0.104652226 -0.030866679 0.07649774 0.057708234 -0.008878441 0.011362527 -0.077869676
-0.031720478 0.0062038284 -0.087695636 0.078302674 -0.0760455 0.070645586 -0.055623423 -0.069077656
-0.028640127 0.08517151 -0.17470774 0.06590453 0.04734557 -0.06578723 0.2240953 -0.04139656
-0.010907207 -0.20716132 0.079472326 -0.13497727 0.012394904 0.07427429 0.10640901 -0.02627729
-0.018486137 0.068327054 0.038919467 -0.06960167 0.013856348 -0.11263677 0.022231963 0.03827715
0.018254189 -0.025969112 -0.117071286 -0.06634577 0.07872537 -0.089901574 0.031326294 -0.100309275
-0.002807016 -0.028913055 -0.041401785 -0.115734726 0.059866637 -0.031806856 0.05064702 -0.07566411
-0.039621707 -0.034913566 0.07387406 -0.101860404 0.029361742 0.03473422 -0.0713643 0.026341528
0.008895996 0.058442563 -0.09925063 -0.08517265 -0.06531255 -0.055322025 0.10527763 0.06766614
0.0864262 -0.07294562 -0.15967341 -0.086248405 0.028533855 -0.072890446 -0.07698004 0.010015579
0.025424011 -0.036429867 0.14407407 0.008876362 0.008765287 0.1473177 -0.0930897 -0.007606948
-0.0968661 -0.138888 0.09160052 0.023324884 0.053990122 0.020053359 -0.013123476 -0.047819808
0.11054413 0.111831896 -0.06329799 -0.033488158 0.02221035 -0.10746145 0.09895328 0.028310288
0.057356514 0.06267455 -0.17207757 0.10257278 0.0346352 0.00075876445 -0.103528686 0.06300924
0.117373504 -0.19798128 0.09789069 0.0048901434 -0.012327929 -0.082526706 -0.15377244 0.06917647
-0.042859063 -0.05983581 0.020844705 -0.12826228 -0.06071185 0.21922447 -0.036463033 0.05385389
-0.032906856 -0.05457551 0.021570215 -0.046522103 0.038501218 0.1629592 0.011014564 0.028715195
-0.033234764 -0.056120213 -0.025263878 -0.11628569 0.026990335 -0.18384866 0.074905604 0.053592693
0.0241017 -0.11955493 -0.17069606 -0.07056094 -0.059359625 -0.017851094 0.021375654 -0.01670506
0.054720026 0.022907251 0.079184845 -0.09875393 -0.15385272 0.11602378 0.02533194 -0.115918875
-0.0027560722 -0.18758602 0.04685631 -0.064041935 0.067154594 -0.16201699 -0.06836048 -0.03860756
-0.15951052 0.09618053 0.08814986 0.017560914 0.017942479 0.20300661 0.053747978 0.13554926
-0.04598326 0.04156267 0.054286156 0.09172723 0.07514315 -0.02928695 -0.009157697 0.0012440105
0.045729347 0.14845197 0.111552075 0.0028872832 0.038808845 0.031376243 -0.03112397 -0.061983023
-0.055775087 0.028806167 0.091319196 0.10049623 -0.08496663 0.1092948 -0.051011577 -0.0072603854
-0.03774935 0.038030863 0.045822892 -0.10565832 0.0006159063 -0.09336063 0.095881864 -0.009192597
-0.09962563 0.0051177125 0.07669389 0.010990593 -0.06765199 0.050298803 -0.021449842 0.008205039
-0.028907806 0.04178466 -0.020915484 0.12734008 0.019688979 -0.10714423 0.08672054 0.05200562
0.048396844 0.0009807558 0.16610342 0.03173672 0.09363443 -0.014808611 0.12456303 0.13666429
0.27273604 -0.20062968 -0.056164425 -0.012536559 -0.1502829 -0.017361859 -0.041865643 -0.07116778
-0.010545941 0.29570433 0.053079396 -0.045458056 0.01612877 -0.073217705 0.035148945 -0.06568798
00000000: c801 283d 481c 7cbd c246 a53c 4e9b 733d
00000010: b353 ab3b 24cb f8bc cf26 cebd e9e4 753d
00000020: a1ec 87bd e853 d63d 1edc fcbc d9aa 9c3d
00000030: 785f 6c3d e176 11bc e429 3a3c 237a 9fbd
00000040: 55ed 01bd 7c49 cb3b c599 b3bd 275d a03d
00000050: bebd 9bbd a2ae 903d 63d5 63bd 9678 8dbd
00000060: b39e eabc 676e ae3d 96e6 32be f4f8 863d
00000070: 6eed 413d 75bb 86bd 3d79 653e 708f 29bd
00000080: 24b4 32bc 1922 54be 63c2 a23d 7b37 0abe
00000090: ff13 4b3c 1e1d 983d f8ec d93d 7943 d7bc
000000a0: 3d70 97bc 0eef 8b3d 056a 1f3d 528b 8ebd
000000b0: bc05 633c 1bae e6bd ce1f b63c 80c8 1c3d
000000c0: cf89 953c 2dbd d4bc 12c3 efbd 4be0 87bd
000000d0: c43a a13d 511e b8bd 0050 003d f36e cdbd
000000e0: eaf5 37bb 12db ecbc eb94 29bd 5406 edbd
000000f0: b836 753d e847 02bd 4073 4f3d c9f5 9abd
00000100: 5f4a 22bd 8701 0fbd 484b 973d 309c d0bd
00000110: 0988 f03c 7845 0e3d 7227 92bd 30ca d73c
00000120: 83c0 113c 7861 6f3d ea43 cbbd 006f aebd
00000130: 96c2 85bd 5999 62bd cc9b d73d 8c94 8a3d
00000140: 3800 b13d 8364 95bd 6d81 23be 01a3 b0bd
00000150: d5bf e93c 9647 95bd b6a7 9dbd 6218 243c
00000160: 0446 d03c 7c37 15bd 2788 133e 296e 113c
00000170: 479c 0f3c 73da 163e d0a5 bebd b443 f9bb
00000180: bc61 c6bd a838 0ebe 0e99 bb3d d413 bf3c
00000190: bf24 5d3d f146 a43c d903 57bc b4de 43bd
000001a0: f664 e23d 1f08 e53d 60a2 81bd e12a 09bd
000001b0: 7bf2 b53c c014 dcbd 04a8 ca3d faea e73c
000001c0: aaee 6a3d 845b 803d 1a35 30be ad11 d23d
000001d0: a4dd 0d3d d2e7 463a d906 d4bd fd0a 813d
000001e0: 8561 f03d 9bbb 4abe ea7a c83d 7f3d a03b
000001f0: 15fb 49bc c303 a9bd 8676 1dbe 65ac 8d3d
00000200: fc8c 2fbd 6516 75bd 84c2 aa3c 3057 03be
00000210: fdac 78bd 617c 603e 435a 15bd e695 5c3d
00000220: 57c9 06bd 928a 5fbd 05b4 b03c f68d 3ebd
00000230: 74b3 1d3d c7de 263e 6e76 343c 213c eb3c
00000240: 2d21 08bd 4fde 65bd 31f6 cebc 3127 eebd
00000250: d61a dd3c d342 3cbe 1c68 993d 0384 5b3d
00000260: ee70 c53c 37d9 f4bd f3ca 2ebe 4182 90bd
00000270: 1423 73bd 753c 92bc ff1b af3c 0dd9 88bc
00000280: 1b22 603d fda7 bb3c aa2b a23d 803f cabd
00000290: 918b 1dbe e09d ed3d ee84 cf3c e066 edbd
000002a0: 389f 34bb 8d16 40be 67ec 3f3d 6b28 83bd
000002b0: 5988 893d c8e7 25be 9400 8cbd f622 1ebd
000002c0: ba56 23be 4cfa c43d ea87 b43d e8db 8f3c
000002d0: 1bfc 923c f7e0 4f3e d726 5c3d 6dcd 0a3e
000002e0: f158 3cbd 9e3d 2a3d 295b 5e3d 7cdb bb3d
000002f0: a7e4 993d 30eb efbc 2a0a 16bc 110e a33a
00000300: b24e 3b3d cb03 183e 6a75 e43d 9338 3d3b
00000310: 06f6 1e3d 6084 003d b2f7 febc e9e1 7dbd
00000320: 6b74 64bd e9fa eb3c 8f05 bb3d f8d0 cd3d
00000330: fc02 aebd f4d5 df3d 84f1 50bd 87e8 edbb
00000340: 109f 1abd 40c6 1b3d c9b0 3b3d 6463 d8bd
00000350: c674 213a dc33 bfbd b65d c43d 8c9c 16bc
00000360: 8608 ccbd 7cb2 a73b b011 9d3d e311 343c
00000370: 208d 8abd 1e06 4e3d 94b7 afbc 6e6e 063c
00000380: 10d0 ecbc 6426 2b3d f356 abbc 7065 023e
00000390: c84a a13c 6f6e dbbd 8a9a b13d d803 553d
000003a0: c53b 463d b48c 803a 0417 2a3e 5dfe 013d
000003b0: 68c3 bf3d d19f 72bc e71a ff3d b9f1 0b3e
000003c0: 0fa4 8b3e de71 4dbe ab0c 66bd 2466 4dbc
000003d0: c3e3 19be 753a 8ebc 4f7b 2bbd 6ac0 91bd
000003e0: e2c8 2cbc 8f66 973e c869 593d 3a32 3abd
000003f0: 7b20 843c 2af3 95bd 57f8 0f3d 6b87 86bd
