results/agentTarget02/AgentTarget/AgentTarget-44193.onnx (onnx, 75029 bytes, 7 tensors)

action_model._continuous_distribution.log_sigma f4 [1, 3]
0.0021535787 0.0071880235 0.0070556276
00000000: 0e23 0d3b 8389 eb3b e532 e73b

action_model._continuous_distribution.mu.bias f4 [3]
-0.00013927744 -0.00019999681 0.0002129773
00000000: 010b 12b9 3cb6 51b9 a952 5f39

action_model._continuous_distribution.mu.weight f4 [3, 128]
0.006251116 0.012344861 -0.013812555 0.0045727016 -0.017872255 0.0006041962 -0.0025061693 -0.009450797
-0.022785459 0.006937898 -0.0043766093 -0.009678051 -0.006923679 -0.018471267 0.013970105 -0.00053870573
-0.006718126 -0.0059933267 0.0009928469 -0.02898946 -0.022593105 0.014471637 -0.021588992 0.0266477
0.0017660952 0.0027902229 0.016561063 -0.010235417 0.02120324 -0.019756261 0.018410545 0.012681776
0.0033571438 0.02172519 0.01541479 -0.012122546 0.03648211 0.008883552 0.0059340647 0.01960742
-0.0012875642 0.0011548355 0.010666791 0.012525585 0.017291343 -0.012438045 0.030486463 -0.0072030723
0.00560182 -0.0071582617 0.00627409 -0.027052741 -0.0026390317 0.010026639 -0.0145545285 0.00749335
-0.0018150131 -0.0039677313 0.005123043 -0.0026117482 -0.017140621 0.003968234 0.002051923 -0.0023669163
0.013006895 0.013725015 0.022796676 0.020272532 -0.014054449 0.0012811732 0.0003589048 0.0013657875
-0.010833899 -0.02928992 0.025994247 0.010925207 -0.023180302 0.0072693997 0.01916699 -0.021201015
0.005107784 -0.025397602 -0.005477051 -0.017259095 0.025251867 0.018699622 0.0050555794 -0.0016194083
-0.008172959 -0.014146375 -0.0138752395 0.00618687 -0.006375728 0.01046742 -0.0023639267 -0.009536447
0.0038889118 -0.028494578 0.0029191542 0.015356276 -0.03177151 -0.011992444 0.015169342 -0.005000363
0.0006727364 -0.017685259 0.017539557 0.015201082 0.008563807 -0.015681027 -0.0047478317 0.041805778
0.020355893 -0.016126787 0.023119513 -0.015348709 -0.021219539 -0.008880357 0.034159917 -0.008406122
-0.009848115 -0.0068496238 -0.01735648 0.016467549 0.0064637032 -0.019159596 0.008175349 -0.010858363
-0.012380039 -0.014102995 0.009638068 0.04275558 -0.02385302 0.013283762 0.014801458 -0.0073877685
0.002912121 0.019499283 0.026008934 -0.006812555 0.017593432 0.0241708 -0.020728773 0.023182807
-0.004839617 -0.009249469 0.013409017 0.038789082 0.0041654753 0.01288946 -0.022697713 0.009584334
0.0037255022 0.010334492 -0.001066216 0.0049563707 -0.028073145 0.010246643 0.006136177 -0.020355158
0.017204706 -0.035325494 -0.032788415 -0.004756106 0.030848451 0.036654115 -0.008894274 0.0014955451
0.025173923 -0.034210414 -0.014213638 -0.008213137 0.002516103 0.005951104 -0.0114943525 -0.015826229
0.012607487 0.028269278 0.057959374 0.01885988 -0.0071445704 0.021603033 0.018896911 -0.007166124
0.029446894 0.010679477 0.006316896 0.0017229762 0.025010949 -0.009530879 -0.018743204 -0.014353822
-0.0015397042 -0.016792852 0.0061955415 -0.00074337644 -0.015855325 -0.0011780153 0.0032406247 -0.018434541
-0.0045277188 -0.0081465375 0.008630132 -0.014765006 0.0025199396 0.017988268 0.0020299025 -0.009198806
0.019215474 -0.014327856 -0.0058701467 0.007830782 0.029791538 0.017404437 0.017412785 -0.062355947
-0.020034375 0.006896303 0.0036763232 0.024810402 -0.020358762 0.014616369 -0.0051025175 -0.018142331
0.016461283 0.014886948 0.024183294 -0.016844867 -0.0034704865 -0.004398237 -0.017433397 -0.008704088
0.008486284 0.019457944 0.01816832 -0.019724382 -0.010338819 -0.023753235 -0.02162345 -0.0025761575
0.017511286 0.03213791 0.02396051 -0.0023070697 -0.0007363767 0.0074108276 -0.013928594 0.016161105
-0.024382383 -0.028091837 -0.010116136 -0.018025534 -0.02897437 -0.0020983194 -0.009054312 -0.007426823
00000000: 29d6 cc3b 1a42 4a3c 0e4e 62bc 9ad6 953b
00000010: d668 92bc ec62 1e3a 8b3e 24bb 84d7 1abc
00000020: 92a8 babc 4f57 e33b a969 8fbb b090 1ebc
00000030: 07e0 e2bb 0e51 97bc dee2 643c ee37 0dba
00000040: ba23 dcbb ab63 c4bb 6a22 823a 4e7b edbc
00000050: 2d15 b9bc 721a 6d3c 66db b0bc 474c da3c
00000060: 527c e73a 2cdc 363b 11ab 873c 73b2 27bc
00000070: 6bb2 ad3c e2d7 a1bc b6d1 963c 39c7 4f3c
00000080: 8703 5c3b 07f9 b13c 518e 7c3c a59d 46bc
00000090: 446e 153d 518c 113c 8b72 c23b bd9f a03c
000000a0: 7cc3 a8ba d95d 973a c4c3 2e3c 1c38 4d3c
000000b0: 93a6 8d3c f1c8 4bbc bfbe f93c c007 ecbb
000000c0: 798f b73b da8f eabb e296 cd3b b69d ddbc
000000d0: 9bf3 2cbb c646 243c 1e76 6ebc c78a f53b
000000e0: bce5 edba be03 82bb 33df a73b dd29 2bbb
000000f0: 7d6a 8cbc f607 823b 8e79 063b 441e 1bbb
00000100: df1a 553c e3de 603c 18c0 ba3c 9512 a63c
00000110: a244 66bc 0aed a73a 632b bc39 3904 b33a
00000120: aa80 31bc 6af1 efbc e3f1 d43c a4ff 323c
00000130: 9ee4 bdbc 2534 ee3b 1704 9d3c c0ad adbc
00000140: 335f a73b a20e d0bc d578 b3bb f262 8dbc
00000150: 01dd ce3c f32f 993c 46a9 a53b 5342 d4ba
00000160: e0e7 05bc 32c6 67bc f954 63bc 3abb ca3b
00000170: 7ceb d0bb 8b7f 2b3c 1cec 1abb c23e 1cbc
00000180: 1ddd 7e3b 766d e9bc 484f 3f3b e498 7b3c
00000190: d822 02bd f57b 44bc d588 783c 16da a3bb
000001a0: 935a 303a ade0 90bc 1eaf 8f3c f60d 793c
000001b0: 364f 0c3c 7f75 80bc b393 9bbb 893c 2b3d
000001c0: 67c1 a63c 531c 84bc 2265 bd3c 2779 7bbc
000001d0: 99d4 adbc eb7e 11bc 45eb 0b3d d5b9 09bc
000001e0: fd59 21bc cf72 e0bb 2d2f 8ebc f4e6 863c
000001f0: 79cd d33b 96f4 9cbc e6f1 053c 46e7 31bc
00000200: a6d5 4abc 4010 67bc fde8 1d3c 7a20 2f3d
00000210: 6967 c3bc 23a4 593c d181 723c 1815 f2bb
00000220: 48d9 3e3b f6bc 9f3c b010 d53c da3b dfbb
00000230: 1a20 903c d701 c63c 63cf a9bc dfe9 bd3c
00000240: a695 9ebb 168b 17bc 7eb1 5b3c 4de1 1e3d
00000250: 8a7e 883b 502e 533c 8ef0 b9bc 9c07 1d3c
00000260: 8e27 743b 0052 293c 46c0 8bba 0d69 a23b
00000270: a7f9 e5bc 89e1 273c fc11 c93b dcbf a6bc
00000280: e2f0 8c3c 77b1 10bd 254d 06bd 1cd9 9bbb
00000290: e4b5 fc3c a022 163d 4ab9 11bc 2b06 c43a
000002a0: 8b39 ce3c 3820 0cbd 52e0 68bc 6590 06bc
000002b0: 34e5 243b 7b01 c33b cf52 3cbc 02a6 81bc
000002c0: a28f 4e3c f994 e73c cf66 6d3d 0980 9a3c
000002d0: 001d eabb d8f8 b03c b2cd 9a3c ced1 eabb
000002e0: 9d3a f13c f9f8 2e3c f7fd ce3b 7dd5 e13a
000002f0: c3e3 cc3c 6727 1cbc 598b 99bc 4b2c 6bbc
00000300: e6cf c9ba 2a91 89bc f803 cb3b 26df 42ba
00000310: 07e3 81bc a267 9aba a960 543b 0904 97bc
00000320: 425d 94bb 0e79 05bc 6665 0d3c ece8 71bc
00000330: 9225 253b 225c 933c 1d08 053b 97b6 16bc
00000340: c569 9d3c 62bf 6abc 5c5a c0bb ae4c 003c
00000350: 620d f43c c093 8e3c 42a5 8e3c f368 7fbd
00000360: 211f a4bc 62fa e13b 78ee 703b 2f3f cb3c
00000370: 6bc7 a6bc 7f79 6f3c 0533 a7bb 3a9f 94bc
00000380: d0d9 863c 63e8 733c 0b1c c63c 3ffe 89bc
00000390: 1a71 63bb 161f 90bb 7cd0 8ebc 979b 0ebc
000003a0: 0e0a 0b3c 4466 9f3c bbd5 943c 0795 a1bc
000003b0: 2664 29bc 2596 c2bc a923 b1bc c0d4 28bb
000003c0: d473 8f3c 0ba3 033d d548 c43c 3532 17bb
000003d0: 6709 41ba 87d6 f23b c234 64bc 4b64 843c
000003e0: 90bd c7bc da20 e6bc 26be 25bc 49aa 93bc
000003f0: a85b edbc f583 09bb 8958 14bc b55c f3bb

network_body._body_endoder.seq_layers.0.bias f4 [128]
-0.00012091569 -0.0017506944 5.173222e-05 -0.0046639005 -0.00019927075 5.6398603e-06 -0.00043674928 -0.000198833
-0.00038947441 0.0001924865 -0.00033752335 -0.00032573476 -0.00015629905 -0.0002873693 0.0013720545 -0.0015810927
0.00030814705 0.00036904673 0.0014516405 0.00096188014 9.738706e-05 -7.185624e-05 0.0004181537 -0.000408361
-4.685705e-05 -0.00015606014 7.5689204e-05 -0.000115274524 0.00020175407 -0.0002300568 0.00041252948 0.0009531563
-0.0005150988 -0.00021608951 -0.0002911388 -0.0006017769 -9.609822e-06 -0.0005213059 -0.0005570833 -0.00095603213
-0.00035736203 -0.0001303575 0.0034912538 -0.000327916 -6.339633e-05 0.0018913288 0.0006180356 0.000826635
-0.00011057064 -0.00076791627 0.00020167191 -0.000665733 2.8250703e-05 0.00021657039 -0.00043929278 0.00064889464
-0.00078555563 -8.783752e-06 -0.00044946175 -0.0004229001 0.00046618294 -0.00033974348 -0.00028063334 8.816521e-05
0.00012002475 0.00031960974 9.0875765e-06 5.2997846e-05 -0.0004116551 0.00012203112 -0.00037272408 0.00084660575
0.00040890955 1.558249e-05 -0.00028726744 -3.43566e-05 7.848802e-05 -0.001402872 -0.0010073835 -0.000116099414
-0.0039360323 0.00016732601 -0.0005930436 -0.00016127189 -0.0011193278 -0.004294503 0.006382894 -0.0034904454
0.00031011173 -0.0003436758 -6.8683585e-06 -0.0014680643 -0.0010458502 -0.00096226565 3.284783e-06 0.00043386332
-0.00023995477 -0.0003610314 -6.9386566e-05 -0.00017549397 -0.0005415463 2.3074044e-06 0.00021733865 -0.00018153808
-0.0011904838 -0.0007453179 -0.0005725709 0.0009011945 0.00058425625 -0.0004629274 -3.1797103e-05 0.0010285296
-0.00046378255 -0.0033219974 -8.945536e-05 -3.7957827e-05 -0.0005926828 0.0004143543 0.0005155371 0.00010082114
-0.00025193646 0.00093323196 -9.903333e-05 -7.075785e-06 -0.00048652495 0.00044782538 0.0020294695 -0.00018305154
00000000: 1e94 fdb8 8e77 e5ba 0cfb 5838 a2d3 98bb
00000010: 56f3 50b9 083e bd36 7ffb e4b9 d47d 50b9
00000020: 5f32 ccb9 34d6 4939 9ef5 b0b9 61c7 aab9
00000030: 35e4 23b9 0eaa 96b9 82d6 b33a ab3c cfba
00000040: cc8e a139 9d7c c139 f944 be3a af26 7c3a
00000050: 483c cc38 86b1 96b8 a43b db39 4919 d6b9
00000060: 6088 44b8 13a4 23b9 55bb 9e38 8abf f1b8
00000070: f28d 5339 673b 71b9 c548 d839 3ddd 793a
00000080: b207 07ba 1696 62b9 fda3 98b9 90c0 1dba
00000090: df39 21b7 3fa8 08ba 3a09 12ba 3b9e 7aba
000000a0: 525c bbb9 93b0 08b9 85cd 643b 24ec abb9
000000b0: a5f3 84b8 77e6 f73a ab03 223a 89b2 583a
000000c0: 29e2 e7b8 fd4d 49ba e477 5339 9684 2eba
000000d0: ecfb ec37 2c17 6339 e150 e6b9 951a 2a3a
000000e0: bfed 4dba ed5d 13b7 bca5 ebb9 b1b8 ddb9
000000f0: 046a f439 991f b2b9 f821 93b9 56e5 b838
00000100: ccb5 fb38 4b91 a739 d876 1837 014a 5e38
00000110: 6ad3 d7b9 f5ea ff38 2e6a c3b9 c0ee 5d3a
00000120: e962 d639 24b7 8237 629c 96b9 1e1a 10b8
00000130: ef99 a438 93e0 b7ba 2e0a 84ba 667a f3b8
00000140: d5f9 80bb 3c74 2f39 7b76 1bba 181b 29b9
00000150: 69b6 92ba e7b8 8cbb 9827 d13b f5bf 64bb
00000160: 7e96 a239 632f b4b9 c076 e6b6 106c c0ba
00000170: e914 89ba 8e40 7cba 2470 5c36 2678 e339
00000180: 5e9c 7bb9 d048 bdb9 a183 91b8 ce04 38b9
00000190: 8ff6 0dba e8d8 1a36 66e5 6339 425b 3eb9
000001a0: 020a 9cba 7061 43ba 9518 16ba 243e 6c3a
000001b0: c628 193a 10b5 f2b9 e15d 05b8 bacf 863a
000001c0: d727 f3b9 deb5 59bb fb99 bbb8 e834 1fb8
000001d0: 455e 1bba b13d d939 1c25 073a f06f d338
000001e0: 5716 84b9 23a4 743a 1db0 cfb8 886c edb6
000001f0: 4614 ffb9 1bca ea39 d900 053b 86f1 3fb9

network_body._body_endoder.seq_layers.0.weight f4 [128, 10]
0.39623192 0.26487178 0.06694883 0.21426046 0.4419287 0.31143802 0.23796028 0.690425
-0.41323858 -0.25099558 -0.09632913 -0.32764786 -0.124106236 -0.033020042 -0.099603094 -0.055490047
-1.0020946 0.02024003 0.54047793 -0.14471558 0.24009116 0.26384154 0.31697425 0.43926308
-0.11091951 0.20385352 0.25093576 0.21771084 0.09179275 -0.04427869 0.0510875 0.024356915
-0.109955594 -0.76770484 -0.35019788 -0.12765424 0.3206296 -0.52103776 -0.068588294 -0.05638674
0.21722884 0.3034883 -0.33300784 0.17370284 0.55030835 0.45949516 -0.07263019 0.41236624
0.18350916 0.2797041 0.32402223 0.27588448 -0.21296366 0.310527 -0.39509922 0.19990088
0.1354116 -0.6805902 -0.04689768 0.68827695 -0.21129523 0.3304197 0.001715991 -0.9522748
0.079183236 0.5554696 -0.013686267 -0.322233 -0.05213891 -0.2683487 -0.32731128 0.0018001398
0.30033726 0.44030598 0.24188486 -0.014936291 -0.17725743 0.47011077 0.27781454 -0.67748994
-0.21839428 0.49800587 -0.0634804 0.19116512 -0.34585226 0.11148362 0.39041534 0.08652782
-0.057811033 0.21197957 -0.056069363 -0.2643464 0.48395282 -0.33865696 -0.4133624 0.3453796
0.43599296 -0.17215303 0.5015299 -0.2303189 -0.007932302 0.2762354 -0.35257915 0.53759235
0.2992885 -0.7613223 -0.12329335 0.25589275 -0.3306504 -0.32263336 0.3102871 0.21862057
-0.15188947 -0.19536078 0.30944464 -0.3626139 0.1470776 -0.04453408 0.6026806 -0.025440162
-0.33753115 -0.31370863 0.23912017 -0.17774437 0.038330965 -0.22827241 0.044053733 0.2626559
-0.15840484 -0.40524888 0.13694991 -0.16814785 0.4937312 -0.05252466 0.77051514 -0.13605379
0.3374867 0.063248515 -0.12475357 -0.0015766833 0.07588842 -0.13039333 -0.33055216 -0.24532755
0.07427033 -0.22188625 -0.39135316 0.44996923 -0.3095301 -0.04552301 -0.09226527 -0.1988807
-0.45400938 -0.43834364 -0.25255015 0.40302464 -0.0066685807 -0.16837439 -0.33382598 0.5663393
0.16073987 0.1550791 0.29082128 0.63376594 -0.49176285 -0.25680873 0.28058788 0.042860083
-0.16360538 0.08915471 0.21486068 -0.05186817 -0.010796641 0.22508179 -0.25918916 0.05633643
0.0721603 -0.07661235 0.032615352 0.13688678 -0.87338185 -0.06541544 -0.2865435 0.08859154
-0.020691007 -0.4642623 -0.28029978 -0.05272407 0.035025463 -0.14356275 0.31480533 0.2079271
-0.16813676 -0.16290475 -0.22380343 0.53963095 -0.11983558 0.037025742 -0.0974225 0.5315215
0.2326104 0.24580775 -0.067120455 0.34106374 0.24962716 0.1460137 0.041506127 -0.28696573
0.025666617 0.38510302 0.0040759654 0.2479768 0.21102141 0.17469533 0.21063739 0.43240514
-0.5098092 0.20307344 -0.27636644 -0.26672342 -0.2629892 -0.12341632 0.031085355 0.2580786
0.32649794 0.2118869 0.77291375 -0.41138807 -0.19561036 -0.045070782 0.03582342 -0.6113286
0.53640604 -0.38090238 0.027223455 -0.117544666 -0.09401923 0.4821231 0.06504562 0.19336723
0.31602004 0.23444833 0.4278813 -0.15589845 -0.12705734 -0.027666792 -0.41779375 -0.3445736
-0.47745532 0.035316166 0.14986268 0.1221508 -0.0021277207 -0.003301477 0.3681983 0.62955856
00000000: e9de ca3e 469d 873e 781c 893d 1867 5b3e
00000010: 7b44 e23e ce74 9f3e dcab 733e b1bf 303f
00000020: 0294 d3be 7e82 80be 3548 c5bd 76c1 a7be
00000030: 692b febd 0640 07bd b5fc cbbd 8849 63bd
00000040: a344 80bf 6bce a53c c35c 0a3f 5230 14be
00000050: 75da 753e 3d16 873e 734a a23e 17e7 e03e
00000060: c529 e3bd fabe 503e a77a 803e 97ef 5e3e
00000070: d6fd bb3d 925d 35bd 2041 513d 2788 c73c
00000080: 6630 e1bd 4e88 44bf 234d b3be cbb7 02be
00000090: 9029 a43e bb62 05bf 0578 8cbd c8f5 66bd
000000a0: 3d71 5e3e d262 9b3e 0180 aabe 28df 313e
000000b0: 02e1 0c3f f342 eb3e 23bf 94bd ab21 d33e
000000c0: d3e9 3b3e 6035 8f3e 3ee6 a53e bb40 8d3e
000000d0: 2513 5abe 65fd 9e3e 724a cabe d1b2 4c3e
000000e0: 57a9 0a3e 293b 2ebf c817 40bd eb32 303f
000000f0: c75d 58be c52c a93e 1aeb e03a 48c8 73bf
00000100: d22a a23d 4133 0e3f 5d3c 60bc b9fb a4be
00000110: 9c8f 55bd 0065 89be 5895 a7be abf2 eb3a
00000120: cec5 993e c96f e13e aab0 773e 58b7 74bc
00000130: f982 35be 5cb2 f03e b53d 8e3e fb6f 2dbf
00000140: c0a2 5fbe a0fa fe3e 0302 82bd cac0 433e
00000150: 8c13 b1be 8651 e43d 85e4 c73e 7f35 b13d
00000160: 43cb 6cbd 2c11 593e fda8 65bd 6958 87be
00000170: aac8 f73e 7264 adbe 3da4 d3be 98d5 b03e
00000180: 783a df3e e248 30be 4364 003f b8d8 6bbe
00000190: 7cf6 01bc ba6e 8d3e 4185 b4be a79f 093f
000001a0: 583c 993e 05e6 42bf 3981 fcbd 6004 833e
000001b0: 024b a9be 3330 a5be f3dd 9e3e 12de 5f3e
000001c0: ea88 1bbe a80c 48be 876f 9e3e 87a8 b9be
000001d0: 839b 163e 5e69 36bd 4749 1a3f e367 d0bc
000001e0: e2d0 acbe 6b9e a0be ebdb 743e 9f02 36be
000001f0: ee00 1d3d 3ec0 69be b071 343d d67a 863e
00000200: e134 22be c87c cfbe 993c 0c3e f32e 2cbe
00000210: 56ca fc3e 1924 57bd 7b40 453f af51 0bbe
00000220: 0fcb ac3e 7088 813d cd7e ffbd b6a8 ceba
00000230: 636b 9b3d d485 05be 223e a9be 2537 7bbe
00000240: 0b1b 983d 2636 63be 715f c8be 5e62 e63e
00000250: bb7a 9ebe 5676 3abd 93f5 bcbd 62a7 4bbe
00000260: eb73 e8be 946e e0be 414e 81be 3f59 ce3e
00000270: 1c84 dabb 566a 2cbe 3deb aabe 9dfb 103f
00000280: fe98 243e 0ecd 1e3e 87e6 943e 7c3e 223f
00000290: 57c8 fbbe 6f7c 83be 37a9 8f3e 0e8e 2f3d
000002a0: 2b88 27be bf96 b63d 7004 5c3e b873 54bd
000002b0: 65e4 30bc d77b 663e 71b4 84be 07c1 663d
000002c0: c8c8 933d f0e6 9cbd ad97 053d 0c2c 0c3e
000002d0: f495 5fbf 88f8 85bd d4b5 92be 7b6f b53d
000002e0: 3080 a9bc cab3 edbe 7483 8fbe 32f5 57bd
000002f0: dc76 0f3d 1d02 13be 2a2e a13e d7ea 543e
00000300: 0b2c 2cbe 81d0 26be ba2c 65be 4125 0a3f
00000310: 5b6c f5bd 4ea8 173d 7385 c7bd cb11 083f
00000320: 6c31 6e3e 07b5 7b3e 7376 89bd e89f ae3e
00000330: 439e 7f3e 9e84 153e 5402 2a3d 2ced 92be
00000340: cc42 d23c 392c c53e ad8f 853b a1ed 7d3e
00000350: ff15 583e 55e3 323e 54b1 573e 3564 dd3e
00000360: db82 02bf 7cf2 4f3e e77f 8dbe f98f 88be
00000370: 85a6 86be b2c1 fcbd b7a6 fe3c e122 843e
00000380: bd2a a73e e1f8 583e addd 453f 75a1 d2be
00000390: 154e 48be 249c 38bd 94bb 123d 0880 1cbf
000003a0: e851 093f a305 c3be b903 df3c 42bb f0bd
000003b0: 278d c0bd d7d8 f63e a336 853d 0f02 463e
000003c0: 61cd a13e 3913 703e 4213 db3e d8a3 1fbe
000003d0: 521b 02be 78a5 e2bc 10e9 d5be f36b b0be
000003e0: 0675 f4be afa7 103d 9a75 193e 332a fa3d
000003f0: 3b71 0bbb 985d 58bb 7d84 bc3e c02a 213f

network_body._body_endoder.seq_layers.2.bias f4 [128]
-0.00023661535 -0.00029509747 0.0015873997 -0.0046675378 0.00023863872 0.00027102756 -0.00042571625 -0.00023480311
0.00010429259 -6.5691806e-05 0.000273132 0.000333896 7.9359044e-05 -0.00032263316 2.5732226e-05 9.447843e-05
-0.00021139729 0.0011607986 -6.1425155e-05 -0.0019680334 0.00020041506 -0.00017845936 0.00010682148 0.00045806344
-0.0005809136 -0.00059323333 -5.7010722e-05 7.0754744e-05 4.37313e-05 5.0420487e-05 -2.9379727e-05 -0.0006910672
0.0058084405 0.00040978013 -0.0003003501 3.718379e-05 -0.0002720081 0.0018952668 -0.0007435934 -8.900824e-05
-0.00023447476 -0.00019209659 0.00057010044 -0.00041866262 -0.0014953864 -0.00056369754 -6.450189e-05 0.00016980158
0.0002725333 4.714286e-05 -2.9272436e-05 -0.0010663281 0.0022062913 -0.0005733399 -0.0011244881 -7.423147e-05
-0.0004353916 -0.00014505704 -0.0007577662 0.00012846243 0.00032335124 -0.00032991223 0.0001706016 -0.00043425692
-0.00026405795 -0.00011023397 -0.00022539555 -0.0004827218 0.00026341062 5.0361552e-05 -0.001496884 0.00030377146
-2.0990074e-05 0.0001398002 -1.9800878e-05 -0.00014379469 -0.00014635187 -0.0009604023 -0.004297058 -0.0004678696
-0.00056431507 0.00011133017 4.2608754e-06 -0.00023262501 -0.00011729032 0.00068170356 -0.00052777084 4.305671e-05
-0.00010742151 0.0032412587 -0.00022605284 -0.0010230726 0.00044539684 -0.00049377116 -0.0024165425 0.000237027
0.00015080327 0.00036117472 0.0026770977 0.0003689118 5.4656784e-06 2.0705957e-05 -0.00028580346 -0.0001291563
0.0026275902 0.00010514895 0.00011939002 -0.0020596643 -0.0004746028 0.00028332297 0.0001972106 0.001896612
-4.7728565e-05 -0.00035584642 -0.0003578127 -7.2187366e-05 0.0003034039 -0.00083674403 -0.00040972052 -0.00078285666
9.0508474e-05 -0.0002524605 -0.0008501475 -6.1924744e-05 0.0011089557 0.0020422891 -0.0009095597 8.261392e-05
00000000: f31b 78b9 50b7 9ab9 4c10 d03a 25f2 98bb
00000010: 183b 7a39 b418 8e39 ab32 dfb9 7b35 76b9
00000020: a8b7 da38 05c4 89b8 2833 8f39 c30e af39
00000030: 906d a638 1727 a9b9 89db d737 b922 c638
00000040: 87aa 5db9 f025 983a 61d1 80b8 1ffa 00bb
00000050: 8226 5239 d220 3bb9 5805 e038 3c28 f039
00000060: 7448 18ba 3783 1bba cc1e 6fb8 2a62 9438
00000070: 206c 3738 967a 5338 7c74 f6b7 bc28 35ba
00000080: bb54 be3b c2d7 d639 4f78 9db9 caf5 1b38
00000090: 4f9c 8eb9 9a6a f83a b5ed 42ba efa9 bab8
000000a0: 57dd 75b9 896d 49b9 cb72 153a f27f dbb9
000000b0: d700 c4ba 1ac5 13ba 3045 87b8 c40c 3239
000000c0: cde2 8e39 43bb 4538 148e f5b7 09c4 8bba
000000d0: 6d97 103b 304c 16ba 8f63 93ba b8ac 9bb8
000000e0: 4545 e4b9 741a 18b9 d4a4 46ba dfb3 0639
000000f0: 7887 a939 12f8 acb9 85e3 3239 faac e3b9
00000100: 4271 8ab9 692d e7b8 2858 6cb9 d315 fdb9
00000110: 601a 8a39 4e3b 5338 1833 c4ba 8443 9f39
00000120: d713 b0b7 5597 1239 101a a6b7 98c7 16b9
00000130: 0876 19b9 82c3 7bba 56ce 8cbb 654c f5b9
00000140: 8bee 13ba ee79 e938 a4f8 8e36 cdec 73b9
00000150: c3f9 f5b8 5ab4 323a 1a5a 0aba ca97 3438
00000160: 7c47 e1b8 4c6b 543b 9908 6db9 9f18 86ba
00000170: 2784 e939 6c70 01ba db5e 1ebb 738a 7839
00000180: f220 1e39 0d5c bd39 3f72 2f3b 816a c139
00000190: d265 b736 b4b1 ad37 e4d7 95b9 216e 07b9
000001a0: a633 2c3b 6a83 dc38 0761 fa38 6ffb 06bb
000001b0: 1cd4 f8b9 f78a 9439 51ca 4e39 bd97 f83a
000001c0: 2830 48b8 e690 bab9 cf98 bbb9 4c63 97b8
000001d0: 2f12 9f39 f158 5bba c2cf d6b9 9f38 4dba
000001e0: 5ecf bd38 ad5c 84b9 6fdc 5eba 98dd 81b8
000001f0: 615a 913a edd7 053b 856f 6eba 0341 ad38

network_body._body_endoder.seq_layers.2.weight f4 [128, 128]
0.00993315 -0.13184506 0.038643926 0.08142281 0.013098429 -0.026666101 0.07017221 0.11075198
-0.122492336 -0.1069435 0.006814548 -0.1756592 -0.071910664 -0.09392718 0.013448275 -0.05724058
-0.049409278 -0.08780606 0.14915381 0.052083455 -0.03871828 -0.02344162 0.08488742 0.06721278
-0.13323076 0.22490023 -0.005381332 0.029501066 -0.036269337 -0.01127799 0.02834479 -0.10682628
0.019710409 -0.10536551 -0.02107641 -0.07796996 -0.07282736 -0.00029493214 0.07479247 -0.009544649
0.047458854 0.083226904 -0.12847656 0.14577295 0.07656021 -0.15669684 0.03159904 -0.047897685
-0.097081594 0.030047275 0.020539667 -0.03398988 0.098134406 -0.16749425 -0.03583637 0.21268323
-0.08777205 0.059683934 -0.086527675 0.10624174 0.06798083 -0.031244945 0.033839185 -0.021016913
-0.036414675 0.01981455 0.06743105 0.07496182 0.0032288847 0.049497258 -0.040179547 -0.058177177
0.07579848 -0.083276875 0.10053202 -0.06828324 0.0023162423 -0.03717253 0.095797956 0.062246792
-0.062927276 0.04693334 0.06751389 -0.07119568 -0.03124466 0.09484878 -0.037665803 -0.05989008
-0.07139689 0.0023281327 0.024816684 -0.06375249 0.06681377 -0.13474995 -0.18171687 -0.067010924
0.0811005 -0.12761098 0.05676594 -0.07450057 -0.101549484 0.08254846 0.103539735 0.12701915
-0.010962278 -0.048487406 0.040190883 0.055926546 0.13763769 0.16634391 0.007833834 0.096455105
0.059531305 -0.13893092 -0.0036432703 0.101623766 0.08389208 -0.1628181 -0.056599263 0.19345535
-0.016020533 -0.08178299 -0.06562933 0.00090075855 0.207078 0.10566319 0.036220927 0.016484698
-0.1276555 0.07855342 -0.043316428 0.07282029 -0.06537525 -0.10428162 -0.0034923758 -0.19903098
-0.004808167 0.01856187 0.05755777 0.23648216 -0.055502538 0.061905384 -0.08195725 0.21628636
0.1394033 -0.021456873 -0.11544185 -0.023151647 -0.04714625 0.14864439 0.056191184 -0.22595444
-0.121250115 0.07729006 -0.021834698 0.04173632 0.062806755 -0.060614865 -0.047997296 0.10219024
-0.000732643 -0.04673632 0.02851954 -0.055549987 0.008817206 -0.0008921002 0.031834662 -0.05014706
0.098707736 0.057947654 0.030714793 0.015854977 0.088167526 -0.107788645 -0.008258827 0.0025226923
0.02766924 0.1620266 -0.031272095 0.020447971 -0.0230144 0.17509778 0.08854791 0.077273674
-0.12337464 0.098903865 -0.15890607 0.08972582 0.08702405 0.03464276 -0.06667456 0.07152729
0.054529354 0.1526955 -0.05686285 -0.0618786 -0.023745168 0.18053669 0.109868854 -0.00014652713
0.046122316 -0.14346686 -0.005140594 0.11143619 -0.103548355 0.09646175 -0.117380194 -0.18286507
-0.0989869 0.18536735 -0.051841266 0.05735057 0.047264405 0.22291094 -0.0053778584 -0.036959924
-0.03881059 0.00034937664 -0.12878671 -0.0060407645 -0.10532383 0.016391035 -0.04198284 -0.1654002
-0.035860296 0.09764441 -0.041882575 -0.14804852 0.056488287 0.13290326 -0.12269533 0.09950324
-0.07105202 0.07177958 -0.049905762 -0.03144506 -0.13084213 0.008574939 -0.022114968 -0.03469116
-0.00023301897 -0.054127965 0.007453409 0.06939205 0.15482783 0.15356196 -0.085484564 -0.11698661
-0.051094368 0.054977663 0.1331224 0.05370467 -0.019111421 0.028006373 0.05267127 -0.22744007
00000000: a7be 223c 6402 07be 1849 1e3d 01c1 a63d
00000010: cb9a 563c de72 dabc 73b6 8f3d efd1 e23d
00000020: 43dd fabd 3205 dbbd 924c df3b 01e0 33be
00000030: e645 93bd e55c c0bd 2756 5c3c 1975 6abd
00000040: 6261 4abd aad3 b3bd c7bb 183e 7655 553d
00000050: 0f97 1ebd a408 c0bc 75d9 ad3d dba6 893d
00000060: a56d 08be 3f4c 663e e255 b0bb 38ac f13c
00000070: 288f 14bd 52c7 38bc 5533 e83c bdc7 dabd
00000080: b977 a13c dfc9 d7bd 6fa8 acbc b7ae 9fbd
00000090: 8326 95bd 1fa1 9ab9 cb2c 993d 2961 1cbc
000000a0: 3764 423d de72 aa3d 5c8f 03be 8145 153e
000000b0: 99cb 9c3d 2375 20be ff6d 013d 5d30 44bd
000000c0: b7d2 c6bd b425 f63c ce42 a83c f938 0bbd
000000d0: b1fa c83d 9d83 2bbe 28c9 12bd a2c9 593e
000000e0: d5c1 b3bd 2477 743d 6c35 b1bd 4595 d93d
000000f0: 8939 8b3d 66f5 ffbc f59a 0a3d a92b acbc
00000100: 8e27 15bd 2052 a23c 4a19 8a3d 9585 993d
00000110: b29b 533b a3bd 4a3d 4f93 24bd 314b 6ebd
00000120: 3c3c 9b3d 118d aabd bbe3 cd3d 15d8 8bbd
00000130: 19cc 173b 3942 18bd b831 c43d 7ef6 7e3d
00000140: 04e0 80bd 2d3d 403d b944 8a3d 0acf 91bd
00000150: cdf4 ffbc 1440 c23d 7547 1abd 4d4f 75bd
00000160: 8838 92bd 9693 183b 5c4c cb3c aa90 82bd
00000170: a8d5 883d e4fb 09be fd13 3abe 063d 89bd
00000180: 0518 a63d 74ac 02be 6783 683d c193 98bd
00000190: 2df9 cfbd 2b0f a93d a40c d43d 4f11 023e
000001a0: 209b 33bc bb9a 46bd 329f 243d 3c13 653d
000001b0: e5f0 0c3e 0f56 2a3e 7b59 003c 418a c53d
000001c0: 19d7 733d e843 0ebe efc3 6ebb 1f20 d03d
000001d0: 9ccf ab3d cab9 26be a1d4 67bd 2919 463e
000001e0: 7e3d 83bc d77d a7bd ac68 86bd e220 6c3a
000001f0: 410c 543e f165 d83d 655c 143d eb0a 873c
00000200: 20b8 02be 9ee0 a03d 916c 31bd ce22 953d
00000210: 76e3 85bd 9a91 d5bd 58e0 64bb c7ce 4bbe
00000220: d48d 9dbb 100f 983c b2c1 6b3d 6128 723e
00000230: a156 63bd 8090 7d3d 34d9 a7bd 2c7a 5d3e
00000240: bdbf 0e3e 53c6 afbc c76c ecbd 86a8 bdbc
00000250: 6d1c 41bd 3c36 183e ba28 663d 9a60 67be
00000260: fb51 f8bd 404a 9e3d aede b2bc b4f3 2a3d
00000270: d4a0 803d 4b47 78bd d098 44bd 1e49 d13d
00000280: d70e 40ba 956e 3fbd cfa1 e93c 6288 63bd
00000290: 0b76 103c d5db 69ba 1065 023d 0167 4dbd
000002a0: 4827 ca3d 855a 6d3d 979d fb3c 4ce2 813c
000002b0: 2d91 b43d 4bc0 dcbd 0850 07bc c153 253b
000002c0: 9aaa e23c 4dea 253e 2b17 00bd 8182 a73c
000002d0: b288 bcbc d54c 333e 9b58 b53d a941 9e3d
000002e0: d8ab fcbd 1c8e ca3d 46b8 22be 2cc2 b73d
000002f0: aa39 b23d 91e5 0d3d ac8c 88bd e67c 923d
00000300: 2c5a 5f3d 365c 1c3e 05e9 68bd 6a74 7dbd
00000310: 3a85 c2bc 9cde 383e ec02 e13d 14a5 19b9
00000320: c1ea 3c3d fae8 12be 6e72 a8bb a838 e43d
00000330: 2911 d4bd bd8d c53d 0765 f0bd fb40 3bbe
00000340: a5b9 cabd f0d0 3d3e 8257 54bd 6ee8 6a3d
00000350: 5298 413d c442 643e bf38 b0bb 4a63 17bd
00000360: daf7 1ebd 8a2c b739 aae0 03be 9bf1 c5bb
00000370: 05b4 d7bd 7e46 863c 33f6 2bbd ac5e 29be
00000380: 3fe2 12bd cbf9 c73d 108d 2bbd 089a 17be
00000390: 4360 673d cb17 083e b047 fbbd 5bc8 cb3d
000003a0: b983 91bd 2c01 933d fc69 4cbd 89cc 00bd
000003b0: 7bfb 05be e77d 0c3c 732a b5bc 5118 0ebd
000003c0: 8e56 74b9 49b5 5dbd ba3b f43b 6b1d 8e3d
000003d0: 308b 1e3e 593f 1d3e 8812 afbd ad96 efbd
000003e0: 5448 51bd 4230 613d 3d51 083e 6ef9 5b3d
000003f0: 8e8f 9cbc 9f6d e53c d4bd 573d 0de6 68be
