results/AgentTarget_Simple_02/AgentTarget/AgentTarget-1440.onnx (onnx, 71949 bytes, 7 tensors)

action_model._continuous_distribution.log_sigma f4 [1, 2]
0	0x00000000	0.0
1	0x00000000	0.0

action_model._continuous_distribution.mu.bias f4 [2]
0	0x00000000	0.0
1	0x00000000	0.0

action_model._continuous_distribution.mu.weight f4 [2, 128]
0	0x3d269eb4	0.040678695
1	0xbca3e9f7	-0.020009024
2	0xbbfecc08	-0.0077757873
3	0x3c207ebb	0.00979584
4	0xbd210b63	-0.0393175
5	0x38b14f4d	8.4547886e-05
6	0xbcf55f37	-0.029952629
7	0x3cd67028	0.026176527
8	0x3b599e5f	0.0033205969
9	0xbc798e48	-0.015231676
10	0xbce5da43	-0.028058177
11	0xbc8b12fb	-0.016976824
12	0x3c3398af	0.010961696
13	0xbd00b91f	-0.031426545
14	0xbc3747a4	-0.011186514
15	0x3d1c9457	0.038227405
16	0xbcac4b2a	-0.021031935
17	0x3ca34ace	0.01993313
18	0x3ccd8d13	0.025091683
19	0xbac43cef	-0.0014971773
20	0x3bfa653b	0.007641462
21	0xbcbc53a7	-0.022989107
22	0xbb2bb9db	-0.0026203308
23	0xbd240e1b	-0.040052515
24	0x3b83a5dd	0.004017575
25	0xbc6f5bda	-0.014609301
26	0xbcc74f44	-0.024329789
27	0x3cc68f5e	0.024238285
28	0x3c536232	0.01290183
29	0xb9e8f857	-0.00044435516
30	0x3c44a24b	0.012001584
31	0x3cd80c6d	0.026373113
32	0x3c9b958c	0.018992208
33	0x3ba9799f	0.005171969
34	0xbb6d4a42	-0.0036207591
35	0xbc7f9263	-0.015598866
36	0x3d11b816	0.03557595
37	0x3ca22df5	0.019797305
38	0x3a92368c	0.0011155172
39	0xbc9ea5f0	-0.019366235
40	0x3c284d03	0.010272267
41	0xbc5cad88	-0.013469107
42	0x3b3e4c31	0.0029037113
43	0x3b5055af	0.0031789353
44	0xbc88a5f7	-0.0166807
45	0xbc77a758	-0.015115581
46	0x3c3a5a26	0.011374032
47	0xbc2d325e	-0.0105710905
48	0xbc1374ab	-0.008999984
49	0x3c586258	0.013207041
50	0xbb64adf8	-0.0034893733
51	0xb949a5e0	-0.00019230647
52	0xbc0c88b0	-0.008577511
53	0x3c8b6165	0.017014215
54	0xbb9d2125	-0.004795211
55	0x3ce3d59a	0.027811814
56	0x3c06dd81	0.008231522
57	0x3ca8070d	0.020511175
58	0x3d087b7b	0.033320885
59	0xbcbd534e	-0.023111012
60	0xbc9170eb	-0.017754039
61	0xbabdeccb	-0.0014490125
62	0xbb0ca607	-0.0021461265
63	0x3cc5e585	0.024157295
64	0x3b8053b8	0.00391623
65	0x3cbae3d3	0.022813713
66	0x3a7f7b22	0.0009745826
67	0xbd057007	-0.03257754
68	0x3a5d91c5	0.00084522023
69	0xbd1ec893	-0.0387655
70	0x3cdde4ba	0.027086604
71	0xbd055b72	-0.032557912
72	0x3cc111c5	0.023568043
73	0xbb5e238f	-0.0033895706
74	0x3b32cedd	0.0027283945
75	0x3c8591c4	0.016304858
76	0x3cfbbe7b	0.030730477
77	0xbc9db066	-0.019249152
78	0xbc61913f	-0.0137675395
79	0x3c5b87ef	0.013399108
80	0x3c1aad01	0.009440661
81	0x3b905755	0.004404942
82	0x3c8ba452	0.017046127
83	0x3caf6c08	0.021413818
84	0xbc54d943	-0.012991252
85	0x3c6baa58	0.014383875
86	0xbc6aa133	-0.014320659
87	0xbcd3ce80	-0.025855303
88	0xbb0d8d8f	-0.0021599268
89	0xbcbbdb8b	-0.022931835
90	0xbc87dcac	-0.016584717
91	0x3c48b478	0.012250058
92	0x3c0cb4e4	0.00858805
93	0xbca76126	-0.020432066
94	0x3d02f7db	0.031974655
95	0x3ccc1fbf	0.024917481
96	0xbbd7bf95	-0.0065841177
97	0xbcd7414a	-0.02627625
98	0xbaf26d30	-0.0018495675
99	0x3cd36855	0.025806585
100	0x3bee558a	0.0072733806
101	0x3b923601	0.004462004
102	0xbc961df9	-0.018324839
103	0x3c50e717	0.012750409
104	0xbce5f342	-0.028070096
105	0x3b812952	0.0039416933
106	0x3abe237c	0.0014506425
107	0x3c69a8c7	0.014261431
108	0xba288fd7	-0.0006430125
109	0xbc27c548	-0.010239907
110	0xbbfe1730	-0.007754229
111	0xbb66cf35	-0.003521872
112	0x3bb2a009	0.0054512066
113	0x3c34bd6c	0.01103149
114	0xbbf71aad	-0.007541022
115	0x3bfe2975	0.007756407
116	0x3c30ab1e	0.010782985
117	0xbcc12212	-0.023575816
118	0x3aec3238	0.0018020337
119	0x3c9b94d3	0.018991863
120	0x3bcdacad	0.006276688
121	0xbbef8b6d	-0.007310322
122	0x3c3f4e15	0.011676331
123	0xbd02c10b	-0.03192238
124	0xbbb75aa3	-0.0055955215
125	0xbc85eab7	-0.016347272
126	0x3bd68c80	0.0065475106
127	0x3c8f1854	0.017467655
128	0xbc2cb410	-0.010540977
129	0xbcfb95bb	-0.030711045
130	0xbc6f006f	-0.014587506
131	0x3cec75ff	0.028864859
132	0x3d062c5b	0.032757144
133	0x3cd6a23f	0.026200412
134	0x3c52efd3	0.012874561
135	0xbc995294	-0.018716134
136	0x3c576f18	0.013149045
137	0x3c8aeec3	0.016959554
138	0x3bf48fc0	0.0074634254
139	0x3c744528	0.014909066
140	0x3c1ee065	0.0096970545
141	0xbc9ee794	-0.019397534
142	0x3a86faa6	0.0010298088
143	0x3b116e04	0.0022190819
144	0xbc6e641b	-0.014550234
145	0x3c669942	0.014074625
146	0xbc918397	-0.017762942
147	0xbd3ea1e5	-0.046541113
148	0xbc2895ca	-0.010289619
149	0xbc200a4f	-0.009768083
150	0xbccdeccf	-0.025137333
151	0x3cb32979	0.021870362
152	0x3b6320cf	0.0034657007
153	0xbcdf2d48	-0.027243271
154	0xbc3cb343	-0.011517349
155	0x3c147c7b	0.009062882
156	0xbd340c99	-0.043957327
157	0x3cadf502	0.021234993
158	0xbc8e19dd	-0.017346317
159	0x3bdf82a5	0.006820994
160	0xb7c85a85	-2.388401e-05
161	0x3ad8ea2b	0.001654928
162	0x3cb14ce3	0.021643108
163	0xbb8d6907	-0.0043154988
164	0x3ad9e97f	0.0016625373
165	0x3c6e8ca7	0.014559901
166	0xbb9cc8f7	-0.004784699
167	0x3c37902b	0.011203806
168	0x3cf1bec2	0.029509906
169	0xbba66617	-0.005078088
170	0x3c17af13	0.00925805
171	0x3c021cf9	0.007941478
172	0xbcab78f8	-0.020931706
173	0x3cc4580e	0.023967769
174	0x3bed14ad	0.0072351308
175	0x3cd44c68	0.02591534
176	0x3cb11607	0.021616949
177	0xbba21347	-0.0049461457
178	0x3cdea2ed	0.027177298
179	0x3c8dc45b	0.017305544
180	0x3b9bbab5	0.004752482
181	0x3c19dc8f	0.009390964
182	0x3c7057ab	0.014669339
183	0x3caf7b33	0.02142105
184	0xbcb75b2c	-0.022382341
185	0x3bcfaa03	0.0063374056
186	0xbc9f1b5b	-0.019422224
187	0xbc448fd3	-0.011997181
188	0x3aff1a98	0.0019462882
189	0x3a3e7958	0.00072660064
190	0x3bdaa522	0.0066725174
191	0x3cbb38c7	0.022854222
192	0x3b0db9ec	0.002162571
193	0xbc38dd92	-0.011283295
194	0xbc18d10b	-0.0093271835
195	0xbc828a31	-0.015935035
196	0xbc0d9c52	-0.008643227
197	0x395e3d93	0.00021194508
198	0x3ca241ad	0.019806707
199	0xbc8760c5	-0.016525635
200	0xbc9ef6d0	-0.019404799
201	0x3c1cdd9a	0.009574318
202	0xbd183ac3	-0.037165415
203	0x3c96584e	0.018352654
204	0xbca13ace	-0.01968136
205	0xbcd3a48a	-0.025835294
206	0xb9e6f52a	-0.0004405168
207	0x3c643fab	0.013931195
208	0x3cd0b5cb	0.02547731
209	0x3c63173f	0.013860523
210	0x3cd19820	0.025585234
211	0x3c885ff2	0.016647313
212	0xbade663f	-0.0016967728
213	0x3c89ebf5	0.016836146
214	0xbcb66813	-0.022266423
215	0x3c1e0dfd	0.00964689
216	0x3c2c836b	0.010529379
217	0x3c5b2cd0	0.013377383
218	0x3ca36f4b	0.01995053
219	0xbc402558	-0.011727653
220	0x3b579b6b	0.0032899033
221	0xbb937eea	-0.0045012133
222	0x3ae2cf13	0.0017304145
223	0x3c5b0fd8	0.013370477
224	0xbc06f525	-0.008237158
225	0xbb80bfe9	-0.0039291275
226	0x3bafec96	0.0053687794
227	0xba52d313	-0.0008042317
228	0xbbee36b5	-0.007269705
229	0x3bdc87dd	0.0067300634
230	0xbcc95003	-0.024574285
231	0x3c36a017	0.011146567
232	0xbc887450	-0.016657025
233	0xbbff3447	-0.0077882144
234	0x3bb1e8bc	0.0054293554
235	0xbcd426ef	-0.025897471
236	0x3c561193	0.013065713
237	0xbc2ddbbf	-0.010611474
238	0xbaeab40a	-0.0017906439
239	0xbc584370	-0.013199672
240	0x3ced3b18	0.028958842
241	0xbb6a2937	-0.0035730132
242	0x3cd5093b	0.026005378
243	0xbce52a6b	-0.027974328
244	0x3c8ee79b	0.017444422
245	0xbb24088a	-0.0025029504
246	0x3c88ad3f	0.016684173
247	0xbc96930c	-0.018380664
248	0xbaf226c8	-0.0018474692
249	0xbc5090bd	-0.012729821
250	0xbc0b71fe	-0.008511065
251	0x3bce94ef	0.0063043754
252	0x3c89b2c9	0.016808884
253	0x3bc93c37	0.0061412114
254	0xbcdd5c4f	-0.027021555
255	0x3c9f6c25	0.019460747

network_body._body_endoder.seq_layers.0.bias f4 [128]
0	0x00000000	0.0
1	0x00000000	0.0
2	0x00000000	0.0
3	0x00000000	0.0
4	0x00000000	0.0
5	0x00000000	0.0
6	0x00000000	0.0
7	0x00000000	0.0
8	0x00000000	0.0
9	0x00000000	0.0
10	0x00000000	0.0
11	0x00000000	0.0
12	0x00000000	0.0
13	0x00000000	0.0
14	0x00000000	0.0
15	0x00000000	0.0
16	0x00000000	0.0
17	0x00000000	0.0
18	0x00000000	0.0
19	0x00000000	0.0
20	0x00000000	0.0
21	0x00000000	0.0
22	0x00000000	0.0
23	0x00000000	0.0
24	0x00000000	0.0
25	0x00000000	0.0
26	0x00000000	0.0
27	0x00000000	0.0
28	0x00000000	0.0
29	0x00000000	0.0
30	0x00000000	0.0
31	0x00000000	0.0
32	0x00000000	0.0
33	0x00000000	0.0
34	0x00000000	0.0
35	0x00000000	0.0
36	0x00000000	0.0
37	0x00000000	0.0
38	0x00000000	0.0
39	0x00000000	0.0
40	0x00000000	0.0
41	0x00000000	0.0
42	0x00000000	0.0
43	0x00000000	0.0
44	0x00000000	0.0
45	0x00000000	0.0
46	0x00000000	0.0
47	0x00000000	0.0
48	0x00000000	0.0
49	0x00000000	0.0
50	0x00000000	0.0
51	0x00000000	0.0
52	0x00000000	0.0
53	0x00000000	0.0
54	0x00000000	0.0
55	0x00000000	0.0
56	0x00000000	0.0
57	0x00000000	0.0
58	0x00000000	0.0
59	0x00000000	0.0
60	0x00000000	0.0
61	0x00000000	0.0
62	0x00000000	0.0
63	0x00000000	0.0
64	0x00000000	0.0
65	0x00000000	0.0
66	0x00000000	0.0
67	0x00000000	0.0
68	0x00000000	0.0
69	0x00000000	0.0
70	0x00000000	0.0
71	0x00000000	0.0
72	0x00000000	0.0
73	0x00000000	0.0
74	0x00000000	0.0
75	0x00000000	0.0
76	0x00000000	0.0
77	0x00000000	0.0
78	0x00000000	0.0
79	0x00000000	0.0
80	0x00000000	0.0
81	0x00000000	0.0
82	0x00000000	0.0
83	0x00000000	0.0
84	0x00000000	0.0
85	0x00000000	0.0
86	0x00000000	0.0
87	0x00000000	0.0
88	0x00000000	0.0
89	0x00000000	0.0
90	0x00000000	0.0
91	0x00000000	0.0
92	0x00000000	0.0
93	0x00000000	0.0
94	0x00000000	0.0
95	0x00000000	0.0
96	0x00000000	0.0
97	0x00000000	0.0
98	0x00000000	0.0
99	0x00000000	0.0
100	0x00000000	0.0
101	0x00000000	0.0
102	0x00000000	0.0
103	0x00000000	0.0
104	0x00000000	0.0
105	0x00000000	0.0
106	0x00000000	0.0
107	0x00000000	0.0
108	0x00000000	0.0
109	0x00000000	0.0
110	0x00000000	0.0
111	0x00000000	0.0
112	0x00000000	0.0
113	0x00000000	0.0
114	0x00000000	0.0
115	0x00000000	0.0
116	0x00000000	0.0
117	0x00000000	0.0
118	0x00000000	0.0
119	0x00000000	0.0
120	0x00000000	0.0
121	0x00000000	0.0
122	0x00000000	0.0
123	0x00000000	0.0
124	0x00000000	0.0
125	0x00000000	0.0
126	0x00000000	0.0
127	0x00000000	0.0

network_body._body_endoder.seq_layers.0.weight f4 [128, 5]
0	0xbeda8ca2	-0.4268542
1	0xbc8f9fd5	-0.017532269
2	0x3eaae9ff	0.3338165
3	0xbf252637	-0.64511436
4	0xbe51126e	-0.20417187
5	0x3e4892da	0.1958727
6	0x3ec0dcc1	0.37668422
7	0x3f3fb4f5	0.74885494
8	0xbf8e7c2c	-1.1131644
9	0xbf248f87	-0.64281505
10	0xbf195d32	-0.5990783
11	0xbeb6b9e3	-0.35688695
12	0x3e1b9f59	0.15197505
13	0x3d59ab8a	0.053142108
14	0x3e8c056f	0.27347896
15	0x3e1ed3f3	0.1551054
16	0xbe5eef88	-0.21771061
17	0xbeaa8b9f	-0.33309647
18	0x3ed500da	0.41602212
19	0xbf453bfb	-0.7704465
20	0xbebc1c29	-0.36740234
21	0x3f019637	0.50619835
22	0x3e14f040	0.14544773
23	0xbeb0860a	-0.34477264
24	0x3f12c5b2	0.5733291
25	0x3e003c0d	0.12522908
26	0xbe2dc51a	-0.1696972
27	0x3ec0bbde	0.3764333
28	0xbeea7dad	-0.45799008
29	0x3f8f488c	1.1194015
30	0xbed75a58	-0.42061114
31	0x3e8234df	0.25430962
32	0x3e81850e	0.25296825
33	0xbf7136b0	-0.9422407
34	0xbe7a4b3f	-0.24442767
35	0xbeac289f	-0.3362474
36	0x3e8a2573	0.26981696
37	0xbf448de5	-0.76779014
38	0xbf0951a2	-0.53640187
39	0x3f7efe96	0.9960722
40	0x3df5a16b	0.11993679
41	0x3e324c7b	0.17411987
42	0x3eb5ccd1	0.35507825
43	0xbda087c1	-0.07838393
44	0xbf3971e3	-0.724394
45	0x3e9feb95	0.31234422
46	0x3ef10aaa	0.4707845
47	0xbe856840	-0.260561
48	0xbd39f036	-0.0453951
49	0xbe561c93	-0.20909338
50	0xbf2b36db	-0.6688058
51	0xbe354fc8	-0.17706215
52	0x3e8e3f70	0.27782774
53	0xbe6712c2	-0.2256575
54	0xbdc7da92	-0.09758486
55	0xbf12dd5c	-0.5736902
56	0xbe482bae	-0.19547912
57	0xbdc95aee	-0.098317966
58	0x3e6c8a8f	0.23099731
59	0xbef76c24	-0.48324692
60	0x3ebf9ad9	0.37422827
61	0xbf8ebab0	-1.1150723
62	0xbdc199c8	-0.094531596
63	0xbf83b531	-1.028967
64	0x3f54c332	0.83110344
65	0x3e00fb99	0.12595977
66	0xbef57ccf	-0.47946784
67	0xbea09b93	-0.31368694
68	0x3d337372	0.04381127
69	0xbf736a85	-0.9508441
70	0xbefd5aad	-0.49483243
71	0xbd9e6b6e	-0.07735334
72	0xbec71bef	-0.388885
73	0x3f8f1202	1.117737
74	0x3e266eff	0.16253279
75	0x3d4b2979	0.0496001
76	0x3f45584d	0.7708786
77	0xbf10bbb5	-0.5653642
78	0xbefac6e5	-0.4897987
79	0xbdf286ad	-0.118420936
80	0xbf6d3d80	-0.92671967
81	0xbe876904	-0.26447308
82	0xbe539f06	-0.20666131
83	0x3e8c5c23	0.27414045
84	0x3f05aa59	0.52213055
85	0xbe4c90ee	-0.19977161
86	0xbe9745f5	-0.2954556
87	0xbee74476	-0.4516942
88	0x3c82de36	0.015975099
89	0x3d6143f4	0.054996446
90	0xbed31543	-0.4122716
91	0x3bb8d50b	0.005640631
92	0x3d0d8c38	0.03455755
93	0x3f02d36b	0.5110385
94	0x3ea1f8ec	0.31635225
95	0xbe280e99	-0.16411819
96	0xbef21f9d	-0.47289744
97	0x3e438b5a	0.19096127
98	0xbe30f8ef	-0.1728246
99	0xbe6f8de6	-0.23393974
100	0xbe36fee3	-0.17870669
101	0xbef472ed	-0.4774393
102	0xbeb60c8d	-0.3555645
103	0x3eaed2aa	0.341451
104	0x3ed198d4	0.4093691
105	0xbf122c73	-0.57099074
106	0x3e488a20	0.1958394
107	0x3ba1c3e8	0.004936684
108	0x3eac807e	0.33691782
109	0xbec285bb	-0.37992653
110	0xbf873b04	-1.0564885
111	0x3f1f37e6	0.6219467
112	0xbe137d55	-0.14403279
113	0x3e8826ec	0.26592195
114	0xbce62353	-0.028093016
115	0x3d5731bc	0.052537665
116	0x3f269beb	0.6508166
117	0xbecc9f2a	-0.39965183
118	0xbdce9b81	-0.10088254
119	0x3f36fe8d	0.71482164
120	0xbf3b4393	-0.73149985
121	0x3e68ddb3	0.22740822
122	0x3e7572bf	0.23969553
123	0xbe8b7130	-0.27234793
124	0xbe215c3b	-0.1575784
125	0x3ec0a337	0.37624523
126	0xbe99ccf1	-0.3003917
127	0x3eb88ab6	0.36043328
128	0xbf0a811d	-0.5410326
129	0x3cc4351d	0.023951108
130	0x3d87c90d	0.06630144
131	0xbd2fc332	-0.042910762
132	0x3e8eb69e	0.278737
133	0xbf469fce	-0.7758759
134	0xbed10b98	-0.40829158
135	0x3daef39e	0.0854256
136	0xbee1412e	-0.4399504
137	0xbe0a769c	-0.13521808
138	0xbea2718f	-0.31727263
139	0x3eb0eda7	0.34556314
140	0xbda3aa11	-0.07991422
141	0xbf0b6635	-0.5445283
142	0xbdce6d38	-0.100794256
143	0x3f013783	0.5047533
144	0xbeb55e66	-0.35423583
145	0xbf093ddc	-0.53610015
146	0xbd54c8da	-0.05194936
147	0x3e414634	0.18874437
148	0xbe1c79dc	-0.1528086
149	0x3e795813	0.24350004
150	0xbf3e0909	-0.74232537
151	0xbe22bc98	-0.15892255
152	0xbef07441	-0.46963695
153	0x3f2800b6	0.65626085
154	0x3f91e4f5	1.1397997
155	0xbe862549	-0.2620032
156	0xbf08551e	-0.5325488
157	0xbf073218	-0.5281081
158	0x3dcdb20e	0.10043727
159	0xbe2a5e0c	-0.16637439
160	0x3ea49f54	0.32152808
161	0x3eacfd7c	0.33787143
162	0x3f7754ad	0.9661358
163	0x3e9a4924	0.30133927
164	0x3f205776	0.62633455
165	0xbf68f756	-0.91002405
166	0xbf3dc516	-0.74128854
167	0xbe14b777	-0.14523111
168	0x3f6af4c6	0.91779745
169	0xbef65964	-0.48115075
170	0xbe36ae67	-0.17839967
171	0x3f25e3a2	0.64800465
172	0xbef95173	-0.48694953
173	0x3f0eaaef	0.55729574
174	0x3e966e58	0.2938106
175	0x3dc3094d	0.09523258
176	0xbf767435	-0.9627107
177	0x3d117a1f	0.035516854
178	0x3ed813a0	0.42202473
179	0x3d7a6d37	0.06113931
180	0xbf0c6d53	-0.54854316
181	0xbe65344c	-0.22383231
182	0xbefb6dda	-0.49107248
183	0xbd0b33d2	-0.033984967
184	0x3e18e7ac	0.14932126
185	0x3ec42c10	0.38314867
186	0xbdf95beb	-0.12175735
187	0x3e94da4d	0.290728
188	0xbdaa10ea	-0.08304007
189	0x3cf36268	0.02971001
190	0x3f2b96bc	0.6702688
191	0x3f1d6163	0.61476725
192	0xbe3be348	-0.1834842
193	0xbf53d390	-0.82744694
194	0xbc833696	-0.01601724
195	0x3d52df76	0.05148264
196	0xbea3920b	-0.3194736
197	0x3e1be941	0.15225698
198	0x3d4393a3	0.04774822
199	0xbe2de184	-0.16980559
200	0xbf58a569	-0.84627396
201	0xbeaea360	-0.3410902
202	0x3edaf619	0.42765883
203	0xbeb566d1	-0.35430005
204	0x3d15474a	0.03644494
205	0xbec3d4b5	-0.3824822
206	0x3d51bea6	0.051207207
207	0xbf070fc2	-0.5275842
208	0xbdd3bf79	-0.10339255
209	0xbf145c62	-0.57953465
210	0xbd3410ba	-0.043961264
211	0xbeefdaec	-0.46846712
212	0xbf7e07e3	-0.99230784
213	0xbe9270a1	-0.28601554
214	0xbe57c594	-0.21071464
215	0x3f02e39e	0.51128566
216	0xbe466852	-0.19375733
217	0x3e3ea25c	0.18616623
218	0x3e82a711	0.25518087
219	0xbcd93053	-0.0265123
220	0x3f48c706	0.78428686
221	0x3df96ee2	0.12179352
222	0x3d8c04ed	0.06836877
223	0xbb2fe4de	-0.0026839296
224	0x3eb716ca	0.35759574
225	0xbf31dc33	-0.6947662
226	0xbe1f19e4	-0.1553722
227	0xbeb85fcf	-0.36010596
228	0xbd823c16	-0.06359117
229	0x3e812042	0.25219923
230	0x3e460d61	0.19341041
231	0x3e9646bb	0.29350838
232	0xbe0a2e8a	-0.13494316
233	0x3cdc20fe	0.0268712
234	0xbf72d080	-0.94849396
235	0xbeef4ae6	-0.4673683
236	0x3e361863	0.1778274
237	0x3eca781a	0.39544755
238	0xbe1ea9e2	-0.15494493
239	0x3ec36c9a	0.38168794
240	0xbf381452	-0.71906006
241	0xbd1b7d03	-0.037961017
242	0x3def5f51	0.11688102
243	0xbe6c7363	-0.23090892
244	0x3e9c8f67	0.30578157
245	0xbee4af7e	-0.4466514
246	0x3f58dc64	0.8471129
247	0x3e31a873	0.17349415
248	0x3ee15a20	0.44014072
249	0xbf88f3be	-1.0699384
250	0x3ed47f91	0.41503575
251	0x3ed770f4	0.42078364
252	0xbf85330d	-1.0406204
253	0xbda30ee8	-0.079618275
254	0xbe877e69	-0.2646363
255	0xbef6864f	-0.48149344

network_body._body_endoder.seq_layers.2.bias f4 [128]
0	0x00000000	0.0
1	0x00000000	0.0
2	0x00000000	0.0
3	0x00000000	0.0
4	0x00000000	0.0
5	0x00000000	0.0
6	0x00000000	0.0
7	0x00000000	0.0
8	0x00000000	0.0
9	0x00000000	0.0
10	0x00000000	0.0
11	0x00000000	0.0
12	0x00000000	0.0
13	0x00000000	0.0
14	0x00000000	0.0
15	0x00000000	0.0
16	0x00000000	0.0
17	0x00000000	0.0
18	0x00000000	0.0
19	0x00000000	0.0
20	0x00000000	0.0
21	0x00000000	0.0
22	0x00000000	0.0
23	0x00000000	0.0
24	0x00000000	0.0
25	0x00000000	0.0
26	0x00000000	0.0
27	0x00000000	0.0
28	0x00000000	0.0
29	0x00000000	0.0
30	0x00000000	0.0
31	0x00000000	0.0
32	0x00000000	0.0
33	0x00000000	0.0
34	0x00000000	0.0
35	0x00000000	0.0
36	0x00000000	0.0
37	0x00000000	0.0
38	0x00000000	0.0
39	0x00000000	0.0
40	0x00000000	0.0
41	0x00000000	0.0
42	0x00000000	0.0
43	0x00000000	0.0
44	0x00000000	0.0
45	0x00000000	0.0
46	0x00000000	0.0
47	0x00000000	0.0
48	0x00000000	0.0
49	0x00000000	0.0
50	0x00000000	0.0
51	0x00000000	0.0
52	0x00000000	0.0
53	0x00000000	0.0
54	0x00000000	0.0
55	0x00000000	0.0
56	0x00000000	0.0
57	0x00000000	0.0
58	0x00000000	0.0
59	0x00000000	0.0
60	0x00000000	0.0
61	0x00000000	0.0
62	0x00000000	0.0
63	0x00000000	0.0
64	0x00000000	0.0
65	0x00000000	0.0
66	0x00000000	0.0
67	0x00000000	0.0
68	0x00000000	0.0
69	0x00000000	0.0
70	0x00000000	0.0
71	0x00000000	0.0
72	0x00000000	0.0
73	0x00000000	0.0
74	0x00000000	0.0
75	0x00000000	0.0
76	0x00000000	0.0
77	0x00000000	0.0
78	0x00000000	0.0
79	0x00000000	0.0
80	0x00000000	0.0
81	0x00000000	0.0
82	0x00000000	0.0
83	0x00000000	0.0
84	0x00000000	0.0
85	0x00000000	0.0
86	0x00000000	0.0
87	0x00000000	0.0
88	0x00000000	0.0
89	0x00000000	0.0
90	0x00000000	0.0
91	0x00000000	0.0
92	0x00000000	0.0
93	0x00000000	0.0
94	0x00000000	0.0
95	0x00000000	0.0
96	0x00000000	0.0
97	0x00000000	0.0
98	0x00000000	0.0
99	0x00000000	0.0
100	0x00000000	0.0
101	0x00000000	0.0
102	0x00000000	0.0
103	0x00000000	0.0
104	0x00000000	0.0
105	0x00000000	0.0
106	0x00000000	0.0
107	0x00000000	0.0
108	0x00000000	0.0
109	0x00000000	0.0
110	0x00000000	0.0
111	0x00000000	0.0
112	0x00000000	0.0
113	0x00000000	0.0
114	0x00000000	0.0
115	0x00000000	0.0
116	0x00000000	0.0
117	0x00000000	0.0
118	0x00000000	0.0
119	0x00000000	0.0
120	0x00000000	0.0
121	0x00000000	0.0
122	0x00000000	0.0
123	0x00000000	0.0
124	0x00000000	0.0
125	0x00000000	0.0
126	0x00000000	0.0
127	0x00000000	0.0

network_body._body_endoder.seq_layers.2.weight f4 [128, 128]
0	0xbd6d0fed	-0.057876516
1	0x3dd93960	0.106066465
2	0xbc40e542	-0.011773409
3	0xbd355692	-0.044272013
4	0xbc46dfc7	-0.012138314
5	0x3cae50df	0.021278797
6	0xbd6195db	-0.055074554
7	0x3c73b6a9	0.014875093
8	0xbd859c77	-0.06523984
9	0x3d552c57	0.05204424
10	0x3c4fc80f	0.012681975
11	0x3d655c73	0.05599637
12	0x3dcea883	0.10090735
13	0xbdffcce7	-0.12490254
14	0xbdff23f6	-0.12458031
15	0x3e1f86b2	0.15578726
16	0x3df5d686	0.12003808
17	0x3e831dd4	0.25608695
18	0xbdd66fd6	-0.1047055
19	0xbcb1473e	-0.021640416
20	0xbd6a9421	-0.057270173
21	0xbd27a2a8	-0.040926605
22	0xbcd5a22e	-0.02607831
23	0xbd2de8ba	-0.042458273
24	0x3d93e27f	0.07220935
25	0xbdadc841	-0.08485461
26	0xbc7e0423	-0.015503916
27	0x3dced182	0.10098554
28	0xbd8b7286	-0.06808953
29	0x3e00980e	0.12558004
30	0x3db7cc5f	0.089745276
31	0xbd5f41c7	-0.05450609
32	0x3e2159f6	0.15756974
33	0x3cd46028	0.025924757
34	0xbde0cb63	-0.10976293
35	0x3d349c55	0.044094402
36	0x3ce1f261	0.027581396
37	0x3e48f9df	0.19626568
38	0xbd3ec2ba	-0.046572424
39	0x3ddc7a3c	0.10765502
40	0xbdd4fc4d	-0.10399685
41	0x3ddf53c7	0.10904651
42	0x3e6f5878	0.23373592
43	0xbb91a8c8	-0.004445169
44	0x3d87b2d7	0.06625908
45	0x3d508e68	0.05091706
46	0x3cd4296e	0.025898661
47	0x3d271317	0.04078969
48	0xbcd9a539	-0.026568042
49	0x3ce70173	0.028198933
50	0xbddd456b	-0.10804256
51	0x3dac43d1	0.084113725
52	0x3d72bd1f	0.05926239
53	0xbc56bf5f	-0.01310715
54	0x3d365616	0.04451569
55	0xbda5f632	-0.08103599
56	0x3d5e9a64	0.054346457
57	0x3d590e94	0.05299242
58	0xbc051adf	-0.008124082
59	0xbd99af16	-0.07504098
60	0xbdf4724c	-0.11935863
61	0xbde9b2a3	-0.114110254
62	0xbdb15cc6	-0.08660273
63	0xbdf0a823	-0.117508195
64	0x3c306e6c	0.010768514
65	0x3e194997	0.14969479
66	0x3de08c00	0.10964203
67	0xbd078020	-0.033081174
68	0x3d10750b	0.03526787
69	0x3e1043a2	0.140883
70	0xbc8626fa	-0.016376007
71	0x3e1532e1	0.1457019
72	0x3cfba8cd	0.030720139
73	0x3ceb486a	0.028721053
74	0xbdcb5e21	-0.09930063
75	0xbe18be26	-0.14916286
76	0xbd8de22b	-0.06927904
77	0xbd8b5e79	-0.068051286
78	0xbe3fb82c	-0.187226
79	0x3e0c37a2	0.13693097
80	0xbe18b219	-0.14911689
81	0xbe39dde2	-0.18151048
82	0x3c0e7720	0.008695394
83	0x3db77785	0.089583434
84	0xbd0b0e9d	-0.033949483
85	0xbd036a9d	-0.032084096
86	0x3e6f3e1d	0.23363538
87	0xbd3d4dc0	-0.046216726
88	0xbc888419	-0.016664552
89	0xbdc0ac13	-0.094078206
90	0x3e805093	0.25061473
91	0x3c87a552	0.016558323
92	0xbe2731fb	-0.1632766
93	0x3d885723	0.06657245
94	0x3e0467bf	0.12930201
95	0x3befbb85	0.0073160552
96	0x3e13d257	0.14435707
97	0xbc29784c	-0.010343622
98	0x3ad38e35	0.0016140403
99	0x3da6c76b	0.08143505
100	0x3cd7c794	0.026340283
101	0xbc97cd04	-0.018530376
102	0x3c62cc24	0.013842616
103	0x3cbd4bab	0.02310737
104	0xbe076230	-0.1322105
105	0xbd88b610	-0.06675351
106	0x3d3169f3	0.04331393
107	0x3e3111ed	0.17291994
108	0xbd8e7601	-0.06956101
109	0xbd485ede	-0.048918597
110	0xbd9b6439	-0.07587475
111	0xbd7261de	-0.059175365
112	0xbe18a7ef	-0.14907812
113	0x3d9ae458	0.07563084
114	0xbda9fb83	-0.08299925
115	0x3d64e1dc	0.05587946
116	0xbcc9edea	-0.02464958
117	0xbcd183b6	-0.0255755
118	0x3d6ccb0c	0.057810828
119	0x3d9ee89d	0.07759211
120	0xbda53400	-0.08066559
121	0x3de23f3a	0.11047216
122	0x3d58fc7f	0.052975174
123	0xbddeddf8	-0.10882181
124	0xbcd970f7	-0.026543124
125	0xbbfe1f71	-0.007755213
126	0xbd4c4434	-0.04986973
127	0xbb611227	-0.0034343095
128	0x3ce3d3aa	0.02781089
129	0x3d25439b	0.040347677
130	0x3e31a160	0.17346716
131	0x3e305d5f	0.17223118
132	0xbdd948b3	-0.106095694
133	0xbd231809	-0.039817844
134	0x3d3b6413	0.045749735
135	0xbdb21672	-0.08695687
136	0xbd605a91	-0.05477387
137	0x3d95e251	0.07318557
138	0x3da5b9bc	0.08092067
139	0xbda26358	-0.079291046
140	0xbcb1c2d9	-0.021699356
141	0x3dbec0f8	0.093141496
142	0xbd4a2fa1	-0.04936183
143	0x3daa9714	0.08329597
144	0x3e891251	0.26771787
145	0xbdc9bd3d	-0.098505475
146	0x3bd848cc	0.006600475
147	0x3cd97fea	0.026550252
148	0x3d9a49d1	0.075336106
149	0x3df01399	0.11722488
150	0x3da11803	0.07865908
151	0x3ca71cf8	0.020399556
152	0xbcf355cb	-0.029703995
153	0xbe3bcda9	-0.18340172
154	0x3d5692cd	0.052386094
155	0xbd7630cc	-0.06010513
156	0x3dc213d3	0.094764374
157	0xbc2e7f6e	-0.010650499
158	0xbe37f752	-0.17965439
159	0xbdaac6fb	-0.08338734
160	0x3d57dc3d	0.05270027
161	0xbd256640	-0.040380716
162	0xbcaf6630	-0.021411031
163	0x3dda55a1	0.10660864
164	0x3ce72c1d	0.028219277
165	0x3c9187b9	0.017764913
166	0xbc58850b	-0.013215314
167	0x3ce9dfa0	0.028549016
168	0xbc46d51c	-0.01213577
169	0xbdcd9563	-0.10038259
170	0xbc8e5ca3	-0.017378157
171	0x3e12b813	0.14328031
172	0xbe37a285	-0.1793309
173	0x3d338baf	0.043834385
174	0x3d56a6be	0.05240511
175	0x3cf3afea	0.029746968
176	0xbcbd8460	-0.02313441
177	0x3da7a9da	0.081866935
178	0x3db20a4b	0.086933695
179	0xbdb1a65f	-0.08674311
180	0x3d8fcd03	0.07021525
181	0xbd71ee66	-0.059065245
182	0xbc067d89	-0.008208641
183	0x3dd5f9f1	0.10448063
184	0x3bb6501a	0.005563748
185	0xbd90edf5	-0.07076637
186	0xbd6077d8	-0.054801792
187	0xbe1784a3	-0.1479669
188	0x395955ad	0.0002072665
189	0x3d29c601	0.041448597
190	0x3d6127d2	0.054969616
191	0x3c162235	0.009163429
192	0x3c9089f9	0.017643915
193	0x3d4b8aa7	0.049692776
194	0x3e252ed3	0.16131143
195	0x3c9c49ba	0.019078124
196	0xbd14eda4	-0.036359444
197	0x3ddcbb92	0.10777964
198	0xbd326c5c	-0.04356037
199	0xbda3858d	-0.07984457
200	0x3e10c377	0.14137064
201	0x3d10c541	0.035344366
202	0x3ddaa628	0.10676223
203	0xbd65f80d	-0.056144763
204	0x3c5e05b9	0.013551169
205	0xbc089186	-0.008335477
206	0xbdc49c93	-0.09600177
207	0x3d2d2745	0.04227378
208	0xbd41bf46	-0.047301553
209	0x3c3b86dd	0.011445728
210	0xbd94191b	-0.07231351
211	0x3d5c9dba	0.053861357
212	0xbb96ef6f	-0.0046061794
213	0x3c1e19ae	0.009649677
214	0xbcd80290	-0.02636841
215	0x3e0a29af	0.13492464
216	0xbe938cab	-0.2881826
217	0x3db69328	0.089147866
218	0xbc8de6e2	-0.017322008
219	0x3cf7cce3	0.030249065
220	0x3d31ee32	0.04344005
221	0x3d6a1f67	0.057158854
222	0x3cb5870f	0.022159128
223	0xbd7ffafb	-0.062495213
224	0x3d20cbeb	0.03925697
225	0x3dc9019a	0.098147586
226	0xbd2ca45c	-0.042148933
227	0x3da071d0	0.07834208
228	0xbde0b8cc	-0.10972747
229	0xbd26427d	-0.040590752
230	0x3b2c0e6c	0.0026253713
231	0x3d7997a0	0.060935616
232	0x3e274607	0.16335307
233	0x3dbbb648	0.09165627
234	0xbd38a494	-0.04507883
235	0xbc8afda7	-0.016966654
236	0x3e0c7f2f	0.13720392
237	0xbcc298d2	-0.023754511
238	0xbd195ecd	-0.037443925
239	0xbd13e975	-0.036111314
240	0xbdd4ce10	-0.10390866
241	0xbd7a39b7	-0.061090197
242	0x3a9b6ae7	0.0011857421
243	0x3d105f53	0.03524716
244	0x3b3e08a6	0.0028996854
245	0x3ce4a190	0.02790907
246	0x3d6df553	0.058095288
247	0xbcdea54b	-0.027178427
248	0x3bbd20d2	0.0057717348
249	0xbdadd155	-0.084871925
250	0xbd77c0c8	-0.060486585
251	0xbcf09ca9	-0.029371576
252	0xbcb1404f	-0.02163711
253	0x3dd0b9fe	0.10191725
254	0xbd446e7c	-0.04795693
255	0x3d2d6ae5	0.04233827
