results/AgentTarget_Simple_02/AgentTarget/AgentTarget-499974.onnx (onnx, 71949 bytes, 7 tensors)

action_model._continuous_distribution.log_sigma f4 [1, 2]
0	0xbd2c338e	-0.042041354
1	0xbcefe5e4	-0.029284425

action_model._continuous_distribution.mu.bias f4 [2]
0	0x3b4d2194	0.0031300532
1	0x3be86d49	0.007093106

action_model._continuous_distribution.mu.weight f4 [2, 128]
0	0x3cdd8324	0.027040072
1	0xbd1c5ac0	-0.038172483
2	0x3d602623	0.05472387
3	0xbc817bd1	-0.01580611
4	0xbc5a0a56	-0.013308128
5	0x3c3a391c	0.011366155
6	0x3b820226	0.0039675413
7	0xbd12192e	-0.035668544
8	0x3c522728	0.012826718
9	0x3d8edf3b	0.069761716
10	0xbc88f2b4	-0.016717292
11	0xbc0c98d0	-0.008581355
12	0x3ccdca31	0.025120826
13	0x3ce9aa0a	0.028523464
14	0x3cddb8cc	0.027065657
15	0xbca485e0	-0.020083368
16	0x3c8acb8e	0.016942766
17	0x3d034ef8	0.032057732
18	0xbc7b5c22	-0.01534179
19	0x3d0b3873	0.03398938
20	0x3bff7854	0.0077963267
21	0x3d6c9bd2	0.05776579
22	0xbb3c9981	-0.002877802
23	0xbd71c728	-0.05902782
24	0x3d14fd4a	0.036374368
25	0x3c39ac62	0.011332603
26	0xbc148ad0	-0.009066299
27	0x3d175503	0.036946308
28	0xbc7b327f	-0.015331863
29	0xbd508ab9	-0.050913546
30	0xba9c52fc	-0.0011926587
31	0xbd403c06	-0.046932243
32	0x3ca580a0	0.020202935
33	0x3cb1d6b9	0.021708833
34	0xbd271381	-0.040790085
35	0xbd30937a	-0.043109395
36	0x3d146b0b	0.036234897
37	0xbd38c728	-0.045111805
38	0x3badfd90	0.005309768
39	0x3cc12880	0.023578882
40	0xbc866a8c	-0.016408227
41	0x3bbf65f4	0.005841011
42	0x3d48ac08	0.048992187
43	0x3ca6d08a	0.020363111
44	0x3d44f27e	0.04808282
45	0x3d165a8c	0.036707446
46	0xbbb02261	-0.005375192
47	0xbc140e80	-0.00903666
48	0xbd473447	-0.04863384
49	0x3d410eae	0.04713314
50	0xbd1ffba4	-0.039058343
51	0x3c1e13e8	0.009648301
52	0x3d3eed5a	0.046613075
53	0xbc6a080b	-0.014284144
54	0xbc75a658	-0.014993273
55	0xbd1d4db3	-0.038404178
56	0xbb81b018	-0.0039577596
57	0xbca0e86b	-0.019642076
58	0x3d0b9c16	0.034084402
59	0x3c61d6cb	0.013784121
60	0x3d04fb17	0.03246602
61	0x3c25bb9b	0.010115529
62	0xbc0980f7	-0.008392564
63	0xbccdabb9	-0.025106298
64	0xbc8f7739	-0.017512904
65	0x3c83b61f	0.016078053
66	0xbb34c3ed	-0.0027582601
67	0xbd96b0a1	-0.07357908
68	0xbc9015db	-0.017588546
69	0xbd18a856	-0.037269913
70	0xbc17ef0d	-0.009273303
71	0xbd88c1e0	-0.06677604
72	0xbc7255bb	-0.014790948
73	0xbcb0b898	-0.021572396
74	0xbce15bdc	-0.027509622
75	0xbd12d063	-0.035843264
76	0x3b1118b5	0.002213997
77	0x3d209594	0.03920515
78	0xbb20a07e	-0.0024509723
79	0x3cbbec05	0.022939691
80	0xbd678618	-0.056524366
81	0x3d1ffa70	0.039057195
82	0x3cffbeb5	0.031218866
83	0x3ce905ce	0.02844515
84	0xbd0e762c	-0.034780666
85	0x3c99dff2	0.018783543
86	0xbd63528d	-0.05549865
87	0x3c6b33c5	0.014355605
88	0x3c322635	0.010873367
89	0x3d18654b	0.037205976
90	0x3c27e3c3	0.010247174
91	0x3a29aa6b	0.00064722326
92	0x3cc409db	0.02393048
93	0x3b3bda8f	0.0028664207
94	0x3b3cc847	0.0028805898
95	0xbd0953dc	-0.03352724
96	0xba8698bb	-0.0010268906
97	0xbc8cb231	-0.017174812
98	0x3cba80ba	0.02276646
99	0xbc4b68c5	-0.012415116
100	0x3cdc6d1a	0.026907492
101	0xbd156538	-0.036473483
102	0xbd305d51	-0.043057743
103	0x3c1f0a7b	0.009707089
104	0xbc64d5c3	-0.01396698
105	0x3c56fa58	0.01312121
106	0xbc2d132e	-0.010563655
107	0xbd0fb7e2	-0.035087474
108	0x3d05ffea	0.03271476
109	0xbd058624	-0.03259863
110	0x3b2ba930	0.0026193373
111	0xbd235448	-0.0398753
112	0xbceef438	-0.029169187
113	0x3c94d83a	0.018169511
114	0x3d10a290	0.03531128
115	0x3c9b5216	0.01896004
116	0xbc835c74	-0.016035296
117	0x3cdce2ae	0.026963558
118	0xbd0e3551	-0.034718815
119	0x3d423d24	0.04742159
120	0x3ce0c34d	0.027436877
121	0xbd4741ae	-0.04864662
122	0x3c47184b	0.012151788
123	0xbd4cec0c	-0.0500298
124	0x3aa4b5e8	0.0012566419
125	0xbcdd0bcb	-0.026983162
126	0x3c3574dd	0.011075226
127	0xbc97f55e	-0.018549617
128	0x3d811787	0.063033156
129	0x3d410cf9	0.047131512
130	0x3b11cdcd	0.002224791
131	0x3c90f1fd	0.017693514
132	0x3cb98dad	0.022650564
133	0x3d187eeb	0.037230413
134	0xbbbf500e	-0.0058384007
135	0x3bc97151	0.0061475416
136	0x3cbcebdc	0.023061685
137	0x3cf937ed	0.030422175
138	0xbcf3f5a3	-0.029780215
139	0xbcccdf2b	-0.025008759
140	0x3bbbd40c	0.005732065
141	0x3aed9625	0.0018126412
142	0xb9df8846	-0.00042635406
143	0x3d38ba90	0.045099795
144	0xbd521842	-0.051292665
145	0xbd67b7aa	-0.05657164
146	0xbd2f7002	-0.04283143
147	0x3ce2dad4	0.027692236
148	0x3b8eec34	0.0043616537
149	0x3cee6e1b	0.029105237
150	0xbd1c29ad	-0.038125683
151	0x3cd9235f	0.026506124
152	0x3bac2c16	0.005254279
153	0xbd1b9433	-0.03798313
154	0x3d75d545	0.060017843
155	0xbb064f68	-0.0020494107
156	0xbcaf5499	-0.021402644
157	0x3beb0ef6	0.0071734143
158	0xbd4621d7	-0.048372116
159	0xbca9ffb8	-0.020751819
160	0x3cd67796	0.02618007
161	0xbc2a9ee2	-0.010413857
162	0xbcc0cdff	-0.023535727
163	0x3ca20027	0.019775463
164	0x3c926734	0.017871477
165	0x3d342904	0.043984428
166	0xbc8e72d0	-0.017388731
167	0xbd3bb6ac	-0.045828506
168	0xbd30256e	-0.043004446
169	0x3d1e3ef6	0.038634263
170	0x3cc566e2	0.02409691
171	0x3d1f334c	0.03886728
172	0xbd28353a	-0.041066386
173	0xbc135a1e	-0.008993654
174	0x3c3a5caa	0.011374632
175	0x3c0728b0	0.008249447
176	0x3d3ac0cb	0.045594018
177	0xbc6778a4	-0.014127884
178	0x3cb655af	0.022257654
179	0xbd0ac43f	-0.03387856
180	0xbbc8862e	-0.006119511
181	0xbd194f54	-0.03742917
182	0x3c054582	0.008134248
183	0x3bb0fa64	0.0054009426
184	0xbc357624	-0.01107553
185	0xbcf219c7	-0.029553307
186	0xbcd2c287	-0.025727523
187	0x3cba28eb	0.02272459
188	0xbc8a8c60	-0.01691264
189	0x3d3ee44b	0.046604436
190	0xbcf28e5c	-0.029608898
191	0xbbdc7c3c	-0.006728677
192	0xbd15baad	-0.03655498
193	0xbd25870d	-0.040411998
194	0x3ce70499	0.028200435
195	0x3d30954c	0.04311113
196	0x3c733717	0.014844677
197	0x398acd5f	0.00026474425
198	0x3d86cfc0	0.06582594
199	0x3b1ecc04	0.002423049
200	0xbd3e99ce	-0.0465334
201	0x3bb76d33	0.0055977344
202	0xbb8f5c76	-0.004375036
203	0xbce9df91	-0.028548988
204	0xbca361eb	-0.019944152
205	0xbbc351e3	-0.0059606894
206	0xbcb398d3	-0.021923458
207	0xbd095649	-0.033529554
208	0xbbce6196	-0.0062982542
209	0x3c9e866b	0.019351205
210	0x3d3d0d31	0.04615516
211	0x3c1003b3	0.008789944
212	0xbd2def8a	-0.04246477
213	0xbd1af774	-0.037833646
214	0xbc874e08	-0.0165167
215	0xbd1f536e	-0.038897924
216	0x3cb572fb	0.022149554
217	0x3d1cd712	0.038291045
218	0x3d79d0fd	0.060990322
219	0xbc466e69	-0.012111285
220	0x3d174782	0.03693343
221	0x3d39e97c	0.045388684
222	0x3d0633ce	0.03276425
223	0xbd45fd76	-0.048337422
224	0xbd403451	-0.046924893
225	0x3d4af632	0.049551196
226	0xbc851e91	-0.016249927
227	0x3bf32374	0.007419998
228	0x3c798deb	0.01523159
229	0xbd30941d	-0.04311
230	0xbd6cd988	-0.05782464
231	0xbcb5473a	-0.02212869
232	0xbd13c20a	-0.036073722
233	0xbcd8324b	-0.026391169
234	0x3cf78486	0.03021456
235	0xbd7e4615	-0.062078554
236	0x3ca46f91	0.02007273
237	0x3bc5f66b	0.006041338
238	0xbbee37d3	-0.0072698384
239	0xbd1259a1	-0.035730008
240	0x3c371d01	0.011176349
241	0xbcd10ffc	-0.025520317
242	0x3c7038f1	0.014662013
243	0xbd745f8e	-0.05966144
244	0xbcc5de67	-0.024153901
245	0xbcf3d583	-0.029764896
246	0x3cd85f73	0.026412701
247	0xbaffd2db	-0.0019517796
248	0x3b538272	0.0032273796
249	0xbd0f09ce	-0.03492146
250	0xbc52b025	-0.012859379
251	0xbc329c63	-0.010901543
252	0x3c70d37b	0.014698858
253	0x3d0468b8	0.03232643
254	0x3ce3c55f	0.027804075
255	0xbb850bfa	-0.0040602656

network_body._body_endoder.seq_layers.0.bias f4 [128]
0	0x3b7746f4	0.00377315
1	0x3ca5d72c	0.020244204
2	0x3c61c632	0.013780164
3	0x3cc05fc1	0.023483159
4	0x3c1e22ba	0.009651834
5	0x3bce6572	0.0062987143
6	0xbc022f4a	-0.007945845
7	0x3c7ccea9	0.015430131
8	0x3caf46e0	0.0213961
9	0x3c8fa336	0.01753388
10	0x3c9ec046	0.019378792
11	0x3c73966b	0.014867405
12	0xbb363dec	-0.0027807904
13	0x3c8ab08d	0.01692989
14	0x3c412fd4	0.011791188
15	0x3cc3e3c8	0.023912326
16	0xba694a4f	-0.00088993175
17	0x3c0f70be	0.008754907
18	0xbb22cdca	-0.0024841898
19	0x3c886c46	0.016653191
20	0x3c95ea69	0.018300252
21	0x3beba7f8	0.0071916543
22	0xba38318c	-0.0007026426
23	0x3c164ee2	0.009174081
24	0xb83e6367	-4.5392106e-05
25	0x3c0b5014	0.008502979
26	0x3cf39716	0.02973513
27	0x3ca8e542	0.020617131
28	0xbc06ed9b	-0.0082353605
29	0x3c09c365	0.008408402
30	0x3c4411c8	0.01196713
31	0x3cbf1b8a	0.023328561
32	0x3c4442e8	0.011978842
33	0xbba0c752	-0.0049065733
34	0x3c4f20a6	0.012642061
35	0xbb09b42b	-0.002101193
36	0xbc852e0a	-0.016257305
37	0x3c90119c	0.017586522
38	0x3c02afe5	0.007976507
39	0x3d070fc7	0.03297403
40	0x3c56850e	0.013093246
41	0x3cb2da98	0.02183275
42	0x3c4ab463	0.012372109
43	0x3cd2ccef	0.025732486
44	0x3c1583e8	0.009125687
45	0x3ad15962	0.0015972073
46	0x3abd6430	0.0014449414
47	0x3c31b04b	0.010845254
48	0xb91814b0	-0.00014503556
49	0x3ccae836	0.02476893
50	0x3c017c1d	0.007903126
51	0x3c4bde97	0.012443206
52	0x3d044f63	0.03230227
53	0x3d01f172	0.0317244
54	0x3c9d4e4b	0.019202372
55	0x3bffadad	0.007802686
56	0x3b7b0fdc	0.0038309013
57	0x3b426247	0.0029660629
58	0x3c972976	0.018452387
59	0x3c6940c9	0.014236637
60	0x3c2a9b41	0.010412992
61	0x3c863609	0.016383188
62	0x3ca5c9e9	0.02023788
63	0x3be3a422	0.0069470564
64	0x3c6acd21	0.014331133
65	0x3ce7a6db	0.028277805
66	0x3c6d3dfb	0.014480109
67	0x3ba6c0bd	0.005088894
68	0x3c48605e	0.012230007
69	0x3bf12f05	0.0073603415
70	0x3ccfc821	0.025363984
71	0x3b998e73	0.0046861707
72	0x3cd64c30	0.026159376
73	0xbc6b8f84	-0.0143774785
74	0x3c5151d0	0.012775853
75	0x3ca8ffe0	0.020629823
76	0xbc4c6d70	-0.012477264
77	0x3c9935e3	0.018702453
78	0x3c88eba5	0.016713927
79	0x3bcffe8e	0.006347484
80	0x3c16cc58	0.009203993
81	0x3c02f90c	0.007993948
82	0x3c885fc1	0.016647222
83	0x3c2b8a5c	0.010469999
84	0x3c9e180d	0.019298578
85	0x3cd4daa7	0.025983168
86	0x3c3b0b7b	0.011416311
87	0xbc4ab926	-0.012373244
88	0xbc22baeb	-0.00993226
89	0x3cc84e4e	0.024451401
90	0x3ca2d693	0.019877708
91	0x3cca074a	0.024661679
92	0x3c90ba19	0.017666863
93	0xbc41677d	-0.011804459
94	0x3cd3538f	0.02579668
95	0x3c9d5bc6	0.0192088
96	0x3b0812f5	0.0020763252
97	0x3b5001cb	0.003173935
98	0xbb535dcf	-0.003225196
99	0x3c7ac83d	0.01530653
100	0xbb3f8585	-0.002922387
101	0x3c6f9d83	0.014624956
102	0xbc1e67a9	-0.009668269
103	0x3cdf306a	0.027244765
104	0xbaae9bfd	-0.0013321635
105	0x3a3bb156	0.0007159909
106	0xbc84375d	-0.01613968
107	0x3d0ea26e	0.034822874
108	0x3c2a30b0	0.010387585
109	0x3c5fe4ad	0.01366536
110	0x3b8bf46b	0.0042710803
111	0xbbb6b840	-0.0055761635
112	0x3a9d4091	0.0011997392
113	0xbb8290e6	-0.0039845584
114	0xbc003c10	-0.00782682
115	0xbcdb241b	-0.026750615
116	0xbb6bd0ee	-0.0035982686
117	0x3acba46b	0.0015536671
118	0x3b33c0b5	0.0027428095
119	0x3b789fad	0.003793697
120	0xbb4a6a67	-0.0030886175
121	0xbcadfa49	-0.02123751
122	0xbc53007b	-0.0128785325
123	0x3b99d963	0.004695104
124	0x3c86a483	0.016435867
125	0x3c7f4c9f	0.015582233
126	0x3d012763	0.031531703
127	0x3ca1d93e	0.01975691

network_body._body_endoder.seq_layers.0.weight f4 [128, 5]
0	0x3ec9358c	0.39298666
1	0x3f25eb57	0.64812225
2	0xbda925e3	-0.082591794
3	0xbdfa9766	-0.12235908
4	0x3ef98a40	0.4873829
5	0x3ea4a750	0.321589
6	0x3eb71ec9	0.35765675
7	0xbecd0210	-0.40040636
8	0xbe4eec6f	-0.2020738
9	0xbddb0b0e	-0.10695468
10	0x3f14f851	0.581914
11	0x3ce88715	0.028384725
12	0x3d00df35	0.031462867
13	0xbd0dd99e	-0.034631364
14	0xbe222696	-0.15835032
15	0x3f074b05	0.52848846
16	0xbe3eddcb	-0.18639295
17	0xbf117096	-0.5681242
18	0x3dd59b2a	0.10429986
19	0xbe1b1253	-0.15143709
20	0x3ec0a6ed	0.37627354
21	0xbf134ae4	-0.5753615
22	0xbe146c75	-0.14494498
23	0xbd892efe	-0.06698416
24	0x3f5494db	0.83039635
25	0xbe4517f9	-0.19247426
26	0x3dc37730	0.095442176
27	0x3ebf629e	0.37379926
28	0xbddc6e53	-0.1076323
29	0x3e75f9a9	0.24021019
30	0xbf1cfb46	-0.6132091
31	0xbee51eab	-0.4474996
32	0x3d9d68bb	0.076859914
33	0x3f6d6fda	0.92748797
34	0xbe16b9f0	-0.14719367
35	0x3e3a6361	0.18201973
36	0xbf076726	-0.5289177
37	0x3ebfa92f	0.37433764
38	0x3da65d41	0.081232555
39	0xbf3b95d3	-0.7327549
40	0xbdf6572b	-0.12028345
41	0x3f00ebf4	0.50360036
42	0xbf0d9ca5	-0.55317146
43	0x3de4d8e7	0.11174183
44	0x3d606164	0.05478038
45	0x3f11166c	0.5667484
46	0x3df29a9e	0.11845897
47	0xbc787dc8	-0.015166707
48	0x3e00c1a0	0.12573862
49	0xbe2939e8	-0.16525996
50	0xbe8fd1d1	-0.28089765
51	0x3f376bdb	0.7164895
52	0x3ee385d5	0.44438043
53	0xbeaa3f29	-0.33251312
54	0xbb8be6ff	-0.0042694802
55	0xbe94f71e	-0.29094785
56	0x3f64cd6f	0.89375967
57	0x3ecc48ed	0.39899388
58	0x3e2e71b3	0.1703556
59	0xbf35de62	-0.71042454
60	0x3e3115c0	0.17293453
61	0xbdcebc4b	-0.10094508
62	0x3ec737ac	0.38909662
63	0x3e651856	0.22372565
64	0x3f2f2b0e	0.6842507
65	0xbec41b1b	-0.3830193
66	0x3ebf1596	0.37321156
67	0xbdc9f671	-0.09861458
68	0xbe6c0230	-0.2304771
69	0x3eccd07d	0.40002814
70	0x3dcef0e6	0.101045415
71	0xbf170a8f	-0.59000486
72	0x3e77272e	0.2413604
73	0x3f570aad	0.84000665
74	0xbe679307	-0.2261468
75	0x3f39de79	0.7260509
76	0xbf181f51	-0.59422785
77	0x3eb4ed58	0.3533733
78	0x3ecb3a8d	0.39693108
79	0x3da8aa9b	0.082356654
80	0x3ebaff40	0.36522865
81	0x3dd6a35a	0.104803756
82	0xbe1f45eb	-0.15554015
83	0xbf646739	-0.89220005
84	0x3e0684a3	0.13136534
85	0xbeb307b0	-0.34966803
86	0xbf1a2a7c	-0.60221076
87	0xbd065a8e	-0.032801203
88	0x3f9fb787	1.2477883
89	0x3f0c8a26	0.548983
90	0xbe3fc963	-0.18729167
91	0x3eb758f9	0.35810068
92	0x3f3eacac	0.74482226
93	0xbee013a4	-0.43764985
94	0x3eaee29a	0.34157258
95	0x3ed40978	0.41413474
96	0xbeb2cda2	-0.3492251
97	0x3ebb7fbe	0.36620897
98	0x3e83301c	0.25622642
99	0x3db9d220	0.09073281
100	0x3dd2c22e	0.10290943
101	0xbda03b81	-0.078238495
102	0x3e312309	0.17298521
103	0xbee53f60	-0.44774914
104	0xbd6b2ff4	-0.05741878
105	0x3e4ac886	0.19803056
106	0xbe78bcd0	-0.24290776
107	0xbf233c0a	-0.6376349
108	0x3e4f8037	0.20263754
109	0xbe318b38	-0.17338264
110	0x3e34d8a0	0.17660761
111	0xbefd0962	-0.4942122
112	0x3da78da7	0.08181315
113	0xbe6ff9a0	-0.23435068
114	0xbeafc9c6	-0.34333628
115	0x3e110963	0.14163737
116	0xbea18176	-0.31544083
117	0x3e7987c4	0.24368197
118	0xbed73e70	-0.42039824
119	0xbf2489c0	-0.6427269
120	0x3ebe3e41	0.3715687
121	0x3dce6a79	0.10078902
122	0xbeb6f404	-0.35733044
123	0x3e98401c	0.29736412
124	0x3dbd6912	0.09248556
125	0xbeca51d0	-0.39515543
126	0xbe848a87	-0.25886938
127	0xbdd62ca7	-0.104577355
128	0x3f029d05	0.5102084
129	0x3f241e1e	0.64108455
130	0x3e49d573	0.1971033
131	0x3e6ac2dd	0.22925897
132	0x3f075f76	0.52880037
133	0x3ef8068e	0.484425
134	0x3f0256cd	0.509137
135	0xbe9c8402	-0.30569464
136	0x3d293de1	0.041318778
137	0xbd9ac343	-0.075567745
138	0xbebd1b6d	-0.36934987
139	0x3f56e976	0.83949983
140	0xbe04cc89	-0.12968649
141	0x3f1fb9c9	0.6239286
142	0xbebd3612	-0.36955315
143	0x3f15f485	0.5857623
144	0xbeb2935c	-0.3487805
145	0x3d03ad3a	0.032147624
146	0x3e7584b6	0.23976406
147	0x3eee6187	0.46558782
148	0x3b7c5412	0.0038502258
149	0xbaf2cd33	-0.0018524289
150	0xbcdd2524	-0.02699525
151	0x3f6e4e3e	0.9308814
152	0x3d8915c2	0.06693603
153	0xbe0567c2	-0.13027862
154	0xbf185438	-0.5950351
155	0x3e01ec96	0.12687907
156	0x3df06709	0.117384024
157	0x3ed6d702	0.41960913
158	0x3f56088e	0.83606803
159	0x3e95ba84	0.29243863
160	0x3ec87d5c	0.39158142
161	0xbf876c4b	-1.0579923
162	0x3cb9ac0e	0.02266505
163	0xbf01c689	-0.50693566
164	0xbe3bef96	-0.18353114
165	0x3f1d90ec	0.6154926
166	0xbddab3c6	-0.1067882
167	0x3ce7ee2a	0.028311808
168	0xbf6a0512	-0.91413987
169	0xbf330545	-0.69929916
170	0x3dde209c	0.108460635
171	0xbedf1704	-0.43572247
172	0x3f036207	0.5132145
173	0xbeccffef	-0.40039012
174	0xbebcfa82	-0.36909872
175	0xbe35fd10	-0.17772317
176	0x3eb2fc5c	0.3495816
177	0xbe4d6645	-0.20058544
178	0x3de9b815	0.11412064
179	0xbf581787	-0.844109
180	0xbeda468a	-0.42631942
181	0x3c1bab5c	0.0095013045
182	0x3d55b546	0.05217483
183	0xbec73537	-0.38907787
184	0x3eb087c4	0.3447858
185	0x3e223032	0.15838698
186	0xbf4184d3	-0.755933
187	0x3b479b96	0.0030457727
188	0xbcf797e3	-0.030223792
189	0x3c71ffb0	0.014770433
190	0xbe68fed5	-0.2275346
191	0x3ed2a177	0.41138813
192	0xbf02e675	-0.511329
193	0xbf59fbc6	-0.851498
194	0x3f31ebd7	0.6950049
195	0x3f3a9484	0.72882867
196	0x3f0649e3	0.5245649
197	0xbe820a83	-0.25398645
198	0xbe1c29b5	-0.15250285
199	0xbdd52338	-0.10407108
200	0x3f543699	0.8289581
201	0xbe4b7d32	-0.19871977
202	0x3f33e6f2	0.7027427
203	0x3f550681	0.8321305
204	0xbf2d6fdf	-0.67748827
205	0x3e9c8465	0.3056976
206	0x3f0ba1da	0.5454384
207	0x3e1dfe1b	0.15428965
208	0xbd6d3b3c	-0.05791782
209	0x3f23454d	0.6377762
210	0x3f1561f4	0.5835259
211	0x3d0e742e	0.034778766
212	0xbef47425	-0.4774486
213	0x3e698265	0.22803648
214	0xbe7043be	-0.23463342
215	0x3f070d90	0.5275507
216	0x3e8a498b	0.27009234
217	0xbf2b141a	-0.6682755
218	0xbeb18fcf	-0.3468003
219	0xbe487d58	-0.19579065
220	0xbf431994	-0.76210904
221	0xbd8d3abe	-0.0689597
222	0x3ec5c17b	0.38624176
223	0xbf83e5c9	-1.03045
224	0xbecd6731	-0.4011779
225	0xbf8041e0	-1.0020103
226	0x3e44169b	0.19149248
227	0x3e2c7a82	0.16843608
228	0x3e123859	0.14279307
229	0x3eeaa567	0.45829317
230	0x3e6d8b3e	0.23197648
231	0xbe61e2fc	-0.22059244
232	0x3ef3e120	0.47632694
233	0xba4c85d6	-0.00078019255
234	0x3e393934	0.18088228
235	0xbdb5dd49	-0.088800974
236	0x3e0f9b66	0.14024124
237	0x3e736248	0.2376796
238	0xbf3fdd46	-0.7494701
239	0xbf5a9d96	-0.8539671
240	0xbf70e219	-0.94095
241	0xbf4ac441	-0.7920571
242	0xbe41357a	-0.18868056
243	0x3f14eaa9	0.58170563
244	0x3f2203cb	0.6328704
245	0x3e10ef26	0.14153728
246	0x3e19c7bb	0.15017597
247	0x3d62d77b	0.05538128
248	0x3ea032c3	0.31288728
249	0x3f662e4a	0.8991438
250	0x3f313183	0.69216174
251	0xb991c953	-0.00027806553
252	0x3d7ff532	0.062489696
253	0x3dd06dd5	0.10177199
254	0xbe7d2253	-0.24720125
255	0x3f295ffc	0.66162086

network_body._body_endoder.seq_layers.2.bias f4 [128]
0	0x3caaa11c	0.020828776
1	0x3c6d5510	0.0144856125
2	0x3c04aead	0.008098287
3	0x3c3cf17c	0.011532184
4	0x3c3466fc	0.0110108815
5	0x3cc1123d	0.023568267
6	0x3a0c87ac	0.0005360793
7	0x3a0d5eaa	0.0005392829
8	0x3c552b09	0.013010749
9	0x3c9c8f7f	0.019111393
10	0x3b72d2df	0.0037051958
11	0x3ad6b85c	0.0016381848
12	0x3b6f20cd	0.0036488057
13	0x3c8b147b	0.01697754
14	0x3bcae910	0.006192334
15	0x3c66dfb6	0.014091423
16	0x3bb0af2d	0.0053919763
17	0x3bdef148	0.0068036653
18	0x3aa77f25	0.0012778981
19	0x3c3f3490	0.011670247
20	0x3c963d0a	0.018339653
21	0x3cd4d6bb	0.025981298
22	0x39e1720f	0.00043000325
23	0x3beea0f1	0.0072823693
24	0x3cf813ad	0.03028282
25	0x3bde8005	0.0067901635
26	0x3c7b1a87	0.015326149
27	0x3cce5f6e	0.025191989
28	0xbc4d483b	-0.012529428
29	0x3b2bc8d2	0.0026212228
30	0xbb81bbb6	-0.0039591445
31	0x3c15d425	0.0091448175
32	0x3bf4193d	0.0074492977
33	0x3ab6e95f	0.0013955048
34	0x3c13adb1	0.009013579
35	0x3b4d0e54	0.0031289058
36	0x3be28f03	0.006914021
37	0x3c94c51f	0.0181604
38	0xbc028f0b	-0.007968674
39	0x3b9d1561	0.0047938083
40	0x3be18f3f	0.0068835313
41	0x3c3c3003	0.011486056
42	0x3c565a6d	0.013083083
43	0x3c34ce3a	0.011035496
44	0x3c8be336	0.017076116
45	0x3c58692f	0.0132086715
46	0xbb0f912a	-0.0021906593
47	0x3ae23f62	0.0017261321
48	0x3c82ebd1	0.015981587
49	0x3c072b19	0.008250021
50	0x3b3b270f	0.0028557216
51	0xbba86dad	-0.0051400275
52	0x3c8d6e95	0.017264644
53	0xbc0aadbb	-0.008464272
54	0x3c28f628	0.0103125945
55	0x3be52274	0.0069926325
56	0xbc257b1f	-0.010100155
57	0x3c2b5f4f	0.010459735
58	0x3a0ba953	0.00053276605
59	0x3c81f9f5	0.01586626
60	0x3c1bfb64	0.009520385
61	0x3c8af6ff	0.01696348
62	0xbbb0c668	-0.0053947456
63	0x39c37ff8	0.00037288642
64	0xba2d9907	-0.0006622229
65	0x3c7d6960	0.015467018
66	0x3c1e321c	0.009655502
67	0x3bf346f8	0.0074242316
68	0xbb395770	-0.0028280877
69	0xbb688662	-0.003548049
70	0x3c9477e0	0.018123567
71	0x3c2abd20	0.0104210675
72	0x3bd095bb	0.0063655055
73	0x3925b933	0.00015804618
74	0x3b76dec3	0.0037669397
75	0xbafe0f11	-0.0019383152
76	0xbc16327e	-0.009167312
77	0x3c04902f	0.008091017
78	0x3a87ac21	0.0010350981
79	0xbb107cfe	-0.0022047157
80	0x3b9f3ef2	0.0048597986
81	0x3cad251b	0.021135857
82	0x3cdd87dd	0.027042324
83	0x3befb487	0.0073152217
84	0xba061b6b	-0.000511578
85	0xbac501ff	-0.0015030502
86	0xba1fac88	-0.0006091078
87	0xbb906b3f	-0.004407316
88	0x3c1b2812	0.009470003
89	0x3cec5bb3	0.02885232
90	0x3c9b8e4c	0.01898875
91	0xbc81e9ab	-0.015858492
92	0x3c893d54	0.016752876
93	0x3c4faad1	0.012675003
94	0x3c9d4503	0.019197946
95	0x3c2403a7	0.010010636
96	0xbb38ec91	-0.0028217176
97	0x3c12b16c	0.0089534335
98	0x3a1fb77d	0.00060927105
99	0xbb194172	-0.0023384956
100	0x3bf0ff37	0.0073546427
101	0x3bf9d8e2	0.0076247314
102	0x3bfc2fda	0.007696134
103	0x3ae58d3d	0.0017513406
104	0x3b5e9f94	0.0033969628
105	0x3b2c691f	0.0026307774
106	0x3c2a0660	0.0103774965
107	0x3b8e7592	0.0043475116
108	0x3c36a8b9	0.011148625
109	0x3ba0277e	0.0048875203
110	0xbbc5a8e0	-0.0060320944
111	0x3b482dd9	0.0030544905
112	0x3ba9f452	0.005186596
113	0x397acf9b	0.00023919197
114	0x3c7941a8	0.015213408
115	0x3c11f974	0.008909572
116	0xbc0c37d5	-0.008558233
117	0x3c11760c	0.008878242
118	0x3c0797c3	0.008275929
119	0x3c9e58a8	0.019329384
120	0x3b71ddd1	0.0036905895
121	0x3c07bb3f	0.008284389
122	0xb9e66d55	-0.00043950477
123	0x3bfb50f8	0.0076695643
124	0x3c514793	0.012773412
125	0x3c1ca008	0.009559639
126	0x3c32ab39	0.0109050805
127	0xbbdbfa32	-0.006713175

network_body._body_endoder.seq_layers.2.weight f4 [128, 128]
0	0x3d941d08	0.072321
1	0xbd204907	-0.039132144
2	0xbc99c1ff	-0.018769262
3	0x3dba63e1	0.09101082
4	0x3df780af	0.12085091
5	0xbcb1a373	-0.021684384
6	0xbda068fc	-0.07832524
7	0xbbaa0ed6	-0.005189757
8	0x3ceba859	0.028766798
9	0x3e3531e3	0.17694812
10	0xbd76a889	-0.06021932
11	0x3da4f677	0.08054822
12	0xbdd7cd9e	-0.10537265
13	0x3e4ebc7f	0.20189093
14	0x3d80882f	0.06275975
15	0xbd127be1	-0.03576267
16	0xbc0d691d	-0.008631018
17	0x3c149e75	0.009070982
18	0xbc82735b	-0.015924146
19	0xbd950e03	-0.07278063
20	0x3d83ed51	0.06441749
21	0x3c2c6a33	0.010523367
22	0x3db1e741	0.08686686
23	0x3d3df1b8	0.0463731
24	0xbe17fd6e	-0.1484277
25	0xbd5aaf96	-0.053390108
26	0x3dfbd845	0.122971095
27	0x3e492d6c	0.19646233
28	0x3d9ce8ee	0.07661615
29	0x3d88df5b	0.06683227
30	0x3d1525eb	0.036413115
31	0xbdb9a4f3	-0.09064665
32	0xbe1a3461	-0.15059043
33	0x3e3cbadd	0.18430658
34	0x3c3f7628	0.0116858855
35	0xbd718287	-0.05896237
36	0xbd2ea57e	-0.042638294
37	0xbcd97e02	-0.026549343
38	0x3e4625ab	0.19350307
39	0xbde7b868	-0.113144696
40	0x3d80ba3d	0.06285522
41	0x3d2ef3a1	0.04271281
42	0x3e09d806	0.13461313
43	0xbdc09d2a	-0.09404977
44	0xbdf9ebe7	-0.12203198
45	0xbdb48e3b	-0.08816191
46	0xbc0485ed	-0.008088571
47	0x3cb0a9da	0.021565367
48	0xbe53fd1a	-0.2070202
49	0x3d3ba88b	0.045815032
50	0xbd1b8123	-0.03796495
51	0x3dfdb093	0.123871945
52	0xbd07c2bb	-0.033144694
53	0x3d9e334a	0.07724626
54	0xbcae1dca	-0.021254439
55	0xbdcd3ab4	-0.10020962
56	0xbd03878f	-0.0321117
57	0xbcb2b5c3	-0.021815186
58	0x3ddf0bd8	0.10890931
59	0xbcd5c3d1	-0.02609435
60	0x3d6184cf	0.055058297
61	0xbcd3135e	-0.025766071
62	0xbd4a24e1	-0.049351577
63	0xbd0ea6e5	-0.03482713
64	0x3d4f4dcf	0.050611313
65	0x3df805f1	0.12110508
66	0xbc755287	-0.014973289
67	0xbdef68ab	-0.11689886
68	0xbe1228a4	-0.14273316
69	0x3dbb871d	0.0915663
70	0x3e03b033	0.12860183
71	0x3dd3fc32	0.10350837
72	0x3d9dd9df	0.07707571
73	0x3cea7296	0.028619092
74	0xbe3b6a63	-0.18302302
75	0x3e022d5c	0.12712616
76	0xbc3e6805	-0.01162148
77	0xbd89d8c8	-0.06730801
78	0xbd91d5cc	-0.07120857
79	0x3ceb9520	0.028757632
80	0x3e1fb3b8	0.15595901
81	0xbe743091	-0.23846652
82	0x3e586637	0.21132742
83	0xbd6186f1	-0.05506033
84	0xbd034425	-0.03204741
85	0x3d92c958	0.071673095
86	0xbdece0f9	-0.11566348
87	0x3d1cda07	0.038293865
88	0x3c8e18dc	0.017345838
89	0xbc9e7273	-0.019341683
90	0xbdd6fbd8	-0.10497254
91	0x3da00d27	0.078150086
92	0xbd4afac7	-0.049555566
93	0xbd8cd8d9	-0.06877298
94	0x3d340607	0.04395106
95	0x3d28d3d2	0.041217633
96	0xbcb2074b	-0.021731993
97	0xbca8452f	-0.020540802
98	0xbd3c31ac	-0.04594581
99	0xba69ad95	-0.00089141104
100	0xbdd64483	-0.10462286
101	0xbdd9a81f	-0.1062777
102	0x3ce62669	0.028094487
103	0x3bccf1a3	0.0062543913
104	0x3b1f5df3	0.0024317473
105	0xbd055cf2	-0.032559343
106	0xbc3b79da	-0.011442626
107	0x3ded3aab	0.11583456
108	0xbc2f92bf	-0.010716139
109	0x3d57bf9a	0.05267296
110	0xbbb207d2	-0.005433061
111	0x3ac4c604	0.0015012627
112	0x3d91fa48	0.071278155
113	0xbd4b9f48	-0.04971245
114	0x3bffd314	0.007807145
115	0xbdf4e263	-0.11957242
116	0xbcb4684b	-0.022022387
117	0xbe08a729	-0.13345017
118	0xbe237ae1	-0.15964843
119	0x3e166214	0.14685851
120	0x3dbe9bb1	0.093070395
121	0xbe49307c	-0.19647402
122	0xbc7ea9a0	-0.015543371
123	0xbd095533	-0.033528518
124	0x3d2ac7a3	0.041694295
125	0x3e10325e	0.14081714
126	0x3e2e7d6d	0.17040034
127	0x3e445168	0.19171679
128	0xbd25deed	-0.0404958
129	0xbbb08732	-0.0053872103
130	0xbd99ca6d	-0.07509313
131	0x3d9e9c10	0.0774461
132	0xbc3972b9	-0.011318856
133	0xbc0ca06e	-0.008583171
134	0xbc3a2b67	-0.011362887
135	0xbd0be283	-0.034151565
136	0x3b0db171	0.0021620656
137	0xbc159319	-0.009129309
138	0x3b482ab7	0.0030543038
139	0xbd40a3dd	-0.047031272
140	0x3de0132b	0.10941156
141	0x3d93d30a	0.07217987
142	0xbe135816	-0.14389071
143	0x3c4eb186	0.012615567
144	0x3defffbf	0.117187016
145	0xbc9844e6	-0.01858754
146	0x3dc9fe7b	0.098629914
147	0xbe0f2f6a	-0.13982931
148	0xbccc891d	-0.024967724
149	0xbe03295f	-0.1280875
150	0xbc76d2fb	-0.01506495
151	0xbc855c8a	-0.016279478
152	0xbdba7683	-0.091046356
153	0x3cd67fff	0.02618408
154	0x3e3affa6	0.18261585
155	0x3dbf581a	0.09342976
156	0x3e0ef423	0.13960318
157	0x3e040099	0.12890853
158	0xbdbdde0b	-0.09270867
159	0x3dd0a013	0.10186782
160	0xbc740d33	-0.014895725
161	0x3c5d5ee8	0.013511397
162	0x3cc39fc4	0.023879893
163	0x3aeef3f6	0.0018230665
164	0x3d901826	0.07035856
165	0xbd46f884	-0.048576847
166	0x3d13a812	0.036048956
167	0xbd97557b	-0.07389351
168	0x3def8fcb	0.11697348
169	0x3d78767e	0.060659878
170	0xbda00d16	-0.07814996
171	0x3c57be7f	0.013167976
172	0x3de4911b	0.11160489
173	0x3d1918ee	0.03737729
174	0xbe2a5928	-0.16635573
175	0x3e3bcbd6	0.18339476
176	0xbdf01407	-0.1172257
177	0xbca09fde	-0.01960748
178	0x3ac3928e	0.0014920996
179	0x3c9b88d3	0.018986141
180	0xbda2f651	-0.079571374
181	0x3db25075	0.08706752
182	0x3dc49eae	0.09600578
183	0x3d16918c	0.036759898
184	0xbdaf1bdc	-0.08550236
185	0xbdf9dab6	-0.12199919
186	0xbbf73a16	-0.007544766
187	0xbc5bdcff	-0.013419389
188	0xbd71eef0	-0.05906576
189	0xbc866e79	-0.0164101
190	0x3d7c5ae5	0.06161012
191	0x3d28aa8f	0.041178282
192	0x3de0aa8e	0.10970031
193	0xbbe45239	-0.0069678095
194	0x3d0d62cc	0.03451805
195	0xbdbaca55	-0.09120623
196	0xbc2ea3b2	-0.010659145
197	0x3e0237b2	0.12716559
198	0xbd43bef2	-0.04778952
199	0x3c6f9f1a	0.014625335
200	0x3d0f8eb9	0.03504822
201	0x3c221d3c	0.009894665
202	0x3aba9409	0.0014234792
203	0x3dbf2161	0.093325384
204	0x3dbbc312	0.09168066
205	0xbe09bba7	-0.1345049
206	0xbd709354	-0.058734253
207	0xbc39a0cb	-0.01132984
208	0x3ca4d536	0.020121198
209	0xbd6d9606	-0.0580044
210	0xbd570f4d	-0.052504826
211	0x3dba8f63	0.0910938
212	0x3d9f47e4	0.07777384
213	0x3dce04c5	0.100595035
214	0xbe4a9740	-0.1978426
215	0x3d9d06af	0.076672904
216	0x3cb468a5	0.022022555
217	0xbda496b1	-0.080365546
218	0x3e743500	0.23848343
219	0xbe1505d9	-0.14553012
220	0xbd21820b	-0.03943066
221	0xbd8b7b79	-0.0681066
222	0x3d715de5	0.058927435
223	0x3d0ab91c	0.03386794
224	0xbc3902ef	-0.011292203
225	0x3d9ae362	0.07562901
226	0xbe0e7da8	-0.13915122
227	0x3dcccf1b	0.1000044
228	0x3e20c3c7	0.15699683
229	0xbe0ce160	-0.13757849
230	0x3d5e73a8	0.054309517
231	0xbd243740	-0.040091753
232	0xbc8529be	-0.016255256
233	0x3d8b65f2	0.06806554
234	0x3c7bab2a	0.015360633
235	0xbdd1ab75	-0.10237781
236	0xbe5923d0	-0.21205068
237	0x3d42e7a0	0.047584176
238	0xbd131474	-0.035908177
239	0x3d123985	0.035699386
240	0x3cbefb13	0.02331308
241	0x3cd54766	0.026035022
242	0xbcb77c04	-0.022398002
243	0xbd826d9c	-0.063685626
244	0xbce08d69	-0.02741118
245	0x3e40f8e8	0.1884495
246	0x3dc73ec3	0.09728768
247	0xbbeb75cd	-0.007185674
248	0x3e4ddecf	0.20104526
249	0xbd01f770	-0.031730115
250	0xbd26a961	-0.040688876
251	0x3c772605	0.015084748
252	0xbba32385	-0.0049785995
253	0xbe50ef70	-0.20403838
254	0xbd8d8f20	-0.069120646
255	0x3d15391b	0.036431413
