results/AgentAttackTarget_02/AgentAttackTarget/AgentAttackTarget-999976.pt (torch, 443167 bytes, 36 tensors)

network_body._body_endoder.seq_layers.0.weight f4 [128, 7]
000000 fd 6f e5 bd 04 b8 61 3f 26 87 a0 be f7 e4 ae be
       -0.11203001 0.8817141 -0.3135311 -0.3415906
000010 e5 6c 3a bf e1 69 e7 be 61 3d 8b 3e 6a 6a e9 bd
       -0.7282241 -0.45197967 0.27195266 -0.1139725
000020 80 85 b6 bd 03 93 1b be b1 8c 10 3f 0b 34 7c 3e
       -0.08912182 -0.151928 0.5646468 0.24629228
000030 fa d0 e2 bd 17 ff ad be b2 19 2d 3d ff a6 6a 3e
       -0.11075015 -0.3398368 0.042260833 0.22915266
000040 86 0b c4 be 8e d9 28 bf d0 76 6d be 42 5b cc 3d
       -0.38290042 -0.6595696 -0.23189855 0.099783435
000050 de d5 24 3e 98 ce 48 3a 24 92 b9 be da 7a 09 bd
       0.16097209 0.00076601794 -0.3624431 -0.033564426
000060 7a 55 98 3e e2 fa 45 3f 19 91 be be 71 ab 0b be
       0.29752713 0.7733594 -0.37220076 -0.13639618
000070 1f 4b 9a 3e b1 94 a6 bd 16 1d 07 bf e4 a4 ca be
       0.30135438 -0.081338294 -0.52778757 -0.39578927
000080 c8 07 b8 be 7f 2b 34 3e 19 25 b4 be 22 ab a9 3e
       -0.35943437 0.17594717 -0.35184553 0.33138376
000090 6c b7 32 3e 0a 31 13 bf 1b ac 32 bf 9d fc 1d be
       0.17452782 -0.574967 -0.6979386 -0.15428396
0000a0 c8 30 82 3d bf a9 98 3e 84 7e bd be f7 9c 45 3c
       0.063569605 0.29817006 -0.37010586 0.012061349
0000b0 dc 51 00 bf dc cf 01 be 90 cc 22 3f 4f f7 93 be
       -0.5012491 -0.12676948 0.6359339 -0.2889962
0000c0 11 e7 8b 3e c9 70 86 be 36 08 58 3f be 7c 03 3f
       0.27324727 -0.26257923 0.8438753 0.51362216
0000d0 bd e7 ff 3d 40 6a 30 be d1 3d 54 3f 54 72 41 3e
       0.124953724 -0.17228031 0.82906824 0.18891269
0000e0 1d 43 04 3d 97 08 6f 3d d1 f7 a5 bd 7a 1b 8d 3e
       0.032290567 0.0583578 -0.08103908 0.27560025
0000f0 14 46 1a bf 32 c6 fc be 63 a0 cb 3e 50 08 1c be
       -0.6026318 -0.4936996 0.39770803 -0.15237546
000100 c8 63 84 3e 73 c9 c9 be 4b db 87 3e d6 8f 33 3e
       0.25857377 -0.39411506 0.26534495 0.17535338
000110 4b c7 07 3d d6 33 f5 3e 7d 80 12 bf d9 8f 9a be
       0.033149045 0.4789111 -0.5722731 -0.30187872
000120 cf 0b 74 3e 89 7f 0a be 13 a1 95 be 72 3e 8b 3d
       0.2383263 -0.13525213 -0.29224452 0.0679902
000130 09 7b 16 be 3c 1e 54 be 72 02 45 be 18 ce 0c 3f
       -0.14695372 -0.20714658 -0.19239214 0.55001974
000140 5b 1e ce 3e 9c 74 12 3d 60 78 73 be f4 d4 18 3f
       0.40257534 0.03575574 -0.23776388 0.5969994
000150 d4 f1 e2 bd a0 f3 60 bf de bf 4e be 14 6c 40 bf
       -0.11081281 -0.8787174 -0.20190379 -0.75164914
000160 d8 f1 32 be d1 a9 50 3e 2c 94 57 3f da e5 ee be
       -0.17475069 0.2037728 0.8421047 -0.46659738
000170 dd 46 00 3d ab c7 4d bf 17 68 00 3f c2 f6 3e be
       0.03131758 -0.80382794 0.5015883 -0.18648818
000180 72 f9 27 3e c8 18 a6 3e 13 a1 f4 3d 28 5b fc be
       0.1640375 0.32440782 0.11944785 -0.49288297
000190 c6 a4 b2 3d 4d 02 9e bd 50 86 11 bf c6 55 8e 3e
       0.08722834 -0.077152826 -0.5684557 0.27799815
0001a0 2c 71 82 3e 68 3e 76 3e e6 e9 b2 3d b1 63 b0 bd
       0.25476968 0.24047244 0.08736019 -0.086127646
0001b0 12 65 89 be 53 e6 93 3e c3 f6 39 bf a6 9e 74 3e
       -0.26834923 0.2888666 -0.72642154 0.23888645
0001c0 7c 85 17 3e f9 a4 46 bf eb 4c 1f 3e 6a 29 0a 3f
       0.14797014 -0.7759548 0.15556686 0.5396944
0001d0 61 4c 8e be c4 3a c4 3e 23 ba 20 be 23 39 88 3e
       -0.27792647 0.38326085 -0.15696006 0.26606092
0001e0 ff fe 13 3f df b6 94 bf a9 33 86 bd 1b 8b 2f 3f
       0.5781097 -1.1618308 -0.06552822 0.68571633
0001f0 de a6 0f 3f f4 1e 83 3e c6 b7 3f bf 1c 49 95 bd
       0.56113994 0.25609553 -0.7488979 -0.07289335
000200 ea ce 01 bf 2f f4 e0 be 98 bc a6 3d eb d7 ae 3e
       -0.5070635 -0.43936297 0.0814144 0.34149107
000210 a2 89 c9 3d 0c df f4 be 07 69 e4 be 81 cf 96 be
       0.098407045 -0.4782642 -0.4461138 -0.29455188
000220 e6 cd d7 3b fa 1b 61 be 43 3b 4f 3d 0c c0 c0 3e
       0.0065858243 -0.21983328 0.050593626 0.3764652
000230 ef aa 81 3e 02 9c c3 be c4 ab ae 3e 02 c8 6c 3e
       0.25325724 -0.38204962 0.34115422 0.23123172
000240 b5 43 49 be 03 43 08 3f b3 54 90 be 07 07 28 3f
       -0.19654734 0.5322725 -0.2818962 0.6563572
000250 7d 67 e2 3e 38 57 0c 3f 7e 94 a5 3d 2e 27 81 3c
       0.4421958 0.54820585 0.08084963 0.015765753
000260 79 9a de bd 07 2a 3c be e3 c0 01 bf 53 2e b8 bd
       -0.10869307 -0.18375407 -0.50684947 -0.08993211
000270 7d 6d be 3d 69 50 c2 be 36 14 e7 be fd 96 e3 3e
       0.09298227 -0.37951973 -0.45132607 0.44451132
000280 dc 17 28 3e 2f 55 d4 3e 68 35 71 3d 55 6a fa 3e
       0.16415352 0.4147124 0.058888823 0.4890925
000290 d0 71 47 be db 7e 1e 3d 99 f7 06 bf 9e bd b1 be
       -0.1947701 0.038695198 -0.52721554 -0.3471498
0002a0 07 86 b1 3e 4b f6 e3 be 36 ce 69 be f9 06 9e 3e
       0.34672567 -0.44523844 -0.2283257 0.30864695
0002b0 51 fe 38 3f 01 40 1f 3d be 0b 77 3d 56 9f 79 3b
       0.72263056 0.0388794 0.060313933 0.0038089356
0002c0 ad 8c dc 3e d2 fd 39 be d6 04 16 3f bc 4e f7 be
       0.43076077 -0.18163231 0.5860113 -0.48302257
0002d0 74 4c b4 bd 6d 7e 0d bf b2 8a 5d be 5c 55 68 3e
       -0.08803645 -0.55271035 -0.2163494 0.22688812
0002e0 59 de 75 3d 63 a8 e3 be 2d a2 a5 be c3 b6 93 be
       0.0600265 -0.44464406 -0.32350293 -0.28850374
0002f0 03 bc de 3d 51 bd 52 3d 91 02 31 bd 99 e3 27 3f
       0.10875704 0.051450077 -0.04321534 0.6558166
000300 5e 47 34 be b8 2c 61 bf 90 94 8a 3d 10 fe cd 3e
       -0.1760535 -0.8795886 0.06766617 0.40232897
000310 e0 55 01 bf 46 89 b8 be 3d 9c bf bd df 08 5e 3f
       -0.5052166 -0.3604223 -0.09355972 0.86732286
000320 ca fa d7 3e bc d7 42 3f f8 f3 25 3f cc b5 82 3f
       0.42183524 0.76110435 0.6482539 1.021173
000330 85 bd b1 bd 8e dc f1 be 41 dc 07 be 39 b5 e0 be
       -0.08678726 -0.47238582 -0.13267614 -0.43888262
000340 9a 8d 37 3e 3c b4 15 3f 19 d1 d1 3a af f6 1d bf
       0.1792511 0.5847814 0.001600775 -0.61704534
000350 8e 56 89 be 15 c2 c7 3d 9e 89 e6 3e 43 b3 8a 3d
       -0.26823848 0.09753815 0.4502687 0.06772473
000360 2e 6b 41 3f ec 24 f0 3e 3c 2f cc be d2 f3 90 bc
       0.7555417 0.4690317 -0.39879787 -0.017694388
000370 29 9a 14 be c3 34 2d bd 22 c8 c5 be d3 76 62 bf
       -0.14511932 -0.042286646 -0.38629252 -0.8846256
000380 1b 88 53 be c6 51 56 3f 0b f8 16 be a2 b9 6e be
       -0.20657389 0.83718526 -0.14743058 -0.23313001
000390 4a 47 e2 3d a4 41 22 be e4 46 95 3e 21 cf 4f be
       0.110487536 -0.15845352 0.29155648 -0.20293857
0003a0 d8 7c 19 bd fe 73 1a bf 4e 21 f0 3e c1 42 ba 3d
       -0.037472576 -0.6033324 0.4690041 0.090947635
0003b0 ad db d2 3d 67 73 cc 3d b1 23 08 3f c8 b4 80 3d
       0.10295806 0.09982949 0.5317946 0.06284481
0003c0 3d cc e6 bb 56 7a 0b 3f 64 56 c2 3d e1 a3 d2 3e
       -0.00704339 0.54483545 0.09489134 0.41140655
0003d0 f3 77 29 3e a7 64 65 be 47 c5 d5 3d a9 b9 c8 be
       0.16549663 -0.22401677 0.10438018 -0.39204147
0003e0 d0 50 02 bf d3 99 ce be bd c6 1f 3f 63 9c 55 bf
       -0.5090456 -0.40351734 0.62412626 -0.8344175
0003f0 60 d1 ca bd fd 5a 5c 3e fc 55 25 3e 8b 0f 8f be
       -0.09903216 0.21519084 0.16146082 -0.27941546

network_body._body_endoder.seq_layers.0.bias f4 [128]
000000 f1 5b 77 3c 82 68 8f 3c 67 2e 98 ba a6 ff 6a bc
       0.015097604 0.017505888 -0.0011610509 -0.014343178
000010 87 6c ec bc d4 09 77 bb 2e b1 42 3d eb f7 93 3c
       -0.028860344 -0.0037695067 0.047532253 0.018062552
000020 45 0f 72 3c d2 dd ee 3c d3 c2 52 3d ee ec 57 3d
       0.014774148 0.029158507 0.05145533 0.052716188
000030 8d c1 4b 3d af 20 cb 3c 65 65 ca 3c 88 58 0e bb
       0.04974513 0.024795858 0.024706552 -0.002172025
000040 d1 27 ce 3c f9 24 b7 bc 03 cf e6 3c 2b 05 af 3c
       0.02516547 -0.022356497 0.028174883 0.021364769
000050 88 16 00 3d 38 0b ef ba ef f6 f1 3b be 05 00 bb
       0.031271487 -0.0018237596 0.007384173 -0.0019534673
000060 07 33 71 bc 4d 65 18 bc 30 4a d0 bc e5 e9 f5 3c
       -0.0147216385 -0.009301496 -0.025426 0.030018756
000070 7f 5d 45 3d cc db 80 3c 80 7b f6 3c 29 2c 95 3c
       0.048184868 0.015729807 0.030088186 0.018209534
000080 e3 ed e6 3c 68 65 60 3c 34 4e 9c 3c 42 0a ec 3c
       0.028189605 0.013696052 0.019080259 0.028813485
000090 9b 61 3a 3d 7f 46 e3 3c 09 77 bf 3c d9 28 23 3d
       0.04550324 0.027743576 0.02337219 0.039833877
0000a0 57 00 69 3c 4e 7a bd 3b e9 87 d7 bc f0 1b 1a 3d
       0.014221272 0.005782402 -0.026309924 0.0376243
0000b0 79 b7 83 3c 3d 0d 15 bc 8e ad 23 3d 0c b3 13 bc
       0.016078698 -0.0090973945 0.039960437 -0.009014856
0000c0 1f 23 89 3c 3f d4 42 bc 29 2d c0 bc 76 70 be 3c
       0.01674038 -0.011891424 -0.023459034 0.023246985
0000d0 6d ae c5 3b 2d 79 13 bb e3 1f 3d 3b 69 36 ee 3b
       0.006032756 -0.0022502646 0.0028858117 0.00726967
0000e0 67 ef 00 3d ec e8 d0 bc 82 08 f7 3b 0a 14 10 bb
       0.031478312 -0.02550169 0.007538856 -0.00219846
0000f0 4a 94 e6 bb 29 92 31 3d 7f 1c 12 3c 3d 7c 01 3d
       -0.0070367204 0.04335228 0.008917927 0.031612623
000100 67 78 5b 3d 36 ae dc bc 15 3b b6 3c 00 84 d4 3c
       0.05358162 -0.026938539 0.02224497 0.025941849
000110 37 1c 04 3d d3 50 3a 3d 77 bc 35 3d 53 73 a4 bc
       0.03225347 0.045487236 0.044369187 -0.020074522
000120 97 05 aa 3c 9c 01 bc 3c d0 5a 2d 3d 98 37 1a 3c
       0.020754619 0.022949986 0.042322934 0.009412669
000130 92 7b 2e 3c 1e 8c 30 3d 1b b8 5b bc 3a ad dc 3b
       0.010649579 0.043102376 -0.013410593 0.0067345174
000140 96 13 89 3b f4 ae e6 3b 6d 4f 3d 3d 40 b4 2d 3b
       0.004183243 0.007039899 0.046218324 0.0026505142
000150 d1 01 80 3c 82 12 00 3d 56 6e e9 3c 66 87 a9 bc
       0.015625866 0.03126765 0.028494995 -0.020694446
000160 d6 56 e8 3c f8 1c 6e 3c 6a dc 32 3d 7e 6f c0 3c
       0.02836172 0.014533274 0.043667234 0.023490664
000170 51 28 83 3c 43 8d b9 3c e5 80 71 bc 90 0d e3 3a
       0.016010435 0.022650367 -0.0147402035 0.0017322768
000180 66 fd 2a 3c 8c 13 b8 3b d0 4f 8e bc 84 69 14 3d
       0.010436391 0.0056175645 -0.017372042 0.03623344
000190 52 df a9 3c e4 0e 23 3c 31 49 89 3c cd e7 91 3b
       0.02073637 0.009952281 0.016758533 0.0044526816
0001a0 49 09 27 3d f6 fd 89 bc 0b 1a 2b 3d 64 0c ce bb
       0.04078034 -0.01684473 0.041772883 -0.006288098
0001b0 b6 5d 0d 3c c7 15 e2 3c b6 8b 9f 3b f0 bb 83 3c
       0.008628299 0.027598275 0.0048689498 0.016080827
0001c0 d1 83 d6 3c c5 54 23 3d b4 eb 78 3c 0c 16 ad 3c
       0.026185902 0.039875764 0.015192915 0.021128677
0001d0 aa f7 0f 3d f7 58 03 3d 1a c7 d9 3c 9a 8d 91 3c
       0.0351483 0.032067265 0.026584197 0.017767716
0001e0 41 a2 2a 3d fa 57 f4 bc 9f a4 2a 3d 46 9e 59 3c
       0.041658644 -0.029827107 0.0416609 0.013282364
0001f0 cf 58 88 3c d0 8b c6 3c f2 56 3d 3d e8 f0 88 3d
       0.01664391 0.02423659 0.046225496 0.06686574

network_body._body_endoder.seq_layers.2.weight f4 [128, 128]
000000 40 2c 61 3c 0e 8d 8d bc d1 68 9a bd 6e c5 8f 3d
       0.01374346 -0.017279174 -0.075395234 0.070200786
000010 8a b8 b9 bd fe 51 09 bd ef b3 2a bd c1 ab 2f bd
       -0.09068401 -0.03352546 -0.041675504 -0.042888407
000020 1e 9b 79 bd d3 61 13 3d f3 07 a6 bd e2 58 eb 3d
       -0.060938947 0.035981964 -0.08106985 0.114915624
000030 f3 cc ff bc 34 82 b7 3c 92 ca 14 be 24 85 4b 3e
       -0.031225657 0.022400953 -0.145304 0.19875008
000040 66 b7 0d 3d 3c 50 6d 3c b3 d3 2d 3e 7d 92 93 bd
       0.03459873 0.014484461 0.16975288 -0.07205675
000050 18 55 fa bc ec ec e4 3c 2a 9a 0a be bb 5e bb 3d
       -0.030558154 0.027945004 -0.13535371 0.09148928
000060 6f 9f 97 bd 14 52 75 be 1f 7c 04 bd 9c 67 0b bd
       -0.074034564 -0.23957092 -0.032344934 -0.034034356
000070 14 de 0d 3d 0d 94 11 be 95 4e cd 3d 16 b2 e0 bd
       0.03463562 -0.14216633 0.10024754 -0.10971467
000080 ee 2d 97 bd 98 20 84 3d bb 8a d0 bb 74 18 d0 39
       -0.07381807 0.06451529 -0.006364194 0.0003969107
000090 a6 a8 7f 3d 58 8f 8f 3d d6 3f 4e 3d 96 92 27 bc
       0.062416695 0.070097625 0.050353847 -0.01022782
0000a0 4a 5a 59 be ef 43 31 3c 12 f8 98 bd d7 f6 a9 3d
       -0.21225849 0.010819419 -0.07469191 0.08299034
0000b0 a4 80 02 bc b4 46 0c bc ea f5 85 b8 92 35 23 bc
       -0.007965241 -0.008561779 -6.387739e-05 -0.009961503
0000c0 75 11 52 3d 70 22 12 3d 7e 6e b0 bd 17 85 d6 bc
       0.05128618 0.035677373 -0.08614825 -0.026186509
0000d0 68 41 41 3e d0 ac 40 bd 6a 2c 72 bd ee be 28 3e
       0.18872607 -0.047039807 -0.059124388 0.16479084
0000e0 41 f8 a6 3d 66 0a a1 bd 8b 6c e6 bd e8 1f b3 3c
       0.081528194 -0.078633115 -0.11251172 0.0218658
0000f0 80 24 94 3c b4 0b 8a 3d 28 bc 24 3e 03 61 21 3d
       0.01808381 0.067405134 0.16087401 0.03939916
000100 46 2c 21 3d 1e 89 ad 3d e8 c0 15 3e 29 27 fd 3b
       0.039348863 0.08473419 0.14624369 0.0077256155
000110 c5 2e 7c 3e b3 42 c9 3b 08 d1 08 be c7 34 ab 3d
       0.24627216 0.0061419844 -0.13360989 0.08359676
000120 bb 5d d2 bd b1 34 13 3d 63 42 39 3d 25 79 47 bd
       -0.10271784 0.035938922 0.045229327 -0.048699517
000130 dc 36 a9 bd b5 6b 05 3d 42 29 a2 3c bd 65 0d 3d
       -0.08262417 0.03257342 0.019795064 0.034520853
000140 90 5e e8 3d f4 bd 2e bd b0 77 17 3e 3f 80 dd bd
       0.11346161 -0.042661622 0.14791751 -0.108154766
000150 e9 92 bb bd 25 e5 e2 3d 43 d6 02 be 26 64 13 bd
       -0.0915888 0.11078862 -0.12777047 -0.03598418
000160 e6 db 8d bc 6e ef 57 3d ba 22 ab bd b1 67 42 3d
       -0.01731677 0.052718572 -0.08356233 0.04746217
000170 a4 91 c2 bd 70 0f c2 3c 6d 2c a3 3c 58 5c 6c 3d
       -0.09500435 0.023689002 0.019918645 0.057705253
000180 65 69 30 3d 85 34 b8 bc 70 51 cc 3d 76 0e 9a bd
       0.043069262 -0.02248598 0.099764705 -0.075222895
000190 d1 8c 84 3d 85 af b0 3b 0d 90 c0 bd 1e f9 e7 3d
       0.06472171 0.0053920173 -0.094024755 0.11326812
0001a0 e2 42 fc 3d 93 3b 96 38 ad 5a 93 bd 3c 43 9b bd
       0.123174444 7.163654e-05 -0.071950294 -0.07581183
0001b0 f7 c3 f7 3d a0 21 2a b9 01 44 42 3e cd ce ac 3d
       0.12097924 -0.0001622499 0.18971254 0.084378816
0001c0 7b 15 57 be bf 49 49 bc 9f 5d 33 bd 09 c0 88 bd
       -0.21004288 -0.012285649 -0.043790456 -0.06677253
0001d0 37 b7 08 3d 9c fa 0b bd ce d0 1a bd 95 e4 f7 3d
       0.033377852 -0.034174547 -0.037796788 0.121041454
0001e0 54 74 37 3e 2f 67 79 3c 96 37 6c 3c ba 28 93 3d
       0.1791547 0.015222355 0.01441755 0.07185502
0001f0 6c 51 de bd 39 c4 4e bc 7d f1 11 be d9 72 e2 bd
       -0.10855374 -0.012620025 -0.14252277 -0.11057062
000200 2e d7 31 3e 65 78 96 3c 2e 5f af 3c 7b 2f 1f 3d
       0.17367241 0.018367955 0.02140769 0.03886364
000210 1c 18 56 3c 55 f1 d0 3d 58 a7 34 3e 9f 13 59 3e
       0.013067272 0.102022804 0.17641962 0.21198891
000220 b0 cf 24 3b 72 1a 14 3e 7b 27 b1 bd bd 9e d9 3b
       0.0025148205 0.14463213 -0.086501084 0.0066412375
000230 b7 00 9f 3d 64 ce 44 be 9d 91 b0 b8 ae ef ea 3d
       0.07763808 -0.19219357 -8.4194566e-05 0.114714965
000240 81 06 92 bc 6e d0 eb ba 9f 60 2b be e0 a2 88 bb
       -0.017825367 -0.0017991194 -0.16736077 -0.004169807
000250 ef 56 c1 bc f4 59 33 3e 89 d1 34 3d 87 40 81 3d
       -0.023601023 0.17514783 0.04414514 0.06311136
000260 04 c3 eb bd cb 80 8c 3d 99 c9 d7 bb 97 18 51 3e
       -0.11511806 0.06860503 -0.0065853116 0.20419537
000270 52 9d 02 3e 83 e5 e6 bc 70 6d 0c bd 9d 7a 6c b9
       0.12755325 -0.028185612 -0.034284055 -0.00022552391
000280 49 20 e2 3d ff ac ec 3c 54 d5 33 3d 49 9f d1 3c
       0.11041314 0.028891085 0.043904617 0.025588648
000290 2a ea d8 3c 6b 87 06 be c1 a9 50 3d 59 70 ea bb
       0.026478846 -0.13137595 0.05094314 -0.007154506
0002a0 7f d7 28 bd 88 35 00 3d f0 6e 29 3e 08 1f 1f bd
       -0.041221138 0.03130105 0.16546226 -0.038847953
0002b0 ef 05 e9 bd d5 ba e9 3d c3 f1 91 3d ef 33 84 bd
       -0.11378085 0.114125885 0.071261905 -0.06455218
0002c0 30 4a 7a 3c e4 68 61 3c 31 45 a6 bd 26 8a 49 3e
       0.015276477 0.013757918 -0.08118666 0.19681606
0002d0 b8 f0 9f bd e6 fa be bd fc 4b ce bb d0 ff 02 3e
       -0.07809585 -0.09325199 -0.006295679 0.12792897
0002e0 70 b9 ba 3d f9 4c d3 bb b6 3e cc 3d a2 8a 51 bc
       0.09117401 -0.006448385 0.09972899 -0.0127894
0002f0 c4 ec 4a be 5a 5b 9c 3b 2c 93 1a bd 7b 6a 9d 39
       -0.19816881 0.004771632 -0.03773801 0.00030024708
000300 91 c9 aa bd c7 92 71 3d 28 33 2f 3e c0 65 17 3d
       -0.08339227 0.05897787 0.17109358 0.03696227
000310 93 34 fd 3d 40 bf 26 be 95 4c b6 bd aa 69 01 3c
       0.12363543 -0.16283894 -0.089013256 0.007898727
000320 0a c1 9c bd 81 5d a6 bc 62 27 bb bd 3c 06 6c 3a
       -0.07654007 -0.020308258 -0.09138371 0.00090036145
000330 0f 17 90 bd 4e bc 32 3d 98 0d 2e 3c c4 8e c5 bd
       -0.07035648 0.043636613 0.010623358 -0.09646371
000340 45 01 48 3d 55 77 81 3d 69 b8 8d 3d dd e9 a0 bd
       0.048829336 0.06321589 0.06919939 -0.07857106
000350 8c d1 be bd 99 f3 9c 3d c6 11 bb bc 74 5e fe 3c
       -0.09317312 0.0766365 -0.022835623 0.031050898
000360 0a 09 cb 3c 49 cf ac bd 58 7a 1c 3e 87 d4 ab bc
       0.024784584 -0.08437974 0.15281045 -0.020975364
000370 f6 2c a0 3d 84 82 85 3e e2 18 a6 bd 79 65 74 bd
       0.078210756 0.26076138 -0.08110215 -0.059667084
000380 22 82 c0 3d 91 db b9 3c 8f a7 e6 3b 27 f7 d2 bc
       0.09399821 0.022687705 0.0070390175 -0.025752617
000390 89 5f e0 3d 8c 99 8c 3d 17 ed 1b be 0b 15 81 3c
       0.10955722 0.06865224 -0.15227161 0.015757104
0003a0 fa a4 39 3d 5e 53 96 3a 8f d8 72 bd fa 20 87 3c
       0.04532335 0.0011468937 -0.059288558 0.016495217
0003b0 2a a2 84 ba eb ee a0 bc 43 e7 bb bd ae 9e c9 3b
       -0.001011913 -0.019645175 -0.09174969 0.0061529493
0003c0 76 95 d5 3b f2 e8 a2 bd 48 43 7a 3e 82 36 c6 3d
       0.0065180613 -0.07954587 0.24439728 0.09678365
0003d0 be fc d3 3d 24 fd 06 3d f2 1f 2f be 7b 6a 1f 3b
       0.10350941 0.032956257 -0.1710203 0.0024324942
0003e0 35 b9 80 bd dd 41 0c 3e 7a 88 a1 bb ff a1 b2 3d
       -0.062853254 0.13697 -0.0049295994 0.087223046
0003f0 df 13 2e bd 12 61 32 be b1 29 b6 bd 46 3d 5e 3d
       -0.04249942 -0.17419842 -0.08894671 0.054257654

network_body._body_endoder.seq_layers.2.bias f4 [128]
000000 05 17 3a bc ca ac cc 3b 3b 40 ac bb 10 46 22 bb
       -0.011358027 0.006246184 -0.0052566803 -0.0024760999
000010 8f 2a 5f 3d a6 07 2d bc 45 9b a2 3c 5d 06 65 3c
       0.054483946 -0.010560906 0.019849429 0.013978568
000020 45 c3 fc bb 99 03 58 3c 4b 37 5f bc 6a aa a3 bb
       -0.0077137076 0.0131844515 -0.013624023 -0.00499468
000030 9e ac f3 3a 27 49 90 3a 86 b4 a1 bb 40 84 2b 3d
       0.0018590873 0.0011008129 -0.00493485 0.04187417
000040 d7 58 95 3a 57 95 12 bc a2 f1 ac ba 16 41 91 bc
       0.0011394274 -0.008946738 -0.0013194571 -0.01773123
000050 8a 28 c1 3c f2 8b bd 3c 0d ba 21 3d 2b 7a 2d 3d
       0.0235789 0.02313802 0.039484072 0.042352837
000060 67 27 b8 bc 46 c6 cb 3a 47 d0 a5 bc ad 4d 16 3d
       -0.022479726 0.0015546761 -0.020240916 0.03669517
000070 5e fa 78 3c ec dc 09 3d 8b 85 04 3c 6f 39 b7 ba
       0.015196411 0.033657953 0.00808848 -0.0013978909
000080 ab 4e 0f 3c af 74 4b 3c 20 39 00 3c a3 94 c8 3c
       0.008746783 0.012417956 0.00782612 0.024484938
000090 ab 4d 7b 3c 4c c8 8e bc ae bf 8d ba a2 1a 1e 3d
       0.015338342 -0.017429493 -0.0010814571 0.038599618
0000a0 66 8f 2a 3d 8e fa eb 3c 56 52 1a 3d ed d6 97 3c
       0.04164066 0.028805997 0.037676178 0.018535102
0000b0 ea dd 16 3d 2a e3 17 bc 1c 2e a6 bc 16 72 97 bc
       0.036832727 -0.009270469 -0.020285659 -0.018487018
0000c0 f6 23 c7 bb 89 47 dd 3b 41 5c e4 bc 5b 84 f5 3a
       -0.006077285 0.0067529124 -0.027876021 0.0018731462
0000d0 7f 2b 29 3d 6d ae 45 bb f7 cb 02 3d da c9 eb bb
       0.041301247 -0.003016378 0.031932797 -0.0071956934
0000e0 19 0a ee 3b 5d b9 0d bc e6 d5 27 3c 97 3d 2d 3c
       0.0072643873 -0.008650151 0.010243868 0.010573766
0000f0 d0 b4 c8 3b 80 8f 06 3d ee 2b 77 bb b8 60 43 3d
       0.00612507 0.032851696 -0.0037715393 0.04769966
000100 8b 32 4a 3b 29 d7 ad 3c e7 66 09 3d b1 98 a3 3c
       0.003085288 0.02122076 0.0335454 0.01997027
000110 8e 0f 12 3d fd c0 da 3b 35 1b cc ba 2e 0c 5a 3c
       0.035659365 0.006675838 -0.0015572073 0.013308568
000120 a2 db 6b ba b6 ad 5f bc aa 38 f2 3c 01 1c d8 3c
       -0.00089972664 -0.013652256 0.029568035 0.02638054
000130 d0 62 c5 3c d7 44 9f bc 41 8d ad 3b b1 b9 1b 38
       0.024094969 -0.019442005 0.00529638 3.712782e-05
000140 09 9d 9d 3c 40 c4 02 3d f5 e6 aa bc 43 22 f5 3b
       0.01923992 0.03192544 -0.020862082 0.007480891
000150 77 1d 15 3d a6 d1 fa 3c 7d e2 ad bc 39 ea fa 3b
       0.036405053 0.030617546 -0.021226162 0.007657316
000160 92 fd 91 3b 9e 12 f4 3c 01 38 b5 3b a5 7b 86 3a
       0.0044552768 0.029794034 0.005530358 0.0010260238
000170 e3 2f c0 bc 09 2f 6f 3c 51 ea b4 3b 21 eb 01 3c
       -0.023460334 0.014598616 0.0055210968 0.007929594
000180 66 b8 d7 3c 9c 71 6f 3c b9 9b b1 3c 05 73 fe bb
       0.026333045 0.014614489 0.0216807 -0.0077651762
000190 53 93 5d bc b1 9c 18 3d ba 62 0c 3d 95 b3 56 3c
       -0.013523894 0.037258808 0.03427384 0.013104339
0001a0 77 b2 97 3c af 5c 76 3a e1 e0 cd bc fd 48 b2 3b
       0.018517716 0.0009397966 -0.025131645 0.00544083
0001b0 c6 47 28 3d b4 bb 6b 3c 73 92 ac bc 8c f9 3b 3c
       0.041084073 0.014388014 -0.021065926 0.011473071
0001c0 64 47 c0 3c 7b 95 e5 3a e6 9a 0b 3d df e3 c7 3c
       0.023471542 0.0017515862 0.03408327 0.02440065
0001d0 88 03 32 3d 16 00 7c 3c b3 0a 30 3d 23 f0 a3 3c
       0.0434604 0.01538088 0.042978954 0.020011967
0001e0 32 32 4c 3c 46 19 08 3d d5 eb e1 3c 4d 9c a4 39
       0.012463139 0.033227228 0.027578274 0.0003139697
0001f0 01 be 06 3d 54 a7 45 3d 77 e3 36 3b 02 a7 c8 bc
       0.032896046 0.04825528 0.0027906576 -0.024493698

action_model._continuous_distribution.log_sigma f4 [1, 3]
000000 a8 ad 72 bd d5 b8 44 bd 46 85 cb bc
       -0.059247643 -0.048027832 -0.024843823

action_model._continuous_distribution.mu.weight f4 [3, 128]
000000 74 9c 9b bb 18 d8 33 b8 91 95 10 3d fc f0 1d 38
       -0.0047488753 -4.287818e-05 0.035298888 3.765615e-05
000010 06 bb 83 bd 5f 12 1c 3d 9c 32 95 bc 1d 50 6d 3d
       -0.06432156 0.038103458 -0.018212609 0.05793773
000020 b2 4c 6b bc c0 4d 11 bd 16 7d 37 3d e1 97 07 3d
       -0.014361547 -0.03547454 0.044797026 0.033103827
000030 bb fd 03 3d f3 46 17 bd de 63 56 3c 1b 16 73 bd
       0.032224398 -0.036932897 0.013085334 -0.059347253
000040 36 36 b3 bb bb 99 86 3d 55 21 26 3d cb 2b 00 3d
       -0.005469109 0.065722905 0.04055913 0.031291764
000050 0f 37 95 bc 7b 04 42 3d 5f 76 29 bd dc b4 92 bd
       -0.01821473 0.047367554 -0.041372653 -0.071634024
000060 f4 22 4f 3d a9 0b 03 bd e2 a8 58 3d 83 aa 19 3d
       0.050570443 -0.031993542 0.052895434 0.03751613
000070 b0 e1 0d bd ff 9e 27 bd 9e 5e 51 3d 41 bb 2c bc
       -0.03463906 -0.040923115 0.051115625 -0.010542692
000080 c9 57 d2 bc 2f 17 31 bc 49 19 34 3b 63 a4 72 bd
       -0.025676625 -0.01080875 0.0027480891 -0.059238803
000090 46 63 9d 3c 1a 17 51 3c 08 0b 1a bb f9 5f af bc
       0.019212376 0.0127618555 -0.002350511 -0.021408068
0000a0 bd 88 73 bd 22 ee 94 bd 20 ad 5f bd 06 59 51 bd
       -0.059456576 -0.07271983 -0.054608464 -0.05111029
0000b0 44 b5 d1 bc f0 fb 08 3d 7b 2c 74 bc 3e 2e 60 3d
       -0.02559913 0.03344339 -0.014903183 0.0547316
0000c0 20 16 0a 3d 7a f2 55 3c b8 15 38 3c 4e db 4d 3c
       0.033712506 0.013058299 0.011235647 0.012564493
0000d0 f7 3f 82 bd ed 09 5c 3d a6 29 5e bd 8e b5 81 3d
       -0.063598566 0.053720403 -0.054238938 0.06333457
0000e0 44 7e 4c bc 2d 31 8d 3c aa 55 12 3d dc af 20 3d
       -0.012481276 0.017235363 0.035726227 0.039230213
0000f0 56 53 21 3c d7 89 6b 3c fc cc 54 3d 69 4b ab bd
       0.009846529 0.014376125 0.0519533 -0.08363993
000100 cd 7e 44 3d b1 41 a5 3c 53 df 92 bb 22 b4 4f bd
       0.04797249 0.020172926 -0.0044821887 -0.050708897
000110 92 0b 4a bd a3 db 35 3d 3d fd 42 bc 27 6d 2a 3d
       -0.04932744 0.044398915 -0.011901197 0.041608002
000120 cf 0e 3c 3d e8 6d 12 3d db 1e ec bc bd f4 64 bd
       0.04591256 0.035749346 -0.028823307 -0.055897463
000130 77 4f 2d 3c 6c 95 45 3d 73 b0 ea bc 80 79 16 bc
       0.010578028 0.048238203 -0.02864859 -0.009184241
000140 9a b7 52 3c 44 7a 09 bd 9d 62 d6 3c 78 74 9f bc
       0.012861157 -0.033563867 0.02617007 -0.019464716
000150 c2 eb e9 bc e8 f6 9f ba 4f 27 ec 39 d8 7d 99 bc
       -0.0285548 -0.0012204321 0.00045042715 -0.018736765
000160 56 f8 19 3c 67 ae 49 bd b0 31 eb 3b a3 e4 e8 3c
       0.009397587 -0.04923859 0.007177554 0.028429335
000170 be 35 b7 3c c5 10 95 3c 9e b4 8c bc 8d 31 bb bc
       0.022364493 0.018196473 -0.017175969 -0.022850776
000180 98 7f a2 3b 4a 77 20 3d a4 aa 92 3c 74 ac 94 3d
       0.004959058 0.039176263 0.017903633 0.07259455
000190 23 f1 52 3c 20 78 cb bc 34 fb ed bc b6 f6 45 3b
       0.012874874 -0.024837554 -0.029050447 0.0030206866
0001a0 75 05 39 bd b6 bb 1f bd 22 e6 97 3c 57 52 0b 3d
       -0.04517122 -0.038997374 0.018542353 0.034014072
0001b0 f2 eb 58 3b 9d c9 11 3b dd ce 07 3c 2c 5e 2b 3c
       0.0033099619 0.0022245415 0.008289066 0.010459464
0001c0 29 95 15 3d 2a 6c 85 3d 74 79 8c bd f4 ab 4e bd
       0.036519203 0.06514771 -0.06859103 -0.050456956
0001d0 82 3d 02 bd 26 e9 52 bd 78 cb db bc ef 9b 8b bc
       -0.03179694 -0.05149188 -0.02683042 -0.017042128
0001e0 ed 05 c5 3c d5 08 18 bd d3 55 2b bd 96 e2 11 3d
       0.024050677 -0.037117798 -0.041829895 0.03561648
0001f0 df 07 58 bd 77 f9 81 bd 96 72 f5 3c 7e d8 3c 3c
       -0.05274188 -0.0634641 0.029961865 0.011526225
000200 a6 1a 5f 3d fa 11 87 3d 71 c1 2b 3d 4f 7f 45 3d
       0.054468773 0.06595226 0.041932527 0.048217114
000210 a0 89 fa bc e9 d6 cc bb eb 4f 54 3d d3 c0 58 bd
       -0.030583203 -0.006251205 0.05183403 -0.052918267
000220 b2 d2 86 3c 68 b5 99 3c 31 30 16 3d fa e1 fb bc
       0.01645789 0.018763259 0.036667053 -0.030747402
000230 08 97 e6 bc e4 a9 9d 3c 68 e9 4e 3d d0 de c5 bc
       -0.02814819 0.01924605 0.050515562 -0.024154097
000240 6f 69 1f 3d bb 81 91 3d 29 08 e4 bc 9a fb 36 3d
       0.03891891 0.07104822 -0.027835922 0.04467354
000250 5c a5 f0 bb 51 c4 69 bd 48 4d 9b bd 9c a3 e4 bc
       -0.007343931 -0.057071988 -0.075830996 -0.027910046
000260 39 3d c7 3b b6 95 21 3d 70 41 c6 3c 7f dc 7b bd
       0.0060802964 0.039449416 0.024201125 -0.06148958
000270 7d b9 df 3c 5e cc 85 bc 69 af 1c bc 4e 57 f6 3c
       0.027310127 -0.016332801 -0.009563305 0.030070927
000280 a7 eb 54 3d 06 e4 36 bd 52 82 53 3d 40 da 13 bc
       0.051982548 -0.044651054 0.051637955 -0.009024203
000290 db 51 01 bd c6 bb 21 3d da 44 5c 3d 95 dd 87 bd
       -0.031572204 0.039485715 0.0537766 -0.0663406
0002a0 27 d8 fe bc f0 ea b0 3c 4a 18 e6 bb fc 57 85 3d
       -0.031108929 0.021596402 -0.0070219385 0.06510922
0002b0 a8 a3 c9 bc 82 ad ee 3c 23 1c be 3c 89 3e 07 3c
       -0.02461417 0.02913547 0.023206776 0.008254656
0002c0 c8 8d de bc 2f fe f3 3c ae 91 04 3d 92 3d 5c 3d
       -0.027167216 0.02978429 0.032365493 0.053769656
0002d0 ed 12 be bc d4 27 8a 3c 0d e6 85 3c ee 14 e2 38
       -0.023202384 0.016864695 0.016345048 0.00010780418
0002e0 3b db db 3c b7 ce 31 bc 0f e5 11 bc cc c0 44 3d
       0.026837936 -0.010852507 -0.0089047095 0.048035428
0002f0 bb a7 17 bd 57 12 85 bd cc 5f be 3d 37 bf 9a bd
       -0.037025195 -0.06497639 0.092956156 -0.075560026
000300 c6 87 be 3b bf 07 0a bd 21 37 ba bd 17 c7 c5 3c
       0.0058145253 -0.033698794 -0.09092546 0.024142785
000310 83 2a 45 3c 98 f7 98 bc b2 01 dc 3c c6 71 ca bc
       0.012034061 -0.01867275 0.026856277 -0.024712455
000320 0b 28 a2 bc af af 00 3d 97 d2 52 bb 60 8c 76 3c
       -0.019794485 0.031417545 -0.0032168978 0.015048116
000330 e3 bd 4c bd 08 bd 30 3d 25 7c 7a bc 69 0d 1e bc
       -0.049985778 0.043149024 -0.015288387 -0.009646752
000340 e9 9f 62 bd d5 a7 83 bc d6 24 75 3c 02 b0 17 bc
       -0.055328283 -0.01607124 0.014962396 -0.009258272
000350 53 58 13 bd 65 58 67 bd 07 6a 9f 3a 8b 6e 69 3d
       -0.035972904 -0.056480784 0.0012162336 0.056990188
000360 d3 11 04 bd 74 f5 4f 3d 72 a9 d9 3c e1 61 cf bc
       -0.03224356 0.05077119 0.026570056 -0.025315227
000370 a8 2b 04 3d 51 60 92 bd a5 82 19 bc e4 2a 8d 3d
       0.032268196 -0.07147277 -0.009369527 0.06892946
000380 16 a7 91 bd c4 e2 e6 bc 2a de 1e bd be 86 b6 3c
       -0.07111947 -0.028184302 -0.03878609 0.022281047
000390 0a 0a f0 3b 38 70 7a bd 0c a5 62 bd be 31 18 bd
       0.0073254155 -0.061142176 -0.055333182 -0.037156813
0003a0 6e 18 70 3d b9 ec 73 3d 65 ed 13 3d 2d 10 10 3d
       0.058617048 0.05955193 0.03611507 0.035171676
0003b0 0c ca 4e bd 0d db 6c bd 41 b8 c1 3c 82 fe 16 bd
       -0.050485656 -0.05782609 0.02364743 -0.03686381
0003c0 68 c0 17 bd 0c 45 46 3d 1c 16 8a bc ad 02 de 3c
       -0.037048727 0.048405692 -0.016856246 0.027100885
0003d0 58 fe 51 bd dc 3c 45 3d 63 fb 98 bb 7c ce d9 3c
       -0.05126795 0.048153743 -0.0046686395 0.026587717
0003e0 5f 31 3b bd 39 76 07 ba f6 80 1a 3c a1 78 93 bb
       -0.04570138 -0.0005167458 0.009430161 -0.004500464
0003f0 ea d5 36 3d 59 4a 3e bc fc bb 9a 3b 5c 6c cb 3c
       0.044637598 -0.011614406 0.0047221165 0.024831943

action_model._continuous_distribution.mu.bias f4 [3]
000000 46 25 95 bc 2c 2b 7e bc 07 6f 89 bc
       -0.01820625 -0.015513223 -0.016776575

exp_avg f4 [128, 7]
000000 b5 e4 64 37 9a e6 bb b8 95 38 ba 2f ce db e0 38
       1.3643109e-05 -8.959808e-05 3.3873407e-10 0.00010722094
000010 19 95 63 b8 f6 cb a4 36 14 f9 8f b8 68 e0 ad b5
       -5.4259875e-05 4.911325e-06 -6.865166e-05 -1.2954815e-06
000020 fe 73 26 b8 39 4e 65 2e 07 3c 34 b8 6a 84 ad 37
       -3.968551e-05 5.2138047e-11 -4.297125e-05 2.0684867e-05
000030 24 98 9b b6 74 90 be b7 9c ea 74 38 87 b1 ac b8
       -4.6370715e-06 -2.2717031e-05 5.839263e-05 -8.234666e-05
000040 67 9e 8d 2f b1 f4 1a 39 63 2d b7 b8 15 11 9b b8
       2.5760302e-10 0.00014777739 -8.734574e-05 -7.394158e-05
000050 df 57 4c b8 50 65 5c 36 b1 06 ed b8 7d ba 62 30
       -4.8719226e-05 3.2841526e-06 -0.00011302287 8.2483337e-10
000060 98 83 4d b8 7b 49 86 b8 bb 19 96 38 b0 f8 10 36
       -4.8998365e-05 -6.403305e-05 7.15735e-05 2.1602427e-06
000070 8a 37 79 b8 30 c1 56 b8 ee ba 19 2f a6 a6 28 b8
       -5.941795e-05 -5.1201496e-05 1.398168e-10 -4.0209525e-05
000080 ca 8b d3 37 a5 88 c5 37 4f de 0d b8 20 71 b4 b7
       2.5218254e-05 2.354786e-05 -3.382406e-05 -2.151035e-05
000090 80 33 12 b9 6b 45 83 2f 98 24 12 37 2e 46 66 38
       -0.0001394283 2.3878086e-10 8.710798e-06 5.4901633e-05
0000a0 9c c0 11 37 f1 fe bc b8 e0 ce 2e 36 02 79 ab b7
       8.687519e-06 -9.012025e-05 2.6048438e-06 -2.0441137e-05
0000b0 78 57 aa af 62 36 ed 38 d9 02 d3 b7 f5 39 d4 b8
       -3.098497e-10 0.0001131117 -2.5154486e-05 -0.00010119743
0000c0 fc fb 58 b8 7a e2 e3 38 41 6d 66 b9 b2 cc 86 2f
       -5.1733092e-05 0.00010866388 -0.0002197521 2.4519903e-10
0000d0 f3 6f 69 39 43 d4 90 b9 6d 5a 60 b9 db bc 51 b9
       0.00022262316 -0.00027623968 -0.00021395991 -0.00020002147
0000e0 7c 54 99 b8 14 16 ca 36 97 13 23 af a1 29 d3 b8
       -7.311345e-05 6.0226394e-06 -1.4831723e-10 -0.00010069018
0000f0 24 8c 08 38 88 2e 95 b6 07 09 93 b8 58 52 3a 38
       3.2555443e-05 -4.445963e-06 -7.011188e-05 4.4422544e-05
000100 e8 0d 40 38 ae aa 04 b0 32 4e 73 38 7a 81 0c b8
       4.578932e-05 -4.826387e-10 5.800854e-05 -3.3499186e-05
000110 b7 c7 a2 b8 cf 8f 37 38 3c 3c d6 38 9b e6 60 39
       -7.761962e-05 4.3764532e-05 0.00010215535 0.00021448212
000120 9b 03 2b b1 1d 2d 46 38 ca 49 0e 39 3f a7 96 b8
       -2.4885825e-09 4.7248894e-05 0.00013569664 -7.1837094e-05
000130 9e b8 99 38 4c 93 4c b7 60 a0 66 39 a8 bf 25 b1
       7.329996e-05 -1.2193643e-05 0.00021994254 -2.4119604e-09
000140 34 72 6a 37 6e 78 db 38 00 42 31 b8 7e b6 a0 38
       1.3974077e-05 0.000104651655 -4.2261556e-05 7.663386e-05
000150 1e 6f 6f b9 76 87 ca 39 16 a9 50 b1 7a 0d 7c b9
       -0.0002283421 0.0003862937 -3.0364098e-09 -0.00024037613
000160 71 d4 82 39 b8 7e b9 37 d0 5b 25 38 f8 3c b2 38
       0.00024953813 2.2112727e-05 3.9424573e-05 8.499058e-05
000170 c2 23 1c 39 ed 28 0e b0 9a 36 ee 38 02 4e 38 37
       0.0001489064 -5.171746e-10 0.00011358895 1.0985417e-05
000180 42 5b ad b7 80 3a d1 38 d8 d7 d1 b8 eb 96 30 39
       -2.0665702e-05 9.976793e-05 -0.00010006101 0.0001684089
000190 9a 69 8b b0 4b ec 94 b8 90 fd 8e 38 86 64 36 37
       -1.0143595e-09 -7.101203e-05 6.818317e-05 1.087145e-05
0001a0 6f 9c 8f 37 d7 33 db 37 3b d5 83 b9 be 84 d4 30
       1.7119773e-05 2.6130974e-05 -0.00025145136 1.5462758e-09
0001b0 ee cb be 38 7a 5f 02 b9 86 67 4c b8 52 48 0f b9
       9.097891e-05 -0.00012433334 -4.8733804e-05 -0.00013664484
0001c0 b1 f1 34 b9 21 73 28 38 bc 47 40 b0 b0 95 91 b8
       -0.00017256175 4.0161543e-05 -6.9951134e-10 -6.94202e-05
0001d0 ac 94 ee 38 61 e0 cb 37 34 ec 7c b8 1c 5e b4 37
       0.00011376417 2.430397e-05 -6.0301463e-05 2.1501495e-05
0001e0 da c1 2f b9 fd e6 fd 2e 9c bd 23 b8 de 59 73 b8
       -0.00016761516 1.154614e-10 -3.9038816e-05 -5.801941e-05
0001f0 d0 50 55 37 e2 1c 2d b8 10 73 0d 38 b9 3b 42 39
       1.2714605e-05 -4.1273313e-05 3.372418e-05 0.0001852353
000200 29 9f 6d b0 9a 43 cc 37 1c a0 06 39 4c c1 40 b8
       -8.644628e-10 2.4350174e-05 0.00012838881 -4.595639e-05
000210 a1 45 d8 38 5c 98 77 38 30 0c 1b 39 e6 38 8f b0
       0.00010312652 5.9031285e-05 0.00014786492 -1.0420791e-09
000220 74 d0 86 38 63 8d fb 37 48 35 36 b8 04 24 58 38
       6.428445e-05 2.998737e-05 -4.3441803e-05 5.1531955e-05
000230 e6 0a 52 b9 6a 34 59 38 12 34 2e b0 16 fc 36 b9
       -0.0002003122 5.1785646e-05 -6.337483e-10 -0.00017450782
000240 c2 f1 83 39 6a f6 c1 38 a0 81 6e b7 dc e8 71 37
       0.0002516639 9.248855e-05 -1.4216086e-05 1.4418936e-05
000250 f9 73 94 b9 22 b6 2b 31 27 8b 8f b8 cc 48 d2 b7
       -0.00028315166 2.4987306e-09 -6.8446905e-05 -2.506785e-05
000260 b8 c7 29 37 7a 0f c3 b8 bd 2f d2 37 e8 31 9f 38
       1.0119686e-05 -9.301207e-05 2.505618e-05 7.5910066e-05
000270 ab 63 21 b0 19 30 86 38 ec b5 86 b7 4b f9 97 b6
       -5.8713095e-10 6.398577e-05 -1.6058759e-05 -4.529172e-06
000280 7b 5d 76 38 dd 7d 3b b8 6b 37 24 b9 a2 5d 01 31
       5.873803e-05 -4.4701494e-05 -0.00015660904 1.8825195e-09
000290 5b 3c 0d b9 f2 21 ad b8 a4 28 4a 38 ce 9c 55 b8
       -0.00013469292 -8.255606e-05 4.8198403e-05 -5.0929193e-05
0002a0 e1 e5 09 38 a4 e3 8c b8 d8 e8 17 30 b8 c7 97 b7
       3.2877437e-05 -6.7181216e-05 5.526437e-10 -1.8093604e-05
0002b0 70 f1 14 b7 07 c0 55 38 b8 ea 52 36 5e ea 1b b7
       -8.8777015e-06 5.0961997e-05 3.1429063e-06 -9.293288e-06
0002c0 bd 0d bb b8 fc 95 55 2f 38 4f 01 b9 21 a0 2b b7
       -8.919414e-05 1.9425522e-10 -0.0001233191 -1.0229677e-05
0002d0 24 ac cb 37 b3 d2 19 b8 40 a2 2f b8 00 f2 40 b3
       2.4279645e-05 -3.667427e-05 -4.187436e-05 -4.492358e-08
0002e0 02 1d ba 2f 1f a1 89 38 0c a9 18 b8 f6 23 68 37
       3.3853814e-10 6.56268e-05 -3.639706e-05 1.383665e-05
0002f0 7d 07 0c b8 cc 11 33 b8 99 c0 e9 38 4b a7 88 b0
       -3.3385575e-05 -4.26935e-05 0.0001114618 -9.94285e-10
000300 90 1f 44 b8 1f 95 40 38 74 85 d8 37 44 8a b6 b6
       -4.6759436e-05 4.5915247e-05 2.581135e-05 -5.440119e-06
000310 e0 31 2b 37 77 c0 58 39 2c df 04 b1 49 85 0f 38
       1.0204007e-05 0.00020671064 -1.9335387e-09 3.421799e-05
000320 8e 6f ea 38 88 cb 6f b8 52 05 cf 38 dd ab 38 b9
       0.00011178768 -5.7171594e-05 9.87152e-05 -0.00017611631
000330 f5 ed 0f b9 d3 ec 4c 30 d2 62 d0 b9 21 ae 46 39
       -0.00013726189 7.4551315e-10 -0.00039746478 0.0001894762
000340 3a 0f f0 38 e8 0c 6a b8 1d c8 b5 b8 15 71 6a 39
       0.00011446928 -5.5801967e-05 -8.6680266e-05 0.00022358105
000350 d6 22 b0 b0 e4 a6 01 b9 ca 45 0b 39 8a 77 87 36
       -1.2815586e-09 -0.0001236457 0.00013282071 4.0372297e-06
000360 13 d2 bc b7 be 1d ae b8 26 64 8f b8 4c 5d 29 2f
       -2.250917e-05 -8.3025065e-05 -6.8374255e-05 1.5403606e-10
000370 f3 0a 10 b9 6a 9d 4e b8 2e b3 02 38 d9 93 8a b7
       -0.00013736989 -4.926083e-05 3.116129e-05 -1.6519729e-05
000380 89 1d 1f b8 98 e0 1c b9 08 85 af 2d 70 dd 39 39
       -3.793606e-05 -0.00014960987 1.9954274e-11 0.00017725467
000390 eb b7 46 b9 d6 bc 1a b9 36 42 1d b9 96 db 97 37
       -0.00018951266 -0.00014756931 -0.00014997352 1.8102855e-05
0003a0 fe f6 fa 38 93 06 a0 af 88 c7 e6 37 90 f4 1b 38
       0.00011966935 -2.9108502e-10 2.751105e-05 3.7182646e-05
0003b0 44 d9 0d b6 ec 28 0d 38 c9 0a a9 b8 f6 43 f4 b7
       -2.1137103e-06 3.365513e-05 -8.060557e-05 -2.9118713e-05
0003c0 c6 ba 62 af b2 c6 16 b9 23 fe 7a 38 0c 55 fc 37
       -2.0620936e-10 -0.00014379135 5.9841328e-05 3.0080344e-05
0003d0 d8 ce fa b6 0f 99 31 38 22 24 31 39 4a 50 fb ad
       -7.4746604e-06 4.2342635e-05 0.00016893496 -2.8571052e-11
0003e0 98 0c c3 38 ad 40 dd b7 df 6d b8 b7 7c c8 9d 38
       9.30067e-05 -2.637537e-05 -2.1985672e-05 7.5236865e-05
0003f0 76 d8 c5 b5 5b 56 89 b8 ad e0 b2 af a2 ea 50 39
       -1.4740642e-06 -6.548754e-05 -3.2537653e-10 0.00019923833

exp_avg_sq f4 [128, 7]
000000 e9 af 68 33 9c 3c 70 33 02 4c 85 2b d0 45 04 34
       5.41767e-08 5.593448e-08 9.471315e-13 1.2318856e-07
000010 bb 70 13 34 b8 a3 32 33 68 86 b5 33 7c bf 84 31
       1.3731453e-07 4.1592756e-08 8.452918e-08 3.863475e-09
000020 6c 20 6c 31 4c ba ea 29 77 b8 7c 32 3f eb 1c 32
       3.436095e-09 1.0424005e-13 1.4710273e-08 9.133884e-09
000030 cb 05 41 31 0b 54 50 31 34 0b 19 33 86 26 05 33
       2.808849e-09 3.0315757e-09 3.5633278e-08 3.1001512e-08
000040 70 72 42 2b 0a f1 af 33 8d 78 b3 33 8c 55 13 33
       6.908146e-13 8.192917e-08 8.357265e-08 3.430391e-08
000050 f2 9e 48 33 aa 42 02 33 47 37 b7 32 e3 07 97 2b
       4.671069e-08 3.0328614e-08 2.1329141e-08 1.0731384e-12
000060 1a d4 64 33 df 96 f1 33 1c 0e 9e 32 2b 9b f4 32
       5.3278292e-08 1.124988e-07 1.8400037e-08 2.84759e-08
000070 78 04 90 32 64 bd 5f 32 25 16 12 2a aa b7 15 33
       1.6765838e-08 1.3023371e-08 1.2975088e-13 3.4858807e-08
000080 34 01 50 33 b5 19 8d 32 08 22 8b 32 64 71 c0 32
       4.8429868e-08 1.642625e-08 1.6197205e-08 2.2403306e-08
000090 69 8a b5 32 dc 09 51 2a 71 32 77 33 ce ed 68 33
       2.1134115e-08 1.856635e-13 5.7555045e-08 5.423299e-08
0000a0 1b 96 9f 32 80 97 0e 33 6f 69 be 32 91 e5 af 32
       1.8578296e-08 3.319974e-08 2.2166857e-08 2.0477076e-08
0000b0 38 07 d9 2a 99 db 67 33 41 b6 5e 33 b4 c8 8e 32
       3.8551952e-13 5.39836e-08 5.1854162e-08 1.6622245e-08
0000c0 e2 de e9 32 36 09 65 34 6d 59 69 34 92 45 58 2d
       2.7226125e-08 2.1330638e-07 2.1732349e-07 1.2293626e-11
0000d0 d2 8a fd 34 d3 18 02 35 79 1d 90 34 74 25 a1 34
       4.7225927e-07 4.84649e-07 2.6843534e-07 3.0015838e-07
0000e0 46 07 31 32 d2 45 dc 31 47 6f b7 2a 04 7e 85 32
       1.030441e-08 6.4107804e-09 3.2584544e-13 1.5540543e-08
0000f0 42 b4 e1 32 a8 93 8d 31 bc f6 5a 32 ba 32 33 33
       2.627542e-08 4.1204267e-09 1.2745371e-08 4.172282e-08
000100 6f 9d 42 33 89 36 0e 2b 43 d5 c8 33 e2 12 c3 33
       4.531233e-08 5.0524217e-13 9.352018e-08 9.08383e-08
000110 1b 22 42 33 54 dc 8c 33 29 5f d0 33 ec 2c cd 33
       4.5200164e-08 6.5593355e-08 9.703064e-08 9.5542276e-08
000120 bf 57 24 2d 75 41 71 34 02 6b 85 34 c5 c9 e7 33
       9.341804e-12 2.2468687e-07 2.485104e-07 1.07934774e-07
000130 5f 3c d3 33 5a 8a 6a 33 69 87 67 33 c1 86 69 2c
       9.8364346e-08 5.46082e-08 5.3907034e-08 3.3186095e-12
000140 83 ac e6 33 59 48 08 34 80 67 43 33 f5 40 b5 33
       1.0741589e-07 1.2692307e-07 4.5496108e-08 8.440285e-08
000150 e5 97 5f 34 50 86 53 34 a9 0a 39 2d f2 e8 fa 34
       2.0823752e-07 1.9699769e-07 1.05183995e-11 4.673562e-07
000160 d5 8a 10 35 31 bd 5b 34 dc db a3 34 e7 c8 35 33
       5.384621e-07 2.0464792e-07 3.0521085e-07 4.2325066e-08
000170 c7 70 29 33 17 cc 1f 2a 7a cf c4 33 fd a1 ef 33
       3.945095e-08 1.4192845e-13 9.164701e-08 1.115877e-07
000180 e1 f6 30 33 ad 15 63 33 5b a0 62 33 7d ec 38 33
       4.120273e-08 5.287227e-08 5.2765568e-08 4.3055923e-08
000190 56 0a 5a 2c 0c 70 eb 33 cd bb 30 34 43 6c 63 33
       3.09854e-12 1.09634215e-07 1.6459599e-07 5.295102e-08
0001a0 e4 32 93 33 57 ec 71 33 92 2a 40 33 6a 82 2e 2c
       6.854478e-08 5.6327135e-08 4.47422e-08 2.4799282e-12
0001b0 67 8b 00 34 91 0e 1d 34 3c 26 a5 32 f5 52 9e 33
       1.1971643e-07 1.4627064e-07 1.9225915e-08 7.372538e-08
0001c0 d0 bb a4 33 b0 eb 5e 33 5c 3a d8 2c c1 f4 23 34
       7.671008e-08 5.190276e-08 6.1455684e-12 1.5269599e-07
0001d0 aa 78 3f 34 e6 7a 92 33 76 0b 9d 33 29 1e e6 32
       1.7832159e-07 6.82101e-08 7.312967e-08 2.678924e-08
0001e0 a0 12 c7 32 a1 6b 1f 28 f4 36 71 33 1d a4 9d 33
       2.3175119e-08 8.849611e-15 5.6162165e-08 7.340734e-08
0001f0 15 e2 d3 32 d6 f5 01 33 d4 58 71 33 36 43 87 33
       2.4666443e-08 3.025874e-08 5.6192974e-08 6.298653e-08
000200 5f 74 84 2b ce 07 33 34 97 04 f4 33 47 79 9e 33
       9.411464e-13 1.6673513e-07 1.136297e-07 7.3795086e-08
000210 90 9d 98 33 25 09 d2 32 ad a7 eb 32 f6 29 24 2b
       7.106712e-08 2.4451376e-08 2.743385e-08 5.8322737e-13
000220 76 3e 69 33 23 9c 84 33 44 e4 d1 32 84 58 11 33
       5.4306348e-08 6.17513e-08 2.4434605e-08 3.3840948e-08
000230 57 a4 15 34 6b 85 dd 33 3b 07 65 2d 11 6d 8f 34
       1.3936493e-07 1.0315383e-07 1.3018748e-11 2.6715182e-07
000240 92 53 b1 34 04 89 1c 34 d3 7e 02 34 bd 94 be 33
       3.3029625e-07 1.4578478e-07 1.2153332e-07 8.87462e-08
000250 dd 71 90 33 b3 48 0d 2d 27 78 36 34 ba e7 5f 34
       6.726234e-08 8.0310645e-12 1.6993782e-07 2.0852795e-07
000260 1e 4e 8b 33 b0 11 e2 33 09 68 ce 32 7e c2 b9 32
       6.486901e-08 1.05271624e-07 2.4028866e-08 2.162528e-08
000270 02 f7 09 2c 08 47 39 33 fd 3b 72 33 89 ab f1 32
       1.9605988e-12 4.313827e-08 5.6399575e-08 2.8134098e-08
000280 51 92 ff 32 ce ca 47 33 0f 31 25 33 0c bb e7 2c
       2.9752444e-08 4.6517748e-08 3.8461675e-08 6.5861813e-12
000290 a0 90 ff 33 a8 37 dd 33 72 1a 93 32 23 23 46 33
       1.190067e-07 1.0301238e-07 1.7125078e-08 4.6132424e-08
0002a0 a1 9a 66 32 8d 17 32 32 7b 8d 90 2a 47 1e c1 32
       1.34229206e-08 1.03663185e-08 2.567771e-13 2.2481926e-08
0002b0 37 9d 44 33 b5 81 58 32 f1 d6 76 32 35 7b bb 32
       4.5777792e-08 1.2602347e-08 1.4367957e-08 2.1825693e-08
0002c0 fa 53 a3 32 cf 30 24 2b 66 0f 7c 33 09 48 9b 33
       1.9013886e-08 5.833224e-13 5.8687327e-08 7.230853e-08
0002d0 7f 37 97 32 ab ee d8 32 36 76 2a 32 0f 4b 1e 32
       1.760395e-08 2.5254243e-08 9.92218e-09 9.213877e-09
0002e0 cd 0a 27 2b 96 85 db 32 83 ce fc 32 6a 07 fb 31
       5.934531e-13 2.5555703e-08 2.9430572e-08 7.3059043e-09
0002f0 50 34 58 32 3e da 74 32 de 5c 47 32 b9 1d a3 2b
       1.2584749e-08 1.4252292e-08 1.160444e-08 1.1590096e-12
000300 01 fe e0 32 0c 3b 3c 33 2b f7 50 32 8b ac a6 32
       2.619254e-08 4.3825864e-08 1.2163393e-08 1.9403407e-08
000310 09 fd cb 33 ff 87 b6 33 5d e2 2a 2c 7b ac 42 34
       9.498951e-08 8.499773e-08 2.428411e-12 1.8130406e-07
000320 35 fa 67 34 44 91 e3 33 7d 21 01 34 55 07 83 34
       2.1604576e-07 1.0596935e-07 1.2026244e-07 2.4405986e-07
000330 bc 8e 4f 34 8f f3 37 2c ff ee 04 35 15 7a 0b 35
       1.9330304e-07 2.6141066e-12 4.9521617e-07 5.195919e-07
000340 9f a6 4e 34 99 47 ab 34 94 b8 af 33 f0 0a 89 33
       1.9245861e-07 3.1903326e-07 8.182647e-08 6.381549e-08
000350 64 a9 3f 2c ec 56 1a 34 60 41 37 34 c2 f6 8e 33
       2.7236763e-12 1.437399e-07 1.7066986e-07 6.657275e-08
000360 78 4f e5 33 68 95 95 32 9c 87 57 32 7c 5b 05 2c
       1.0678099e-07 1.7413825e-08 1.2545481e-08 1.895122e-12
000370 8b 40 26 33 33 b6 1e 33 82 7b 27 32 ea 01 c4 31
       3.870859e-08 3.695295e-08 9.748762e-09 5.7045684e-09
000380 52 7a cf 33 c4 9e 09 34 ec c0 35 2c 90 37 89 34
       9.6614386e-08 1.2816878e-07 2.582874e-12 2.5558666e-07
000390 9d c3 78 34 dd 13 de 33 e9 c5 28 34 e7 57 6f 32
       2.3167964e-07 1.0341294e-07 1.5718219e-07 1.3931618e-08
0003a0 a1 64 5d 32 7b 7a f7 29 e0 a1 0f 33 a7 e9 17 33
       1.2886773e-08 1.09902505e-13 3.3442006e-08 3.5369933e-08
0003b0 0c 92 4a 32 7c 7d 87 32 12 a1 bd 32 35 b4 3d 32
       1.1791155e-08 1.5773132e-08 2.2075742e-08 1.1042222e-08
0003c0 5d d9 12 2b 9f 49 3f 33 d5 1f 1c 33 0f df 86 32
       5.217127e-13 4.453761e-08 3.635053e-08 1.5701088e-08
0003d0 ec 6e 97 32 1c ea 14 33 1c ae 13 33 c4 42 fb 2b
       1.7629155e-08 3.4671856e-08 3.4384456e-08 1.7853154e-12
0003e0 50 d4 c8 33 fb 3e a9 33 ee 14 55 33 a4 4d d0 32
       9.351845e-08 7.881132e-08 4.9611963e-08 2.4249694e-08
0003f0 1e 07 31 33 4b 13 4f 33 d8 83 42 2c cd 90 04 34
       4.1217497e-08 4.821349e-08 2.7642246e-12 1.2346136e-07

exp_avg f4 [128]
000000 f7 67 63 b8 4c 3d 6d b6 ae e6 8f b8 8a 06 bf 36
       -5.4217842e-05 -3.5351432e-06 -6.861739e-05 5.693005e-06
000010 60 48 c3 37 64 95 6e b8 a4 d9 c3 b8 d4 fe 32 b9
       2.3279514e-05 -5.6882753e-05 -9.338863e-05 -0.00017070334
000020 27 df 75 b8 7d a7 8d 37 ef 84 36 b9 d4 03 1b 37
       -5.862038e-05 1.6886503e-05 -0.00017406394 9.239611e-06
000030 38 63 19 b9 54 da 1f 38 9d ef 87 b8 2c 6c a0 b8
       -0.00014628179 3.8111888e-05 -6.481933e-05 -7.649543e-05
000040 c7 6f dd b8 59 ae 36 b8 64 89 68 b8 3e 70 9e b8
       -0.00010558921 -4.3554555e-05 -5.5441065e-05 -7.554934e-05
000050 d9 35 b3 b8 4c 5a 7e b8 ae a0 62 b8 a9 3c 8f 37
       -8.545415e-05 -6.0642415e-05 -5.4032243e-05 1.7075175e-05
000060 e8 50 c0 37 fc e6 ce b6 79 ef 0a b8 35 32 5e b8
       2.2925859e-05 -6.1661685e-06 -3.312479e-05 -5.2975684e-05
000070 7c 60 43 37 f0 07 73 b7 06 26 6b b8 8e 64 05 38
       1.164537e-05 -1.4485777e-05 -5.6063778e-05 3.180332e-05
000080 aa cc 09 b9 7c 80 55 35 b0 2b 7e b8 21 35 de b8
       -0.00013141581 7.953565e-07 -6.0599006e-05 -0.00010595681
000090 5e 82 09 b9 64 84 86 b8 90 21 80 b8 02 72 a6 b8
       -0.00013113904 -6.4142776e-05 -6.109767e-05 -7.9367324e-05
0000a0 78 8b a7 b8 9f c9 95 b8 a8 3a 1d b8 a9 77 2f b8
       -7.9891586e-05 -7.1424285e-05 -3.7486345e-05 -4.1834694e-05
0000b0 52 ec a6 38 22 76 b0 b7 5e 37 25 b8 2a 51 08 b9
       7.959515e-05 -2.1035845e-05 -3.939063e-05 -0.00013000207
0000c0 d7 b1 48 b8 51 03 e5 b8 e9 22 3b b7 b6 9a c6 b8
       -4.7849342e-05 -0.00010920189 -1.1154197e-05 -9.470193e-05
0000d0 f5 bb cb b8 48 6d 8a 37 5d 70 80 b8 d8 8c 97 36
       -9.714804e-05 1.650177e-05 -6.124445e-05 4.516547e-06
0000e0 0f 13 e2 b8 c0 d2 89 b7 77 d5 a7 b8 56 d5 aa b8
       -0.0001078007 -1.642981e-05 -8.0029415e-05 -8.1459686e-05
0000f0 70 03 f0 b5 bc 15 a2 b8 6d ee 31 b7 70 e7 e0 b8
       -1.7882394e-06 -7.72881e-05 -1.0605535e-05 -0.00010724261
000100 a1 44 c8 b8 e0 67 6d b7 c9 be 8a b8 58 a9 a1 b8
       -9.549526e-05 -1.4150486e-05 -6.615889e-05 -7.708621e-05
000110 84 13 28 b8 99 76 dd b8 97 12 32 b8 04 e3 79 b8
       -4.0072497e-05 -0.00010560192 -4.245582e-05 -5.957765e-05
000120 98 03 8e b8 33 c6 07 b8 b4 38 5c b7 82 02 4c b8
       -6.771757e-05 -3.2371096e-05 -1.3126224e-05 -4.8639726e-05
000130 86 e6 c7 37 b8 c0 c7 b6 f5 0a ea b8 c8 b1 9d b8
       2.3829994e-05 -5.9530976e-06 -0.000111600304 -7.519458e-05
000140 48 07 0d 37 69 79 1e b9 5a 7c bb b8 c0 d1 47 b5
       8.40595e-06 -0.00015113283 -8.940017e-05 -7.4438503e-07
000150 4a 03 ae b8 68 e7 06 b7 31 38 bc b7 1a 4f fc b7
       -8.297579e-05 -8.040901e-06 -2.2437513e-05 -3.0077576e-05
000160 38 2c 9c 36 c5 51 8a b8 d9 32 e2 b8 90 f8 57 b8
       4.65431e-06 -6.5955835e-05 -0.00010785991 -5.1491486e-05
000170 86 4b 76 b7 9a 67 61 b9 e5 a2 45 b8 a6 4b e0 b7
       -1.4680327e-05 -0.00021496267 -4.7120167e-05 -2.6738107e-05
000180 fa 33 20 b9 2f d5 27 38 bc 98 49 b8 4d a9 ba b8
       -0.00015278152 4.0014445e-05 -4.806438e-05 -8.900706e-05
000190 c7 d7 a0 b8 a3 c0 7c b8 e5 1e bd b8 97 7b bb 36
       -7.669586e-05 -6.026089e-05 -9.017977e-05 5.587422e-06
0001a0 28 e4 57 b8 77 37 cb b7 cf d0 cb b8 1e 93 65 b7
       -5.147248e-05 -2.4225314e-05 -9.718688e-05 -1.3683717e-05
0001b0 e9 cf 9e b8 5d 4c 86 b8 a0 32 95 b8 f0 af 3d b8
       -7.5727534e-05 -6.403842e-05 -7.114303e-05 -4.5224966e-05
0001c0 73 4b 20 b8 5a 3d 74 b8 16 48 28 b9 84 25 12 b9
       -3.821724e-05 -5.823127e-05 -0.00016048583 -0.0001393762
0001d0 86 76 89 b7 6a df 73 37 1d 71 3a b8 c0 39 5b b9
       -1.6386864e-05 1.4535946e-05 -4.44512e-05 -0.00020906981
0001e0 a0 96 b9 b7 d1 ec 26 b8 9d 77 39 b8 c8 d5 58 b6
       -2.2123859e-05 -3.9798037e-05 -4.4218836e-05 -3.2310945e-06
0001f0 0e 6e 7c 37 25 8e e6 36 a7 56 06 37 65 74 25 b9
       1.5045995e-05 6.871082e-06 8.007198e-06 -0.00015778987
