results/agent_01/target_agent_01/target_agent_01-25218.pt (torch, 423135 bytes, 36 tensors)

network_body._body_endoder.seq_layers.0.weight f4 [128, 1]
00000000: a0aa edbe 9a6e 633f ed8e 553f ee1c 1fc0
00000010: d473 ab3f 3980 a53f add8 7b3f 46e9 b6be
00000020: c986 983f 9eeb da3e bc5b 4d3f daa1 62bf
00000030: 28cc 3f3e 015a 833e 7fe9 0e40 66c5 89bf
00000040: d9fe 8bbf 3cb7 813f 0431 a1be 6f87 9fbe
00000050: cc0d dcbe 7be4 89bf 7cf0 f13e 9d59 96bf
00000060: 7398 c33f 2f36 9ebf 7fa0 323f 103a 60bf
00000070: d55c 0e3f 0271 93bf 0850 913f 981f 8dbe
00000080: f06e 0a3f 592d c9bf 81f9 0dbf 413a 43bf
00000090: 9660 9f3f 1d63 133f d733 e3be ed7b d6be
000000a0: 175f 2e3f e34d bc3d d938 aabf 89b5 0cbf
000000b0: e690 18c0 2df7 99bd 49b7 4cbf 8f87 04bf
000000c0: bac4 80bf fb51 423f d5cf 9cbe e8b4 903f
000000d0: 147e 08bf 619c a53e 01bd 363d 862d d83f
000000e0: fb89 44bd 7d57 383f 1a62 983f 5eb9 7b3f
000000f0: 55c1 09c0 9d67 323e 9d52 843f 1a4e 1bbf
00000100: cfae ebbe 9906 3abe 147e 053f a545 01c0
00000110: e0fc 18bd 128c e5bf 8e52 ad3d 8660 36bf
00000120: f190 1d3f 44f9 fe3d f09f 803f 2a12 0440
00000130: 4f74 573f 294d 173f 34b8 02bd cf3e c93f
00000140: ce84 9dbd 79a4 c7bf 0452 cb3e 236b 2fc0
00000150: 8d58 173f 8c7d 1cbf ee98 6e3f 1fba 903f
00000160: 4b73 3b3e 479d 0840 41fe 073f 34c4 8d3e
00000170: 466b b9bd 643d 54bd d065 cbbf 8744 213f
00000180: 2f2f e3bf 6739 013f 0e8e d9be becd 9ebe
00000190: dea2 7abf 8c52 a93f cb03 623e 66f3 e8bf
000001a0: 05e0 04bf d26b c1bf 53d9 ec3f e5ef 0e3f
000001b0: 64e6 053f deb3 afbd b79f 10bf 1fd3 6abf
000001c0: 0fa7 84bf 8e94 0dbf 6768 00be de78 5b3f
000001d0: b205 a03f 15ca 0dbf ed14 20bf cc19 04bd
000001e0: 5751 dcbf 9910 84bf 8737 ed3d cef8 e43c
000001f0: bcd2 c4bf 8b9e 943f 7834 9c3f 3731 bbbf
-0.4641924 0.8884064 0.8342121 -2.4861407 1.3394723 1.2929755 0.98377496 -0.35724849
1.1916133 0.42757887 0.802181 -0.88528216 0.18730223 0.25654605 2.2330015 -1.0763366
-1.0937148 1.0134044 -0.31482708 -0.31158015 -0.42979276 -1.0772852 0.47253788 -1.1746098
1.5280899 -1.2360286 0.6977615 -0.87588596 0.556104 -1.1518862 1.1352549 -0.27563167
0.5407553 -1.5716964 -0.5545884 -0.76260763 1.2451351 0.5757311 -0.44375488 -0.41891423
0.68113846 0.09194543 -1.3298599 -0.549645 -2.383844 -0.07517848 -0.7996717 -0.51769346
-1.0060036 0.7590634 -0.30627313 1.1305208 -0.5331738 0.3234587 0.044613842 1.6888893
-0.04798315 0.72008497 1.1904938 0.9832972 -2.152425 0.17422338 1.0337712 -0.6066605
-0.46031806 -0.1816658 0.52145505 -2.0198758 -0.037350535 -1.7933371 0.08463012 -0.71241033
0.6154929 0.124498874 1.0048809 2.0636086 0.8416185 0.5910211 -0.03191395 1.5722293
-0.07691346 -1.5597068 0.3971101 -2.740914 0.5911949 -0.6112907 0.932021 1.13068
0.183057 2.1345994 0.53122336 0.27688754 -0.09053664 -0.05181636 -1.5890446 0.6299519
-1.7748774 0.50478214 -0.42491192 -0.31016344 -0.97904766 1.3228316 0.2207176 -1.8199279
-0.51904327 -1.5111029 1.8503822 0.558348 0.52304673 -0.08579229 -0.56493706 -0.91728395
-1.0363482 -0.553048 -0.12539826 0.85731304 1.2501738 -0.5538648 -0.6253193 -0.032251164
-1.7212323 -1.0317565 0.115828566 0.02795067 -1.5376811 1.1610883 1.2203512 -1.4624394

network_body._body_endoder.seq_layers.0.bias f4 [128]
00000000: 3cee 9f3b 91d1 d33b 6a8b bd3b 31be 933b
00000010: 1520 233b bea3 113c 0c1c f4bb 1e53 d33b
00000020: 1e85 183b b43d f83b 4894 04bc 4aeb 9abb
00000030: 0f58 f5bb a4d7 e5ba c5cf 03bc 1659 0a3c
00000040: 569e 9c3b dbd4 013c 6dc0 b0ba 4329 793b
00000050: 806d f93b 5d8f cb3b 3965 01bc 7519 f73b
00000060: 6eec 023c c3f9 023c 62af d33b 2397 8a3b
00000070: 17aa fabb deda 53ba 2ce2 edbb fe44 a7bb
00000080: 6056 03bb 1e2a 19b9 b859 f83b d615 e7bb
00000090: a962 aa3b 1330 f1bb e19c 003c ed3e bbbb
000000a0: 2e83 c33b e489 013c c017 03bc 12d2 babb
000000b0: 38dc edbb 93b8 043c d230 d5bb 92a5 003c
000000c0: 6647 bf3b 33c2 d13a e6f2 f8bb 5999 013c
000000d0: 671f a1bb 4069 0bbc 1341 bdbb 9a00 e2bb
000000e0: 2aa8 bb3b 8e88 9d3b 79b6 58bb e9a8 fcbb
000000f0: ff23 d6bb 10fb 213b d2dd ed3b 6518 033c
00000100: 8aed a8bb 1c50 eeba f4be c3b8 e58c 223b
00000110: 3de2 40bb d516 073c 5798 eaba c094 1cba
00000120: 068f 043c cd31 413b fb9c 493b fd46 d7bb
00000130: 2159 cfbb 0926 0dbc fd4b e5bb a317 c73a
00000140: 635a 94bb bc50 bc3b ba86 613b 1808 1238
00000150: b018 a4bb c794 0abc 96ca 86bb 0841 493b
00000160: 1ad3 313b 9e81 f1bb 6ed3 f8bb e86a 063c
00000170: 805e 7d3b f120 3f3b 9491 023c d36d fabb
00000180: 3e15 fd3b f273 ba3b 2117 d03b b2d7 d9bb
00000190: 2556 a2bb dfa8 8bb9 19e5 f43b 5ac4 bb3b
000001a0: 2ddc 8cbb 2f1f 01bc 3293 cc3b 1dac f3bb
000001b0: 1937 0c3c ee5d 833a e4d6 72bb 73dd 03bc
000001c0: c627 b93b d056 3f3b 4b2d f6bb 68ce 0f3c
000001d0: b594 253b 3e8b e53b edd6 083c dbb1 86bb
000001e0: 0162 dabb 9513 0bbc 3ce8 f4bb f653 093c
000001f0: 7669 7fbb 961c 7c3a 5391 3c3a d520 0fbc
0.0048806947 0.0064641912 0.0057844417 0.0045087566 0.0024890949 0.008889137 -0.0074496325 0.0064491173
0.0023272703 0.007575715 -0.008091994 -0.0047277557 -0.007487304 -0.0017535579 -0.008045142 0.008444091
0.0047796173 0.007924284 -0.0013485082 0.0038018979 0.0076119304 0.0062121586 -0.0078976685 0.0075408765
0.00799094 0.007994118 0.0064601162 0.0042294427 -0.007649671 -0.0008081625 -0.007259628 -0.00510466
-0.0020040497 -0.00014606907 0.0075790547 -0.0070521636 0.0051997495 -0.007360467 0.007849903 -0.0057142884
0.0059665656 0.007906411 -0.008001268 -0.005701312 -0.007258918 0.008100647 -0.006506064 0.007851975
0.005837369 0.001600331 -0.007597315 0.007910096 -0.0049170735 -0.00850898 -0.0057755797 -0.0068970444
0.005726834 0.0048075384 -0.0033067747 -0.0077105653 -0.006535053 0.0024716295 0.007259109 0.008001422
-0.00515527 -0.0018181833 -9.3338924e-05 0.0024803218 -0.0029431724 0.00824519 -0.0017898184 -0.0005973093
0.00809074 0.0029479146 0.0030763734 -0.0065697418 -0.0063277637 -0.008615025 -0.006997584 0.0015189539
-0.0045273765 0.005746929 0.0034412579 3.481665e-05 -0.005007826 -0.008458323 -0.0041135056 0.0030708928
0.0027133883 -0.007370188 -0.0075935638 0.008204199 0.0038661063 0.0029163922 0.007969279 -0.0076424866
0.0077234795 0.0056900913 0.0063504134 -0.0066480273 -0.004954117 -0.00026637965 0.0074735996 0.005730194
-0.004298708 -0.00788097 0.006243133 -0.007436289 0.008558058 0.00100225 -0.0037054354 -0.008048403
0.0056504933 0.0029196031 -0.0075127236 0.008777238 0.0025265638 0.0070051244 0.008352024 -0.0041105575
-0.006664515 -0.008488555 -0.0074739736 0.008381834 -0.0038972772 0.0009617297 0.0007193286 -0.008735855

network_body._body_endoder.seq_layers.2.weight f4 [128, 128]
00000000: 76ea fdbd 94ba 88bd f7aa e53d 3fce 2abc
00000010: 564b 88bc 77f1 fb3b b63d 1bbd 53a9 043e
00000020: 800a 293e e48a 903d 094d 24be 1e68 9a3c
00000030: c8de f0bc e78e 223e 75ee fc3c a1ed 47bd
00000040: 8c93 97bd 4260 e73c a033 f8bc 616a 803c
00000050: 96a1 a73d 1285 523e c4b2 7d3d 5181 91bc
00000060: 32e5 8ebd be5b 1cbe 68dd 6d3c c4cb 7e3d
00000070: 4888 dbbd 4a58 dc3c bdac a93c 2a51 6b3d
00000080: 62e0 8c3d 9de7 313d 281c 783d 2363 acbd
00000090: aa1a a6bc 167d 42bb bfe0 cf3d 9af5 8abc
000000a0: 9dc7 4ebd 7eb5 0a3e ca19 08bd 9222 993d
000000b0: dba6 e0bc 103a a83d b8b3 0d3e 2f98 533e
000000c0: 5409 20be 2aec 893c 1c9e cf3c db44 dfbd
000000d0: f169 3b3d 6c72 19be 77b5 b3bd 03f4 a53b
000000e0: 4907 d5bc ac8d dd3c d8b1 233c 2305 d8bd
000000f0: fcc2 29bc dc0a c9bd 72a6 b5bc 89f1 aa3d
00000100: aaa2 0d3e 7924 12be b126 34bd 9068 ba3c
00000110: 054d e6bd 281d 7e3d b31c b63c 1bfb f1bd
00000120: e5a3 8b3d 99cc b0bd 32cf 9ebb 7c02 57bd
00000130: bc02 4c3d 7b4c 143e 79cf 103e 8654 923d
00000140: 001f e1b5 4fd4 b5bd 5860 a83d 7e2b b2bc
00000150: 6f35 b33d a10c 3bbe 1827 3fbd c41d 2d3d
00000160: 6613 37be a013 7fbd 0eb3 033c 8fe1 cc3b
00000170: 0e5e 043e 0855 0e3d da1d 933d 3367 7ebd
00000180: 05a5 463c 3628 bb3d e96f dc3c ceac 3abe
00000190: 2760 643d 940d c1bd 7e61 4b3c 72f8 713c
000001a0: 76cf 36be 6717 04be 6817 b73d d02d 9d3c
000001b0: 8bf8 a5bd 2474 ef3c bc96 403d 3bc2 403d
000001c0: 1916 b4bc 91db c2bd f965 33bd bc03 35bd
000001d0: ea5b 0cbc 479a 8f3c a57d f83c 4d1b 13bd
000001e0: 4f4f eb3d 1c63 bbbd 99bb dbbc f4ce f0bc
000001f0: 1da8 ec3c d208 46be 89a9 54bb b59a adbd
00000200: b143 993d c496 f7bd d103 2e3d e9b1 893d
00000210: 3257 423e 6e82 b13d 83c0 f43c 33ed 8c3d
00000220: 881e 69bd 6825 3f3d a590 da3c 0691 4ebd
00000230: 3d35 54be 7ad0 283d c214 dbbb 6478 a8bd
00000240: adcb c43d 58cb 9b3d 76d5 f1bd a785 b5bc
00000250: 651d a83d cb6b ef3c 8b9c d8bd 3102 12be
00000260: 352a 3e3d 2a0e 6fbe c57a 8f3d 4018 573e
00000270: 38d7 5fbc 1e8e fa3d 0125 04bd c01d 63bd
00000280: c213 9c3c 1c3a c5bd fc24 7c3c 5c09 87bc
00000290: 45e6 81be 2e3a 9fbc 8043 aabc a0a8 c43c
000002a0: e593 c8bd 7798 e3bd acb0 f23d f06e cdbb
000002b0: da74 9c3b 0e6e 67bc 04e7 0dbe 1971 f03d
000002c0: 35ca 65be 713a c03c 29c2 243e bc4e 003e
000002d0: 367a 3b3e 4c6e 83bd 21c5 083e 8b2c 4dbc
000002e0: 2ec0 7d3c 0971 85be 37e4 87bc 4bfe b0bd
000002f0: 5713 e03b a3be 943d c686 173d e902 633c
00000300: dc7a c73d 9b15 87bd a650 a1bd 810b 94bd
00000310: ee79 913d 0727 99bd 60ca 703d 84d1 28be
00000320: 9673 87bd 2d13 92bb 8cc8 aa3d 154e 42bc
00000330: ce5d 2e3e 584e e83d 5ba8 0cbd 60ad 723e
00000340: a041 9cbd 4572 95bd ebf7 c5bc 4c35 cbbd
00000350: 1766 2ebe ae76 f8bc a71e f2bb 9a7d 6c3e
00000360: 3560 583d cf3a 5ebe feaa 1d3d 9fe6 31be
00000370: a42f 4bbc d6f7 7ebd a495 4e3e 1c0d 7e3d
00000380: 0c95 0c3d 9865 c63c 68b8 863d e94e 143c
00000390: 9b27 e6bb 9d93 4bbc 3bd6 32be 10c2 473d
000003a0: 2669 81bd d819 e4bc e52e c63d 4da5 f73c
000003b0: 88bd 78bd abf6 983d 873c 26be 5667 6f3d
000003c0: 0d00 70bc ecda 5bbe 1ce8 72bd c07a adbc
000003d0: c676 b23d 15fa 16bd cb6b 0abe 2b3f 00bd
000003e0: cfd5 cebc bbc4 9b3d a771 2cbd d70e 49be
000003f0: 8996 80bc dc02 c1bd bc08 b7bc 2ea6 ae3d
-0.123982355 -0.06676212 0.112142496 -0.010425149 -0.016637485 0.007688697 -0.03790065 0.12955217
0.16507912 0.07057741 -0.16045012 0.018848475 -0.029403105 0.15874825 0.030875424 -0.048810605
-0.07401189 0.028244141 -0.030298054 0.015675725 0.08185117 0.20558575 0.061938062 -0.017761858
-0.06977309 -0.15269372 0.014518119 0.062206045 -0.10719353 0.026897568 0.02071225 0.05745045
0.06878735 0.043433774 0.060573727 -0.08417346 -0.020276386 -0.0029676608 0.10150289 -0.016962815
-0.050483335 0.13545796 -0.03322772 0.07477297 -0.027423313 0.082141995 0.13838089 0.20663522
-0.15628558 0.016836245 0.025343947 -0.10901805 0.04575533 -0.14985055 -0.08774846 0.005064489
-0.02600445 0.027045093 0.009991132 -0.10547855 -0.010361429 -0.098165244 -0.022174094 0.083468504
0.13831583 -0.14271726 -0.04398221 0.022754937 -0.11245159 0.062039524 0.022230482 -0.11815473
0.0681837 -0.08632774 -0.004846477 -0.052492604 0.049807295 0.144823 0.14141645 0.07145028
-1.6772829e-06 -0.08878385 0.08221501 -0.021749254 0.08750426 -0.18266536 -0.046668142 0.042264715
-0.17878494 -0.062274575 0.008038295 0.0062524746 0.12926504 0.03474906 0.07183428 -0.062110137
0.012124305 0.09138529 0.026908832 -0.18229982 0.05575576 -0.09426418 0.012413381 0.014768707
-0.17852578 -0.12899552 0.08940011 0.019186884 -0.081040464 0.029230185 0.04701875 0.047060233
-0.021983193 -0.09514535 -0.04379842 -0.044193015 -0.008566836 0.01752962 0.03033335 -0.035914708
0.11489736 -0.09149763 -0.026822852 -0.029395558 0.028888756 -0.19339302 -0.0032449684 -0.08476774
0.07483614 -0.12089303 0.04248411 0.06723387 0.18978575 0.086674556 0.029876953 0.0688118
-0.056913882 0.046666533 0.0266803 -0.050431274 -0.20723434 0.041214444 -0.006685824 -0.08226088
0.096091606 0.07607144 -0.118082926 -0.022158457 0.082087316 0.029226204 -0.10576733 -0.14258648
0.04642697 -0.23345247 0.07005838 0.21005344 -0.013662152 0.12234138 -0.032261852 -0.055448294
0.01905239 -0.09630224 0.015389677 -0.016483955 -0.25370994 -0.019436922 -0.02078414 0.024006188
-0.09793834 -0.11113065 0.11850104 -0.0062693283 0.004774672 -0.01412536 -0.13857657 0.11740322
-0.22440417 0.023465367 0.16089691 0.12530035 0.18308339 -0.06417522 0.13356449 -0.012522827
0.015487714 -0.260628 -0.016588314 -0.086422525 0.006838243 0.072629236 0.036993764 0.013855674
0.097402304 -0.06595918 -0.078767106 -0.07228757 0.07103334 -0.07478147 0.05878675 -0.16486174
-0.06613843 -0.0044578523 0.083390325 -0.0118594365 0.17027971 0.11343068 -0.034340244 0.2369895
-0.076297045 -0.07297186 -0.024166068 -0.09922275 -0.17031132 -0.030330028 -0.007388908 0.23094788
0.052826125 -0.21702121 0.03849315 -0.17373131 -0.012401495 -0.062248074 0.20174271 0.06202422
0.03432183 0.024218366 0.065781415 0.009052017 -0.0070237643 -0.0124253305 -0.17464535 0.048769057
-0.063188836 -0.027844355 0.09676913 0.030230189 -0.060727626 0.07468923 -0.16234027 0.05844816
-0.01464845 -0.21470231 -0.059303388 -0.021176696 0.087140605 -0.03685959 -0.13517682 -0.03131024
-0.025248436 0.07605883 -0.042100575 -0.19634567 -0.01569678 -0.094243735 -0.022343032 0.0852779

network_body._body_endoder.seq_layers.2.bias f4 [128]
00000000: e0b3 003c aa56 a03a c177 02ba 1fe5 cabb
00000010: 973a 0b3c c106 ed3b db19 d43a 6984 5fbb
00000020: c4a5 f1bb e4d2 f9bb 7201 f33b 0c73 07bb
00000030: d1d2 ffbb 7b2f 79bb e82f dfbb 26ba 123b
00000040: a2a0 e1bb 9128 f33b 858d 72bb d088 c6bb
00000050: 8a82 b23b 6f1e 6e3a 4450 0dbc bed4 f53b
00000060: 0366 f3bb b2a3 93bb f945 d638 0b34 0e3c
00000070: 48df eebb da32 f1bb 3029 a73b f7b5 d03b
00000080: 4d2f 21ba f695 ccbb edb4 febb 5622 853b
00000090: f829 e73b c152 593b 536d c33b 25f7 f8bb
000000a0: 9c6c f03b 81a8 bebb 3a17 1f3b 4e8b a1bb
000000b0: 9eb9 cf3b 2150 cf3b 1c45 77bb d50c b13a
000000c0: d89a 0f3b d88e b93b a285 f4bb 6432 66bb
000000d0: 0127 453b a307 f23b 38b6 273b e75f fabb
000000e0: 61f5 fdbb 65b0 8c3b e0a9 fdba c7fc c93b
000000f0: dfc2 3f3b 9a91 a03b c072 b6bb 1c46 96bb
00000100: 935f c9bb 3c5e 813b b40b e0bb 1561 5fbb
00000110: 2df2 01bc 03bf b13b 10b6 ef3b fdd3 ec3b
00000120: e8fa edbb b961 b73b ff77 f73b 3ce1 9dbb
00000130: 3195 ee3b cc37 9cbb 2dda fabb 6562 01bb
00000140: c7d3 dfbb c5c6 eb3b aa1a bd3b 8880 f0ba
00000150: cb93 f1bb 65b8 7e3b ae48 173c d83f 01bc
00000160: dc4b 00bc 3b75 fcbb a9d7 f4bb 7cae fbbb
00000170: 8edc 9639 d44b a23b 5374 fcbb bd12 1bbb
00000180: 00a7 abbb 9752 03bc 2ee4 203b a085 e13b
00000190: 7cef e83b c080 023c 0c04 be3b 915f 16bb
000001a0: 0ee5 07bb cc89 d63b 8619 99bb 25d7 e4bb
000001b0: 8a07 51bb b604 f1bb a7dd 873b 2f81 563b
000001c0: eea6 8c3a c841 47bb 156e cfbb bbbe fbbb
000001d0: c155 f73b 3b79 6dbb 5218 ecbb d0e7 543b
000001e0: 9577 013b f361 6e3a 7a7e f1bb 2cd3 eabb
000001f0: 4466 88ba 6490 773b b932 ce3b 89c8 d0bb
0.007855386 0.0012232859 -0.0004976951 -0.006191864 0.008497856 0.007233471 0.0016182022 -0.0034106022
-0.007374497 -0.007624017 0.007415944 -0.0020667939 -0.0078071137 -0.0038022685 -0.006811131 0.0022388785
-0.006885604 0.0074206074 -0.0037010622 -0.00605879 0.0054476904 0.00090835145 -0.008625094 0.0075021675
-0.007427932 -0.004505598 0.000102173486 0.0086794 -0.007289801 -0.0073607983 0.0051013455 0.006369348
-0.0006148711 -0.0062434627 -0.007773033 0.004062931 0.0070545636 0.0033160897 0.00596396 -0.0075978213
0.007337166 -0.005818427 0.0024275319 -0.0049299365 0.006339266 0.006326691 -0.0037730401 0.0013507853
0.0021912362 0.0056627803 -0.0074622193 -0.003512525 0.0030083063 0.0073861643 0.0025590789 -0.007640827
-0.0077501987 0.004293489 -0.0019352995 0.0061641666 0.002926044 0.0049001696 -0.0055678785 -0.0045859944
-0.0061454265 0.003948001 -0.0068373326 -0.0034084965 -0.007931274 0.0054243817 0.0073154047 0.0072274194
-0.0072625764 0.0055963662 0.0075521464 -0.00481811 0.0072809686 -0.0047673937 -0.007655403 -0.0019742486
-0.0068306657 0.007195326 0.005771001 -0.0018348852 -0.0073723546 0.0038867232 0.009233637 -0.007888757
-0.007830586 -0.0077044046 -0.0074719978 -0.0076807123 0.00028774556 0.004952887 -0.0077042966 -0.0023662292
-0.005238414 -0.008015296 0.0024550068 0.0068823844 0.007108627 0.007965267 0.0057988223 -0.0022945146
-0.0020735892 0.0065471884 -0.004672232 -0.006983655 -0.0031895363 -0.007355298 0.004146296 0.0032730808
0.0010730901 -0.00304042 -0.0063302615 -0.007682649 0.0075480645 -0.003623559 -0.0072050476 0.0032486804
0.0019755114 0.0009093575 -0.0073698135 -0.007166287 -0.0010406454 0.0037775273 0.0062926677 -0.006371562

action_model._continuous_distribution.log_sigma f4 [1, 2]
00000000: 4369 c63b 1fde ceba
0.0060550286 -0.001578275

action_model._continuous_distribution.mu.weight f4 [2, 128]
00000000: eeb9 a8bc 1b0f 093b 731d 1abc bd0c 513c
00000010: 6809 78bc dde3 18bc c114 723c 670b 113d
00000020: 9c33 9f3c 1ee4 a03c f721 b8bc 2bf8 f0bb
00000030: fa6a 4f3c 82f5 423d 2295 183c 1a8c 1c3b
00000040: 51ed bb3c 02fc 80bc 059f 19bb 6124 fb3b
00000050: fbe7 ecbc dd7b b03b 4633 793c 3fed 4ebc
00000060: 07bf 073c ad4c 2f3d e2dd 993c 311e 1ebc
00000070: 4bf4 c23c 509d b63c 729b ecbc f37d d1bb
00000080: ca77 9dbc 295c e23b 08d7 ad3c 82e2 73bb
00000090: d838 99bc 8e8d 353b 0ff5 f8bb 1cb8 8a3c
000000a0: fd3f 1bbd 7225 ce3c af7a 11bd 1511 443b
000000b0: 0eed f0bc ec14 0ebc 61b3 e93b 01a6 20bc
000000c0: ff63 083c 3874 e3bb 569b c63c e4ed 893c
000000d0: 03ed b73a 570e efbc 0ccb 4c3b dc55 9c3c
000000e0: 00c0 5d3c 929b d2b9 8c86 0fbc f52f 17bc
000000f0: 32fc 2a3b 3caa 1abd c578 873c 28b9 4a3b
00000100: 242a 253c 763c ffbc 56c8 203c 1000 653b
00000110: 063a 743c 51e3 36bd 486b 62bc 8e2c 91bc
00000120: fd5f 7f3c e21d 91bc 0e8d bcbc fbfb 3b3b
00000130: 9e87 b7bc 3614 2b3b 4770 a53c 42ca 82bc
00000140: 4ffe 853c 1c48 d3bc 4e03 d5bb 0c77 813c
00000150: 4e0a 1c3d a4d7 cc3a 3edd 11bc 22c7 3e3c
00000160: 9ad1 d63c 7434 153d ea76 c03c aa0b 9d3c
00000170: 4a44 953b 8d89 17bd 47c9 853c d0fd 8cba
00000180: 2e1a 953b fe68 383c fd5d 3bbc b8df 6dbc
00000190: c049 29bc 2c5d 5abc 780b 3abd 73be e8bb
000001a0: fe17 25bb 482c 07bc 2b40 6f3c 02b9 173d
000001b0: 004e 2aba 87bb a13c f6d2 b7bc a5d4 9cbc
000001c0: 91ac 233c 80ff 863c f798 093c 47f6 b73c
000001d0: cea4 99bc 0820 c43c 7a75 0f3c 44af ed3b
000001e0: 62bc 66bc 3be5 eebb cc0d 763c 8068 1b3c
000001f0: 84bb 5a3b 2c51 70bb a392 12bd 3280 ed3b
00000200: 3af8 e0bc 02c7 2cbc 6207 a33c 6e1e 683d
00000210: ea16 6bbc 3b7a 6ebb dafe 12bd f2c7 9bbc
00000220: afc6 943c bf47 433c 7c22 26bc e09e c93c
00000230: 42e1 803c 87a7 6fbc c571 a93c 60ef 44bc
00000240: 492d ed3b 3dcd 84bc 7ac4 f93c bc27 ea3c
00000250: e862 a0ba 1344 7ebc e517 3a3c 30a6 17bc
00000260: 75ac 483c 3cc3 05bc 32b3 e4bc 7267 d1bb
00000270: d52b 543c 85a0 1e3c fc6a 183b b9e5 45bc
00000280: 5125 083d da3c 913c e486 ed3c 6e98 1cbc
00000290: 6eef 2cbd 16ae cebc debd 05bd dee7 663c
000002a0: 12d0 92bc fc16 413a 6e62 b53c 5f2d d43c
000002b0: 43e5 b3bb 6098 e2bc 9601 87ba 6925 403c
000002c0: cef6 f4bc 17e6 53bd f8e4 983c be78 a7bb
000002d0: 9cc5 aebc 85f8 5bbd 03ae b7bc f9b3 ee3c
000002e0: 8df8 1b3c 0c93 e3bc 154e eb3c 0047 14bd
000002f0: 4156 c5bc f9b1 b23b 954c 50ba 5198 993c
00000300: 666b 2c3d d1d3 fd3b 3df0 b33c 9e0f 0b3c
00000310: aa7d a63c c03d ac3a 4765 9ebb 5c7b 15bd
00000320: 6823 c63b 4f4c 15ba 38f2 1cbd e166 df3c
00000330: f4d2 c2bc 2e9f e33c 8438 513c 3cf8 253d
00000340: 9cd9 2f3d 85f0 e5bc c149 d0bc 95a8 11bc
00000350: 3cc6 a83c 3fbd 03bd a1d2 d6bb ee19 873c
00000360: c493 053d 4356 443d b3cb 9c3c 6685 563c
00000370: aae3 14bc 7f66 9b3b a428 cb3c cefb 8c3c
00000380: 4b16 ae3c 39c1 463c 68eb 133b 85c1 16bd
00000390: df97 abbc 61be 95bc c368 b9ba da3b e73c
000003a0: c28d 823c f805 abbc 92a6 67bb 8846 4a3c
000003b0: 141e a63c 54a9 9d3c 8581 a33b 798c 8f3b
000003c0: a853 bdbc e7fa e9bb b078 c33c 27fa 053d
000003d0: 3961 01bd d653 e6bb e21f 5f3c 87f4 24bd
000003e0: 2206 7e3c 05e8 f63b 6d98 673c d885 893c
000003f0: 647b f33b 3819 1abc ea96 89bb 2a19 963c
-0.02059647 0.0020913545 -0.009406435 0.012759385 -0.015138961 -0.009331671 0.014775456 0.035411265
0.019433789 0.019640025 -0.022477133 -0.0073538027 0.012659783 0.047597416 0.0093129 0.0023887218
0.02294031 -0.015745167 -0.002344073 0.007664249 -0.02891921 0.0053858594 0.015209978 -0.012629806
0.008285291 0.042797733 0.01878256 -0.009650753 0.023798129 0.02229181 -0.028882716 -0.006393188
-0.019222159 0.006907959 0.021220699 -0.0037213867 -0.018703863 0.0027702781 -0.0075975726 0.016933493
-0.03790282 0.02516434 -0.03551739 0.0029917408 -0.029409911 -0.00867198 0.0071319793 -0.009805203
0.008324622 -0.0069413446 0.024243992 0.016837068 0.0014032427 -0.029181642 0.0031248955 0.01908391
0.013534546 -0.0004017023 -0.008760106 -0.009227742 0.0026090262 -0.037760004 0.01653708 0.0030933116
0.010080848 -0.03115676 0.009813389 0.0034942664 0.014906412 -0.04465038 -0.013819523 -0.01772144
0.01558685 -0.017714445 -0.023016479 0.0028684128 -0.022403535 0.0026104576 0.02019514 -0.015965585
0.016356615 -0.02579122 -0.006500638 0.015803836 0.038095765 0.0015628231 -0.008902846 0.011644157
0.026222993 0.036426976 0.023494203 0.0191706 0.00455526 -0.036996413 0.016331328 -0.0010756794
0.00455024 0.011255501 -0.011435983 -0.014518671 -0.010332525 -0.013327878 -0.045421094 -0.0071027814
-0.0025191302 -0.008250304 0.014602701 0.03704167 -0.0006496608 0.01974274 -0.022439461 -0.019144366
0.0099898735 0.016479254 0.008398286 0.022456301 -0.018755343 0.023941055 0.008756036 0.0072535593
-0.014083 -0.00729051 0.015017938 0.009485364 0.0033375928 -0.0036669476 -0.035784375 0.007247948
-0.027462114 -0.010545494 0.019900981 0.056669645 -0.014348725 -0.0036388773 -0.035887577 -0.01901624
0.018161146 0.011918961 -0.010140058 0.02461189 0.015732411 -0.014627344 0.020684132 -0.012019962
0.0072380644 -0.016211146 0.030489195 0.0285834 -0.0012236508 -0.01551916 0.011358236 -0.009255931
0.012248148 -0.008164223 -0.027917478 -0.0063905055 0.0129499035 0.0096818255 0.0023257127 -0.012078696
0.033238713 0.017729212 0.028994985 -0.009557826 -0.042220525 -0.025229495 -0.032651775 0.014093367
-0.017921481 0.00073657907 0.022141661 0.02590054 -0.0054899766 -0.027660549 -0.0010300155 0.011727669
-0.029902842 -0.051733103 0.018663868 -0.005110829 -0.021334462 -0.053703804 -0.022421842 0.029138552
0.009519708 -0.027780078 0.028723756 -0.036200523 -0.02408898 0.005453345 -0.0007945982 0.018749388
0.04209461 0.0077461977 0.02196514 0.00848761 0.020323593 0.0013140962 -0.0048338505 -0.036494598
0.006046701 -0.000569527 -0.038316935 0.027270736 -0.02378223 0.027785864 0.012769822 0.040519938
0.042932138 -0.02806879 -0.025425794 -0.008890291 0.020602338 -0.0321629 -0.0065558706 0.016491856
0.032611623 0.047933828 0.0191401 0.013093328 -0.0090874825 0.004742443 0.024799652 0.017209914
0.021250864 0.012131029 0.0022570733 -0.03680565 -0.020946441 -0.018279256 -0.0014145601 0.028226782
0.015936736 -0.02087687 -0.0035347086 0.0123459175 0.020278014 0.019245781 0.004989805 0.0043807593
-0.02311118 -0.0071405056 0.02386126 0.032709267 -0.03158686 -0.007029037 0.013618441 -0.040272262
0.015504392 0.007534983 0.014135462 0.016787454 0.007430481 -0.009405427 -0.0041988986 0.018322546

action_model._continuous_distribution.mu.bias f4 [2]
00000000: 8442 bcbb cb7b b0bb
-0.005745234 -0.005385851

exp_avg f4 [128, 1]
00000000: 0000 0000 0000 0000 0000 0000 0000 0000
00000010: 0000 0000 0000 0000 0000 0000 0000 0000
00000020: 0000 0000 0000 0000 0000 0000 0000 0000
00000030: 0000 0000 0000 0000 0000 0000 0000 0000
00000040: 0000 0000 0000 0000 0000 0000 0000 0000
00000050: 0000 0000 0000 0000 0000 0000 0000 0000
00000060: 0000 0000 0000 0000 0000 0000 0000 0000
00000070: 0000 0000 0000 0000 0000 0000 0000 0000
00000080: 0000 0000 0000 0000 0000 0000 0000 0000
00000090: 0000 0000 0000 0000 0000 0000 0000 0000
000000a0: 0000 0000 0000 0000 0000 0000 0000 0000
000000b0: 0000 0000 0000 0000 0000 0000 0000 0000
000000c0: 0000 0000 0000 0000 0000 0000 0000 0000
000000d0: 0000 0000 0000 0000 0000 0000 0000 0000
000000e0: 0000 0000 0000 0000 0000 0000 0000 0000
000000f0: 0000 0000 0000 0000 0000 0000 0000 0000
00000100: 0000 0000 0000 0000 0000 0000 0000 0000
00000110: 0000 0000 0000 0000 0000 0000 0000 0000
00000120: 0000 0000 0000 0000 0000 0000 0000 0000
00000130: 0000 0000 0000 0000 0000 0000 0000 0000
00000140: 0000 0000 0000 0000 0000 0000 0000 0000
00000150: 0000 0000 0000 0000 0000 0000 0000 0000
00000160: 0000 0000 0000 0000 0000 0000 0000 0000
00000170: 0000 0000 0000 0000 0000 0000 0000 0000
00000180: 0000 0000 0000 0000 0000 0000 0000 0000
00000190: 0000 0000 0000 0000 0000 0000 0000 0000
000001a0: 0000 0000 0000 0000 0000 0000 0000 0000
000001b0: 0000 0000 0000 0000 0000 0000 0000 0000
000001c0: 0000 0000 0000 0000 0000 0000 0000 0000
000001d0: 0000 0000 0000 0000 0000 0000 0000 0000
000001e0: 0000 0000 0000 0000 0000 0000 0000 0000
000001f0: 0000 0000 0000 0000 0000 0000 0000 0000
0.0 0.0 0.0 0.0 0.0 0.0 0.0 0.0
0.0 0.0 0.0 0.0 0.0 0.0 0.0 0.0
0.0 0.0 0.0 0.0 0.0 0.0 0.0 0.0
0.0 0.0 0.0 0.0 0.0 0.0 0.0 0.0
0.0 0.0 0.0 0.0 0.0 0.0 0.0 0.0
0.0 0.0 0.0 0.0 0.0 0.0 0.0 0.0
0.0 0.0 0.0 0.0 0.0 0.0 0.0 0.0
0.0 0.0 0.0 0.0 0.0 0.0 0.0 0.0
0.0 0.0 0.0 0.0 0.0 0.0 0.0 0.0
0.0 0.0 0.0 0.0 0.0 0.0 0.0 0.0
0.0 0.0 0.0 0.0 0.0 0.0 0.0 0.0
0.0 0.0 0.0 0.0 0.0 0.0 0.0 0.0
0.0 0.0 0.0 0.0 0.0 0.0 0.0 0.0
0.0 0.0 0.0 0.0 0.0 0.0 0.0 0.0
0.0 0.0 0.0 0.0 0.0 0.0 0.0 0.0
0.0 0.0 0.0 0.0 0.0 0.0 0.0 0.0

exp_avg_sq f4 [128, 1]
00000000: 0000 0000 0000 0000 0000 0000 0000 0000
00000010: 0000 0000 0000 0000 0000 0000 0000 0000
00000020: 0000 0000 0000 0000 0000 0000 0000 0000
00000030: 0000 0000 0000 0000 0000 0000 0000 0000
00000040: 0000 0000 0000 0000 0000 0000 0000 0000
00000050: 0000 0000 0000 0000 0000 0000 0000 0000
00000060: 0000 0000 0000 0000 0000 0000 0000 0000
00000070: 0000 0000 0000 0000 0000 0000 0000 0000
00000080: 0000 0000 0000 0000 0000 0000 0000 0000
00000090: 0000 0000 0000 0000 0000 0000 0000 0000
000000a0: 0000 0000 0000 0000 0000 0000 0000 0000
000000b0: 0000 0000 0000 0000 0000 0000 0000 0000
000000c0: 0000 0000 0000 0000 0000 0000 0000 0000
000000d0: 0000 0000 0000 0000 0000 0000 0000 0000
000000e0: 0000 0000 0000 0000 0000 0000 0000 0000
000000f0: 0000 0000 0000 0000 0000 0000 0000 0000
00000100: 0000 0000 0000 0000 0000 0000 0000 0000
00000110: 0000 0000 0000 0000 0000 0000 0000 0000
00000120: 0000 0000 0000 0000 0000 0000 0000 0000
00000130: 0000 0000 0000 0000 0000 0000 0000 0000
00000140: 0000 0000 0000 0000 0000 0000 0000 0000
00000150: 0000 0000 0000 0000 0000 0000 0000 0000
00000160: 0000 0000 0000 0000 0000 0000 0000 0000
00000170: 0000 0000 0000 0000 0000 0000 0000 0000
00000180: 0000 0000 0000 0000 0000 0000 0000 0000
00000190: 0000 0000 0000 0000 0000 0000 0000 0000
000001a0: 0000 0000 0000 0000 0000 0000 0000 0000
000001b0: 0000 0000 0000 0000 0000 0000 0000 0000
000001c0: 0000 0000 0000 0000 0000 0000 0000 0000
000001d0: 0000 0000 0000 0000 0000 0000 0000 0000
000001e0: 0000 0000 0000 0000 0000 0000 0000 0000
000001f0: 0000 0000 0000 0000 0000 0000 0000 0000
0.0 0.0 0.0 0.0 0.0 0.0 0.0 0.0
0.0 0.0 0.0 0.0 0.0 0.0 0.0 0.0
0.0 0.0 0.0 0.0 0.0 0.0 0.0 0.0
0.0 0.0 0.0 0.0 0.0 0.0 0.0 0.0
0.0 0.0 0.0 0.0 0.0 0.0 0.0 0.0
0.0 0.0 0.0 0.0 0.0 0.0 0.0 0.0
0.0 0.0 0.0 0.0 0.0 0.0 0.0 0.0
0.0 0.0 0.0 0.0 0.0 0.0 0.0 0.0
0.0 0.0 0.0 0.0 0.0 0.0 0.0 0.0
0.0 0.0 0.0 0.0 0.0 0.0 0.0 0.0
0.0 0.0 0.0 0.0 0.0 0.0 0.0 0.0
0.0 0.0 0.0 0.0 0.0 0.0 0.0 0.0
0.0 0.0 0.0 0.0 0.0 0.0 0.0 0.0
0.0 0.0 0.0 0.0 0.0 0.0 0.0 0.0
0.0 0.0 0.0 0.0 0.0 0.0 0.0 0.0
0.0 0.0 0.0 0.0 0.0 0.0 0.0 0.0

exp_avg f4 [128]
00000000: f0a1 96b8 36f8 c8b8 9c32 a6b8 90a8 bbb8
00000010: ccba e6b7 a65d 83b8 1829 7c39 2949 10b9
00000020: da4e 8fb7 d022 c8b8 e048 8038 d6b7 2b38
00000030: 9499 c438 ffcd 1438 b2f0 d238 1609 fdb8
00000040: 2565 1cb8 66ad a7b8 6459 a937 e4ab cdb8
00000050: f0ba a1b8 7f65 94b8 ae05 f638 55ca 22b9
00000060: 8f33 9eb9 e680 d3b8 c5de cdb8 f998 62b8
00000070: 44b1 1639 1774 4c37 d5ec cc38 64f7 5138
00000080: 6a4a bc37 ae04 a237 3d77 50b9 4aec 8038
00000090: 6327 7bb8 1178 0639 c152 6db8 1e36 a238
000000a0: 3f54 d9b8 4449 2eb9 94c7 b338 a348 8438
000000b0: da4e f038 a11c fcb8 6b3d 0939 2437 26b9
000000c0: d458 68b8 1853 f2b7 787b 7539 13f6 a0b8
000000d0: 15ee 4738 d083 c938 53c3 f938 647e 0939
000000e0: 440f 8ab8 457d e8b7 58b0 d338 13c6 b638
000000f0: d284 b338 2829 c7b7 f3d9 9eb8 09a1 9bb8
00000100: e458 4f38 bd97 6337 4723 9e37 077f 7bb7
00000110: ab3d b137 59f1 bcb8 74e0 5738 0055 fe35
00000120: 7a54 82b9 cf12 8cb8 c98e a1b8 733e c038
00000130: a35c 8438 5dc1 c138 99c8 1d39 af29 89b7
00000140: d000 6f38 5a4a 55b8 82be 5fb8 fb7e 87b7
00000150: 59b5 2d38 5544 0739 6730 4238 9e98 0eb8
00000160: 47d1 99b7 37db 0039 5baf bb38 f794 1cb9
00000170: abe1 2fb8 9445 96b7 bf67 e8b8 dd38 ee38
00000180: 7006 c0b8 0e78 49b8 1f3e 9db8 7adf 7e38
00000190: bfe6 8838 61dc bfb6 3d57 02b9 1c9b 6db8
000001a0: d059 4738 2768 ff38 b72e 96b8 daba 2539
000001b0: cf0d 94b8 5663 01b8 edd5 0d38 5d20 4339
000001c0: 7108 4bb8 91ed 31b8 851f 8239 588e 14b9
000001d0: 2641 eeb7 da79 e9b8 3005 19b9 427b 9138
000001e0: 9fc4 ed37 5fb3 1a39 2c82 3839 e49e 94b8
000001f0: 4df7 1b38 bc25 9fb7 8a45 0bb7 ddd2 8138
-7.1827206e-05 -9.582976e-05 -7.9249236e-05 -8.948252e-05 -2.750512e-05 -6.26401e-05 0.00024047901 -0.00013760164
-1.7083647e-05 -9.5432275e-05 6.11709e-05 4.0940788e-05 9.3746145e-05 3.54778e-05 0.00010058413 -0.000120656725
-3.7287497e-05 -7.9954785e-05 2.0187996e-05 -9.807179e-05 -7.711898e-05 -7.076095e-05 0.00011731252 -0.00015524898
-0.00030174523 -0.00010085273 -9.816656e-05 -5.4025066e-05 0.00014371151 1.2186377e-05 9.7715914e-05 5.0059884e-05
2.2445998e-05 1.9314084e-05 -0.00019880846 6.147528e-05 -5.9879745e-05 0.00012823964 -5.6582274e-05 7.734842e-05
-0.000103630584 -0.00016621227 8.5725595e-05 6.30778e-05 0.00011458779 -0.00012021629 0.00013088218 -0.00015851535
-5.5395838e-05 -2.8887342e-05 0.00023411016 -7.6752294e-05 4.766703e-05 9.608979e-05 0.00011909627 0.00013112422
-6.583196e-05 -2.7714888e-05 0.000100941106 8.7153305e-05 8.560125e-05 -2.3741813e-05 -7.574623e-05 -7.420971e-05
4.943543e-05 1.3565584e-05 1.8851495e-05 -1.4990342e-05 2.112876e-05 -9.009493e-05 5.1469033e-05 1.8949213e-06
-0.00024858472 -6.6792236e-05 -7.703674e-05 9.1669055e-05 6.3115054e-05 9.238974e-05 0.00015047415 -1.6351083e-05
5.6982797e-05 -5.0852403e-05 -5.3344767e-05 -1.6152384e-05 4.1415307e-05 0.00012900059 4.6298283e-05 -3.3997574e-05
-1.8336474e-05 0.00012288695 8.949517e-05 -0.00014932813 -4.193342e-05 -1.7913793e-05 -0.00011081946 0.00011359316
-9.1564725e-05 -4.8033944e-05 -7.497914e-05 6.0766448e-05 6.527965e-05 -5.717899e-06 -0.00012430265 -5.664966e-05
4.752894e-05 0.000121787474 -7.161259e-05 0.00015805234 -7.059762e-05 -3.084851e-05 3.3816254e-05 0.00018608705
-4.8406833e-05 -4.242134e-05 0.00024819016 -0.00014167407 -2.8402148e-05 -0.000111330024 -0.0001459315 6.937097e-05
2.834416e-05 0.00014753405 0.000175961 -7.0867856e-05 3.7185197e-05 -1.8971848e-05 -8.301236e-06 6.190476e-05

exp_avg_sq f4 [128]
00000000: 30c7 5830 4461 0230 0a19 4730 69cb 3831
00000010: fedb 632e bc0f 2a2f 2196 7f31 e79e 9f30
00000020: 7d9b e12e 8f9d 0d30 5a93 392f b682 152f
00000030: 27a5 0430 b627 0d30 70ab 0330 8e85 5d30
00000040: 3aef 072f b995 e62f e385 602f ed9f a830
00000050: dc94 9e2f 5dc7 9a2f b036 8e30 931d bd30
00000060: 8643 e031 1531 2730 84a3 5d30 c28a 8330
00000070: e4f8 9e30 1733 a12e d7fd 6f30 b6dc 1e2f
00000080: b3ed bb2e 71fd 842f 1fba 2231 b063 692f
00000090: d95e 802f c3f1 cd30 dbb5 152f 79b5 3530
000000a0: 4b9d c630 ca97 0e31 f76b de2f bd24 1f30
000000b0: b044 9e30 d75c 7e30 db9d 8430 7bec fa30
000000c0: 657d b52f d2a6 d72f c07e 5f31 a430 c12f
000000d0: 749d 4f2f f193 0730 411d 8c30 7306 9830
000000e0: b10e 1430 5cdf 2c2e 5698 bf30 2d9c 1430
000000f0: 2f23 6330 5d91 3230 39d3 f62f cb91 8d2f
00000100: c436 3f2f 555f cc2f 44fa 2f30 00ea 912f
00000110: a030 ef2d 6360 ef2f a222 1f30 5357 1830
00000120: 5d19 9531 f92b 0e30 02ff 5830 a4bd 8630
00000130: 5527 cd2f e5a0 ef2f f5ff b630 3094 a92d
00000140: 72bb 9330 84f4 902f 1499 a92f 7f28 0a30
00000150: 5000 aa2f 5d66 8530 edad 912f 7067 8130
00000160: 482c 3730 9c1f 9b30 8a54 2030 b790 b630
00000170: bc0c 552f aafe 8a2f 683c 2b30 d5c7 2d30
00000180: 35f3 e52f 8365 b02f b2c8 ee2f 9201 9a2f
00000190: 66ed a92f 6dbb aa2e c459 9830 8cf7 a72f
000001a0: ba0a e12f ff78 5530 8af5 cd2f e225 e330
000001b0: f933 812f bff9 1230 f20e f32f 574b 2031
000001c0: 015e e82f 90a1 ae2f 900a 8531 06bf 8a30
000001d0: b920 2c2f 1454 9630 b4c3 a730 0cc9 0b30
000001e0: be67 092e 9bee a130 0c2c fd30 666e 772f
000001f0: 3feb ee2f c7b9 b12f 2d49 032e c35d 2e2f
7.8863405e-10 4.743195e-10 7.243136e-10 2.689115e-09 5.1809217e-11 1.5467e-10 3.7192722e-09 1.1613935e-09
1.0259436e-10 5.1519405e-10 1.6878002e-10 1.3597909e-10 4.8256016e-10 5.1351934e-10 4.790115e-10 8.0589124e-10
1.2363169e-10 4.194314e-10 2.0420247e-10 1.2269062e-09 2.8845804e-10 2.8154093e-10 1.0347403e-09 1.3759965e-09
6.5269345e-09 6.0823996e-10 8.06317e-10 9.570942e-10 1.1566752e-09 7.330508e-11 8.730842e-10 1.4448429e-10
8.545999e-11 2.419074e-10 2.36799e-09 2.1226643e-10 2.3350458e-10 1.4984426e-09 1.3616079e-10 6.6105305e-10
1.4451101e-09 2.0750002e-09 4.0458278e-10 5.789607e-10 1.1515535e-09 9.2536595e-10 9.649129e-10 1.8257106e-09
3.3012806e-10 3.9226805e-10 3.252282e-09 3.5141057e-10 1.8882479e-10 4.932295e-10 1.0194655e-09 1.1061289e-09
5.3862964e-10 3.9306655e-11 1.3940376e-09 5.4064025e-10 8.263212e-10 6.4962596e-10 4.4897222e-10 2.5751343e-10
1.7390805e-10 3.717512e-10 6.402028e-10 2.6541613e-10 2.7192748e-11 4.3542334e-10 5.789308e-10 5.5421373e-10
4.339354e-09 5.172179e-10 7.894273e-10 9.803682e-10 3.731723e-10 4.358817e-10 1.331499e-09 1.9278884e-11
1.0748933e-09 2.6367186e-10 3.084969e-10 5.0261656e-10 3.0923042e-10 9.706117e-10 2.6498928e-10 9.415384e-10
6.663794e-10 1.1286718e-09 5.83278e-10 1.3283373e-09 1.9376761e-10 2.5283003e-10 6.229528e-10 6.322101e-10
4.1827666e-10 3.2086342e-10 4.343455e-10 2.8013553e-10 3.0909603e-10 7.7639985e-11 1.1084968e-09 3.0553016e-10
4.0934883e-10 7.7660894e-10 3.746375e-10 1.6527191e-09 2.3501892e-10 5.34694e-10 4.4212062e-10 2.332589e-09
4.2267348e-10 3.1765213e-10 3.8720103e-09 1.0095114e-09 1.5654934e-10 1.0937833e-09 1.2206471e-09 5.085361e-10
3.1242335e-11 1.1782108e-09 1.8420692e-09 2.250374e-10 4.34591e-10 3.2328115e-10 2.9850945e-11 1.5858519e-10

exp_avg f4 [128, 128]
00000000: da98 d3b4 166b e8b4 d692 f8b4 8f5f cfb4
00000010: 3f53 fbb3 be9a 2eb5 116b 1435 1b7b efb4
00000020: 8b4d 1db4 57b5 16b5 1e1b 2335 a55d bb34
00000030: e69d 1035 a781 b633 fa8f 1c35 eff9 2fb5
00000040: 7348 c0b4 bea5 27b5 e08c 8033 be2e 7cb4
00000050: 4e66 11b5 37c9 e0b4 329a 2735 211c 14b5
00000060: 8c22 28b5 06fc 27b5 ae8f 08b5 4094 c1b4
00000070: 524d 1835 7b05 6f33 76e6 1b35 f0f4 bc34
00000080: 02e3 1234 069d 6cb3 985d 18b5 f565 0f35
00000090: cbad b1b4 d1d4 1d35 ad2c 17b5 041d f334
000000a0: 74a0 02b5 cf73 28b5 fe2c 2535 8cef f834
000000b0: 2705 1b35 a1f0 2ab5 6ac7 ec34 0ac0 26b5
000000c0: a9f7 f9b4 c248 99b3 6899 1635 b68d 25b5
000000d0: a523 ae34 a23d 3035 00d7 d034 0278 0435
000000e0: 4fa2 f8b4 c610 98b4 e0e0 4a34 77c0 2235
000000f0: 8b0b 0e35 2ee7 74b4 70ae 1ab5 7f25 1cb5
00000100: b6cf b334 20c3 3c34 e33b 46b3 63dd 7bb4
00000110: 5991 2734 8965 2bb5 7685 8d33 9ba8 ac33
00000120: 95c9 2ab5 a121 1fb4 50e2 32b4 acc9 0e35
00000130: fe68 0635 60a8 3035 1ce1 0435 9c9f fdb2
00000140: 50e9 cf34 16b3 f4b4 2286 4fb4 dab9 5e33
00000150: 151a dc34 4ed2 2e35 06d4 8e34 1813 95b4
00000160: 84c8 8ab4 ecc2 1b35 d133 2035 6b0d 2cb5
00000170: 2755 80b4 5611 8eb4 0260 1eb5 369e 1235
00000180: b597 17b5 9b23 fab4 ff2e 05b5 f8a9 0b35
00000190: 82b9 a834 50ea ab32 790e 1eb5 9ea9 f1b4
000001a0: 5e1f bb34 eab4 1a35 f5b6 00b5 9dc5 1535
000001b0: cfc1 30b5 c6f3 acb2 72d8 a934 770d 2935
000001c0: 4646 fcb4 de66 3bb4 d696 1635 8202 35b5
000001d0: 707e 13b4 5e52 16b5 a006 2eb5 28d9 8634
000001e0: c0c1 ee34 d572 2d35 893c 1235 0f36 25b5
000001f0: 8973 af34 28c7 ffb2 9adf 26b3 cc27 2f35
00000200: c8b8 8cb0 7a30 1bb2 1048 19b1 c052 2bb0
00000210: 40ec a7ae f6b1 2bb2 8cfc 0132 48f2 14b2
00000220: b8e0 bdb1 de57 02b2 38db cb31 b059 7430
00000230: b256 1432 4e77 c131 be79 1432 543e ecb1
00000240: 4814 87b0 2046 beb1 9c16 ab31 2eb2 f6b1
00000250: 208d 1eb2 c221 13b2 ec79 c031 00ae 11b2
00000260: 5000 e8b1 a4fc bfb1 a0cf 59b1 c080 71af
00000270: 8490 f631 4635 5fb1 2cb4 9a31 7058 1931
00000280: f548 18b1 ffc8 9831 607e f8b1 d49a 8b31
00000290: d1a5 0bb2 bc92 a231 7ec4 0eb2 6c35 1431
000002a0: 7037 2db1 2824 cbb1 1877 c231 10b5 1231
000002b0: 5466 9b31 7017 cbb1 78d4 1832 2c00 c6b1
000002c0: f457 19b1 25be c2b1 7c12 0532 f422 bcb1
000002d0: a6ac fc31 642a e131 a522 0f32 0ef6 0f32
000002e0: b414 0eb1 b811 fab1 f662 ef31 f8e6 b331
000002f0: d058 6231 4ada 0131 6818 98b1 4c70 17b2
00000300: 5b1e 0632 a37e 33b1 a137 9831 9cf0 1331
00000310: 00ee 95ad e0bb d0b1 9feb ca31 6444 77b1
00000320: 3897 e4b1 f129 eab1 bc85 ebb1 006b 6931
00000330: 18c4 4631 b088 fd31 0e7d 1432 b070 5430
00000340: e0e5 1e30 84dd 0eb1 141e f3b1 1f1c 98b1
00000350: c03d a130 f83c fe31 668d f431 f463 ad30
00000360: c4ca e830 1c02 9e31 7475 aa31 9c2f d5b1
00000370: a6e1 f2b1 10cb cf30 62de 08b2 7ee7 1532
00000380: 30f9 09b2 bc6b 06b1 982a 49b1 b06e 6331
00000390: 930f 0732 8be2 9231 e4bc a6b1 d834 10b1
000003a0: 408f 802f 7e4b 0f32 480f 4bb1 74a6 ed31
000003b0: 68a2 e2b1 47c4 b2b1 206c e6af 9c10 d031
000003c0: 1c07 0fb1 749c d2b1 dcfa f231 829a 06b2
000003d0: e731 d4b1 9cd1 8ab1 d024 ecb1 7b87 0232
000003e0: 5834 ee31 80e9 0332 7c4d 0f32 3c70 17b2
000003f0: 80de e8ae d8dd a8b1 cc3f 5131 5003 0032
-3.9413027e-07 -4.3291283e-07 -4.6300437e-07 -3.8626283e-07 -1.1703241e-07 -6.504523e-07 5.52901e-07 -4.460679e-07
-1.4649974e-07 -5.614324e-07 6.076169e-07 3.48996e-07 5.387395e-07 8.498619e-08 5.832404e-07 -6.555628e-07
-3.58155e-07 -6.2453535e-07 5.9860895e-08 -2.3486334e-07 -5.416558e-07 -4.1869654e-07 6.243673e-07 -5.517523e-07
-6.263515e-07 -6.257909e-07 -5.087303e-07 -3.6056917e-07 5.673693e-07 5.565151e-08 5.8077364e-07 3.5195944e-07
1.3679895e-07 -5.5090844e-08 -5.676061e-07 5.342002e-07 -3.309527e-07 5.8796746e-07 -5.6316895e-07 4.528339e-07
-4.8662264e-07 -6.27534e-07 6.153276e-07 4.6367893e-07 5.77495e-07 -6.3680096e-07 4.4103518e-07 -6.211927e-07
-4.656006e-07 -7.137852e-08 5.610259e-07 -6.1673506e-07 3.243596e-07 6.5654797e-07 3.8899452e-07 4.9348466e-07
-4.6311695e-07 -2.832441e-07 1.8894525e-07 6.0629776e-07 5.291592e-07 -2.2808374e-07 -5.762331e-07 -5.816909e-07
3.3492478e-07 1.757985e-07 -4.6154934e-08 -2.3456737e-07 1.5605964e-07 -6.385022e-07 6.5901006e-08 8.040043e-08
-6.3623276e-07 -1.4820263e-07 -1.6659874e-07 5.3192593e-07 5.0071674e-07 6.5810127e-07 4.950141e-07 -2.9525658e-08
3.8726512e-07 -4.5578844e-07 -1.9327175e-07 5.1857434e-08 4.099717e-07 6.5126085e-07 2.6603828e-07 -2.7767305e-07
-2.5850397e-07 5.802565e-07 5.968005e-07 -6.409452e-07 -2.3903814e-07 -2.6462175e-07 -5.8999296e-07 5.4619466e-07
-5.6472646e-07 -4.6592035e-07 -4.961475e-07 5.202887e-07 3.1427413e-07 2.0013573e-08 -5.888065e-07 -4.501316e-07
3.4854287e-07 5.7632735e-07 -4.7949953e-07 5.579439e-07 -6.584714e-07 -2.013429e-08 3.1636188e-07 6.2977e-07
-4.6989788e-07 -1.7453155e-07 5.609885e-07 -6.7431404e-07 -1.373644e-07 -5.5999215e-07 -6.482969e-07 2.5117447e-07
4.4471926e-07 6.4614625e-07 5.447733e-07 -6.1545956e-07 3.2680353e-07 -2.9776473e-08 -3.885325e-08 6.525049e-07
-1.0238859e-09 -9.03321e-09 -2.2305393e-09 -6.232703e-10 -7.636247e-11 -9.993974e-09 7.566211e-09 -8.669822e-09
-5.5261715e-09 -7.586975e-09 5.933e-09 8.8894136e-10 8.634446e-09 5.6306027e-09 8.642415e-09 -6.87559e-09
-9.828307e-10 -5.5377e-09 4.9793254e-09 -7.179799e-09 -9.2288985e-09 -8.564202e-09 5.6017964e-09 -8.479674e-09
-6.752124e-09 -5.5875535e-09 -3.1695677e-09 -2.1964564e-10 7.175972e-09 -3.2481053e-09 4.502473e-09 2.2314701e-09
-2.2160382e-09 4.446633e-09 -7.232117e-09 4.0630344e-09 -8.128567e-09 4.7315023e-09 -8.310165e-09 2.1567201e-09
-2.5206326e-09 -5.912188e-09 5.6596825e-09 2.1348718e-09 4.522727e-09 -5.910742e-09 8.895874e-09 -5.762578e-09
-2.2314426e-09 -5.66776e-09 7.745822e-09 -5.475494e-09 7.353793e-09 6.553181e-09 8.331573e-09 8.379642e-09
-2.0675488e-09 -7.277972e-09 6.967066e-09 5.2358438e-09 3.2937812e-09 1.8896054e-09 -4.426557e-09 -8.81489e-09
7.806729e-09 -2.6119913e-09 4.4301065e-09 2.1528086e-09 -1.7045032e-11 -6.0749556e-09 5.9057608e-09 -3.5982106e-09
-6.652865e-09 -6.8150645e-09 -6.854604e-09 3.3966785e-09 2.8924259e-09 7.3788087e-09 8.643168e-09 7.728529e-10
5.7806737e-10 -2.0789637e-09 -7.0756503e-09 -4.4269792e-09 1.1731842e-09 7.3993043e-09 7.1174098e-09 1.2615815e-09
1.6937851e-09 4.598645e-09 4.961004e-09 -6.2045284e-09 -7.0687802e-09 1.5118946e-09 -7.966806e-09 8.725577e-09
-8.031108e-09 -1.9560806e-09 -2.9273561e-09 3.3095766e-09 7.861575e-09 4.274914e-09 -4.8527102e-09 -2.0984796e-09
2.338485e-10 8.3408604e-09 -2.9549074e-09 6.9165313e-09 -6.595929e-09 -5.202796e-09 -4.1913584e-10 6.055485e-09
-2.081328e-09 -6.129591e-09 7.0716464e-09 -7.834958e-09 -6.1756853e-09 -4.0401584e-09 -6.872689e-09 7.597801e-09
6.9326624e-09 7.678295e-09 8.341313e-09 -8.814876e-09 -1.05896625e-10 -4.9146642e-09 3.0449767e-09 7.451334e-09

exp_avg_sq f4 [128, 128]
00000000: 70e3 0828 a420 ed27 0ee1 3228 ad77 0a28
00000010: fc4a 1b26 4442 8e28 1aac 5028 3a80 ff27
00000020: de58 9026 8ea2 5628 1c76 8828 a65e d027
00000030: e4e3 3f28 5240 7826 3fcb 6328 e606 9e28
00000040: 3ee5 d927 8bb2 9428 d96b 4126 a5a7 1e27
00000050: bc52 3f28 9bfc dd27 9424 9528 d8e6 4a28
00000060: 7171 8f28 10e7 9428 bf64 5028 b4ab f627
00000070: 951f 5e28 58aa 4826 59bd 8428 5f3d be27
00000080: 8425 d026 54a3 c926 e51c 5e28 36ab 5c28
00000090: 6af7 8b27 1c3d 8728 a0f6 5228 5e09 2b28
000000a0: 20cc 4528 2ff0 9428 af21 8f28 5ed8 3528
000000b0: bcdb 8228 c16b 9928 7614 f827 7a3f 9228
000000c0: 854c 3428 13e3 7426 a225 5628 518e 9028
000000d0: f3e0 8527 d0a7 a028 5ac0 c227 10e0 1f28
000000e0: c92c 3528 a1f5 4227 f370 ee26 9b4b 8d28
000000f0: 4480 6428 2647 8127 a2d9 8128 d55f 6128
00000100: b35e 8f27 bd9a 3b27 8660 af26 0051 8d27
00000110: 8b7a 9f26 4ff1 9828 d25a 8f26 4b4e b426
00000120: 4158 9528 09e5 c126 e961 d026 7d32 6628
00000130: e382 4c28 38aa 9c28 7bb1 1f28 d673 2825
00000140: 93a1 0b28 0378 2d28 e102 f526 bedb bb26
00000150: 70ea 1328 f122 9928 9d87 3e27 c1b2 ab27
00000160: 83f6 9f27 e054 8328 67ab 8928 cbfc 9928
00000170: 98e7 1e27 70ef 9f27 cce8 6c28 59ca 4428
00000180: 05a1 5628 a016 3928 74d8 4628 5457 5928
00000190: 9ae2 7f27 0cee 2026 0711 8628 1e79 2728
000001a0: b24c e027 dac0 5f28 a2b2 3728 d057 5828
000001b0: fa9c a028 1c01 8826 0f97 c727 3d4e 9528
000001c0: acb4 3c28 a3f6 c026 5ec1 5928 4624 a328
000001d0: 95ef 9f26 7eb9 7828 261f 9a28 4889 3427
000001e0: bbbc ff27 44d0 9428 9535 4628 2f2c 7f28
000001f0: ef14 cd27 dcad 5526 47ed fd25 3794 9928
00000200: 732b 0726 f1c6 d025 9296 2b26 48ea 0726
00000210: 5e55 4b24 9af2 7326 5b52 3226 a9c0 dc25
00000220: 8e1a 9524 27bf 3826 9e90 7a26 4eb0 d625
00000230: 1bdc 2326 ae91 a824 cb71 4326 d2bf 8c26
00000240: 1deb dd25 c8c1 8626 b517 8924 f7a4 1c25
00000250: 0fbd 2326 0f2c c325 1353 8626 dee3 2c26
00000260: bcb1 7b26 6c91 8726 8f75 4526 561a f625
00000270: 4c76 4026 3938 9024 7b5e 7226 6f5c c225
00000280: aad7 0325 9b87 0925 46b3 3f26 7c97 5026
00000290: 2adc 8025 2f19 7626 b6c1 3726 937e 2426
000002a0: 0434 3b26 d442 8526 4110 8326 4326 2d26
000002b0: 82a6 6f26 1c9f 8a26 cae8 d725 6c89 8326
000002c0: 7ce1 2c26 5c8f ab24 616f 3726 4c19 8426
000002d0: 44a8 6e25 7ca2 9026 a05d aa25 59f8 0726
000002e0: 61d4 2d26 7e4f 3f25 445d 0225 1b6d 8026
000002f0: d26e 5426 43cb 8d25 e9c3 6e26 f439 4126
00000300: 2b76 8125 45f9 5925 6682 f424 d74a 9b25
00000310: 43e0 c924 d630 8b26 4228 cf24 694d ef24
00000320: fdc6 8326 28ed f024 7782 f224 66b6 5526
00000330: 22c9 4126 d56e 8a26 c15f 0826 27bc 7a23
00000340: befa 0826 057a 2726 6dfd 0625 97f8 0125
00000350: d1fa 0f26 24e9 8526 26ca 2f25 33db b425
00000360: 3d53 aa25 ad76 7126 5d9c 7b26 c7d6 8a26
00000370: d586 1a25 8ccc a925 aa06 4c26 8d1b 2926
00000380: 9858 3926 fde9 3026 1af1 3d26 f648 4d26
00000390: 39b9 6c25 9eab 6b24 6c5a 7626 ceac 2126
000003a0: 0e13 e225 585c 3f26 31cd 3026 1668 3a26
000003b0: 725b 9126 7cd3 c924 821f cc25 51e4 8526
000003c0: 43ca 3226 0c3d ca24 85c1 3b26 9767 8f26
000003d0: b4d5 be24 ea14 6626 aefc 8826 998d 3225
000003e0: e3e9 ea25 fc13 8226 9098 2826 9edd 5a26
000003f0: 9462 cf25 5350 9e24 0f78 3b24 12a1 8a26
7.598834e-15 6.5816103e-15 9.929786e-15 7.686489e-15 5.387805e-16 1.5793905e-14 1.1583638e-14 7.091574e-15
1.0016095e-15 1.1914635e-14 1.5150255e-14 5.7834215e-15 1.0652046e-14 8.6129455e-16 1.2645103e-14 1.7544516e-14
6.0478144e-15 1.6508731e-14 6.7106487e-16 2.2017785e-15 1.062057e-14 6.1613698e-15 1.6558186e-14 1.1263309e-14
1.5925387e-14 1.6531508e-14 1.1568165e-14 6.8464877e-15 1.2330324e-14 6.96198e-16 1.473706e-14 5.2802132e-15
1.4443068e-15 1.3991447e-15 1.2329741e-14 1.2249579e-14 3.8848497e-15 1.5014513e-14 1.171082e-14 9.494438e-15
1.0979959e-14 1.6535464e-14 1.5890797e-14 1.00944355e-14 1.4528194e-14 1.7033143e-14 6.885601e-15 1.6236785e-14
1.00086e-14 8.496225e-16 1.1887547e-14 1.6048931e-14 3.7158806e-15 1.7836345e-14 5.4054365e-15 8.874859e-15
1.005723e-14 2.7056064e-15 1.6545182e-15 1.5686933e-14 1.2684356e-14 3.588183e-15 1.441626e-14 1.2510789e-14
3.9793146e-15 2.6035347e-15 1.2169227e-15 3.922318e-15 1.1066057e-15 1.6980041e-14 9.947235e-16 1.251123e-15
1.6580597e-14 1.3454145e-15 1.4459438e-15 1.2778513e-14 1.1352656e-14 1.73933e-14 8.864758e-15 1.4610924e-16
7.751086e-15 9.6294526e-15 1.700107e-15 1.3035293e-15 8.210975e-15 1.7001566e-14 2.6441313e-15 4.765584e-15
4.4398634e-15 1.458073e-14 1.528439e-14 1.7096044e-14 2.2052452e-15 4.4390964e-15 1.31511115e-14 1.0924063e-14
1.1914302e-14 1.0274469e-14 1.1038144e-14 1.2064856e-14 3.55112e-15 5.5833765e-16 1.4884373e-14 9.296625e-15
6.2255643e-15 1.2420805e-14 1.01972755e-14 1.200945e-14 1.7831646e-14 9.437196e-16 5.5397374e-15 1.6576254e-14
1.0475273e-14 1.3389527e-15 1.208785e-14 1.8112366e-14 1.109778e-15 1.3806988e-14 1.7110943e-14 2.5054438e-15
7.098134e-15 1.6521622e-14 1.1002827e-14 1.4164924e-14 5.6921626e-15 7.4134843e-16 4.404929e-16 1.705069e-14
4.689642e-16 3.6217056e-16 5.9531604e-16 4.7155044e-16 4.4090917e-17 8.463635e-16 6.186777e-16 3.8294468e-16
6.4663435e-17 6.4096884e-16 8.6932167e-16 3.724255e-16 5.6850284e-16 7.310518e-17 6.7808434e-16 9.766444e-16
3.8496708e-16 9.350642e-16 5.945444e-17 1.3586735e-16 5.680821e-16 3.3856963e-16 9.320635e-16 5.9983305e-16
8.7323993e-16 9.406923e-16 6.8507427e-16 4.2692043e-16 6.6773704e-16 6.254529e-17 8.408866e-16 3.371627e-16
1.1435509e-16 1.1928801e-16 6.65094e-16 7.2369796e-16 2.235365e-16 8.5382525e-16 6.3753406e-16 5.707047e-16
6.494915e-16 9.246843e-16 9.094357e-16 6.0073287e-16 8.314544e-16 9.6188e-16 3.74543e-16 9.127199e-16
5.9980076e-16 7.440229e-17 6.3641826e-16 9.166197e-16 2.070022e-16 1.0036049e-15 2.9553742e-16 4.717411e-16
6.030926e-16 1.6593542e-16 1.1307302e-16 8.911357e-16 7.3702465e-16 2.4597337e-16 8.2838345e-16 6.7038867e-16
2.2458007e-16 1.8906206e-16 1.06039036e-16 2.6938927e-16 8.754977e-17 9.6583e-16 8.984014e-17 1.03780866e-16
9.143887e-16 1.0448517e-16 1.05171786e-16 7.4146416e-16 6.723291e-16 9.605715e-16 4.731425e-16 1.359237e-17
4.75243e-16 5.810513e-16 1.1708511e-16 1.1273192e-16 4.995301e-16 9.291922e-16 1.5247321e-16 3.1373558e-16
2.9546704e-16 8.3774507e-16 8.729503e-16 9.633889e-16 1.3403054e-16 2.9455433e-16 7.078575e-16 5.867099e-16
6.4304836e-16 6.137938e-16 6.58993e-16 7.1222543e-16 2.0532493e-16 5.1102868e-17 8.547094e-16 5.609229e-16
3.9217663e-16 6.6391586e-16 6.134035e-16 6.4672776e-16 1.0086182e-15 8.752812e-17 3.540971e-16 9.290614e-16
6.203027e-16 8.770695e-17 6.5140926e-16 9.950696e-16 8.276139e-17 7.9825624e-16 9.505385e-16 1.5487014e-16
4.0751017e-16 9.025979e-16 5.849347e-16 7.593429e-16 3.5975575e-16 6.865765e-17 4.0650855e-17 9.619332e-16
