results/agent_01/target_agent_01/target_agent_01-6400.onnx (onnx, 69901 bytes, 7 tensors)

action_model._continuous_distribution.log_sigma f4 [1, 2]
00000000: 0000 0000 0000 0000
0.0 0.0

action_model._continuous_distribution.mu.bias f4 [2]
00000000: 0000 0000 0000 0000
0.0 0.0

action_model._continuous_distribution.mu.weight f4 [2, 128]
00000000: f9c8 b13c 3340 8f3c 16a2 9737 82b6 5abc
00000010: 6166 3dbc 4b8e afbc b691 adbc 2e30 1e3d
00000020: 16ef 4a3c 8a5b f9bc c7fc dcbb a0b1 f13c
00000030: 4380 8a3c 7781 b3bc 692c afbc 4dfd 04bc
00000040: 6805 92bb 0ae1 393c f59f 133c cbec 9d3c
00000050: 4479 14bc 118b 063a b3df 73bc 7f8f 6cbb
00000060: 8a43 5e3c 995b b93c 4fcf f43b ef02 43bc
00000070: 82e6 123c fd50 eb3b b059 39bc 37a0 29bc
00000080: 2815 7cbc 45c5 3f3c 4a37 ae3c 4634 883c
00000090: 6799 e0bb 0872 91bc 2330 acbc 0b35 36bc
000000a0: d614 103b 562a 86bb b041 7d3c de72 c9bc
000000b0: c3bc 45bc cbda 853c ea62 e6bb ad0d 2abc
000000c0: 0aab c9ba f10c 0c3c 4b9d 36bc eb43 6fbc
000000d0: 7452 c43c edd8 383c 738e 22bb ab53 42bd
000000e0: ccc4 86bb 5588 c33c 8345 d13c 5300 043c
000000f0: 1b5e f93b d56b c33c 7a04 63bc 975d b33b
00000100: 9340 ed3b 5780 64bc 92cd 8f3b f9fe 0abc
00000110: ffe0 3fb9 23c6 69ba 9770 7cbc 7be7 163b
00000120: c1a3 a53c ab36 f73c ff28 163c d3c5 143c
00000130: 3e71 19bd 5291 57bc 84e7 443c 5038 db3c
00000140: 9f5b c33b 27d4 e73b 7258 c1bc 72d6 2a3c
00000150: 905f 7b3c cf9f 0d3c a127 27bc 3f31 f53c
00000160: 75d1 7f3c 762f 8c3c 90f9 12bd 06db 1ebc
00000170: a981 9c3c d8fb ed3c c241 393a 9f6b a9bc
00000180: deb5 ad3b 20a5 f03c b8be 903a 7b66 0c3d
00000190: 7b7f 133c 1dc6 dd3c b7b4 e4bc b0f4 2c3c
000001a0: a74a 12bc ef83 733b b155 c2bc b7f3 0bbc
000001b0: 23d0 23b6 ec1a 36bd 7aec b83c a5dd e53b
000001c0: 5d9f e3b9 5710 903c 3add 923c a20d 85bc
000001d0: 0dc4 2b3a 7d6a 7bbb 0bfa 223c e2d6 dcbb
000001e0: 926e e5bc 94ac 36bc 2f3a 03bd d765 34ba
000001f0: 35bb 29bd fbe8 5d3c 3a23 da3c 8f06 ef3c
00000200: a6e2 0fbc 50a5 5fbc b881 a8bc 8d57 b1bc
00000210: 7755 eebc 4f77 eabc 6509 fd3b 90fd bdba
00000220: c25f 103c 4b79 90bc 7268 3f3d 90f4 9abc
00000230: 9fd6 a23c 73fe 0b3d 1882 79bc 5c0d 823c
00000240: 577b ab3c 6a58 d8bc 4baa ef3c 4252 09bd
00000250: 73f3 2fbc f823 cfbb ed7b c43b c0b2 adbb
00000260: 78f2 d5bc 8ff2 94bc dfc4 09ba 6f6c 39bc
00000270: 976d 87bc 2220 923c 9f0b f23b 95e1 9eba
00000280: 4820 a1bc 7371 c43a 178c ea3b 5511 d4bc
00000290: e03a 16bd 313d a73c 2ba2 68bc 9c54 9cbb
000002a0: ef22 cbbc cba8 11bb ff98 12bd c5b4 5f3c
000002b0: 3794 1bbc d8a5 12bc d784 c0bc 4166 a73c
000002c0: d4db 033c ca06 5dbc 5ad7 f9bb 0723 f43b
000002d0: b9f0 283c e070 4bbb 2968 c33c c3ba 46bc
000002e0: c310 093c 9713 4d3c d70e e6bc fb46 243b
000002f0: c772 23bc 58ae dfba b745 97bc 6603 1dbc
00000300: 1b9f 11bc c700 4fbc 848f 443c aa83 59bb
00000310: c699 31bb 77c1 09bc 3a2d 53bc 3703 eb3a
00000320: 1cec c73c c250 0ebc 9fb7 4fbc b812 5a3c
00000330: de01 4a3c 1f4d 0dbc 47cc e2bc c007 643c
00000340: c704 fbba 82b2 e7bb b354 ffba 1270 8dbc
00000350: 675f 65ba 5562 07bd 1acf dcb9 bb1b 2e3a
00000360: ba40 593c 7bc0 4f3c 62f7 a4bb d670 c1bc
00000370: a241 06bc cb2d 93bb 015e bdbb 2a38 42bc
00000380: cba6 42bc 2d91 643c 62af 8d3b c734 85bc
00000390: 4f55 82bc 48b4 463c e222 b23c 9292 c4bb
000003a0: f9f9 483c e471 893c 8726 203c 6397 c53c
000003b0: bfc3 923b 0ffe a4bb ea42 6fbc 73dd 97bb
000003c0: 5cb9 be3b 6c54 c8bc 154e 563c d133 b1bc
000003d0: 4176 923a 726d bdbc 9613 0e3c d5e5 3c3b
000003e0: d602 2ebd d804 783c f06d 1b3a 1bb1 2cbb
000003f0: d825 66bb b78c f83b 75f3 e3ba dfc2 febb
0.021702277 0.017486667 1.807608e-05 -0.013349177 -0.011560054 -0.021430155 -0.021187644 0.038620166
0.012386104 -0.030439157 -0.0067440006 0.029503644 0.016906863 -0.02191232 -0.021383481 -0.008117032
-0.004456211 0.011345157 0.009010305 0.01927795 -0.009062115 0.0005132417 -0.014884877 -0.0036096273
0.013565907 0.022626685 0.007471002 -0.011902555 0.00896609 0.0071812854 -0.011312887 -0.01035314
-0.015385903 0.011704748 0.021266598 0.016626488 -0.0068542245 -0.01775457 -0.021019047 -0.011121045
0.0021985075 -0.0040944023 0.015457556 -0.024590906 -0.01206893 0.01633968 -0.0070308344 -0.010379237
-0.0015386057 0.008548007 -0.0111459 -0.014603595 0.023965098 0.011282188 -0.0024804145 -0.047443073
-0.0041128155 0.02386872 0.025545841 0.008056718 0.007610095 0.02385513 -0.013856048 0.0054738033
0.007240364 -0.013946614 0.0043885196 -0.008483642 -0.00018298997 -0.00089177693 -0.015407703 0.0023026157
0.020219686 0.030177435 0.009165048 0.009080368 -0.03746151 -0.013157206 0.012018088 0.02676025
0.00596185 0.007074851 -0.023601744 0.010427104 0.015342608 0.008644058 -0.010202319 0.029930709
0.015613903 0.017112475 -0.035882533 -0.009695774 0.019104796 0.029050753 0.00070669886 -0.0206812
0.0053012213 0.029375613 0.0011043167 0.03427742 0.009002562 0.027072007 -0.027918203 0.010556385
-0.008928931 0.0037157496 -0.023722501 -0.008541993 -2.4410044e-06 -0.04445927 0.022573698 0.0070149475
-0.0004341555 0.017585916 0.017927755 -0.016241852 0.0006552346 -0.0038363033 0.00994731 -0.006739483
-0.028006826 -0.011149544 -0.03203791 -0.00068816304 -0.0414383 0.013544316 0.026628125 0.029177932
-0.008782065 -0.013650253 -0.020569667 -0.021648193 -0.029093487 -0.028621344 0.007722067 -0.0014495123
0.008811893 -0.017635962 0.046730466 -0.018915445 0.01987773 0.03417821 -0.015228771 0.01587551
0.020932836 -0.026409347 0.029256007 -0.033525713 -0.010739195 -0.0063214265 0.0059962184 -0.0053008497
-0.026116595 -0.018182067 -0.00052554713 -0.0113173565 -0.016531749 0.017837588 0.0073866392 -0.0012121672
-0.019668713 0.0014987424 0.0071578133 -0.02588717 -0.03667724 0.02041492 -0.01419882 -0.0047708284
-0.024796931 -0.0022225853 -0.03579044 0.013653939 -0.009495786 -0.008950673 -0.023500843 0.0204345
0.008048017 -0.013490388 -0.007624549 0.0074504646 0.010311299 -0.003104262 0.023853378 -0.012129488
0.008365813 0.012516878 -0.028083248 0.0025066722 -0.0099760955 -0.0017065508 -0.01846586 -0.00958333
-0.008888031 -0.012634463 0.011997107 -0.003319005 -0.0027099713 -0.008407942 -0.012889201 0.0017930035
0.024404578 -0.008686246 -0.012678056 0.013310127 0.012329547 -0.008624344 -0.027685298 0.013917863
-0.0019151204 -0.0070708403 -0.0019480198 -0.017265353 -0.0008749873 -0.03305276 -0.00042115973 0.00066417054
0.013260061 0.012680168 -0.005034373 -0.023613375 -0.008194359 -0.004491543 -0.0057790284 -0.011854211
-0.011880587 0.013950628 0.004323886 -0.016260518 -0.015909819 0.012127943 0.021745149 -0.005998918
0.012266629 0.01677794 0.009774811 0.024120038 0.004478901 -0.005035169 -0.014603356 -0.004634553
0.0058204364 -0.024454318 0.01308014 -0.021631153 0.0011174158 -0.023123477 0.008671662 0.0028823514
-0.042483173 0.015137874 0.0005929163 -0.002635068 -0.0035117771 0.007585134 -0.0017391281 -0.0077746953

network_body._body_endoder.seq_layers.0.bias f4 [128]
00000000: 0000 0000 0000 0000 0000 0000 0000 0000
00000010: 0000 0000 0000 0000 0000 0000 0000 0000
00000020: 0000 0000 0000 0000 0000 0000 0000 0000
00000030: 0000 0000 0000 0000 0000 0000 0000 0000
00000040: 0000 0000 0000 0000 0000 0000 0000 0000
00000050: 0000 0000 0000 0000 0000 0000 0000 0000
00000060: 0000 0000 0000 0000 0000 0000 0000 0000
00000070: 0000 0000 0000 0000 0000 0000 0000 0000
00000080: 0000 0000 0000 0000 0000 0000 0000 0000
00000090: 0000 0000 0000 0000 0000 0000 0000 0000
000000a0: 0000 0000 0000 0000 0000 0000 0000 0000
000000b0: 0000 0000 0000 0000 0000 0000 0000 0000
000000c0: 0000 0000 0000 0000 0000 0000 0000 0000
000000d0: 0000 0000 0000 0000 0000 0000 0000 0000
000000e0: 0000 0000 0000 0000 0000 0000 0000 0000
000000f0: 0000 0000 0000 0000 0000 0000 0000 0000
00000100: 0000 0000 0000 0000 0000 0000 0000 0000
00000110: 0000 0000 0000 0000 0000 0000 0000 0000
00000120: 0000 0000 0000 0000 0000 0000 0000 0000
00000130: 0000 0000 0000 0000 0000 0000 0000 0000
00000140: 0000 0000 0000 0000 0000 0000 0000 0000
00000150: 0000 0000 0000 0000 0000 0000 0000 0000
00000160: 0000 0000 0000 0000 0000 0000 0000 0000
00000170: 0000 0000 0000 0000 0000 0000 0000 0000
00000180: 0000 0000 0000 0000 0000 0000 0000 0000
00000190: 0000 0000 0000 0000 0000 0000 0000 0000
000001a0: 0000 0000 0000 0000 0000 0000 0000 0000
000001b0: 0000 0000 0000 0000 0000 0000 0000 0000
000001c0: 0000 0000 0000 0000 0000 0000 0000 0000
000001d0: 0000 0000 0000 0000 0000 0000 0000 0000
000001e0: 0000 0000 0000 0000 0000 0000 0000 0000
000001f0: 0000 0000 0000 0000 0000 0000 0000 0000
0.0 0.0 0.0 0.0 0.0 0.0 0.0 0.0
0.0 0.0 0.0 0.0 0.0 0.0 0.0 0.0
0.0 0.0 0.0 0.0 0.0 0.0 0.0 0.0
0.0 0.0 0.0 0.0 0.0 0.0 0.0 0.0
0.0 0.0 0.0 0.0 0.0 0.0 0.0 0.0
0.0 0.0 0.0 0.0 0.0 0.0 0.0 0.0
0.0 0.0 0.0 0.0 0.0 0.0 0.0 0.0
0.0 0.0 0.0 0.0 0.0 0.0 0.0 0.0
0.0 0.0 0.0 0.0 0.0 0.0 0.0 0.0
0.0 0.0 0.0 0.0 0.0 0.0 0.0 0.0
0.0 0.0 0.0 0.0 0.0 0.0 0.0 0.0
0.0 0.0 0.0 0.0 0.0 0.0 0.0 0.0
0.0 0.0 0.0 0.0 0.0 0.0 0.0 0.0
0.0 0.0 0.0 0.0 0.0 0.0 0.0 0.0
0.0 0.0 0.0 0.0 0.0 0.0 0.0 0.0
0.0 0.0 0.0 0.0 0.0 0.0 0.0 0.0

network_body._body_endoder.seq_layers.0.weight f4 [128, 1]
00000000: b09d 26be 65a1 133f df0a d73f 5eee 123f
00000010: a62c 9d3f 9c2f 833f e5cc 323f d440 86be
00000020: 1803 9cbf 93b8 ff3d e899 90be 60da ca3c
00000030: 1fca d93e 3731 febd cfe8 e33f 0a38 22be
00000040: 3a26 c13d 3739 d13f edfd ec3e 6a5e a4bf
00000050: 388b 073f 56f4 90bf 9f12 113f a03c 40bf
00000060: 89fd 8f3e df9c 2a3e 0596 863e d6f5 80bf
00000070: ae86 d53f 2a0f 983f 9038 213e 4541 8cbf
00000080: 8b55 1cbf c482 d03f 6ea0 21bf 37aa b9bf
00000090: 1570 14c0 f984 0c3f f4b2 543f bc22 ca3f
000000a0: 69b1 713e b725 a9bf c9b7 933f fbb2 c5bd
000000b0: bc65 fabe e75b 36bf 4f35 33bf ad8d 7a3e
000000c0: b289 53bf 48df 71bf 177c d2bf 80e9 de3e
000000d0: 7036 c5bd f867 cdbf 8c8b f4bf df63 1e3f
000000e0: 7713 fabe a038 a23f d17b c13e af1f d33f
000000f0: 1416 9f3f 423f 7e3e d52c 0dc0 3edb 743d
00000100: fa7c c0bf eb2a c93d 3755 29bf b29b 1840
00000110: cefd 943f 427b 25be efe6 19bf 235f 673f
00000120: 3262 80bf 4756 813e 6bf4 f43d 3984 0bbf
00000130: 1da5 f0be e7ad ab3f b62f 5e3f ad09 30be
00000140: 3a80 913f dd96 bc3f 959b 50be e860 25be
00000150: be85 0d3e 8e85 2c3f 9cf7 05c0 6212 9f3f
00000160: 4d8d 1e3e 936a 2fbf 884d b9be f198 ffbf
00000170: d64a 8c3f 4b05 2c3f 239d ea3f 8b7e da3e
00000180: e110 933f 474e c93d 2874 883f 5317 eb3f
00000190: ede5 c73e 22bc 043f 0e1d cbbf 6c72 2e3f
000001a0: a86f 1c40 fd9f 293e 671e 39bd d960 753f
000001b0: e2af 2a3e cfa6 69bf ee06 3e3e 8a29 cb3d
000001c0: f517 d53e e84c a83e 5ce0 b6bf c04a d5bb
000001d0: 7d5b 02c0 fb37 0ebf da5c 593e 4c23 413e
000001e0: 5fa3 0c3f 7ae2 963e db09 843f c037 a4bf
000001f0: 71a3 0dc0 e9d9 f83e 08cd 983f ba94 81bd
-0.1627109 0.57668144 1.6800193 0.5739497 1.2279251 1.0248904 0.69843894 -0.26221335
-1.2188444 0.124863766 -0.2824242 0.024762332 0.4253702 -0.12411731 1.7805423 -0.1584169
0.09431119 1.6345586 0.4628748 -1.2841313 0.52946806 -1.1324565 0.5666904 -0.75092506
0.2812312 0.16661404 0.2628633 -1.0075023 1.6681726 1.1879628 0.15744233 -1.0957419
-0.6106803 1.6289907 -0.6313542 -1.450507 -2.319341 0.548904 0.8308556 1.579185
0.23602833 -1.3214635 1.1540462 -0.096532784 -0.48905742 -0.7123398 -0.7000322 0.24468108
-0.8263198 -0.94481325 -1.6444119 0.4353752 -0.09629524 -1.6047354 -1.9105086 0.6187114
-0.48842975 1.267353 0.37789777 1.6494044 1.2428613 0.24828818 -2.2058613 0.0597794
-1.503814 0.09822639 -0.6614565 2.384503 1.1639955 -0.161603 -0.60118 0.9037954
-1.0029967 0.25261137 0.119606815 -0.5449863 -0.4700097 1.3412446 0.8679155 -0.17191191
1.1367257 1.473354 -0.2037185 -0.16150248 0.1382055 0.6739129 -2.0932379 1.2427485
0.1548359 -0.68521994 -0.36191964 -1.9968549 1.0960338 0.67195576 1.8329204 0.4267467
1.1489526 0.09829383 1.0660448 1.8366493 0.39042607 0.5184957 -1.5868242 0.68143344
2.444315 0.16564937 -0.04519501 0.958509 0.16668656 -0.91270155 0.18557331 0.09920032
0.4161984 0.32871175 -1.4287219 -0.006509155 -2.036834 -0.5555417 0.21226826 0.18861121
0.54936785 0.29469663 1.0315508 -1.2829514 -2.2131007 0.48603752 1.193757 -0.063271955

network_body._body_endoder.seq_layers.2.bias f4 [128]
00000000: 0000 0000 0000 0000 0000 0000 0000 0000
00000010: 0000 0000 0000 0000 0000 0000 0000 0000
00000020: 0000 0000 0000 0000 0000 0000 0000 0000
00000030: 0000 0000 0000 0000 0000 0000 0000 0000
00000040: 0000 0000 0000 0000 0000 0000 0000 0000
00000050: 0000 0000 0000 0000 0000 0000 0000 0000
00000060: 0000 0000 0000 0000 0000 0000 0000 0000
00000070: 0000 0000 0000 0000 0000 0000 0000 0000
00000080: 0000 0000 0000 0000 0000 0000 0000 0000
00000090: 0000 0000 0000 0000 0000 0000 0000 0000
000000a0: 0000 0000 0000 0000 0000 0000 0000 0000
000000b0: 0000 0000 0000 0000 0000 0000 0000 0000
000000c0: 0000 0000 0000 0000 0000 0000 0000 0000
000000d0: 0000 0000 0000 0000 0000 0000 0000 0000
000000e0: 0000 0000 0000 0000 0000 0000 0000 0000
000000f0: 0000 0000 0000 0000 0000 0000 0000 0000
00000100: 0000 0000 0000 0000 0000 0000 0000 0000
00000110: 0000 0000 0000 0000 0000 0000 0000 0000
00000120: 0000 0000 0000 0000 0000 0000 0000 0000
00000130: 0000 0000 0000 0000 0000 0000 0000 0000
00000140: 0000 0000 0000 0000 0000 0000 0000 0000
00000150: 0000 0000 0000 0000 0000 0000 0000 0000
00000160: 0000 0000 0000 0000 0000 0000 0000 0000
00000170: 0000 0000 0000 0000 0000 0000 0000 0000
00000180: 0000 0000 0000 0000 0000 0000 0000 0000
00000190: 0000 0000 0000 0000 0000 0000 0000 0000
000001a0: 0000 0000 0000 0000 0000 0000 0000 0000
000001b0: 0000 0000 0000 0000 0000 0000 0000 0000
000001c0: 0000 0000 0000 0000 0000 0000 0000 0000
000001d0: 0000 0000 0000 0000 0000 0000 0000 0000
000001e0: 0000 0000 0000 0000 0000 0000 0000 0000
000001f0: 0000 0000 0000 0000 0000 0000 0000 0000
0.0 0.0 0.0 0.0 0.0 0.0 0.0 0.0
0.0 0.0 0.0 0.0 0.0 0.0 0.0 0.0
0.0 0.0 0.0 0.0 0.0 0.0 0.0 0.0
0.0 0.0 0.0 0.0 0.0 0.0 0.0 0.0
0.0 0.0 0.0 0.0 0.0 0.0 0.0 0.0
0.0 0.0 0.0 0.0 0.0 0.0 0.0 0.0
0.0 0.0 0.0 0.0 0.0 0.0 0.0 0.0
0.0 0.0 0.0 0.0 0.0 0.0 0.0 0.0
0.0 0.0 0.0 0.0 0.0 0.0 0.0 0.0
0.0 0.0 0.0 0.0 0.0 0.0 0.0 0.0
0.0 0.0 0.0 0.0 0.0 0.0 0.0 0.0
0.0 0.0 0.0 0.0 0.0 0.0 0.0 0.0
0.0 0.0 0.0 0.0 0.0 0.0 0.0 0.0
0.0 0.0 0.0 0.0 0.0 0.0 0.0 0.0
0.0 0.0 0.0 0.0 0.0 0.0 0.0 0.0
0.0 0.0 0.0 0.0 0.0 0.0 0.0 0.0

network_body._body_endoder.seq_layers.2.weight f4 [128, 128]
00000000: acb0 933d f012 38be d24a f1bb f8ac e93d
00000010: 69b6 b53d 01cd 1fbe 7386 c43d 16f0 90bd
00000020: 5607 2fbd dca4 cc3d 6fa2 06bd 22da 2f3d
00000030: 3447 e1bd 9571 3bbe dc09 863d 11a5 183e
00000040: 33f5 07be 3984 4bba 90c0 79bd a453 ef3c
00000050: a1ef 9bbd ac16 653d 357c 60bb 8981 b33d
00000060: 7ba0 603d f948 bcbd f589 b83c 667d eabc
00000070: 3048 febb bc40 cfbd a9ef 883c f4d9 f03d
00000080: ba3c 03bd 9f09 97bd b4d9 5b3e d5fb 62bd
00000090: 503f 993c 27b1 ce3d c3d4 373c e0a1 a1bd
000000a0: d630 bc3c ba99 9ebd 1344 973d c5e5 b13c
000000b0: fd5d 973c 7d84 93bd 7c32 b53d ccf5 4bbd
000000c0: e64c 89bd 0e04 943c 5df8 e8bd 4acb af3a
000000d0: a6c2 f43d be25 ccbd 6a38 33be 9bb0 023e
000000e0: 1814 013b 8478 0bbe 57cb 0c3d fd4d e2bd
000000f0: 4184 68bd 6e8c d7bb 0c56 d1bd e506 8c3d
00000100: 5983 34bd 825a 303d f68d 72bd 839d 46bd
00000110: 6c92 f93c 11ef 143e 039e ab3d c10a 893d
00000120: f7ae dd3c 0503 48bd b585 3d3a 499f b3bc
00000130: ffb4 18bd b11a d3bd f4b1 a93d 6b20 f5bc
00000140: 1a8c cdbc 20fb 3ebe 26e3 e3bc b433 ba3d
00000150: b554 963d 1a13 ff3d 3fe7 b33d f049 c83d
00000160: c5f1 63be 2148 ffbc 3794 cb3c 6072 d4bb
00000170: 237d f23d 748c 2ebc 688f 783b 9e43 4c3e
00000180: 0049 00be f33e 0abd 7da5 173d bf4e 233d
00000190: daca 34bd 7f30 c5bd 10cf 213d 4ce1 733d
000001a0: e99b 24bd 27a4 5d3d 0c1f 62bd becc d2bd
000001b0: 724d 3abe a549 4f3e 977e 4bbc 339b 29bd
000001c0: 6207 3dbd b9d3 933c 8e66 083d 22f5 8c3d
000001d0: 4896 21bd 8414 033d 4074 28be 08a6 d8bb
000001e0: 882b 0fbd 619d d73c c37a b73c 1d02 8cbd
000001f0: fed0 b13d a3a9 13bd 73b0 813d 40b0 18bd
00000200: 3c12 42bd c00f b23c 6fbc 4e3d 3753 2f3d
00000210: 9c2c 2ebe aad8 1bbe fc63 203d 0c77 ed3d
00000220: b4ff 833d b359 c13d 9dae 7c3d 437b 0c3b
00000230: 802e 053e b2e3 05bb fae0 bc3d 99cf a03d
00000240: 6726 25bd 12c0 1b3d 9738 2fbe c600 053e
00000250: 7343 efbc d998 1cbe 9ef8 a8bb 606f c93b
00000260: d188 6bbd f617 1cbe f2f9 edbd 0306 b4bd
00000270: 079b a03d b167 4b3d e400 133e bc4c 8d3d
00000280: 92a5 113e 05d6 c1bd 9215 193d fdfe 80bc
00000290: c8a0 bfbd 31a5 44bd d89b efbd 2ca6 0b3c
000002a0: 7e13 2a3c c9f1 713e d9d7 033e c601 db3d
000002b0: 77bb ca3c b8af c3bd 3d88 23bd 5495 28bd
000002c0: 760c 463c 63f4 2e3d 73b2 193d 7fe3 e6bb
000002d0: 64e4 703d 7621 cebb df90 bf3d 2a3c 633e
000002e0: c16d 6bbc d64e 843d 1adc 69bd e690 c4bd
000002f0: 2317 1b3e bba7 093e 129e 37bd 4770 8b3b
00000300: 8236 893d 98f4 3d3d 6e31 903d 8ae2 823e
00000310: a476 05bd 213e 143c f04c 32bd 5a33 963d
00000320: a42d abbd f374 093e d0f6 92bc 2d19 e9bd
00000330: e90b b33c 1c3a 3cbc dc26 e63d 97c9 5539
00000340: a402 45be 1d79 193e 8ec6 073d edfc 983d
00000350: f5d3 3d3c 0690 043e 315f 333e a321 08bd
00000360: c77f cabd 8f78 063e 93b0 6bbe c744 133c
00000370: e3d3 fdbc e284 953d b696 92bd 7b87 b5bd
00000380: d639 143d 6939 fbbc 3b58 85bc 9cf8 72bd
00000390: 2f9a b6bc 8e3c 883d 94d7 42bc e1d0 d13c
000003a0: 2746 123d f0c5 143d cffd ccbc 76ff fdbd
000003b0: 58c6 8e3c 6773 8dbd 6f54 31bd 56a8 9ebd
000003c0: 2082 4e3d 37cc ea3d d611 96bd c684 7ebc
000003d0: fa73 6f3e 02d3 543d df51 d0bd 8890 a7bd
000003e0: 8867 6a3b 5277 4ebd 3fde dfbc 846f 99bd
000003f0: 0a76 66be 7b65 4d3d b249 9e3b 8445 133d
0.07211432 -0.17975974 -0.0073636556 0.11409944 0.088726826 -0.15605547 0.09595957 -0.07077043
-0.042731605 0.09992382 -0.032869752 0.042932637 -0.10999909 -0.18305047 0.06544849 0.14906718
-0.1327713 -0.0007763538 -0.060974658 0.029214688 -0.07614065 0.055929825 -0.003425372 0.08764941
0.054840546 -0.09193606 0.02252672 -0.028624248 -0.0077600703 -0.10119769 0.016715841 0.11760321
-0.032040335 -0.07374882 0.21469766 -0.055415947 0.018706948 0.10092383 0.01122016 -0.07892203
0.022972506 -0.07744165 0.07386031 0.021716008 0.018477434 -0.072030045 0.0884752 -0.049794957
-0.0670412 0.01806834 -0.113754965 0.0013412025 0.11951189 -0.09968136 -0.17501989 0.12762682
0.0019695815 -0.13620192 0.034373607 -0.11050031 -0.056766752 -0.00657802 -0.1022149 0.068372525
-0.044070575 0.043055065 -0.059217416 -0.04849006 0.030465327 0.14544322 0.08379748 0.06691504
0.027060969 -0.048831005 0.0007229702 -0.021926539 -0.037281986 -0.10307825 0.08285895 -0.029922685
-0.02509122 -0.18650484 -0.027818274 0.09091893 0.07340375 0.12454815 0.08784341 0.097797275
-0.22260197 -0.031162323 0.024850948 -0.006483361 0.11840274 -0.010653604 0.0037927274 0.19947669
-0.12527847 -0.03375144 0.037023056 0.03987002 -0.044138767 -0.096283905 0.03950411 0.05954103
-0.04018775 0.054111626 -0.05520539 -0.10292958 -0.18193606 0.20242937 -0.012420318 -0.041407775
-0.04614962 0.018045293 0.03330093 0.06882693 -0.03944996 0.032001987 -0.16450596 -0.0066115893
-0.034953624 0.026320161 0.022397405 -0.068363406 0.0868244 -0.03605045 0.06332483 -0.03727746
-0.04738067 0.021736026 0.050472673 0.04280397 -0.17009205 -0.1521937 0.039157853 0.11594972
0.06445256 0.09440937 0.06168996 0.0021435774 0.1300602 -0.0020429906 0.092225984 0.07852096
-0.040319826 0.03802497 -0.17111431 0.12988576 -0.029206967 -0.15292682 -0.0051565906 0.00614731
-0.057503525 -0.15243515 -0.11619939 -0.08790209 0.07842069 0.049659435 0.14355808 0.068994015
0.14223316 -0.09464649 0.037374087 -0.015746588 -0.093568385 -0.0480091 -0.11699647 0.008523505
0.010380624 0.2362739 0.12875308 0.10693698 0.024747593 -0.09555 -0.03992485 -0.041158035
0.012087932 0.042713534 0.037523698 -0.0070461626 0.05881156 -0.00629061 0.09353804 0.2219092
-0.014369429 0.06460349 -0.05709467 -0.0959795 0.15145545 0.1344289 -0.044828482 0.004255328
0.0669985 0.04637584 0.07040678 0.2556346 -0.032583848 0.009048016 -0.043530405 0.07334013
-0.08358315 0.13423519 -0.017939955 -0.11381755 0.021856265 -0.011488464 0.112378806 0.00020388361
-0.19239289 0.14987607 0.03314834 0.07470117 0.011586179 0.12945566 0.17516781 -0.033235203
-0.09887653 0.13131927 -0.23016576 0.008988566 -0.030984825 0.07300736 -0.07157652 -0.088637315
0.03618797 -0.030667024 -0.016277423 -0.059319124 -0.022290317 0.06652175 -0.011892218 0.025612297
0.035711434 0.03632158 -0.02502337 -0.12402241 0.017428562 -0.06906777 -0.043293413 -0.07746951
0.050417066 0.11464732 -0.07327621 -0.015534585 0.23384085 0.051959045 -0.10171866 -0.08181864
0.0035767276 -0.05040676 -0.027327655 -0.07491973 -0.22505966 0.050145607 0.0048305625 0.035954967
