results/agent_01/target_agent_01/target_agent_01-86121.pt (torch, 423135 bytes, 36 tensors)

network_body._body_endoder.seq_layers.0.weight f4 [128, 1]
00000000: cdb1 5b3f cfba cfbf 7aae 09c0 d269 8b3e
00000010: e066 903f 4873 6b3d ad64 a43f 223f 79bf
00000020: c2bf 01c0 c120 c1be 2b1d 7fbf 6fcc c23e
00000030: c92f 613f e0a7 773f 0a8c ac3f 514c cebc
00000040: 7ef0 f43e c044 b8bf 7b86 a23f bd9d 9cbf
00000050: 38ac dc3e fe7f e7b8 690f 8bbd d176 243f
00000060: 4fc6 c43e 30b7 613f ffc8 aabf 30e2 22bf
00000070: 1fd0 493f ded4 ca3f 07b8 463f 01b3 43bf
00000080: 9086 7d3f c113 c6bf 9da3 253e 7640 b1be
00000090: f968 a23e 85f6 193f 08a9 35be e843 163e
000000a0: 0a68 863f 9a7c 7d3f 00bd 26c0 a96c 993e
000000b0: 60b0 a5bf 4e57 293f bfa1 bc3f 7809 12bf
000000c0: ddac b0bf b447 03c0 132d afbc 4ddb a13f
000000d0: 2aec 233e cec5 0e3f d26a ba3f 7498 623f
000000e0: be95 143f 6b41 23c0 8cb5 7dbf 13fb 7f3e
000000f0: f6d4 b83f 7a96 383e 6e2f e23e 6484 0e3e
00000100: 5ed4 3c3f a6d7 ee3e fd3b 57be 68b6 86bd
00000110: 5839 fabe 1628 1bbf 07a0 763f af66 3ebf
00000120: a1da 37c0 894b d93c 791a e5bf 9557 ae3e
00000130: dda0 49be bb6e f03e 7067 38bf 8978 a13e
00000140: 7d1b 283e 0b83 9bbf ea16 823e a9dd 783e
00000150: 874c 9d3f 23bf 1bbf 7f97 ecbf 7a27 e9bd
00000160: 80bf 9bbf c171 7c3e 303d bbbe f46c ae3e
00000170: bc0e fabe 62aa 303f ad69 ca3f 81cf 353f
00000180: dcbf 4bbe 3be4 093f 244d ddbe 7029 46be
00000190: 2b8a 81be 91c9 70bf 69a5 13bf 11f2 81bc
000001a0: 5b2c 603f 184b 43be 32c8 21bf 29aa 11be
000001b0: c515 04c0 a622 f0bf 0153 7e3f 5946 62bd
000001c0: 5839 33bf d656 e13e bc42 abbf dcf7 3abe
000001d0: d98f 51bf 47c2 393f 7747 813f 4e9c a3bf
000001e0: f92b 13bf b639 06bf 6293 a63f d0e5 843f
000001f0: c917 713e fc2c d93d ab42 553e 9809 c03f
0.8581818 -1.6228884 -2.1512742 0.27229172 1.1281395 0.057482988 1.2843224 -0.9736196
-2.027329 -0.37720302 -0.9965388 0.38046595 0.8796354 0.9674053 1.3480237 -0.025182875
0.4783973 -1.4395981 1.269729 -1.2235638 0.43100142 -0.00011038779 -0.06790049 0.642438
0.38432547 0.88170147 -1.3342589 -0.63626385 0.7883319 1.5846212 0.77624553 -0.76445013
0.9903345 -1.5474778 0.16175695 -0.34619492 0.31720713 0.60141784 -0.17740262 0.14674342
1.05005 0.9901825 -2.6052856 0.29965714 -1.294445 0.6614884 1.4736861 -0.570457
-1.3802754 -2.0512514 -0.021383798 1.264505 0.16008058 0.55770576 1.4563849 0.88513875
0.5804099 -2.5508678 -0.99105144 0.24998121 1.443999 0.18026152 0.4417681 0.1391769
0.73761547 0.46648902 -0.21018977 -0.0657776 -0.48871875 -0.6060804 0.9633793 -0.7437543
-2.872719 0.026525276 -1.7898704 0.34051195 -0.1969027 0.4695948 -0.72032833 0.31537274
0.16416736 -1.2149366 0.25408107 0.24303307 1.2288979 -0.60838526 -1.8483733 -0.11384483
-1.2167816 0.24652769 -0.3657012 0.340675 -0.48839366 0.69009984 1.58135 0.7101975
-0.19897407 0.5386388 -0.43222916 -0.19351745 -0.25300726 -0.94057566 -0.5767427 -0.015862497
0.8756768 -0.19071615 -0.631961 -0.14225067 -2.0638287 -1.8760574 0.99345404 -0.05524287
-0.70009375 0.44011563 -1.3379741 -0.18258613 -0.8186012 0.7256207 1.0099934 -1.2782075
-0.5748897 -0.5243181 1.3013728 1.0382633 0.2354423 0.10604283 0.20826213 1.5002928

network_body._body_endoder.seq_layers.0.bias f4 [128]
00000000: 8b50 ab3b 6fcb 8c3b 8f4b 6fbc 6e5b b43b
00000010: c04c 893b 918b aebb fe1c b43b 1ca7 c63a
00000020: de68 30ba 7541 813c 6958 36ba efaa a1ba
00000030: 2ee2 c1bb 858c 9abb 2d3f 5dbb 63f7 acbb
00000040: 4930 7bbb 43e0 9dbb 814b f33a 8d05 8abb
00000050: baa1 adbb 65f0 473a fc7c 89bb fa9b 8fba
00000060: 0059 c2b9 129d c0bb d3ba 90bb d155 cb3b
00000070: f4e3 35bb f139 bb3b b3ee b5bb dad8 e2ba
00000080: cd92 063b c0f6 d23b 240b b2bb 545b 9ebb
00000090: 633a f63b cee5 9ebb 0d9b efba 6931 503b
000000a0: f76d 7ebb 2ca5 a6bb dbad c4b9 8775 aabb
000000b0: c0c6 bdba c50a 97bb e3a0 67bb b335 b53b
000000c0: b8e8 b0bb bd23 433b df66 bcbb 79f4 b3bb
000000d0: 9e48 8ebb 7bb8 9fbb a819 7dba 7e3c eb3a
000000e0: cee0 773b d8a6 d7bb 78b1 cbbb 0619 d9ba
000000f0: 6fbe 673b 6fbb 34bb 9156 afbb b3c3 063c
00000100: 7705 ae3b 1dbc b2bb e4b5 413b 6d2d 803b
00000110: 2417 27bc e37f beba 0ebb 9d3b 1517 c83b
00000120: a456 a4bb 2e60 14bb d3b8 49bb e734 a8bb
00000130: ce3b 73b8 b369 35bb 4a6b 51bc fcd0 fabb
00000140: e663 d537 9111 81bb 2938 2b3b 9afd a5bb
00000150: a318 22bc 0f45 a7bb 28df 8a3b 2581 013b
00000160: 1a27 783c 39c6 02bb d05e b4bb cb10 2cbc
00000170: f7b3 70bb ea30 f5bb 6984 83bb b5d2 b2bb
00000180: 8474 5dbb 6d35 74ba b9ff a03b 3ab8 a2bb
00000190: e85c 77bb c92e d0bb 2b58 bf3b f613 283a
000001a0: 69b1 223c d34a 30bb e3bc d7bb 3c19 9bbb
000001b0: e633 b83b 0543 30bb 5a36 debb 5532 ae3b
000001c0: f4a4 413b 52ef b53a 8b2f 1bba 324c 76bb
000001d0: 8d91 e7bb 5021 5a3b c41b 513b 1228 8abb
000001e0: d1ed 4e3b a233 acbb 6fb7 a2bb 2f32 e2bb
000001f0: feb2 95bb e307 0338 3122 23bb 42a8 6dbb
0.0052281073 0.004296712 -0.014605417 0.0055040633 0.0041900575 -0.005326696 0.00549662 0.0015156004
-0.00067294936 0.015778283 -0.0006955923 -0.0012334267 -0.0059168553 -0.0047164583 -0.003375958 -0.005278514
-0.003832834 -0.004817994 0.0018561931 -0.0042120875 -0.0052988203 0.0007627069 -0.0041958075 -0.0010956519
-0.00037068874 -0.0058780992 -0.0044168024 0.0062052985 -0.002775428 0.0057136943 -0.005552137 -0.0017307058
0.0020534277 0.0064381063 -0.005433457 -0.0048326645 0.0075142845 -0.004849172 -0.0018280462 0.0031767732
-0.0038822868 -0.005085608 -0.00037513566 -0.0052019986 -0.0014478788 -0.004609438 -0.0035343699 0.005530083
-0.005398836 0.002977594 -0.005749568 -0.00549179 -0.0043421527 -0.0048742867 -0.0009655007 0.0017947105
0.0037823203 -0.0065811686 -0.0062162243 -0.0016563244 0.003536131 -0.002757754 -0.0053508957 0.008225369
0.00531071 -0.0054545538 0.0029557878 0.003911665 -0.010198388 -0.0014533963 0.0048135584 0.006106267
-0.005015211 -0.0022640335 -0.003078033 -0.0051332596 -5.7991412e-05 -0.002768141 -0.012781927 -0.0076543074
2.5438098e-05 -0.0039388617 0.0026126003 -0.005065632 -0.009893569 -0.005104668 0.004238028 0.0019760814
0.015146041 -0.0019954576 -0.0055044666 -0.010502051 -0.003672836 -0.0074826377 -0.0040135873 -0.005457247
-0.0033791373 -0.00093158224 0.004913297 -0.004965809 -0.0037744585 -0.0063532335 0.005839368 0.0006411666
0.009929993 -0.0026900067 -0.0065837963 -0.004733233 0.005621421 -0.0026895416 -0.0067813816 0.0053160586
0.0029547783 0.0013880527 -0.0005919865 -0.0037582037 -0.0070669116 0.0033284016 0.0031907419 -0.0042162025
0.0031574855 -0.0052551785 -0.0049657146 -0.006902955 -0.0045684567 3.124018e-05 -0.0024892206 -0.003626362

network_body._body_endoder.seq_layers.2.weight f4 [128, 128]
00000000: ac5f d5bd 7121 61bd a5f9 92bd b8f3 37bd
00000010: 22ba d23c 68df 85bd f6cc 4cbd fb82 663e
00000020: b365 cabd c55d 00bd ff3f da3d e50f 56bd
00000030: b81c 6c3d 3235 77bd 8f1e bd3c 938f ddbc
00000040: 7003 123d 56d7 06bc e5d9 a8bb e2e4 b73d
00000050: 394c 49bc b7b3 d83c 0183 5cbd 0a79 463d
00000060: c8b5 c83d af04 77bd e968 ca3d 4954 b7bd
00000070: 984f c0bd 417d 46bd 0289 c3bd 27cd 7d3d
00000080: 5a6f 93bd a3ab 1abd 53f4 503e fe2f 883d
00000090: 67dc 85bd 4bb5 5dbc 3bf8 0fbe 43b2 4dbe
000000a0: 7c1a ecbd bbc5 6fbc e994 acbd a47e a93d
000000b0: 80e9 173d 35b8 b03d eed2 683d dc0d 5dbe
000000c0: 4804 64bc cab5 b8bd 74c3 103d fb1f e2bd
000000d0: c2d6 d03d 8753 883c d5d7 37bd 82a3 0a3e
000000e0: c3c7 c8bd b5f4 473d c9fa 98bd bf9f 27bc
000000f0: b12d 463b a983 b7bc ae50 91bd c486 f73c
00000100: 564a c5bd b7a9 93bd c941 74bd 51f5 74bc
00000110: fd0c 7d3d e6c7 293d 3c0c 90bd 73b3 1e3d
00000120: 6d9c 5bbd 27c0 5e3d fb28 1b3d b471 e8bb
00000130: cc7e b43d a649 e5bd d0c9 9b3c 774b 5a3d
00000140: e836 c93d b59a 013d b251 ca3d 3eac e23d
00000150: f38d 14be de2e e5bb bbff a2bd efde e0bd
00000160: ae33 6dbb 12f0 103e 6429 043b cb92 eabd
00000170: dae1 873c 8694 13bd 1a08 9fbd 2746 8ebd
00000180: 9a43 113c fddb 3f3d cdef debd f542 b33c
00000190: be5e 4ebd 0078 82bc cd5c 233d 9972 14be
000001a0: b637 70bd 4e08 30be cf01 13bd 8aa5 e2bd
000001b0: 1ae6 16bd 1a02 1c3e 7cf7 0a3e 9983 3a3d
000001c0: 8d27 233c c9d0 9f3d 8e67 843d c508 c23b
000001d0: e415 953d 1121 d1bd 9fdf 243d b4d1 37bd
000001e0: a24e 6fbd 659a 0ebe 7768 78bd f422 8b3d
000001f0: efea debd 3a28 6fbd 3cc3 063d 2c95 1e3d
00000200: 4c64 9c3d 79e2 aa3d 32da a23c e49a a8bc
00000210: 9911 893b 80e0 0a3e 7eb1 9a3d f74a 883d
00000220: 09b5 5abd c860 d23d b69e 89bd 2105 d1bd
00000230: 2503 1ebc 4d0a 9e3c 0ff5 833b aaf4 70bd
00000240: 2c2c 963c 7b8c 24bd dc0e da3c f1a8 a93d
00000250: 0577 03be a5ba 05be e3f7 4cbd c367 ce3d
00000260: 49c8 00bd d65a 203d 781c ef3d 3c3f 743d
00000270: 69ab b1bc 5bbb 693d 9f14 a5bd 1dff 323e
00000280: 5550 84bd 8159 823d f187 333e df18 b2bd
00000290: 7eac 6fbd ec29 363d 0d91 87bd 58c4 5a3d
000002a0: f755 82bd 0fb4 a4bd 5a11 4e3d 9114 acbc
000002b0: 42d3 5fbd ec3b d0bd 6892 123d 5c58 c8bc
000002c0: 37bb 083b 7d2d 8dbe b750 97bd 9e17 b7bd
000002d0: 1066 33bd e9a6 053e 9046 eebd 5a79 573d
000002e0: f467 96bb a68f 0abe a46f f8bd 1ec1 9cbb
000002f0: ed2d db3d 3a9b 253e 91c8 be3d 53b9 76bc
00000300: 0593 64bd 773e cb3c 3bb1 903d 9c72 efbd
00000310: d540 00be 2dda 8e3c 1323 9e3d 9885 5fbd
00000320: 975e f6bc f69b d2bd 97d8 c7bc b02d 9abd
00000330: 7faa 373d b2ec c33d ac8a d6bd fe94 24bd
00000340: b845 ae3c a96a 13bd e9bc 1cbd 076a 5a3d
00000350: 87e3 f9bd bcbe 3bbe eeb9 1ebc 8e1e a33c
00000360: 70bb aa3b e7d7 94bd 1877 aa3d 0570 ce3d
00000370: eadd c33c b8ae 10be b8f8 993d e939 443d
00000380: 125f 3cbd 3972 f63d 6f59 743d 7dd9 24bc
00000390: b4b1 e03d b913 5d3e 3bed 833b c7eb f13b
000003a0: 709b 193c 349f 4abd 4707 08bd 7844 16be
000003b0: 9c8d 8dbc 362f 113e 6fb2 c73d 01cc 5c3d
000003c0: 2351 4d3d 9492 21bd 796d 543c 56bf 43be
000003d0: 6670 fbbb 7a98 71bd a654 9a3c 656a b33d
000003e0: dcca bcbd 7af6 d1bc 217e 7cbd 4fe5 ce3d
000003f0: 4efc dcbd 2acf 86bd d09a eebc d2ff 7f3c
-0.104186386 -0.054963533 -0.07176522 -0.044910163 0.02572352 -0.06536752 -0.050000153 0.22510903
-0.09882679 -0.031339426 0.106567375 -0.052261252 0.057644576 -0.060353465 0.02308586 -0.027046
0.03564781 -0.008230051 -0.005152928 0.08979203 -0.012286239 0.026452882 -0.053835873 0.048455276
0.09800297 -0.0603072 0.09883291 -0.08951623 -0.09390181 -0.048459295 -0.095476165 0.061963227
-0.07198973 -0.03776134 0.20405702 0.06649779 -0.06536179 -0.013531993 -0.14059536 -0.20087533
-0.11528489 -0.014634545 -0.0842684 0.08276108 0.037087917 0.08628885 0.056841783 -0.21587318
-0.013917036 -0.090190485 0.03534265 -0.11041256 0.10197212 0.016641391 -0.044883568 0.13538936
-0.098037265 0.048817355 -0.074697085 -0.0102309575 0.0030239637 -0.022401648 -0.070954666 0.030215628
-0.09633319 -0.07210105 -0.05963305 -0.014951066 0.061779965 0.041450404 -0.070335835 0.038745355
-0.053615976 0.05438247 0.03788088 -0.0070936326 0.08813247 -0.11195688 0.01901713 0.053294625
0.09824926 0.03164168 0.098788634 0.11068009 -0.14507274 -0.0069941124 -0.07958933 -0.10980021
-0.0036194134 0.1415408 0.0020166272 -0.1145378 0.016587187 -0.036030315 -0.07765217 -0.06946974
0.008866215 0.046840657 -0.10885582 0.021882514 -0.050383322 -0.015926361 0.039883424 -0.1449684
-0.05864688 -0.17190668 -0.035890397 -0.1106673 -0.036840536 0.15235177 0.1357097 0.045535658
0.00995816 0.078034945 0.06465064 0.0059214556 0.07279566 -0.10211385 0.040252324 -0.044877723
-0.0584246 -0.13926084 -0.0606465 0.06793776 -0.10884654 -0.058387972 0.032901034 0.03871648
0.076363176 0.083439775 0.019879434 -0.02058167 0.004183006 0.13562202 0.07553385 0.066549234
-0.053395305 0.10272366 -0.06719725 -0.102060564 -0.009644304 0.019292021 0.004027016 -0.05882708
0.01833161 -0.040173035 0.026618414 0.08284176 -0.12838371 -0.1305948 -0.05004109 0.10078385
-0.031441007 0.039149128 0.11675352 0.059630617 -0.02168818 0.05706344 -0.08060574 0.1748013
-0.064606346 0.06364728 0.17532326 -0.0869615 -0.05851411 0.044473574 -0.06619463 0.053409904
-0.06364053 -0.08042156 0.050309516 -0.0210059 -0.05464483 -0.10167679 0.035784155 -0.024456196
0.0020863542 -0.27573767 -0.07388442 -0.089400515 -0.043798506 0.13051952 -0.116345525 0.052605964
-0.004590029 -0.1353136 -0.12130669 -0.0047837636 0.10702119 0.16172495 0.09315599 -0.015058833
-0.05580427 0.024810059 0.07065054 -0.11691782 -0.12524731 0.017438019 0.077215336 -0.054570764
-0.0300744 -0.102836534 -0.02439527 -0.075282454 0.044840332 0.095666304 -0.10475668 -0.040181153
0.021273479 -0.03599039 -0.038266096 0.05332377 -0.122016005 -0.18334478 -0.009687884 0.01991203
0.0052103326 -0.072677426 0.083234966 0.1007996 0.023909528 -0.1412915 0.075181425 0.04790679
-0.045989104 0.12033505 0.059655603 -0.010061619 0.10971394 0.21589555 0.004026083 0.007382843
0.009375438 -0.049468234 -0.033210065 -0.14674556 -0.017279439 0.14178166 0.097508304 0.05390549
0.050126206 -0.03944643 0.012965553 -0.19115958 -0.007673311 -0.058983304 0.018839192 0.087605275
-0.0921838 -0.025630224 -0.061643723 0.10102331 -0.10790311 -0.06582482 -0.029126555 0.015624957

network_body._body_endoder.seq_layers.2.bias f4 [128]
00000000: 8204 6fbb 905d 4f3a 48f7 4f3b 0b98 a53b
00000010: 487d 6cba 4312 c03b 4c61 adbb a077 96bb
00000020: b316 a13b b152 d7ba 9089 ad3b 0861 b03b
00000030: 1ef2 9e3a 66c7 cbbb 45ab 033c 5640 bfba
00000040: 5b3e b1bb 8282 a4bb 7c57 1bbc df16 01bb
00000050: 2679 f33b c809 6a3b 5265 bb3b 0615 f2ba
00000060: 93c6 c039 b967 993b 220d bb3b 6452 b73b
00000070: 9fe7 9ebb edb2 6cbb 56a8 0439 8115 c13b
00000080: 042f deb7 bbd8 c03b 6220 ab3b 5b17 b63b
00000090: 58e6 9ebb 1b93 6b3b a83c e83b fbb3 bebb
000000a0: be96 493b eae5 b13b b44e babb a30b 4c3b
000000b0: 13ac a2bb d35e ad3b 79ef d6ba daa7 a7bb
000000c0: 9308 49bc 5b26 7dbb a27a 683b 1c6b afbb
000000d0: 6d96 d7ba 4553 ba3b 9988 7bbb 9bac aebb
000000e0: 79f3 a6bb b883 3dbb a57f 633b 2d1d 89bb
000000f0: 6353 f03b d04a afbb 57b2 aeb9 c42a b6ba
00000100: 42be b83b 4234 daba ac0a be3a 996f 38bb
00000110: 49d8 bd3b 0862 9f3b f1cc b83a b8f7 cc3b
00000120: d3a2 98ba 6343 813b 4578 363b 2cde feb9
00000130: 93e1 2f3b 3c4c 93bb 8c89 a5ba db4f ae3b
00000140: f69c ae3b 60e7 34bb 8bd3 70ba e2c7 7abb
00000150: 05a1 143c a435 893b 1afa 903b 5cb2 67bb
00000160: 703c 0f3b 610a b4bb 748c 4ebb 64cf 513b
00000170: f12d 5bbb 5660 b33b f8b5 63bb 2f27 c93b
00000180: d1b0 a33b 0d1d bbbb 98d5 923b 1a38 bd3b
00000190: 0580 b3bb cb25 3fba 42d2 c0bb 6153 c33b
000001a0: ff0e 77bb 1378 22bb 87cd a03b 45fb babb
000001b0: b909 0c3b b428 9b3b 7173 d03b fa43 c3bb
000001c0: 288f 50b9 7b79 aabb 78f6 81bb da87 c7bb
000001d0: e106 1c3c 1f29 9ebb 48f7 d3ba fb3d dfba
000001e0: 887d aebb 2e6a 603b 0561 90bb b620 c3bb
000001f0: 2c6f 8ebb 77ab bd3b 7921 c1bb ffa6 a23b
-0.0036471193 0.0007910365 0.0031733084 0.0050535253 -0.0009021354 0.005861552 -0.0052911397 -0.004591897
0.004916036 -0.0016427842 0.0052959397 0.005382661 0.00121266 -0.0062188385 0.008036439 -0.0014591317
-0.0054090447 -0.0050204406 -0.009481307 -0.001969747 0.0074302135 0.0035711396 0.0057188654 -0.00184694
0.00036769043 0.004681554 0.0057083527 0.0055945385 -0.0048493887 -0.003611739 0.00012651211 0.005892456
-2.6486356e-05 0.0058852113 0.005222366 0.0055569834 -0.0048492365 0.0035945836 0.007087309 -0.005819795
0.0030760015 0.005429019 -0.0056856517 0.0031134866 -0.0049643605 0.005290845 -0.0016398273 -0.005116445
-0.012270111 -0.0038627598 0.0035473485 -0.0053533446 -0.0016448029 0.005686196 -0.003838098 -0.005330635
-0.005094942 -0.0028917622 0.0034713533 -0.004184386 0.007334159 -0.0053494945 -0.0003332074 -0.0013898243
0.005637915 -0.0016647654 0.001449903 -0.002814269 0.0057936055 0.004863981 0.0014099163 0.0062551163
-0.0011645205 0.0039448007 0.0027842682 -0.00048612186 0.0026837334 -0.004495172 -0.0012629493 0.005319578
0.00532877 -0.002760373 -0.0009186796 -0.0038266112 0.009071593 0.0041873027 0.0044243457 -0.0035354113
0.0021856092 -0.0054944013 -0.0031516822 0.0032014484 -0.0033444131 0.0054741306 -0.0034745913 0.0061387043
0.0049954434 -0.00571025 0.0044810288 0.00577451 -0.0054779076 -0.00072917034 -0.0058844397 0.0059608673
-0.0037698147 -0.0024790808 0.0049073133 -0.005706223 0.00213681 0.004735077 0.006361418 -0.005959031
-0.00019889756 -0.00520247 -0.003966149 -0.006089193 0.009523124 -0.0048266794 -0.0016171718 -0.0017032021
-0.005325023 0.0034242976 -0.004406097 -0.005954827 -0.004346749 0.0057882625 -0.005893883 0.004963755

action_model._continuous_distribution.log_sigma f4 [1, 2]
00000000: 7e57 0f3b c4f8 2539
0.0021872218 0.00015828299

action_model._continuous_distribution.mu.weight f4 [2, 128]
00000000: 692a a5bc e391 e8bb 342c 003c cfb0 023d
00000010: bbe8 12bc 8f95 983c 8a58 15bc 697f 90bc
00000020: cedb cd3c 12d6 803a 7bdf db3c cc8a 203d
00000030: b382 b23b d780 14bd fbdd 513c 0d8a cc39
00000040: f779 3bbd 628b 10bc cf67 3bbc 14d7 bdbb
00000050: bb3a 3b3c eae8 2b3c b67d 893c bf71 193b
00000060: 487c 393c ba36 1b3d 6a98 d53c 647e 983c
00000070: c5b3 96bc 9df3 75bc 10e1 83b9 850c c73c
00000080: c6a3 3ebc 4e36 f93c b532 273c 3378 7b3c
00000090: ea36 a5bc a239 743b bf14 5f3c 065e 9abc
000000a0: 4301 e83c cf7d c13c f5b7 99bc 2589 af3b
000000b0: f201 edbc a51d 243d 2e70 51bc dca8 02bd
000000c0: 4d6c 5cbc fb2a 69bc 48cf 053c 2f28 57bc
000000d0: 986a 1dbc 9351 f73c 2b3d ecbb d358 06bd
000000e0: 19de c3bc e110 71bb 4e4b 9f3c 0d2e 19bd
000000f0: d431 823c 67d0 e8bc b2c7 303c e381 daba
00000100: 2949 c13c 3b71 30bb 2a62 5fbb 4032 adbb
00000110: a160 cc3c 2581 f83b aa34 883b f95b 893c
00000120: e4eb 34bc c97c 453c f318 203c fd25 d8ba
00000130: 4a0d ce3c 66bc b1bc 1b94 15ba c93f b13c
00000140: d045 0d3d 5242 17bc 3765 303c d80c 71bc
00000150: cba0 3c3c 97d9 7e3c 3fa2 2e3c 2d2f ddbb
00000160: 0ba8 c03c 8689 f7bc 6318 b7bc 89b9 a33b
00000170: 941e e2bb 85e5 e63c c979 dabb e6a9 8e3c
00000180: 7497 7c3c 6e58 27bd 9fbe 943c 85ab ff3c
00000190: b5f1 25bd de79 26bc 3d25 46bc 640f 883c
000001a0: 42f5 eebc d3b7 76bb 60bb 6e3c 272b 8abc
000001b0: 8e1e dcbb 8fc7 bd3c 11b6 5f3c 5d21 d4bc
000001c0: 3101 efbb c800 d7bc 094e 84bc 13c4 abbc
000001d0: 8778 423c 2fc4 09bd 975e 68bb b28d a3bc
000001e0: 7eff 09bc 743f ba3b af3d 86bc d8ae d8bc
000001f0: 240e 64bc 0d65 5d3c 2136 6abc 1bb4 7d3c
00000200: ae25 1f3c 727f 013d 07cf 713c 2878 d0ba
00000210: 8a8d 613c 01d1 113c d333 07bc dd5d 98ba
00000220: 7d59 8cba 0480 c0bc 6364 4ab9 776f 3f3c
00000230: bb89 53bb 7d58 0dbc eeef ab3b 06f1 f3bb
00000240: 7b3c 0eb9 e93c e2bb 6466 03bc a98e 7abb
00000250: 0d96 933b 4e4a 87bb d0b4 473c ab82 f7bc
00000260: f425 90bc 239e 5fbc 7d3f c13c 9322 833c
00000270: a11f 92bb 07af d13b ada7 25bc a20b 4c3c
00000280: cc88 ce3c 1f82 6c3c 93c0 4d3c 13ce 993b
00000290: a891 08bd e0d6 5c3c 29a0 073c d948 17bc
000002a0: df23 99bc 7521 bb3c 6eb5 91bc bd32 333c
000002b0: 261d 4c3a 390b 97ba 57ef 703c 3432 dd39
000002c0: 9d89 3ebc 6812 733b 22fd 143d 95de 5ebc
000002d0: 0b4f 6c3c 5079 853c a60f 323b 8e79 13bd
000002e0: 6857 6fbb 453e 4d3b c560 42bc a076 883c
000002f0: dbc2 0b3c 11ef 49bc ba2a aebc 6684 49bc
00000300: d042 583c 9c4e aa3b ed0d 943c 5c33 eebb
00000310: b665 a73c 65c7 043c c5d7 2f3c f3be d83b
00000320: 7cec 993c 0c35 113d 1915 2eba 22ba dc3b
00000330: 63f2 a5bc 5ecb 333b 1036 bb3b 73d1 b73c
00000340: 20e8 953b dfff 113c 1bb4 f1bc 42eb 473b
00000350: bfdf ed3b 65ad 0ebb 272b 913c c70f 9fbc
00000360: 6b33 cebc 6ed1 f7bc 6849 6b3c 6bcf 1a3d
00000370: 98eb c0bc 4f22 d13c afec 13bd 45da ce3b
00000380: 9f22 a73c 598c 07bd a33b 2b3b e38f c73c
00000390: 6c5e 17bd 9905 b53c e497 b2bb 7238 eb3b
000003a0: c614 363c af7b aabc 8c68 2239 c67b 16bc
000003b0: 0ac9 073d 6666 95b9 7dbf 253b 8220 2ebc
000003c0: 50ee b93c 84ff 21bc e317 703b 9844 5cbc
000003d0: c466 783b 12f6 f13b 70ca 32bc c740 d83c
000003e0: af25 dabb 7adc 993c 9273 1eba 40e6 1abc
000003f0: 9aa0 edbc 9b98 ea3b f83f 4fbc 83be b83c
-0.020161824 -0.007097469 0.007823039 0.0319069 -0.00896662 0.018626003 -0.009115348 -0.017638879
0.025129225 0.0009829423 0.026839962 0.039194867 0.0054477095 -0.036255684 0.012809272 0.00039012768
-0.04577061 -0.008822294 -0.011438324 -0.0057934616 0.011427577 0.010492543 0.016783576 0.0023413745
0.011321135 0.03789399 0.026073653 0.018614955 -0.018396268 -0.015011695 -0.00025153952 0.024297962
-0.011635726 0.030421402 0.010204961 0.015348482 -0.020167787 0.0037265797 0.013615786 -0.018843662
0.028320914 0.02361956 -0.018764475 0.005356925 -0.028931592 0.040067334 -0.012783093 -0.031899318
-0.013453555 -0.014231439 0.0081670955 -0.013132139 -0.009607933 0.030190265 -0.00720944 -0.032799553
-0.023909615 -0.0036783742 0.019445088 -0.037397433 0.0158929 -0.028419686 0.010789799 -0.0016670789
0.023594456 -0.002692296 -0.003408561 -0.0052855313 0.02494842 0.0075837546 0.0041566687 0.016767489
-0.011042569 0.012053677 0.009771573 -0.0016490814 0.025152821 -0.02169628 -0.00057059684 0.02163686
0.034490407 -0.009232121 0.010766319 -0.014712535 0.011512945 0.015554807 0.0106588 -0.0067500086
0.02351763 -0.030216943 -0.022350496 0.0049964827 -0.006900618 0.028185615 -0.00666735 0.017414998
0.015416969 -0.040855817 0.018157301 0.031209717 -0.040513713 -0.010160891 -0.012093839 0.016608901
-0.029169682 -0.003764619 0.014571041 -0.01686628 -0.0067175096 0.023166446 0.013654248 -0.025894815
-0.007293843 -0.02624549 -0.016150491 -0.020967519 0.011869556 -0.03363436 -0.003545677 -0.019965027
-0.0084227305 0.0056838337 -0.016386835 -0.02645056 -0.013919387 0.013512862 -0.014295132 0.015484835
0.009713573 0.031615682 0.014758832 -0.001590495 0.013766656 0.008899928 -0.008252102 -0.0011624653
-0.0010707822 -0.023498543 -0.00019301618 0.01168429 -0.0032278139 -0.008627054 0.0052471077 -0.0074445037
-0.00013564706 -0.0069042337 -0.008020017 -0.0038232005 0.0045039714 -0.004128731 0.012189105 -0.030213675
-0.017596222 -0.013648543 0.023589844 0.016007697 -0.004459337 0.0063990387 -0.010110778 0.012453945
0.025211714 0.01443532 0.01255812 0.0046937554 -0.033342034 0.013478965 0.008277931 -0.009233677
-0.018693862 0.022843102 -0.017786708 0.01093739 0.0007786326 -0.001152373 0.014705501 0.0004218981
-0.011629489 0.0037089828 0.03637422 -0.013602872 0.014423142 0.016293198 0.0027169972 -0.036004595
-0.0036520604 0.0031317633 -0.011863892 0.016658127 0.008530344 -0.012325064 -0.021260608 -0.012299633
0.013199523 0.0051973592 0.018073047 -0.007269306 0.020434242 0.00810418 0.010732596 0.00661456
0.018789522 0.03545098 -0.0006640717 0.006736056 -0.02025718 0.0027434449 0.005713232 0.02243874
0.0045747906 0.008911102 -0.029504826 0.0030505215 0.0072593386 -0.0021770832 0.017720772 -0.019416703
-0.025171002 -0.030251231 0.014360763 0.037795465 -0.02354984 0.025529055 -0.03611439 0.006312641
0.02040225 -0.03309283 0.0026128076 0.024360603 -0.036955282 0.022097396 -0.0054502357 0.0071783597
0.011113351 -0.02081093 0.0001548847 -0.009184783 0.03315071 -0.00028495787 0.0025291138 -0.010627868
0.022696644 -0.00988758 0.0036635331 -0.013444088 0.003790305 0.00738407 -0.010912523 0.026398076
-0.0066573243 0.01878189 -0.0006044443 -0.00945431 -0.029007245 0.0071593053 -0.012649529 0.02255178

action_model._continuous_distribution.mu.bias f4 [2]
00000000: 1397 cb3b b660 3f3b
0.006213078 0.0029201931

exp_avg f4 [128, 1]
00000000: 0000 0000 0000 0000 0000 0000 0000 0000
00000010: 0000 0000 0000 0000 0000 0000 0000 0000
00000020: 0000 0000 0000 0000 0000 0000 0000 0000
00000030: 0000 0000 0000 0000 0000 0000 0000 0000
00000040: 0000 0000 0000 0000 0000 0000 0000 0000
00000050: 0000 0000 0000 0000 0000 0000 0000 0000
00000060: 0000 0000 0000 0000 0000 0000 0000 0000
00000070: 0000 0000 0000 0000 0000 0000 0000 0000
00000080: 0000 0000 0000 0000 0000 0000 0000 0000
00000090: 0000 0000 0000 0000 0000 0000 0000 0000
000000a0: 0000 0000 0000 0000 0000 0000 0000 0000
000000b0: 0000 0000 0000 0000 0000 0000 0000 0000
000000c0: 0000 0000 0000 0000 0000 0000 0000 0000
000000d0: 0000 0000 0000 0000 0000 0000 0000 0000
000000e0: 0000 0000 0000 0000 0000 0000 0000 0000
000000f0: 0000 0000 0000 0000 0000 0000 0000 0000
00000100: 0000 0000 0000 0000 0000 0000 0000 0000
00000110: 0000 0000 0000 0000 0000 0000 0000 0000
00000120: 0000 0000 0000 0000 0000 0000 0000 0000
00000130: 0000 0000 0000 0000 0000 0000 0000 0000
00000140: 0000 0000 0000 0000 0000 0000 0000 0000
00000150: 0000 0000 0000 0000 0000 0000 0000 0000
00000160: 0000 0000 0000 0000 0000 0000 0000 0000
00000170: 0000 0000 0000 0000 0000 0000 0000 0000
00000180: 0000 0000 0000 0000 0000 0000 0000 0000
00000190: 0000 0000 0000 0000 0000 0000 0000 0000
000001a0: 0000 0000 0000 0000 0000 0000 0000 0000
000001b0: 0000 0000 0000 0000 0000 0000 0000 0000
000001c0: 0000 0000 0000 0000 0000 0000 0000 0000
000001d0: 0000 0000 0000 0000 0000 0000 0000 0000
000001e0: 0000 0000 0000 0000 0000 0000 0000 0000
000001f0: 0000 0000 0000 0000 0000 0000 0000 0000
0.0 0.0 0.0 0.0 0.0 0.0 0.0 0.0
0.0 0.0 0.0 0.0 0.0 0.0 0.0 0.0
0.0 0.0 0.0 0.0 0.0 0.0 0.0 0.0
0.0 0.0 0.0 0.0 0.0 0.0 0.0 0.0
0.0 0.0 0.0 0.0 0.0 0.0 0.0 0.0
0.0 0.0 0.0 0.0 0.0 0.0 0.0 0.0
0.0 0.0 0.0 0.0 0.0 0.0 0.0 0.0
0.0 0.0 0.0 0.0 0.0 0.0 0.0 0.0
0.0 0.0 0.0 0.0 0.0 0.0 0.0 0.0
0.0 0.0 0.0 0.0 0.0 0.0 0.0 0.0
0.0 0.0 0.0 0.0 0.0 0.0 0.0 0.0
0.0 0.0 0.0 0.0 0.0 0.0 0.0 0.0
0.0 0.0 0.0 0.0 0.0 0.0 0.0 0.0
0.0 0.0 0.0 0.0 0.0 0.0 0.0 0.0
0.0 0.0 0.0 0.0 0.0 0.0 0.0 0.0
0.0 0.0 0.0 0.0 0.0 0.0 0.0 0.0

exp_avg_sq f4 [128, 1]
00000000: 0000 0000 0000 0000 0000 0000 0000 0000
00000010: 0000 0000 0000 0000 0000 0000 0000 0000
00000020: 0000 0000 0000 0000 0000 0000 0000 0000
00000030: 0000 0000 0000 0000 0000 0000 0000 0000
00000040: 0000 0000 0000 0000 0000 0000 0000 0000
00000050: 0000 0000 0000 0000 0000 0000 0000 0000
00000060: 0000 0000 0000 0000 0000 0000 0000 0000
00000070: 0000 0000 0000 0000 0000 0000 0000 0000
00000080: 0000 0000 0000 0000 0000 0000 0000 0000
00000090: 0000 0000 0000 0000 0000 0000 0000 0000
000000a0: 0000 0000 0000 0000 0000 0000 0000 0000
000000b0: 0000 0000 0000 0000 0000 0000 0000 0000
000000c0: 0000 0000 0000 0000 0000 0000 0000 0000
000000d0: 0000 0000 0000 0000 0000 0000 0000 0000
000000e0: 0000 0000 0000 0000 0000 0000 0000 0000
000000f0: 0000 0000 0000 0000 0000 0000 0000 0000
00000100: 0000 0000 0000 0000 0000 0000 0000 0000
00000110: 0000 0000 0000 0000 0000 0000 0000 0000
00000120: 0000 0000 0000 0000 0000 0000 0000 0000
00000130: 0000 0000 0000 0000 0000 0000 0000 0000
00000140: 0000 0000 0000 0000 0000 0000 0000 0000
00000150: 0000 0000 0000 0000 0000 0000 0000 0000
00000160: 0000 0000 0000 0000 0000 0000 0000 0000
00000170: 0000 0000 0000 0000 0000 0000 0000 0000
00000180: 0000 0000 0000 0000 0000 0000 0000 0000
00000190: 0000 0000 0000 0000 0000 0000 0000 0000
000001a0: 0000 0000 0000 0000 0000 0000 0000 0000
000001b0: 0000 0000 0000 0000 0000 0000 0000 0000
000001c0: 0000 0000 0000 0000 0000 0000 0000 0000
000001d0: 0000 0000 0000 0000 0000 0000 0000 0000
000001e0: 0000 0000 0000 0000 0000 0000 0000 0000
000001f0: 0000 0000 0000 0000 0000 0000 0000 0000
0.0 0.0 0.0 0.0 0.0 0.0 0.0 0.0
0.0 0.0 0.0 0.0 0.0 0.0 0.0 0.0
0.0 0.0 0.0 0.0 0.0 0.0 0.0 0.0
0.0 0.0 0.0 0.0 0.0 0.0 0.0 0.0
0.0 0.0 0.0 0.0 0.0 0.0 0.0 0.0
0.0 0.0 0.0 0.0 0.0 0.0 0.0 0.0
0.0 0.0 0.0 0.0 0.0 0.0 0.0 0.0
0.0 0.0 0.0 0.0 0.0 0.0 0.0 0.0
0.0 0.0 0.0 0.0 0.0 0.0 0.0 0.0
0.0 0.0 0.0 0.0 0.0 0.0 0.0 0.0
0.0 0.0 0.0 0.0 0.0 0.0 0.0 0.0
0.0 0.0 0.0 0.0 0.0 0.0 0.0 0.0
0.0 0.0 0.0 0.0 0.0 0.0 0.0 0.0
0.0 0.0 0.0 0.0 0.0 0.0 0.0 0.0
0.0 0.0 0.0 0.0 0.0 0.0 0.0 0.0
0.0 0.0 0.0 0.0 0.0 0.0 0.0 0.0

exp_avg f4 [128]
00000000: c4b0 43b7 3042 2ab6 d9f7 7e37 eece e2b7
00000010: e2b2 f1b6 969f 5e37 bd59 76b7 1ddf 2eb7
00000020: 8df8 b4b6 ee5e abb7 6038 9f37 84a9 b837
00000030: 48fd bf36 cf64 1337 c07d 75b4 ae88 9336
00000040: 40d4 ebb4 088f 0b38 4c64 1fb7 23b9 ad36
00000050: ea2c 5737 cb4e 2db7 e877 7db6 e53f 4337
00000060: d052 e9b7 10f9 9a36 a072 c534 1e89 73b7
00000070: d5cf ae37 c63c c5b7 b3c9 6837 2eae 3bb6
00000080: eaea ba36 00aa beb6 5188 ac36 4215 0d37
00000090: 5ca5 dab6 b291 2236 4eb7 96b7 fa0f 1337
000000a0: 38da b935 189d aa36 b0f1 9735 5b51 8837
000000b0: 39b6 14b7 a9d6 cb36 3024 aa37 656d 31b7
000000c0: cbec ce37 9b90 8bb7 5a67 bd36 7cec 1538
000000d0: f99b 1e37 57a4 c536 8e5d 1e37 48ce 6636
000000e0: 787b 1db7 0e41 e436 6d08 db36 7c18 c037
000000f0: d899 8036 cdcb a237 e655 4237 7edf 06b7
00000100: 72fa 3db7 74c4 5936 302a 9835 39a2 a8b7
00000110: 9f67 1937 1b56 c637 dcc9 80b7 8bb2 a1b6
00000120: e07b e135 d6c1 9537 c084 0735 dc03 bd37
00000130: b6ad 4636 2f7a 94b7 888e 4937 e8b0 5737
00000140: 390e 8536 203f 8c34 5390 dab5 24b2 2f37
00000150: 0805 1737 3688 4f36 3255 c9b7 1008 3537
00000160: 10d2 8ab7 d417 76b6 e8e1 2f36 b91a 1f37
00000170: 7c9a db36 e028 c036 1811 9037 0f35 9337
00000180: 9811 85b5 6069 0e38 cc2f f0b5 82ba 9f37
00000190: a405 85b6 b517 6337 e60d 99b7 9070 9eb7
000001a0: c414 43b7 58e9 4637 c56b 1237 b966 9636
000001b0: ef10 18b7 30b3 5ab6 5e5d 8137 d412 e2b7
000001c0: bad0 9cb7 ce30 5d36 5c2e ac35 000b 0eb6
000001d0: 2bf7 3437 d134 81b7 342e 3fb7 c438 2e37
000001e0: 2046 aeb4 1a05 8d36 57c5 8c37 f1cf 3437
000001f0: 3050 4535 e6cc 13b7 2a4c 9e37 e764 ef37
-1.1664062e-05 -2.53705e-06 1.5197286e-05 -2.7037659e-05 -7.2031844e-06 1.3269388e-05 -1.4683636e-05 -1.0423156e-05
-5.393353e-06 -2.0428994e-05 1.8980529e-05 2.2013446e-05 5.7217294e-06 8.785354e-06 -2.286315e-07 4.396853e-06
-4.3926593e-07 3.327339e-05 -9.500491e-06 5.1773545e-06 1.2825456e-05 -1.0329949e-05 -3.7769732e-06 1.1637782e-05
-2.7814327e-05 4.6185523e-06 3.677751e-07 -1.4515854e-05 2.0839196e-05 -2.351253e-05 1.3875239e-05 -2.7966557e-06
5.5705796e-06 -5.682232e-06 5.1418688e-06 8.409204e-06 -6.5161566e-06 2.4224687e-06 -1.7966751e-05 8.765603e-06
1.3847084e-06 5.084683e-06 1.1320717e-06 1.6250347e-05 -8.863914e-06 6.074861e-06 2.028243e-05 -1.05754925e-05
2.4667379e-05 -1.6637428e-05 5.6446706e-06 3.574461e-05 9.453849e-06 5.890189e-06 9.439316e-06 3.4392742e-06
-9.3866765e-06 6.802503e-06 6.5276895e-06 2.2899585e-05 3.832607e-06 1.9406807e-05 1.1583301e-05 -8.039058e-06
-1.1323589e-05 3.244987e-06 1.1337161e-06 -2.0102701e-05 9.143637e-06 2.3643535e-05 -1.5352787e-05 -4.818959e-06
1.6799859e-06 1.7852446e-05 5.0484596e-07 2.2532353e-05 2.9605412e-06 -1.7699871e-05 1.2013719e-05 1.2856188e-05
3.9653646e-06 2.6122962e-07 -1.628427e-06 1.0472289e-05 9.001473e-06 3.092469e-06 -2.400074e-05 1.0790318e-05
-1.65487e-05 -3.6670726e-06 2.6208527e-06 9.48336e-06 6.544693e-06 5.7268044e-06 1.7174098e-05 1.7548473e-05
-9.914393e-07 3.3953576e-05 -1.7895304e-06 1.9041127e-05 -3.9643655e-06 1.3535774e-05 -1.8245493e-05 -1.8887484e-05
-1.1627741e-05 1.1856049e-05 8.72737e-06 4.482307e-06 -9.063849e-06 -3.2588832e-06 1.5421476e-05 -2.6950067e-05
-1.8693845e-05 3.2959974e-06 1.2828491e-06 -2.1166052e-06 1.0786384e-05 -1.5402593e-05 -1.1395245e-05 1.0384425e-05
-3.2461048e-07 4.2027214e-06 1.6781194e-05 1.0777251e-05 7.3504907e-07 -8.809589e-06 1.8870534e-05 2.8538007e-05

exp_avg_sq f4 [128]
00000000: b328 a130 f25e 6331 7ceb 8030 9372 ce31
00000010: 763b 0330 ddf6 a330 bde0 5031 c415 4930
00000020: 0e85 6730 8519 0531 3e11 3d31 8de8 5331
00000030: 2586 7330 9986 ee30 4ddb 9530 d8c8 c12f
00000040: d9fa 1f31 0fdd ce31 a2d0 8430 543d 8a2f
00000050: 0bc4 6831 84e9 6030 2650 3a32 e313 8a30
00000060: a56e e631 e725 0631 c814 5030 1843 2331
00000070: 29be 2531 69ec 9c31 e487 dc31 1c10 8d2f
00000080: 4660 a230 5955 7230 1703 4730 74ec 7630
00000090: 194f eb2f 6103 0b30 e164 a231 b398 ae31
000000a0: f1b7 a030 b58c 8831 0b91 d72f af31 9531
000000b0: d83b f830 5f73 842f 4923 1f31 1ae5 7930
000000c0: 4326 cf31 9606 1331 d94f ec30 18a7 0132
000000d0: 73f1 0331 230f d230 012e c130 26ee 8930
000000e0: 6075 7730 2e0e 402f 6b22 8d30 8af7 3e31
000000f0: 6301 3531 b5a5 1231 1f51 a730 14d9 972f
00000100: 34c9 9f30 9773 0a31 f90e 6a30 7b00 4931
00000110: 03b7 3730 f08e 7031 0053 8831 afbe 2f30
00000120: e7ac 8231 1356 e430 3717 4c30 655f f231
00000130: f291 e22f 1ee9 0f32 4bb1 6130 708b 3630
00000140: 8f7e 9830 5cac 8630 860f e22f 8674 8031
00000150: adf7 2530 1c0f b62f a8dd 4031 e9c0 2431
00000160: d5be 9c30 ad02 5830 f8f9 e72f ce75 2b30
00000170: 9a01 f22f 1946 f02f 1220 ce30 a774 3c31
00000180: 6d5c 3b30 8a7a 0232 9e43 e32f 6476 4331
00000190: f9aa 2631 6d7a cc30 1471 a431 d493 3e31
000001a0: 355d 8330 5673 b330 a7f3 7b30 ff9e 2030
000001b0: 12e2 9a30 fc48 f72f d945 4c31 c3e2 5232
000001c0: 870d 0131 8ddb f02f 72b6 942f 0842 9a30
000001d0: 988e c230 d451 0a31 8028 c630 7c89 a030
000001e0: ae0a 5130 3ade ca30 bc3a 0632 52ae 2431
000001f0: b941 f130 8fda 8430 a3a4 1f31 dab3 8331
1.1725859e-09 3.3086818e-09 9.380154e-10 6.0084147e-09 4.774202e-10 1.1929974e-09 3.0395733e-09 7.3154305e-10
8.422639e-10 1.9368553e-09 2.751292e-09 3.083673e-09 8.8593516e-10 1.7355034e-09 1.0903506e-09 3.5249204e-10
2.3280136e-09 6.0205205e-09 9.663561e-10 2.514563e-10 3.387188e-09 8.182257e-10 1.0844849e-08 1.0046474e-09
6.70646e-09 1.9521111e-09 7.569949e-10 2.375776e-09 2.4118754e-09 4.5670743e-09 6.4182917e-09 2.5659197e-10
1.1814414e-09 8.8160373e-10 7.240017e-10 8.98303e-10 4.2802453e-10 5.0572707e-10 4.726289e-09 5.0814264e-09
1.1693811e-09 3.9741175e-09 3.9211331e-10 4.342119e-09 1.8061383e-09 2.4092636e-10 2.3157603e-09 9.0911245e-10
6.0288428e-09 2.139506e-09 1.7193954e-09 7.546781e-09 1.9200257e-09 1.5283813e-09 1.4055673e-09 1.0035748e-09
9.0024876e-10 1.7467336e-10 1.0268882e-09 2.7789349e-09 2.6339755e-09 2.133999e-09 1.2173905e-09 2.7620983e-10
1.1625958e-09 2.0147348e-09 8.514998e-10 2.9249623e-09 6.683509e-10 3.5005847e-09 3.967557e-09 6.3935607e-10
3.8031547e-09 1.6613647e-09 7.424776e-10 7.053972e-09 4.121286e-10 8.3767e-09 8.210647e-10 6.6409367e-10
1.1095426e-09 9.798771e-10 4.112019e-10 3.7385375e-09 6.037862e-10 3.3116343e-10 2.8065674e-09 2.3974798e-09
1.1404732e-09 7.8584145e-10 4.219627e-10 6.237685e-10 4.4020682e-10 4.3705553e-10 1.4997588e-09 2.742391e-09
6.816155e-10 7.594858e-09 4.1339104e-10 2.8443532e-09 2.4253366e-09 1.4877749e-09 4.7858837e-09 2.773267e-09
9.557996e-10 1.3056745e-09 9.165952e-10 5.843361e-10 1.1269228e-09 4.4980897e-10 2.972561e-09 1.2275168e-08
1.877966e-09 4.3811746e-10 2.7050678e-10 1.1223742e-09 1.4155885e-09 2.0128157e-09 1.4417907e-09 1.1680608e-09
7.6048934e-10 1.4760595e-09 7.813181e-09 2.396423e-09 1.7553737e-09 9.666382e-10 2.323113e-09 3.8330485e-09

exp_avg f4 [128, 128]
00000000: 1447 cd33 ec60 c033 e8b4 96b4 33df d733
00000010: 92f8 a033 bb0a ccb3 4c8c df33 3f53 8d32
00000020: e8e0 c5b2 cab8 a634 999a 1a2f e2b2 2bb2
00000030: 78c5 feb3 2106 c0b3 3f5f 9db3 aa4e dfb3
00000040: a440 acb3 dff2 b2b3 4682 db32 f830 adb3
00000050: 12f7 d6b3 c1c3 bd30 35a7 bcb3 5cc2 07b2
00000060: 1c24 b2b2 95b3 feb3 b80e c6b3 9e91 fd33
00000070: 63f3 2eb3 5ad0 e033 780b e8b3 5ac0 3eb3
00000080: 6975 5733 6ee8 0a34 ac53 e9b3 163d c1b3
00000090: c26f 1d34 1de3 d5b3 c9d5 4cb3 472f 9933
000000a0: ae1a adb3 cc8b dbb3 667b feb0 7be9 cfb3
000000b0: 36e7 29b3 f289 b1b3 987c 74b3 3e2a dc33
000000c0: 3343 d4b3 4196 4933 a55b f5b3 3e32 d1b3
000000d0: f1c1 abb3 8c09 cdb3 cf30 08b2 f737 3e33
000000e0: aae6 8c33 c4ee feb3 9f9c 03b4 b3fa 95b2
000000f0: aa36 a533 1666 2db3 c33b d1b3 d2d5 2634
00000100: 7ea2 d033 9458 edb3 be77 8e33 5907 8e33
00000110: a965 55b4 ad69 72b2 f452 c033 1e6c 0334
00000120: cadf ddb3 12a2 01b3 1a18 8fb3 569f cbb3
00000130: 6d17 f131 ef4d 8bb3 a440 85b4 dad4 16b4
00000140: c176 1032 5c72 b2b3 b541 5233 fe96 d2b3
00000150: 2d22 4eb4 c75b dcb3 62bc 9733 bac5 5533
00000160: d578 9f34 085c 52b3 517a f0b3 c439 5ab4
00000170: fc47 8bb3 d8c9 1db4 d51b 8eb3 f9e2 d6b3
00000180: 45b4 9fb3 4db5 89b1 0e42 d833 110c beb3
00000190: 2c21 aeb3 f39d feb3 bd0d ef33 7c0c a7b0
000001a0: a394 5034 0e5f 34b3 2707 08b4 0751 cdb3
000001b0: 622d e633 4cd7 86b3 6620 0bb4 1c59 d733
000001c0: 0a5d 3d33 7e79 2133 a2a8 6cb2 3a71 aeb3
000001d0: b370 12b4 f106 6c33 47ab 6333 9fb9 a1b3
000001e0: b53f 9333 5bf2 e3b3 be6d cbb3 2313 11b4
000001f0: 6ffb cab3 ab04 48b2 90a8 19b3 1e94 75b3
00000200: 5364 f533 6418 ea33 e65f b2b4 6e2d 0134
00000210: 74bc be33 4fd8 f0b3 b35e 0534 2ef4 9532
00000220: 7a47 03b3 2c86 c434 0621 6b31 b4a5 0fb2
00000230: 7b20 1ab4 6ba9 e6b3 5fde c1b3 5032 08b4
00000240: a27e cfb3 4d19 d4b3 fd55 f832 7af2 d4b3
00000250: ca9d 00b4 c890 91b0 98c6 e4b3 8e8a d8b1
00000260: f479 f3b2 e3c1 19b4 2c98 f0b3 bf51 1734
00000270: 0df8 44b3 6af5 0534 4c2d 0bb4 6ecd 6db3
00000280: 60fa 8633 6446 2834 8a3f 0db4 77e2 e6b3
00000290: b603 3d34 da3a 01b4 4751 80b3 f0ce bb33
000002a0: fea8 d1b3 f814 04b4 007c 6fae 5cdb f7b3
000002b0: c9f7 58b3 29f7 d5b3 c2f3 8eb3 0ec2 0334
000002c0: b53e feb3 72af 6733 47b5 13b4 4adc f8b3
000002d0: 4422 ccb3 46f1 f4b3 12a9 e9b1 2e5d 7033
000002e0: 7083 a433 135b 1bb4 dcfb 1db4 1c57 93b2
000002f0: b8fd c933 7ba2 44b3 4d47 f8b3 dc3e 4934
00000300: 360c f733 3403 0fb4 6710 b133 0e78 a633
00000310: 30f3 7eb4 2ab7 61b2 2e01 e533 7046 1e34
00000320: 02da 05b4 1cd0 10b3 dab8 b1b3 11a2 f2b3
00000330: 1c3c 3c32 ebe7 abb3 c6ef 9db4 8d3a 34b4
00000340: c20c 5932 0e78 d9b3 6add 7233 baba fbb3
00000350: eba3 75b4 6088 05b4 ac68 b233 4e16 8533
00000360: 8a20 bc34 114f 83b3 a4fe 10b4 80ef 81b4
00000370: 0472 a4b3 5dc0 3eb4 5c61 a7b3 861b 00b4
00000380: 28e9 c4b3 70d2 83b0 ca4a 0334 e48a e0b3
00000390: dee1 d2b3 5fa3 17b4 521a 0f34 6409 b4b1
000003a0: 1aa3 7934 75b9 4eb3 0cf3 22b4 ff2b fab3
000003b0: 9cbf 0934 814d a4b3 e9dd 25b4 72a7 0034
000003c0: db60 5533 cfa3 4f33 b012 a9b2 6e8c d4b3
000003d0: 7c4b 2fb4 4de7 8933 e2cd 8333 22b7 bfb3
000003e0: d6c4 b533 a07d 09b4 20b5 f3b3 5e8f 2db4
000003f0: 7285 f4b3 bced 8fb2 f54f 2ab3 1843 8db3
9.5589854e-08 8.958327e-08 -2.8071304e-07 1.00523174e-07 7.495795e-08 -9.501442e-08 1.04097666e-07 1.6452416e-08
-2.3036094e-08 3.105436e-07 1.4061143e-10 -9.994183e-09 -1.1863716e-07 -8.9418116e-08 -7.3282074e-08 -1.03985556e-07
-8.021132e-08 -8.332949e-08 2.5554197e-08 -8.0648476e-08 -1.00100934e-07 1.3807196e-09 -8.784847e-08 -7.902226e-09
-2.0738348e-08 -1.18604625e-07 -9.222771e-08 1.1807718e-07 -4.073389e-08 1.0468712e-07 -1.0805428e-07 -4.4412765e-08
5.0165372e-08 1.2936809e-07 -1.0865128e-07 -8.998374e-08 1.4662422e-07 -9.959897e-08 -4.7691888e-08 7.1332174e-08
-8.060793e-08 -1.0223411e-07 -1.8516004e-09 -9.6816585e-08 -3.9558664e-08 -8.267297e-08 -5.6923994e-08 1.0252232e-07
-9.884243e-08 4.6935615e-08 -1.14253716e-07 -9.74146e-08 -7.998086e-08 -9.547793e-08 -7.92734e-09 4.4288722e-08
6.5612156e-08 -1.1871228e-07 -1.2257304e-07 -1.7459888e-08 7.6933546e-08 -4.0372548e-08 -9.7431915e-08 1.5537742e-07
9.715312e-08 -1.1052285e-07 6.634171e-08 6.613727e-08 -1.9874155e-07 -1.4110282e-08 8.955786e-08 1.2239659e-07
-1.03318214e-07 -3.0182555e-08 -6.6633405e-08 -9.481907e-08 7.0166863e-09 -6.486868e-08 -2.4820213e-07 -1.4047274e-07
8.408905e-09 -8.309573e-08 4.8954195e-08 -9.806352e-08 -1.9197678e-07 -1.02612425e-07 7.065752e-08 4.977276e-08
2.9703975e-07 -4.8978137e-08 -1.119812e-07 -2.0323847e-07 -6.485786e-08 -1.4695195e-07 -6.617453e-08 -1.00064376e-07
-7.436805e-08 -4.0078363e-09 1.0070299e-07 -8.849759e-08 -8.10854e-08 -1.18565275e-07 1.1131804e-07 -1.2154397e-09
1.9425583e-07 -4.1995968e-08 -1.2668589e-07 -9.560795e-08 1.0718465e-07 -6.2790235e-08 -1.295717e-07 1.00279266e-07
4.408961e-08 3.759623e-08 -1.3775351e-08 -8.123102e-08 -1.363831e-07 5.4954345e-08 5.3008332e-08 -7.530911e-08
6.856809e-08 -1.06145954e-07 -9.472886e-08 -1.3511139e-07 -9.4520935e-08 -1.16425936e-08 -3.5776395e-08 -5.717822e-08
1.14269504e-07 1.0900911e-07 -3.322486e-07 1.2030588e-07 8.881844e-08 -1.1215217e-07 1.2421042e-07 1.7456923e-08
-3.0565822e-08 3.6605468e-07 3.4215772e-09 -8.361372e-09 -1.4354184e-07 -1.07410266e-07 -9.027712e-08 -1.268429e-07
-9.662223e-08 -9.8766215e-08 2.8910103e-08 -9.9161255e-08 -1.1978332e-07 -1.0591288e-09 -1.0653201e-07 -6.3021792e-09
-2.8344381e-08 -1.4319771e-07 -1.1203551e-07 1.409271e-07 -4.5860407e-08 1.2475871e-07 -1.2961863e-07 -5.53677e-08
6.285404e-08 1.5671827e-07 -1.3154764e-07 -1.0751403e-07 1.7603347e-07 -1.2035471e-07 -5.975249e-08 8.745508e-08
-9.7630604e-08 -1.2301086e-07 -5.4452443e-11 -1.1541735e-07 -5.051678e-08 -9.9635436e-08 -6.6567296e-08 1.2270922e-07
-1.1839203e-07 5.3943445e-08 -1.375639e-07 -1.158847e-07 -9.505723e-08 -1.1406023e-07 -6.8004136e-09 5.59641e-08
7.6607535e-08 -1.4468633e-07 -1.471339e-07 -1.7152665e-08 9.405943e-08 -4.578258e-08 -1.15613695e-07 1.8742452e-07
1.1504055e-07 -1.3319078e-07 8.245188e-08 7.751815e-08 -2.3744064e-07 -1.313837e-08 1.0663858e-07 1.4740522e-07
-1.2465901e-07 -3.3716887e-08 -8.275829e-08 -1.1298483e-07 1.09567075e-08 -8.004994e-08 -2.9417987e-07 -1.6785107e-07
1.2633963e-08 -1.0126688e-07 5.654639e-08 -1.1722064e-07 -2.2877036e-07 -1.2436203e-07 8.3078106e-08 6.197352e-08
3.5041404e-07 -6.114545e-08 -1.3503683e-07 -2.4202382e-07 -7.6575844e-08 -1.776511e-07 -7.794253e-08 -1.1930942e-07
-9.169372e-08 -9.591314e-10 1.2227534e-07 -1.0456077e-07 -9.819972e-08 -1.4122405e-07 1.3327488e-07 -5.239757e-09
2.3249268e-07 -4.8131785e-08 -1.5175846e-07 -1.1649535e-07 1.2828826e-07 -7.650943e-08 -1.5447553e-07 1.1981845e-07
4.9681017e-08 4.8344926e-08 -1.9682687e-08 -9.897563e-08 -1.6325606e-07 6.421633e-08 6.137613e-08 -8.927442e-08
8.4642735e-08 -1.2804821e-07 -1.1348516e-07 -1.6164037e-07 -1.1386409e-07 -1.67555e-08 -3.965393e-08 -6.5780284e-08

exp_avg_sq f4 [128, 128]
00000000: 03fa 6c28 50f1 4228 2945 9229 66c6 8028
00000010: d498 3428 0a15 5428 e50a 7d28 f044 4f27
00000020: 2e9d 8427 923f b729 2562 8d27 020e 9227
00000030: 9b2a 8a28 b286 6028 de93 1828 93fc 4228
00000040: bb43 3028 deee 2528 4ffa 9027 b78e 9328
00000050: fc83 8028 7468 8d27 b431 4928 e48c 8727
00000060: b28f b127 246d 9028 2990 5628 ccc5 8f28
00000070: 135c 8127 575c 8128 2997 8428 1520 bc27
00000080: ba24 ea27 cef3 9e28 5c2f 7b28 7add 5928
00000090: 7385 c128 ac9c 6228 fbd3 e827 d500 1c28
000000a0: 32e8 2b28 2a1f 6f28 a7f1 b527 df32 6328
000000b0: 8248 c827 d045 5428 6d0e dc27 c9d7 7728
000000c0: 409d 8228 69f5 9927 247f 8a28 5453 5528
000000d0: 5e86 4228 2cfc 5a28 29a5 6c27 3715 a827
000000e0: 1247 0228 2123 5d28 5acf 9228 71b6 8727
000000f0: 8d4c 2b28 ce77 8627 3d38 6b28 e7fb f128
00000100: 6194 5528 0839 8028 f9d7 0c28 ac7e ee27
00000110: d49a 2229 8253 8b27 7c6f 4b28 0185 8d28
00000120: 7a93 6628 40b1 4e27 c17f 0c28 e18b 5f28
00000130: 59b0 3827 da28 0e28 31bd 7929 aaf0 9f28
00000140: 0667 5727 8418 3628 c1f8 cb27 29df 6928
00000150: 30fe 1829 a516 7028 4d6f fd27 e868 e727
00000160: 1cf6 ab29 b3c6 dd27 3a4c 8328 e692 2c29
00000170: ccc2 f327 d7fe b828 33f6 e727 aa1c 6b28
00000180: 2a84 1c28 3e31 9727 f401 7028 e814 5528
00000190: 93fe 3028 6c9d 9028 7f61 8928 fd8d 9427
000001a0: 5fe3 1a29 002c b127 e080 9928 301b 4c28
000001b0: c328 8428 06c2 0d28 866f 9f28 4d78 7428
000001c0: 270e 9727 5434 bb27 70b6 fa27 26b7 2928
000001d0: 7e30 aa28 f167 d227 52a1 cb27 7b43 3328
000001e0: 0937 1028 c876 7728 b8e5 6b28 38cc a928
000001f0: c45e 5028 d172 4e27 879b 8b27 dc66 af27
00000200: f8c8 fb28 a17a da28 d658 192a 5707 0829
00000210: 5c35 c028 1046 dd28 78ba 0729 c80f d727
00000220: f9ea 2028 d3ef 422a cf0f 3628 e5cf 3a28
00000230: 17ec 1629 86f5 f228 9075 ae28 862a cb28
00000240: 92ce c728 e701 aa28 cc19 1828 651b 1b29
00000250: f6f1 0929 4861 3628 a84e e128 d059 2d28
00000260: 5a9b 6028 f878 1d29 8090 f028 c90a 1929
00000270: fd6a 0c28 63cf 0729 7f8a 0f29 3f44 6428
00000280: 5675 8c28 4fc2 2b29 b183 0a29 7f47 ea28
00000290: 45bb 4d29 bd6d fe28 72a7 8c28 3536 b428
000002a0: 632a c228 d163 0329 3181 4428 2b4d f128
000002b0: 6437 7428 a892 e028 16e2 6128 aac1 0329
000002c0: b3b6 0a29 ec11 1f28 2f44 1629 0f7e dc28
000002d0: 86d7 d028 284a ef28 130c 0028 7b03 3f28
000002e0: 98f9 8628 4973 db28 995e 1f29 5848 2928
000002f0: 097f c328 4dab 0e28 b76e f928 3541 7829
00000300: 55ce e028 0257 0c29 bdbe a128 c6b3 7428
00000310: 5e0a ad29 6612 3228 9aa9 d828 d90c 1a29
00000320: 4312 ff28 0240 de27 7405 a128 bf48 ed28
00000330: 1edc c027 0756 a628 c798 052a 8359 2329
00000340: 4f1f ee27 9a9e ce28 7c33 5928 46f8 fd28
00000350: bb29 a329 a9f2 0429 1bd7 8028 f6bf 8a28
00000360: fea3 362a f0f7 8428 1cd8 1129 105b b729
00000370: 6785 7e28 9f34 4429 9ee8 6c28 e85d f828
00000380: 09ab b328 60a1 4328 f84c 0429 9964 e028
00000390: 8fcc c828 7cfa 1829 e0d8 1229 08c9 3e28
000003a0: f7e9 a329 c528 3828 bc29 2429 e16c de28
000003b0: 7711 0e29 50c6 a728 e473 2929 95aa 0229
000003c0: 8742 2d28 11e2 6128 d7d0 8728 5a80 c028
000003d0: cd41 3529 2068 5a28 0473 5228 1847 bf28
000003e0: 41fc a528 e9a1 0829 6c33 ff28 c13f 3629
000003f0: a809 e828 ddf4 f127 3094 2528 116c 3a28
1.3154844e-14 1.082149e-14 6.4957e-14 1.4296896e-14 1.00251465e-14 1.1772926e-14 1.4046684e-14 2.8764392e-15
3.6807774e-15 8.13786e-14 3.924177e-15 4.0538328e-15 1.5339555e-14 1.2463705e-14 8.4697586e-15 1.0823932e-14
9.784649e-15 9.211136e-15 4.0239414e-15 1.6382171e-14 1.4268094e-14 3.924861e-15 1.1168519e-14 3.762278e-15
4.9283164e-15 1.6034544e-14 1.1910646e-14 1.596197e-14 3.590452e-15 1.4361923e-14 1.47205e-14 5.2215266e-15
6.4987866e-15 1.7647257e-14 1.3943568e-14 1.2093945e-14 2.1485179e-14 1.2579493e-14 6.4622765e-15 8.65992e-15
9.542756e-15 1.3273923e-14 5.049959e-15 1.2612062e-14 5.5589764e-15 1.1783502e-14 6.1077907e-15 1.3758045e-14
1.4501096e-14 4.2732105e-15 1.5376216e-14 1.1841944e-14 1.07983e-14 1.2156112e-14 3.2841113e-15 4.665237e-15
7.231861e-15 1.2275582e-14 1.629918e-14 3.766783e-15 9.509006e-15 3.7322364e-15 1.3057315e-14 2.686562e-14
1.185605e-14 1.4235588e-14 7.818393e-15 6.619561e-15 3.6105518e-14 3.867079e-15 1.1292938e-14 1.5711826e-14
1.2799544e-14 2.868433e-15 7.799263e-15 1.2409318e-14 2.5630728e-15 7.891442e-15 5.5453204e-14 1.7756917e-14
2.9893093e-15 1.01083455e-14 5.661352e-15 1.2982488e-14 3.3971252e-14 1.33275865e-14 7.034228e-15 6.422912e-15
7.6366187e-14 6.1555252e-15 1.457698e-14 3.8319086e-14 6.765725e-15 2.0538623e-14 6.438231e-15 1.3051336e-14
8.688398e-15 4.1964308e-15 1.33231e-14 1.18284085e-14 9.825165e-15 1.6055482e-14 1.5252338e-14 4.1232196e-15
3.4392082e-14 4.9175074e-15 1.7042303e-14 1.133017e-14 1.4672622e-14 7.8691445e-15 1.7700912e-14 1.3570807e-14
4.1926263e-15 5.195966e-15 6.958674e-15 9.4210985e-15 1.8894822e-14 5.8399402e-15 5.6518722e-15 9.9511286e-15
8.00554e-15 1.3737011e-14 1.3094933e-14 1.8851335e-14 1.15668685e-14 2.8650485e-15 3.8748873e-15 4.8683778e-15
2.7953754e-14 2.4256044e-14 1.3619951e-13 3.0204433e-14 2.1339423e-14 2.4566314e-14 3.0137758e-14 5.9691598e-15
8.932736e-15 1.7313867e-13 1.01064575e-14 1.0370154e-14 3.3511466e-14 2.6973876e-14 1.9368865e-14 2.2555969e-14
2.2183024e-14 1.8874616e-14 8.443289e-15 3.4440675e-14 3.062998e-14 1.0124124e-14 2.501413e-14 9.622904e-15
1.2468184e-14 3.4965927e-14 2.670802e-14 3.398218e-14 7.7947606e-15 3.01559e-14 3.1872505e-14 1.2671341e-14
1.5594009e-14 3.8138163e-14 3.075638e-14 2.6010225e-14 4.5681574e-14 2.8247256e-14 1.561574e-14 2.0007523e-14
2.1556709e-14 2.917442e-14 1.09081996e-14 2.6789841e-14 1.3556732e-14 2.4932598e-14 1.2539034e-14 2.925582e-14
3.0800622e-14 8.830159e-15 3.336583e-14 2.4479576e-14 2.3186107e-14 2.656649e-14 7.1080455e-15 1.0603385e-14
1.4985233e-14 2.4363881e-14 3.5387143e-14 9.397072e-15 2.1704442e-14 7.919728e-15 2.7692568e-14 5.512362e-14
2.4958478e-14 3.1161712e-14 1.795731e-14 1.3583703e-14 7.684542e-14 9.8849744e-15 2.405437e-14 3.4206013e-14
2.8318607e-14 6.1686775e-15 1.7876956e-14 2.6343834e-14 5.3529357e-15 1.846701e-14 1.1865778e-13 3.627091e-14
6.6092215e-15 2.2939377e-14 1.2057084e-14 2.8196314e-14 7.245893e-14 2.9520362e-14 1.4304142e-14 1.5404328e-14
1.6221743e-13 1.476247e-14 3.2383913e-14 8.1426294e-14 1.41287594e-14 4.3566384e-14 1.31510725e-14 2.7574256e-14
1.9947167e-14 1.0859667e-14 2.9376648e-14 2.4912623e-14 2.2293174e-14 3.396804e-14 3.260662e-14 1.05907104e-14
7.2792406e-14 1.0222892e-14 3.6451514e-14 2.469417e-14 3.1545482e-14 1.8626729e-14 3.7626057e-14 2.9013755e-14
9.617855e-15 1.2539029e-14 1.507858e-14 2.1371946e-14 4.0247147e-14 1.21240095e-14 1.1682282e-14 2.1236092e-14
1.8428078e-14 3.03385e-14 2.8332988e-14 4.0467416e-14 2.5761362e-14 6.715642e-15 9.191473e-15 1.0348507e-14
