results/agent_01/target_agent_01/target_agent_01-20872.onnx (onnx, 69901 bytes, 7 tensors)

action_model._continuous_distribution.log_sigma f4 [1, 2]
00000000: bb21 f6b9 6ac0 5b3b
-0.00046945908 0.0033531436

action_model._continuous_distribution.mu.bias f4 [2]
00000000: 3be8 3639 e5ff 35ba
0.00017443385 -0.00069427333

action_model._continuous_distribution.mu.weight f4 [2, 128]
00000000: e242 1b3d 8c6f c5bb efb9 d0bb 8aaf 41bc
00000010: 78d5 2ebb 9edb dfba 3200 19bc b57d 063c
00000020: da10 383a 7eb7 28bd 5884 2f3c 2862 08bd
00000030: 2519 6e3c 0c97 85bc d6c8 47bc b019 5a3c
00000040: 836e d63c f2cf 9ebc 72ac 20bc 1dc6 26bc
00000050: 697f 48bc 1973 c13c 49a1 5fbb 08a6 80bb
00000060: d4bc 9aba 7583 fd3c 44e3 7fbb f246 06bc
00000070: e37d 2a3c 2083 61bc 0f69 823c cadd 533c
00000080: 0d93 e5bb a002 f138 bbb1 51bb 12b4 913b
00000090: 6e55 be3c be20 99bc b478 dc3b 5f39 edbc
000000a0: f1d5 103c d6b0 d6bc f9fd a8bc ce07 d5ba
000000b0: 7b2c af3a cc8a 383c 0a94 5f3a b441 86bb
000000c0: bb44 93bc 551d 45bc 0a84 84bc 3cc8 093b
000000d0: 9336 a03c 383e 07bc 0f16 19bd ddf7 723c
000000e0: 1c11 cdbb f9ff 2abc 95ea 0dbb 4c64 f53b
000000f0: c33c c0bc 7d36 96bb f3d0 27bc a58a 32bc
00000100: 34a3 9dbc b4e3 aebb 7a78 a2bc ab6c 0abb
00000110: fec0 3dba c6e9 6c3c 928a 57bc 4a48 59bc
00000120: ce02 083c 3df6 9bbc db68 203b 255f 9cbc
00000130: b906 ddb8 4412 02bc fa9a 703c 58ea 87bc
00000140: 60c4 6a3b 6f77 cdbb adab cdbb c8c9 babb
00000150: 74cd 793c 5fec a8ba 0a6c bdbb 5d94 aebb
00000160: ff8d 233b 937d a33c dbb4 003c 7f05 59bc
00000170: 1235 27bb 0ff0 04bc 101b d93b b96c 8cbc
00000180: 5864 9c3b acef de3b 4fff f8bc c356 57bc
00000190: 6ca1 f03a bc78 67b9 10ec 463c 9b75 903b
000001a0: 2902 893b e4b6 41bb 7b72 c1bb 4699 e53b
000001b0: afc6 383c 0292 b1bb 77aa c3bc bbf5 c83a
000001c0: 6e28 923a 83db 8a3c 1d95 80bc a50c 0c3d
000001d0: 42b6 a2b9 96f1 26bc dc23 1dbb 9571 823c
000001e0: e4a4 933b ebd3 623c 5357 3cbc 0557 223d
000001f0: c146 0ebd b65a 183c cc03 d0bb 7924 b5bb
00000200: 9d5e 0f3d 4d09 b13c 1cd1 62bc 6792 9d3b
00000210: 92ed 50ba 3f6c 433c 8d3d 753c 8ea5 96bb
00000220: e0c1 b9b6 2096 023b 9c4f ac3c a3ad 0c3c
00000230: 6a1d d33b cd4f a0ba cc40 f53b c93f e1bb
00000240: 348b c73b 0b6b 8e3a 96d5 583a c423 8b3b
00000250: 2c54 fcbc 8d03 88bb e4a2 45bd 6c92 5b3c
00000260: 13b2 4dbd 5757 94bc 0527 88bc 01f6 c2bc
00000270: 695f c9bc fb13 0e3d b9db 04bb 909d 8a3c
00000280: 1ee7 05ba f80c 9b3c 8500 bcbc 5f86 5ebc
00000290: 7eae be3b 05d3 8e3c 891c a33a 702c 20bd
000002a0: cd8a 103c 99e2 b4bc 21de c03b e0ba 013d
000002b0: 1d29 feb9 3a88 f3bb bd08 dc3b fb17 493c
000002c0: 861e ae3c a941 a03c 0d33 f13c 7cd6 11bc
000002d0: 63ce 94ba 4e2c abb9 1933 16bc f8b9 8b3c
000002e0: e9ea b6bc 09df f83c 8e09 083c e621 73bc
000002f0: 2edf d2bb 8834 d53c 3df5 47bc 2b39 053d
00000300: c2be 443c 7062 41bc c135 61bc c188 89bb
00000310: 735c fd3b f444 36ba beb6 323c 4a43 053c
00000320: bc1b 023d 4b13 ed3a 45e8 4f3c 4b81 99bb
00000330: c225 5f3c 9436 333c 6691 f1ba d1f8 d9bb
00000340: 9bc1 603c b5c0 6c3b 12f5 38bc 5921 89bc
00000350: 8fcf 663a 9416 b5bb 2839 dbbc 7796 ca3a
00000360: b0e5 9fbb 7c61 b43c 1a73 743a 2281 943c
00000370: d7db e4b9 2392 1f3b f472 a83b 1c55 283c
00000380: eef5 503c 9bd7 a23c b293 03bd af2a 5b3c
00000390: ba06 a43c a459 d0bb 3b80 9abb 33a3 233c
000003a0: 1942 c63b bf6a 72bc 27a5 18bc 3e39 86bb
000003b0: 8d98 753c 3be0 e33b 3b6d 913c 452d 393a
000003c0: 2fa1 013d ffb4 90bb dd98 ed38 535d 32bb
000003d0: 1621 b93b e3ca c03b 6db3 44ba 6c14 5dbc
000003e0: 2831 973c 8463 b6bc 81c4 acba 8977 14bb
000003f0: 94b3 e4bb ad81 2ebc 77b0 893c d05a 603c
0.03790558 -0.0060252603 -0.0063698213 -0.011821637 -0.002667753 -0.0017079001 -0.0093384255 0.008208682
0.0007021554 -0.041190617 0.010712706 -0.033296734 0.014532362 -0.016307376 -0.012193879 0.013311788
0.026175743 -0.019386265 -0.009806739 -0.01017907 -0.012237408 0.023614453 -0.0034123233 -0.0039260425
-0.0011805543 0.030946473 -0.0039045373 -0.008195626 0.01040599 -0.013764173 0.015919236 0.012931297
-0.007006055 0.000114922645 -0.0031996805 0.004446515 0.023234095 -0.01869237 0.006728256 -0.02895802
0.00884007 -0.026207369 -0.020628916 -0.0016252936 0.0013364697 0.0112635605 0.00085288344 -0.004097188
-0.01797711 -0.012030919 -0.016176242 0.002102389 0.019557273 -0.00825458 -0.037374552 0.014829603
-0.006258143 -0.010437005 -0.0021654714 0.007488763 -0.023466473 -0.004584132 -0.0102426885 -0.010897313
-0.01924286 -0.005337203 -0.019832838 -0.00211219 -0.0007238536 0.014460033 -0.013155596 -0.013261864
0.00830145 -0.019038314 0.0024476561 -0.019088337 -0.000105393534 -0.007938925 0.014685387 -0.016591236
0.0035822615 -0.006270341 -0.006276569 -0.0057003237 0.015246738 -0.0012887827 -0.0057807015 -0.005327745
0.0024956462 0.01995734 0.007855619 -0.013245939 -0.002551381 -0.008113875 0.0066255406 -0.017141687
0.004772704 0.0068034735 -0.030395178 -0.013143244 0.0018358654 -0.00022074854 0.012141243 0.004408551
0.0041811657 -0.0029558474 -0.0059035397 0.007006797 0.011277839 -0.005419017 -0.023884995 0.0015332022
0.0011150965 0.016950374 -0.015696103 0.034191746 -0.0003103484 -0.0101894345 -0.0023977673 0.0159233
0.0045057405 0.0138444705 -0.011495429 0.03963377 -0.034735445 0.009298971 -0.006348109 -0.0055280295
0.03500234 0.02161088 -0.013843801 0.0048087123 -0.0007969971 0.011927663 0.014968288 -0.0045973724
-5.5359997e-06 0.0019925907 0.021034054 0.00858632 0.0064427154 -0.0012230814 0.007484531 -0.006874059
0.0060895924 0.0010865642 0.0008271573 0.004246207 -0.030801855 -0.004150814 -0.048251048 0.013401609
-0.050218653 -0.018108053 -0.016620168 -0.023798944 -0.024581628 0.034687024 -0.0020272566 0.016920835
-0.00051079865 0.018927082 -0.022949466 -0.013581841 0.005819141 0.017434606 0.0012444417 -0.03910488
0.008822155 -0.022080706 0.005885855 0.03167236 -0.00048477287 -0.007432011 0.006714909 0.012273784
0.02125479 0.01956256 0.029443288 -0.008901235 -0.0011353012 -0.0003264867 -0.009167456 0.01705645
-0.02232881 0.030379789 0.008303059 -0.014839625 -0.0064352965 0.026026025 -0.012204465 0.032525223
0.012008371 -0.0118032545 -0.013745726 -0.0041972105 0.007731968 -0.0006953024 0.010907827 0.008133719
0.03176473 0.0018087415 0.012689655 -0.0046846024 0.013619842 0.010938305 -0.0018430173 -0.0066519757
0.013718034 0.0036125605 -0.011288898 -0.016739534 0.00088047324 -0.005526373 -0.026760653 0.0015456219
-0.004879676 0.02201914 0.0009325013 0.018127982 -0.00043651342 0.002434858 0.0051406566 0.010274198
0.012753947 0.0198782 -0.032123275 0.013376876 0.020022739 -0.0063583422 -0.0047149933 0.00998764
0.00605036 -0.014795958 -0.009316719 -0.0040961793 0.014989984 0.0069542206 0.01775228 0.00070639356
0.031647857 -0.0044161077 0.00011329514 -0.002721627 0.005649696 0.005883561 -0.0007503543 -0.0134936385
0.018456057 -0.02226425 -0.0013181121 -0.0022654256 -0.006979415 -0.010651034 0.016807778 0.013693526

network_body._body_endoder.seq_layers.0.bias f4 [128]
00000000: a230 22b9 ec92 ebb9 a5b4 a039 82ab eb39
00000010: 7028 ffb8 fb46 2d3a 341f a438 224b 6f39
00000020: 0221 27b9 2921 473a 2bdf ad38 a7bb 4739
00000030: be93 9739 f47c 1038 a97f 23b8 865f 123a
00000040: 641e 5139 11da cb38 aa0d ffb7 7fd5 803a
00000050: 0a6a 40ba 9516 01b9 92ac 44b9 a238 3539
00000060: 77e6 27ba fe4e 173a 54d1 9438 e01f 7a39
00000070: 4817 6c39 99d5 26ba f046 28b9 0730 b239
00000080: 032d ea38 0101 1bba 8ed3 8537 dd46 7bba
00000090: 13d7 d039 de21 31ba cb4a 083a f8ea 153a
000000a0: a4a3 703a 8712 5c39 23d6 163a dc2e 4439
000000b0: fec5 f839 e769 2cba ccda e7b9 8372 f3b9
000000c0: 4eee 06ba f1f5 663a e7cf 08b9 3684 0539
000000d0: 70f6 24b9 aa5a 063a 503c a838 f4da 71b8
000000e0: df64 423a 3661 403a 0ec7 343a cc0a 7539
000000f0: 24d9 24b9 e1fa 91b9 7861 98b8 5705 0939
00000100: ee2d 643a 43cb 833a 3189 4fba 4935 8c39
00000110: 557f 6aba 959a 513a 1405 873a 4bf8 8e39
00000120: 9571 13ba 4c61 d539 ae82 3039 3338 3339
00000130: d0f5 77ba d344 0dba 58b8 19ba 79ae 13ba
00000140: 2566 07ba 0342 00ba 8af1 50b9 3ffd dab9
00000150: fa13 033a 6329 9839 4705 4039 00b6 abb9
00000160: b25d b9b9 c5d0 c638 99c4 6839 6a59 25ba
00000170: 189b 58ba cd3e 843a f1d0 02ba 578b 8a39
00000180: 6cdd 6ab8 e676 5db9 42fe c039 f96a 833a
00000190: 568a 0f3a 3629 8337 1667 20ba 0585 f239
000001a0: cca2 a6b8 c87e d136 1cb5 da38 1cc0 6039
000001b0: 9146 64b8 0616 e3b9 ca11 81b9 e3a7 ee39
000001c0: ac9b 263a a6a8 7039 4988 ffb9 ae5b e139
000001d0: 5c9a 69ba 99d3 023a 06f4 ebb9 8091 6338
000001e0: b97c a839 35a9 c2b9 cf8a 5339 8b6a 0039
000001f0: 4866 85b6 ab18 e238 680d c838 655c 84ba
-0.00015467641 -0.00044932158 0.0003065217 0.00044950476 -0.000121668796 0.0006610003 7.8259414e-05 0.00022820805
-0.00015938657 0.0007596189 8.290851e-05 0.00019048025 0.0002891104 3.4448647e-05 -3.898112e-05 0.0005583692
0.00019943115 9.720412e-05 -3.0404732e-05 0.0009829252 -0.000734002 -0.00012310811 -0.00018756304 0.00017282602
-0.00064048864 0.00057719636 7.09618e-05 0.00023853732 0.00022515387 -0.0006364226 -0.00016048155 0.0003398659
0.000111663736 -0.00059129304 1.5953348e-05 -0.00095854496 0.00039833094 -0.0006757061 0.00051991333 0.0005718912
0.0009179658 0.00020987737 0.0005753955 0.00018709473 0.00047449762 -0.000657706 -0.0004422277 -0.0004643389
-0.00051472045 0.0008810452 -0.0001304742 0.00012733121 -0.00015732064 0.00051252043 8.022098e-05 -5.7662794e-05
0.00074155437 0.00073387043 0.00068961165 0.00023369043 -0.0001572115 -0.00027843475 -7.26608e-05 0.00013067327
0.0008704354 0.0010055084 -0.00079168665 0.0002674258 -0.00089453656 0.0007995752 0.0010301196 0.00027269343
-0.000562453 0.00040699018 0.0001683335 0.00017091706 -0.0009458931 -0.0005388979 -0.0005863956 -0.00056336034
-0.0005165062 -0.0004892649 -0.00019926406 -0.00041768883 0.000500023 0.00029022535 0.00018312513 -0.00032751262
-0.00035355758 9.480262e-05 0.00022198482 -0.0006307574 -0.0008262857 0.0010089517 -0.0004990241 0.00026425227
-5.5996163e-05 -0.00021120496 0.0003681053 0.0010026387 0.0005475631 1.5635607e-05 -0.00061188766 0.00046256944
-7.94582e-05 6.2434447e-06 0.00010428784 0.00021433871 -5.4425156e-05 -0.00043313223 -0.0002461805 0.00045519983
0.00063555944 0.0002295101 -0.0004873893 0.0004298365 -0.0008911246 0.0004990637 -0.00045004504 5.4256525e-05
0.00032136383 -0.00037128633 0.00020174238 0.00012246722 -3.975616e-06 0.000107811145 9.53924e-05 -0.0010098336

network_body._body_endoder.seq_layers.0.weight f4 [128, 1]
00000000: 45fd 5b3c d895 683e 4f3f 283f c701 7b3d
00000010: 5312 81bf f947 833f a813 78bf ff55 0c3f
00000020: b007 c4bf c181 b7bf 74da fb3e dafa b63e
00000030: 8531 86bf 9cc8 9e3f 7cf1 02be 35b1 b33e
00000040: cdec a7bf 3722 563f 0e67 3e3f 5db7 58bf
00000050: de71 a93f 5f4e 013e 8262 55bc 251f 0c3f
00000060: b905 86bf 8b94 d0be 2bb9 aabf 4c35 ca3e
00000070: 16a9 cebf 4480 4a3f 9b4a 913f c668 363f
00000080: b43b 423e 3d6a 0e40 08ed dcbf 49a5 6540
00000090: 771c 6a3f 4634 273f c68b 333f f90e ccbd
000000a0: 65b0 cdbd a5a9 323f 3585 3cbf f5d6 313f
000000b0: 4f78 86bd 2d24 79bf 84b6 9c3e 7d38 853f
000000c0: 3525 76bf a5dc e3bf 9b37 c3bf 5e2f 02c0
000000d0: 024e b73f 5b08 8b3e e672 cd3f 284d a03f
000000e0: 52dd 5b3f 3d43 d03e db0a c43e 7455 3ec0
000000f0: efc8 d73f b415 ecbf 08fa d3be 6460 ae3f
00000100: 17c4 94bd 7991 c2be 6271 a7bf 9325 d3bd
00000110: 8fea 58bf fa26 e73d a730 2ac0 6909 163f
00000120: 3af2 a83e 5484 19bf 0a8d 763d d8cd 4a3f
00000130: 922e 843f e2b9 81bf 7f74 68bf 4a90 fc3d
00000140: d031 bdbf e5c3 6fbf 2f49 20be a1af 73bf
00000150: 78f5 f93e af68 e43f cb30 b9bb 1036 68bf
00000160: 97ad de3e 52b3 b03d e286 c0bf 2fb5 903e
00000170: 0c66 813f 48ab 2ebf 368a 08bf a28e b03f
00000180: 0a71 cd3d 2c95 923e b521 8c3e 2c30 5f3e
00000190: cf1b ca3f 1981 aebf b38d 58bf d073 4f3f
000001a0: 5b63 543e 441c 9cbf 5667 7dbf 9ba3 353e
000001b0: f5c6 993d 9ecd a73d eb64 753f e84c 803d
000001c0: aa39 0bc0 0255 f23e 27b4 273f beb7 02bf
000001d0: dea2 96bf da94 e53e 639c 343e 10e3 c1be
000001e0: 47af c6bf 12c6 a7be a016 e5bf 2ce7 d5bd
000001f0: 4e45 673e e4f1 b63f e163 b43f 9d7b 5e3e
0.013427083 0.22713411 0.657216 0.061280992 -1.0083717 1.0256339 -0.96904993 0.5481872
-1.5314846 -1.4336473 0.49190104 0.3573826 -1.0483862 1.2404971 -0.12787431 0.35096136
-1.3119141 0.8364596 0.74376 -0.8465479 1.3237875 0.12627552 -0.013023974 0.5473502
-1.0470496 -0.4073833 -1.3337759 0.39493787 -1.6145351 0.7910197 1.1350893 0.7125362
0.18968087 2.2252343 -1.7259836 3.5882132 0.91449684 0.6531414 0.7013515 -0.09963793
-0.1004341 0.69790107 -0.7364076 0.69468623 -0.06565916 -0.97320825 0.30607998 1.0407864
-0.96150523 -1.780171 -1.5251344 -2.034141 1.4320681 0.27154812 1.6050689 1.2523546
0.85884583 0.406763 0.38289532 -2.9739656 1.6858195 -1.8444123 -0.41401696 1.3623166
-0.07263964 -0.38001612 -1.3081477 -0.10309901 -0.8473291 0.11286731 -2.6592195 0.5860811
0.32997304 -0.5996754 0.0601931 0.7922034 1.0326712 -1.0134852 -0.9080276 0.123322085
-1.4780827 -0.93658286 -0.15652917 -0.95189863 0.4882009 1.7844447 -0.0056515685 -0.9070749
0.43491814 0.08627953 -1.5041163 0.28263232 1.0109267 -0.68230104 -0.53335893 1.3793528
0.10031326 0.28629434 0.27369466 0.2179572 1.5789737 -1.3633147 -0.84591216 0.8103609
0.20741026 -1.2196126 -0.98985803 0.17738192 0.07508651 0.08193515 0.95857114 0.06264669
-2.1753945 0.4733048 0.65509266 -0.5106162 -1.1768453 0.44840127 0.17637782 -0.37868547
-1.552224 -0.32768303 -1.789753 -0.10444483 0.22585031 1.4292569 1.4092981 0.21726842

network_body._body_endoder.seq_layers.2.bias f4 [128]
00000000: ed00 67ba 1c4f 13ba 4365 763a eccd 96b9
00000010: 5ada a438 4a8e 13ba b153 f8b9 d1e9 9b39
00000020: 5cb8 9bb9 8d35 3fb9 427a 86ba afe4 87b9
00000030: fae5 99b8 057d d3b8 1198 aeb9 f9b6 a339
00000040: 35cd 2d38 3058 30b9 ac91 1cb9 bf41 8db9
00000050: 7c05 703a c453 6839 82f5 353a 0003 0cba
00000060: 3979 313a ee37 b939 0c4e 3c3a 0532 5b3a
00000070: 2738 0b3a 17ca 0fba dc91 4939 3237 87ba
00000080: 8cf8 5ab8 902b 26ba 73af 353a 1adf 093a
00000090: 0f4d 0238 3223 d9b9 c838 db37 a10c 8d3a
000000a0: e133 68ba d420 8e39 d4f5 85b9 3fd2 27ba
000000b0: e09a 0336 1388 b139 1a64 17ba 0eca 08ba
000000c0: 1239 ecb9 ecf5 feb9 9af8 05ba 9e2c 073a
000000d0: 10b8 3439 949f 9ab8 7610 45b8 0c84 7eba
000000e0: 5664 4a3a 6334 12ba 07b2 03ba 1bfd 023a
000000f0: d088 e8b6 da43 1cba 1fa8 7b3a b9f9 12ba
00000100: 6eef b8b9 c95d 6d3a efd7 4f39 05e8 243a
00000110: 1e2d 0cba d08c 2139 f2e4 c9b9 fb99 b1b9
00000120: e741 4fba 2277 42b9 c410 31ba b46f fbb7
00000130: 6228 1fba 55d0 e6b9 0094 4539 236a 5838
00000140: 88f9 3aba 76cc 96b9 8391 853a 0adb 503a
00000150: 1ad1 e638 3d79 753a 0cab 423a 81ce 54b9
00000160: b24f d739 68c1 7aba 59bd 7938 06c9 f2b9
00000170: b49c c338 476e 6db9 cfdf 9ab9 03df b6b9
00000180: c74f 4fba f715 56ba e8f3 733a 3fa6 d9b9
00000190: f4c6 2eba e2ae 0f3a 46c2 8d39 f963 56ba
000001a0: e282 7bba 84f0 3b3a 9800 843a aa2a 9d39
000001b0: 861a 88ba 4239 d4b9 cf6e c9b9 e383 92b9
000001c0: 8d73 2fba c6df 7f39 aa38 19b9 405b 4839
000001d0: 7081 43ba 484d a7b9 e0e1 3e39 bfa8 cd39
000001e0: 951f 40ba 0ca9 ff39 ad56 89b8 a1ef 3d39
000001f0: bc08 8eb8 e152 dc39 feee 09ba 7ee3 05ba
-0.00088120886 -0.0005619393 0.00093992444 -0.00028763653 7.8608005e-05 -0.00056288077 -0.000473646 0.0002973811
-0.00029701262 -0.00018235129 -0.0010259824 -0.0002591959 -7.338445e-05 -0.00010084551 -0.00033301165 0.00031226108
4.1437528e-05 -0.0001681752 -0.00014931586 -0.000269426 0.00091560907 0.00022156449 0.00069411856 -0.0005341023
0.0006770078 0.0003532762 0.0007183261 0.00083616405 0.00053107966 -0.0005485131 0.0001922319 -0.0010316132
-5.2206728e-05 -0.0006338889 0.0006930746 0.000525938 3.106618e-05 -0.00041415688 2.6133275e-05 0.001076121
-0.0008857828 0.0002710881 -0.00025550893 -0.00064018735 1.961067e-06 0.00033861454 -0.0005775109 -0.0005218097
-0.00045055948 -0.0004862988 -0.0005110592 0.000515649 0.00017234706 -7.373016e-05 -4.698379e-05 -0.00097090076
0.00077206397 -0.0005577264 -0.00050237816 0.0004996822 -6.930066e-06 -0.00059610384 0.0009599942 -0.00056066696
-0.00035273604 0.00090548076 0.000198215 0.0006290677 -0.0005347299 0.00015406613 -0.00038508285 -0.00033874795
-0.00079062436 -0.00018545662 -0.00067545124 -2.9973547e-05 -0.0006071386 -0.00044024238 0.00018842518 5.159726e-05
-0.000713252 -0.00028762565 0.0010190461 0.00079672097 0.00011006203 0.0009364074 0.00074260007 -0.00020294824
0.00041067373 -0.0009565563 5.954257e-05 -0.0004630761 9.327513e-05 -0.00022643163 -0.0002953992 -0.00034879902
-0.0007908311 -0.0008166725 0.0009306059 -0.00041513328 -0.00066672196 0.00054810767 0.0002703836 -0.0008178349
-0.0009594393 0.00071693235 0.0010070978 0.0002997716 -0.0010383881 -0.0004047845 -0.00038420266 -0.00027945553
-0.00066929386 0.00024402057 -0.00014612326 0.0001910748 -0.00074579474 -0.000319103 0.00018203957 0.00039226373
-0.0007328925 0.0004876334 -6.548814e-05 0.00018113713 -6.7727146e-05 0.0004202342 -0.0005261748 -0.00051074463

network_body._body_endoder.seq_layers.2.weight f4 [128, 128]
00000000: d837 26be 5826 b5bd ae74 133d e466 6ebd
00000010: 26ed a8bc a6a3 febd 41bf 2d3e f4eb 4cbc
00000020: bd38 b9bc b785 e3bd f61f 9ebc 44cf 2c3c
00000030: ffcb 273e 020c 6a3d 4521 843c 76a0 f9bd
00000040: 3771 de3c 7961 84be b527 10be 3933 c1bd
00000050: 6c64 dbbd fd3c a53c 4667 be3d 12cb 6f3d
00000060: 25a6 f03d 1646 c23d b6e4 e7bd 2c92 5ebd
00000070: 8ad6 09bd 9c8f 903d 3a63 0d3e 8748 19bd
00000080: e310 1c3e 0c38 c63c e708 08bd 2692 7cbd
00000090: 188e 19bd 61f6 143e 201d e1bc 0653 9fbb
000000a0: 1887 fdbc 9995 0f3e 456a 92bc 7e0b d63c
000000b0: 3508 2fbe 7bc2 4dbd 4950 833d 96fe c83d
000000c0: 65d8 b23d a6be 4ebe e0d6 1a3d b38b a13d
000000d0: aa75 a03d aa72 b63a a7aa 113c a53f 3ebe
000000e0: de9a 923d a413 dbbd 0e5b 5cbd 222f a73d
000000f0: c994 debc 51ab 343c 51a3 173e ed33 9bbd
00000100: 89d7 b73a bc96 2cbd b384 4a3d 7768 433e
00000110: f19a adbd a1d9 f9ba 101f fcbc bc9e 7bbc
00000120: b046 ab3c d89b cebd a602 05bd 8665 ac3c
00000130: e6b8 bfbd 8301 aabd b41f 053d 990b 393d
00000140: 3686 2d3d 5cfb 433d 1418 be3b 7131 95bc
00000150: 9de5 113d eb24 d3bd 6b99 ddbc 24fc 313e
00000160: f0a1 f3bc 8d62 553e fc5b 833d 14ff 9bbb
00000170: b734 8cbd 14a8 6dbd 2bfa 7dbc 0d60 a9bd
00000180: 0414 553d 5893 0bbd 148b 27be c1bd f6bd
00000190: bdc9 6fbe 199b 9dbc a5db 86bc db21 743d
000001a0: 22e4 c63d 6216 873d fd03 0a3e 8708 cfbd
000001b0: 5849 b93b f857 163e c9e1 b43d d0ff 39bc
000001c0: 73e8 553d bd2a b93d 64ce c63d 7120 16bd
000001d0: a5b5 6f3d ec4b 98bc 1ac3 2dbc 1d10 abb9
000001e0: ad1a 8f3d 03f0 253b 767a 4fbd 7a7f 1dbd
000001f0: 368f 393d fc51 9bbd 05a6 003e a92e e8bc
00000200: 7d61 70bd 8f33 703c 8dda 82bd 28de 723d
00000210: c14a b73d 07fc 6fbd 2f24 7b3d 7dbb a2bb
00000220: 6f70 2e3e 50ea 52be 3519 87bc c01c 063e
00000230: 810d a3bc 605a 61bc 2d62 57bd c0a4 d5bd
00000240: 3e35 9dbc b741 e4bb 0ace 82bd 2d9d ab3c
00000250: 3fa5 943e eaac 89bd 1510 dabd c2f4 05be
00000260: 247b c53d 336c b23b afef 7fbc da48 a83d
00000270: da56 93bd a4b1 643d 2487 0abe 026d 903d
00000280: 40f4 b03b 8a1e 0fbe 7214 f4bd dcc9 b93d
00000290: 98eb fb3d a430 1a3d 2126 99bd 5597 24bd
000002a0: 923a 033d 6303 a8bd cc21 37bd dcdf 283d
000002b0: 1190 6abc bc13 04be eb65 923d 2f73 813d
000002c0: 2b9d 36be db76 3e3c 9979 10be fcbf f53c
000002d0: f586 183d 2dc9 633d 5efd 50bd 9c47 ebbc
000002e0: 13ad 18be 7d41 fe3c e160 68bc fd92 35bd
000002f0: 2320 483c ea3e 87bc f126 1abd 345b 66bd
00000300: 48e9 f6bb 047b 683d 774e 983c 2b8f 443d
00000310: aa96 4a3c 4bf0 ecbc bf92 763d 2449 23bd
00000320: a9b7 06be 4e60 dbbd a34e e03c 58fb 5d3e
00000330: 2e07 02bc a343 a03c 17c2 383c 165c 83bd
00000340: 80cd 6ebd a77e 023e dca0 343d 63a2 d73c
00000350: 45ca 6b3d 3b4a ea3b b345 943d e5f9 49bd
00000360: c9c2 84ba 6f20 c4bd 6215 99bd a652 1fbb
00000370: 845a 98bb 012d 843d a3b5 aabd fb32 89bd
00000380: 1800 9c3d 02cb 413a d1a5 4b3d f564 e93b
00000390: b7a3 78be 8b1f 403c 6709 453d c33b 58bd
000003a0: e53e 45be 7eac cabd e1da a5bc d165 933d
000003b0: 0e1d 85bc 2232 bfbd 3a3a 0ebe 34a2 e03d
000003c0: b9bf 25bd 7696 893a 34f5 443d 7b94 fd3d
000003d0: 1bd8 b1bc 043e c5bb f8ff 11bd 7cb3 943d
000003e0: b43f 09be e4d2 95bc 5c4d 063e 0ef2 33bd
000003f0: 32b3 393d daa1 8a3e 5807 3ebe bed4 743c
-0.1623224 -0.08845204 0.035999946 -0.058203593 -0.020620894 -0.12433557 0.16967489 -0.0125074275
-0.022610063 -0.111094885 -0.01930235 0.010547463 0.16386412 0.057140358 0.016129145 -0.121888086
0.027153594 -0.25855616 -0.14077647 -0.09433598 -0.10712513 0.020170683 0.092970416 0.058543272
0.117504396 0.09486024 -0.1132292 -0.05433862 -0.033651866 0.07058641 0.13807383 -0.037422683
0.15240817 0.024196647 -0.033211615 -0.061662816 -0.037489027 0.14547111 -0.027479708 -0.004862192
-0.030948207 0.1402191 -0.017872939 0.026128527 -0.17092974 -0.0502343 0.064117976 0.098141834
0.0873268 -0.20189914 0.037802577 0.07887974 0.07834943 0.0013919671 0.008890784 -0.18578966
0.07158445 -0.106971055 -0.053797774 0.08163287 -0.027170556 0.011027173 0.14808394 -0.075782634
0.0014026026 -0.04213594 0.049442958 0.19082819 -0.08476818 -0.0019062051 -0.03077653 -0.015357669
0.02090773 -0.100883186 -0.03247323 0.021044504 -0.093614385 -0.083010696 0.032500938 0.045177076
0.04236432 0.047847137 0.00580121 -0.018212052 0.035619367 -0.10309776 -0.027050694 0.1738134
-0.029740304 0.20838375 0.06414029 -0.0047606323 -0.06845992 -0.05802162 -0.015501539 -0.08270273
0.05202104 -0.034076065 -0.16361648 -0.120479114 -0.23416801 -0.019238995 -0.016462157 0.0596026
0.09711482 0.06596066 0.13478084 -0.10109048 0.005654495 0.14681995 0.088321276 -0.011352494
0.052223634 0.09041355 0.09707335 -0.036652032 0.05852284 -0.01859089 -0.010605598 -0.00032627667
0.0698751 0.002532006 -0.050653897 -0.03845165 0.045302592 -0.07583997 0.12563331 -0.028342562
-0.058686722 0.01466073 -0.063893415 0.059293896 0.08949805 -0.05858996 0.061313804 -0.004966198
0.17035078 -0.20597196 -0.016491512 0.13096905 -0.0199039 -0.013754457 -0.052583862 -0.10431814
-0.019190427 -0.0069658416 -0.06386955 0.02094897 0.29032323 -0.06722434 -0.10647599 -0.13081649
0.09642628 0.0054450273 -0.01562111 0.0821702 -0.071943 0.055833474 -0.13528115 0.070520416
0.0054002106 -0.13976493 -0.11917962 0.09071705 0.12300795 0.037644044 -0.07477976 -0.040183384
0.03203828 -0.08203771 -0.044709966 0.041229114 -0.014316575 -0.12898153 0.071483456 0.06320798
-0.17833392 0.011625017 -0.14108886 0.029998772 0.03723808 0.055611778 -0.05102288 -0.02872067
-0.14909773 0.031037087 -0.014183254 -0.044329632 0.012214693 -0.016509492 -0.037634794 -0.05623932
-0.0075351335 0.05675794 0.018592102 0.047988098 0.012365023 -0.028923174 0.06019854 -0.039864674
-0.13155998 -0.10711728 0.027381247 0.21677911 -0.007936282 0.019563502 0.011276743 -0.064140484
-0.05830145 0.12743627 0.04409872 0.02632255 0.057565946 0.0071499622 0.072398566 -0.049310584
-0.0010128851 -0.09576499 -0.074747816 -0.0024310737 -0.004649462 0.06453896 -0.08335426 -0.06699177
0.076172054 0.0007392616 0.04971868 0.0071226307 -0.24281202 0.01172627 0.04810467 -0.05279137
-0.19262274 -0.098961815 -0.020245971 0.07197154 -0.016249206 -0.09335734 -0.13889399 0.10968438
-0.040466044 0.0010497111 0.048085406 0.12381836 -0.021709492 -0.0060193557 -0.0356445 0.072607964
-0.13403207 -0.018289037 0.13115448 -0.043932013 0.04533691 0.27076608 -0.18557489 0.0149433
