results/target_agent_01/target_agent_01/target_agent_01-10037.pt (torch, 144143 bytes, 12 tensors)

network_body._body_endoder.seq_layers.0.weight f4 [128, 1]
0	0xbf53934c	-0.8264663
1	0x3f5fd464	0.8743346
2	0x3e9f8b4e	0.3116097
3	0x3fe303df	1.7735556
4	0x3ed2df32	0.4118591
5	0x3d92e620	0.07172799
6	0x3d11ee38	0.035627574
7	0x3fdac20e	1.7090471
8	0x3fc8d266	1.5689209
9	0xbe271f33	-0.16320495
10	0xbe8a3e5e	-0.27000707
11	0x3ea80d65	0.3282272
12	0xbf37b7f4	-0.71765065
13	0x3eb48e21	0.35264686
14	0x3edccd0f	0.43125197
15	0xbfae57db	-1.3620561
16	0x3f26f7ee	0.6522206
17	0x3ff3b531	1.903967
18	0xc025b954	-2.5894365
19	0x3ed60bd0	0.41805887
20	0x3f2a2f4e	0.6647843
21	0xbe35381b	-0.17697184
22	0xbf52acd0	-0.8229494
23	0x3fa51853	1.2898048
24	0xbe52a3db	-0.20570318
25	0xbe6f4d03	-0.23369221
26	0xc00269dc	-2.0377111
27	0x3f5542fc	0.83305335
28	0xbf55bcbf	-0.8349113
29	0x3e5a7157	0.21332298
30	0xbf93d73a	-1.1550057
31	0x3efa740b	0.4891666
32	0x3f5fe8f5	0.8746484
33	0xbf165246	-0.5871929
34	0x3eef2d8d	0.4671444
35	0x3fb6c7c2	1.4279711
36	0xbf4a8b9b	-0.7911927
37	0x3ef36496	0.47537678
38	0xbfad0fda	-1.3520463
39	0x3e25f525	0.16206796
40	0xbff14a3e	-1.8850782
41	0xbf749067	-0.9553284
42	0xbf5d7d20	-0.8651905
43	0x3e13ff47	0.1445285
44	0x3f688cc8	0.90839815
45	0xbedd8a3a	-0.4326952
46	0xbf781725	-0.96910316
47	0xbf96cfc6	-1.1782157
48	0x3f6bd672	0.9212409
49	0x3f8fda35	1.1238467
50	0xbfcf9e3d	-1.6220165
51	0x3ebfe254	0.37477362
52	0x3fd294b7	1.6451634
53	0xbf3d73fd	-0.7400511
54	0x3f24a349	0.64311653
55	0xbfd85500	-1.690094
56	0xbfb12b27	-1.3841294
57	0x3e451b15	0.19248612
58	0x3e93b304	0.28847516
59	0x3dfba237	0.122867994
60	0xbf8f495d	-1.1194264
61	0x3b03e317	0.002012437
62	0xbe13bb73	-0.14426975
63	0x3ea8746c	0.32901323
64	0x3ebdabd5	0.3704516
65	0xbf560ca8	-0.8361306
66	0x3ecd693a	0.40119344
67	0xbede059c	-0.43363655
68	0xbe10fe59	-0.14159526
69	0xbfdde0a6	-1.7334182
70	0x3ef7eb68	0.48421788
71	0xbf44f752	-0.7693988
72	0x3e81937e	0.2530784
73	0xbfa15c32	-1.2606261
74	0x3e51408f	0.20434783
75	0xbf6da6a5	-0.92832404
76	0x3f52bc2b	0.8231837
77	0x3fea7cf2	1.831938
78	0x3fe815f6	1.8131702
79	0xbf5b63c2	-0.85699093
80	0xbe4679c5	-0.19382389
81	0xbf88d944	-1.0691304
82	0xbfedf60b	-1.8590711
83	0x3e65d6f3	0.22445278
84	0x3e8d5fc3	0.27612123
85	0xbef397e3	-0.47576818
86	0x3f4fff98	0.8124938
87	0xbe06ca00	-0.13162994
88	0xbdcde22e	-0.10052906
89	0xbf7d5024	-0.9895041
90	0xbf90dc72	-1.1317275
91	0xbe2988b4	-0.16556054
92	0xbf31fd2e	-0.69526947
93	0x3d902dd7	0.07039993
94	0xbf61a974	-0.8814919
95	0x3fb9c0f0	1.4512005
96	0x3f4fe63e	0.81210697
97	0x3e8096c9	0.2511504
98	0x3e4491be	0.19196221
99	0xbd1592db	-0.036517005
100	0xbf5fcbc7	-0.87420315
101	0x3e11eae2	0.14249757
102	0xbf28aeec	-0.6589191
103	0x3a6fa7e0	0.0009142142
104	0x3dda90a5	0.1067212
105	0x3fc947dc	1.5725055
106	0xbf011213	-0.50418204
107	0xbf395341	-0.7239266
108	0x3cc8cae6	0.024510812
109	0xbd7a8a97	-0.061167326
110	0xbe7603e5	-0.24024923
111	0xbfd7a4af	-1.6847132
112	0xbf3bd7ad	-0.7337597
113	0xbfbf7056	-1.4956157
114	0xbdc15c69	-0.09441454
115	0x3f693987	0.91103405
116	0x3fb60bbd	1.4222332
117	0xbeaffa0e	-0.34370464
118	0xbf8c438f	-1.0958117
119	0x3f402972	0.7506324
120	0xbf2b3266	-0.66873777
121	0x3faaa5c1	1.3331834
122	0x3f648f32	0.89281
123	0x3e85423d	0.26027098
124	0xc03b005d	-2.9218972
125	0xbf0f122f	-0.5588712
126	0xbfbc76d2	-1.4723761
127	0xbf68ecfa	-0.909866

network_body._body_endoder.seq_layers.0.bias f4 [128]
0	0x00000000	0.0
1	0x00000000	0.0
2	0x00000000	0.0
3	0x00000000	0.0
4	0x00000000	0.0
5	0x00000000	0.0
6	0x00000000	0.0
7	0x00000000	0.0
8	0x00000000	0.0
9	0x00000000	0.0
10	0x00000000	0.0
11	0x00000000	0.0
12	0x00000000	0.0
13	0x00000000	0.0
14	0x00000000	0.0
15	0x00000000	0.0
16	0x00000000	0.0
17	0x00000000	0.0
18	0x00000000	0.0
19	0x00000000	0.0
20	0x00000000	0.0
21	0x00000000	0.0
22	0x00000000	0.0
23	0x00000000	0.0
24	0x00000000	0.0
25	0x00000000	0.0
26	0x00000000	0.0
27	0x00000000	0.0
28	0x00000000	0.0
29	0x00000000	0.0
30	0x00000000	0.0
31	0x00000000	0.0
32	0x00000000	0.0
33	0x00000000	0.0
34	0x00000000	0.0
35	0x00000000	0.0
36	0x00000000	0.0
37	0x00000000	0.0
38	0x00000000	0.0
39	0x00000000	0.0
40	0x00000000	0.0
41	0x00000000	0.0
42	0x00000000	0.0
43	0x00000000	0.0
44	0x00000000	0.0
45	0x00000000	0.0
46	0x00000000	0.0
47	0x00000000	0.0
48	0x00000000	0.0
49	0x00000000	0.0
50	0x00000000	0.0
51	0x00000000	0.0
52	0x00000000	0.0
53	0x00000000	0.0
54	0x00000000	0.0
55	0x00000000	0.0
56	0x00000000	0.0
57	0x00000000	0.0
58	0x00000000	0.0
59	0x00000000	0.0
60	0x00000000	0.0
61	0x00000000	0.0
62	0x00000000	0.0
63	0x00000000	0.0
64	0x00000000	0.0
65	0x00000000	0.0
66	0x00000000	0.0
67	0x00000000	0.0
68	0x00000000	0.0
69	0x00000000	0.0
70	0x00000000	0.0
71	0x00000000	0.0
72	0x00000000	0.0
73	0x00000000	0.0
74	0x00000000	0.0
75	0x00000000	0.0
76	0x00000000	0.0
77	0x00000000	0.0
78	0x00000000	0.0
79	0x00000000	0.0
80	0x00000000	0.0
81	0x00000000	0.0
82	0x00000000	0.0
83	0x00000000	0.0
84	0x00000000	0.0
85	0x00000000	0.0
86	0x00000000	0.0
87	0x00000000	0.0
88	0x00000000	0.0
89	0x00000000	0.0
90	0x00000000	0.0
91	0x00000000	0.0
92	0x00000000	0.0
93	0x00000000	0.0
94	0x00000000	0.0
95	0x00000000	0.0
96	0x00000000	0.0
97	0x00000000	0.0
98	0x00000000	0.0
99	0x00000000	0.0
100	0x00000000	0.0
101	0x00000000	0.0
102	0x00000000	0.0
103	0x00000000	0.0
104	0x00000000	0.0
105	0x00000000	0.0
106	0x00000000	0.0
107	0x00000000	0.0
108	0x00000000	0.0
109	0x00000000	0.0
110	0x00000000	0.0
111	0x00000000	0.0
112	0x00000000	0.0
113	0x00000000	0.0
114	0x00000000	0.0
115	0x00000000	0.0
116	0x00000000	0.0
117	0x00000000	0.0
118	0x00000000	0.0
119	0x00000000	0.0
120	0x00000000	0.0
121	0x00000000	0.0
122	0x00000000	0.0
123	0x00000000	0.0
124	0x00000000	0.0
125	0x00000000	0.0
126	0x00000000	0.0
127	0x00000000	0.0

network_body._body_endoder.seq_layers.2.weight f4 [128, 128]
0	0x3e135ac6	0.14390096
1	0x3d242f2d	0.040084053
2	0x3cba9a88	0.022778764
3	0xbe47762b	-0.19478671
4	0x3dacf9cf	0.08446085
5	0xbaaf25bc	-0.0013362686
6	0xbdd0747c	-0.10178468
7	0x3d250a86	0.04029324
8	0xbdaea777	-0.08528035
9	0xbd5e0cde	-0.05421149
10	0x3da57471	0.0807885
11	0x3dd6538c	0.10465154
12	0x3e305619	0.17220344
13	0x3d2b538d	0.041827727
14	0xbc1d6a30	-0.009607837
15	0x3e261757	0.16219841
16	0x3d35121e	0.04420673
17	0xbd25d1db	-0.040483337
18	0xbd557b77	-0.0521197
19	0x3ce7e727	0.028308464
20	0x3df845ba	0.12122674
21	0x3d4118cd	0.047142792
22	0xbdfb0c52	-0.12258209
23	0xbd71b142	-0.059006937
24	0xbba838ba	-0.0051337155
25	0x3c9a1ac3	0.01881159
26	0x3c165c82	0.009177329
27	0xbdcc82be	-0.099858746
28	0x3d915341	0.070959575
29	0xbda258ac	-0.07927069
30	0xbd301188	-0.04298547
31	0x39aa8954	0.00032527244
32	0x3d3a7b42	0.045527704
33	0x3dd44699	0.10365028
34	0xbe00f8d1	-0.12594916
35	0x3e03d644	0.12874705
36	0x3c6d2d86	0.014476186
37	0xbcfadff3	-0.030624365
38	0x3d20f9be	0.039300673
39	0xbc7c7cb6	-0.015410593
40	0xbbbb85dc	-0.0057227444
41	0xbd3e186a	-0.04641
42	0x3d17f557	0.03709921
43	0xbdc7ca56	-0.097553894
44	0xbd59b1c1	-0.053148035
45	0x3da7e294	0.08197513
46	0xbbab139e	-0.0052208444
47	0xbd15168d	-0.03639846
48	0x3dbcaaf9	0.09212298
49	0xbd39d06a	-0.045364775
50	0xbd1965fb	-0.03745077
51	0x3dc333a5	0.09531335
52	0x3dd7c17b	0.1053495
53	0x3c67f2a6	0.014156973
54	0xbd0a1da3	-0.03371967
55	0x3b1cccec	0.0023925854
56	0x3d297b29	0.04137722
57	0x3ceec0b9	0.029144632
58	0xbb2838d6	-0.0025668642
59	0x3e38c1c8	0.18042672
60	0x3da337fe	0.07969664
61	0x3e16f55b	0.14742033
62	0x3dbf4a71	0.093403704
63	0xbc8a01db	-0.016846588
64	0xbc9c9fa6	-0.019119095
65	0xbc703214	-0.014660377
66	0x3d2e9ab9	0.042628024
67	0x3ca8ab36	0.020589452
68	0x3d9428fc	0.0723438
69	0xbe0de8fe	-0.1385841
70	0xbbbc41e1	-0.005745158
71	0xbd32da1c	-0.043665037
72	0xbe556417	-0.20838962
73	0xbd816e7e	-0.06319903
74	0x3c29a44f	0.010354116
75	0xbe115d22	-0.14195684
76	0xbe01526f	-0.12629102
77	0xbdb46a0b	-0.088092886
78	0x3daec39d	0.08533404
79	0x3d84c313	0.0648252
80	0xbd667013	-0.056259226
81	0x3da878d6	0.082261726
82	0x3e2892c3	0.16462235
83	0x3c3c9769	0.011510708
84	0x3d960096	0.073243305
85	0xbdf50688	-0.11964136
86	0xbc930fc9	-0.017951863
87	0xbccbfa46	-0.024899613
88	0xbdf5f1a0	-0.12008977
89	0x3c9d1aec	0.019177876
90	0x3ca98f32	0.020698164
91	0xbd586638	-0.05283186
92	0xbe08b12e	-0.13348839
93	0xbd4a0fc5	-0.049331445
94	0x3e03244b	0.12806813
95	0x3d425e08	0.047452956
96	0xbe135871	-0.14389206
97	0xbd9109ce	-0.07081948
98	0xbb8d356f	-0.0043093483
99	0xbd20a7ad	-0.039222408
100	0x3e2e9221	0.17047931
101	0x3dcae905	0.09907726
102	0xbdcef077	-0.10104459
103	0xbda11d99	-0.078669734
104	0xbc3c4475	-0.011490931
105	0xbd8cab6a	-0.06868632
106	0xbda099af	-0.07841813
107	0xbdb79eee	-0.0896586
108	0x3d5ffb71	0.054683153
109	0x3c7f3297	0.015576026
110	0x3d04d4eb	0.032429617
111	0x3d550091	0.052002493
112	0xbc6fdf2f	-0.014640613
113	0xbd582f71	-0.05277962
114	0xbd2aabaa	-0.041667618
115	0x3e2810d8	0.16412675
116	0xbc3c5c6b	-0.011496644
117	0x3d383853	0.04497559
118	0xbaab8943	-0.0013087172
119	0x3d5fed72	0.054669805
120	0x3d1fd579	0.039021943
121	0x3d765c08	0.06014636
122	0xbafbeff1	-0.0019221288
123	0xbb2a5afd	-0.0025994175
124	0x3d7bbfe3	0.061462294
125	0x3ce71a8a	0.028210897
126	0x3cb5a26e	0.02217218
127	0xbbd09c3a	-0.00636628
128	0xbd9c7519	-0.07639522
129	0x3ccb01a8	0.024781063
130	0x3dc568a1	0.09639097
131	0x3db2ec52	0.08736481
132	0xbdeb2a9f	-0.11482739
133	0x3d6709ab	0.056405704
134	0xbbe43c85	-0.0069652223
135	0xbbe75de6	-0.007060754
136	0xbd4461db	-0.047944885
137	0xbd814b5a	-0.063132
138	0x3e319d85	0.17345245
139	0xbdebaa63	-0.11507108
140	0xbdc3232a	-0.095281914
141	0x3d4da263	0.050203692
142	0xbd47d927	-0.048791077
143	0x3d72a4ab	0.05923907
144	0xbe13d1ec	-0.14435548
145	0xbd7b487e	-0.06134843
146	0xbcaa39ca	-0.02077951
147	0x3d09a7ad	0.033607174
148	0x3e0552df	0.13019894
149	0xbd99e2bd	-0.0751395
150	0x3d3e3818	0.046440214
151	0xbcee578d	-0.029094482
152	0xbd696d9d	-0.0569893
153	0x3cccf400	0.025018692
154	0xbce59b1e	-0.028028067
155	0xbdc4b11e	-0.09604095
156	0xbb47acb7	-0.0030467936
157	0x3d54fbb4	0.051997855
158	0x3c5d0d7c	0.013491984
159	0xbd1b4cd9	-0.037915085
160	0xbdc7a7ba	-0.09748788
161	0xbd4ceb9b	-0.05002938
162	0x3da92115	0.08258263
163	0xbda75064	-0.0816963
164	0x3bababc1	0.0052389805
165	0xbcde47aa	-0.027133781
166	0xbd30314d	-0.043015767
167	0x3e3ff578	0.18745983
168	0xbda4050b	-0.08008774
169	0x3d9556ed	0.072919704
170	0x3d96dc90	0.07366288
171	0xbe040da9	-0.12895836
172	0x3e07d82c	0.13266057
173	0x3d7aad77	0.061200585
174	0xbd46ebba	-0.04856465
175	0xbd95da0a	-0.07316978
176	0x3db88bee	0.090110645
177	0xbcb5faae	-0.02221426
178	0xbb28141f	-0.0025646759
179	0x3df5a9d7	0.11995285
180	0x3cf50baf	0.029912798
181	0x3e032122	0.12805608
182	0xbd9a709a	-0.07541008
183	0xbe15f9f7	-0.14646135
184	0x3d4dc6b3	0.050238322
185	0x3e3cfec9	0.18456568
186	0xbd5ac7dc	-0.053413257
187	0xbb96bec3	-0.0046003773
188	0x3e4cf5be	0.20015618
189	0x3dcf0793	0.101088665
190	0xbd5c228e	-0.05374389
191	0x3e00aaa3	0.12565093
192	0xbd9788a4	-0.07399109
193	0xbe2b61cf	-0.1673653
194	0x3d98c88f	0.074601285
195	0x3cbe2dac	0.023215137
196	0xbdb78b1a	-0.089620784
197	0x3d6b1e8f	0.05740219
198	0xbd083817	-0.033256616
199	0x3d907437	0.07053416
200	0x3d9d0a74	0.076680094
201	0x3d135d15	0.03597744
202	0x3d43a0e3	0.047760855
203	0xbda149e0	-0.07875419
204	0x3d7897fe	0.060691826
205	0x388d2821	6.7308785e-05
206	0x3d5cc8db	0.05390249
207	0xbd887aed	-0.06664071
208	0x3d1da6af	0.03848904
209	0x3d2bdea6	0.04196038
210	0xbcfe200e	-0.031021144
211	0x3cd10470	0.025514811
212	0x3d067d61	0.032834414
213	0xbba41860	-0.0050077885
214	0x3ce436c8	0.027858153
215	0x3b8c89f9	0.0042889086
216	0x3d04b996	0.03240355
217	0x3bd72b07	0.0065664086
218	0xbde3da8c	-0.11125669
219	0xbdcba479	-0.0994348
220	0xbd3dcaa6	-0.04633584
221	0xbde12feb	-0.10995468
222	0xbdfbb0fe	-0.12289618
223	0xbe663247	-0.22480117
224	0xbe0dfa99	-0.13865127
225	0x3defe4dd	0.11713574
226	0x3d626728	0.05527416
227	0xbba65a21	-0.005076662
228	0xbd899766	-0.0671833
229	0xbcb63833	-0.022243595
230	0xbdde2459	-0.108467765
231	0xbbf3a6ec	-0.00743567
232	0xbdda0193	-0.106448315
233	0x3c33e952	0.010980921
234	0xbae66ae8	-0.0017579468
235	0xbdc08708	-0.09400755
236	0xbd912b35	-0.07088319
237	0xbcae2b71	-0.021260949
238	0x3d1fe953	0.039040875
239	0xbc4c4211	-0.012466923
240	0xbd82c890	-0.063859105
241	0x3dc4b966	0.096056744
242	0xbd166e50	-0.036726296
243	0x3dbb6ed8	0.09152001
244	0x3daf173c	0.085493535
245	0xbd398eb6	-0.045302115
246	0xbdc14e1f	-0.094387285
247	0x3d9bea8c	0.07613096
248	0xbd3d981e	-0.04628765
249	0x3ca912cd	0.020638848
250	0xbdae4a9b	-0.085103236
251	0xbc5a59e4	-0.013327096
252	0x3c1274ad	0.0089389505
253	0x3d1f7784	0.03893234
254	0xbe7a3a87	-0.24436389
255	0x3d97b881	0.07408238

network_body._body_endoder.seq_layers.2.bias f4 [128]
0	0x00000000	0.0
1	0x00000000	0.0
2	0x00000000	0.0
3	0x00000000	0.0
4	0x00000000	0.0
5	0x00000000	0.0
6	0x00000000	0.0
7	0x00000000	0.0
8	0x00000000	0.0
9	0x00000000	0.0
10	0x00000000	0.0
11	0x00000000	0.0
12	0x00000000	0.0
13	0x00000000	0.0
14	0x00000000	0.0
15	0x00000000	0.0
16	0x00000000	0.0
17	0x00000000	0.0
18	0x00000000	0.0
19	0x00000000	0.0
20	0x00000000	0.0
21	0x00000000	0.0
22	0x00000000	0.0
23	0x00000000	0.0
24	0x00000000	0.0
25	0x00000000	0.0
26	0x00000000	0.0
27	0x00000000	0.0
28	0x00000000	0.0
29	0x00000000	0.0
30	0x00000000	0.0
31	0x00000000	0.0
32	0x00000000	0.0
33	0x00000000	0.0
34	0x00000000	0.0
35	0x00000000	0.0
36	0x00000000	0.0
37	0x00000000	0.0
38	0x00000000	0.0
39	0x00000000	0.0
40	0x00000000	0.0
41	0x00000000	0.0
42	0x00000000	0.0
43	0x00000000	0.0
44	0x00000000	0.0
45	0x00000000	0.0
46	0x00000000	0.0
47	0x00000000	0.0
48	0x00000000	0.0
49	0x00000000	0.0
50	0x00000000	0.0
51	0x00000000	0.0
52	0x00000000	0.0
53	0x00000000	0.0
54	0x00000000	0.0
55	0x00000000	0.0
56	0x00000000	0.0
57	0x00000000	0.0
58	0x00000000	0.0
59	0x00000000	0.0
60	0x00000000	0.0
61	0x00000000	0.0
62	0x00000000	0.0
63	0x00000000	0.0
64	0x00000000	0.0
65	0x00000000	0.0
66	0x00000000	0.0
67	0x00000000	0.0
68	0x00000000	0.0
69	0x00000000	0.0
70	0x00000000	0.0
71	0x00000000	0.0
72	0x00000000	0.0
73	0x00000000	0.0
74	0x00000000	0.0
75	0x00000000	0.0
76	0x00000000	0.0
77	0x00000000	0.0
78	0x00000000	0.0
79	0x00000000	0.0
80	0x00000000	0.0
81	0x00000000	0.0
82	0x00000000	0.0
83	0x00000000	0.0
84	0x00000000	0.0
85	0x00000000	0.0
86	0x00000000	0.0
87	0x00000000	0.0
88	0x00000000	0.0
89	0x00000000	0.0
90	0x00000000	0.0
91	0x00000000	0.0
92	0x00000000	0.0
93	0x00000000	0.0
94	0x00000000	0.0
95	0x00000000	0.0
96	0x00000000	0.0
97	0x00000000	0.0
98	0x00000000	0.0
99	0x00000000	0.0
100	0x00000000	0.0
101	0x00000000	0.0
102	0x00000000	0.0
103	0x00000000	0.0
104	0x00000000	0.0
105	0x00000000	0.0
106	0x00000000	0.0
107	0x00000000	0.0
108	0x00000000	0.0
109	0x00000000	0.0
110	0x00000000	0.0
111	0x00000000	0.0
112	0x00000000	0.0
113	0x00000000	0.0
114	0x00000000	0.0
115	0x00000000	0.0
116	0x00000000	0.0
117	0x00000000	0.0
118	0x00000000	0.0
119	0x00000000	0.0
120	0x00000000	0.0
121	0x00000000	0.0
122	0x00000000	0.0
123	0x00000000	0.0
124	0x00000000	0.0
125	0x00000000	0.0
126	0x00000000	0.0
127	0x00000000	0.0

action_model._continuous_distribution.log_sigma f4 [1, 2]
0	0x00000000	0.0
1	0x00000000	0.0

action_model._continuous_distribution.mu.weight f4 [2, 128]
0	0xbd0feed0	-0.03513986
1	0xbc85d423	-0.016336506
2	0xbc451d5f	-0.012030928
3	0xbc8b0677	-0.016970856
4	0xbcbc003d	-0.022949332
5	0x3c219afb	0.00986361
6	0x3bdad015	0.0066776373
7	0xbba02389	-0.0048870486
8	0xbc8bc3d1	-0.017061146
9	0xbc2ef263	-0.010677907
10	0xbc878835	-0.01654444
11	0xbbfa5165	-0.0076390975
12	0xbc55084b	-0.0130024655
13	0xbcb00478	-0.021486506
14	0x3c1b9bbc	0.009497579
15	0xbc3fcdb2	-0.011706756
16	0xbb5d86c2	-0.0033802246
17	0x3c9ac0a1	0.01889068
18	0xbbccbbda	-0.0062479796
19	0x3c0a4a0b	0.008440505
20	0x3ccd091b	0.025028756
21	0x3cd87632	0.026423547
22	0xbcc2e05a	-0.02378862
23	0xbca97aee	-0.0206885
24	0xbc9cbe6d	-0.01913377
25	0xbc8e1f01	-0.017348768
26	0xbbab890b	-0.0052348427
27	0x3d0b7993	0.03405149
28	0xbc910355	-0.017701784
29	0x3839bd56	4.428377e-05
30	0xbc46d6cb	-0.012136172
31	0xbc0336d3	-0.008008677
32	0x3cf5dafb	0.030011645
33	0x3c56a278	0.013100259
34	0x3c1007bb	0.008790906
35	0x3cc0bfdb	0.023528984
36	0x3ba74db4	0.0051056985
37	0x3ab8cdcf	0.0014099422
38	0xbc869fcb	-0.016433617
39	0xbb13c2b7	-0.002254648
40	0xbccc6ccb	-0.02495422
41	0x3c3b635f	0.011437266
42	0x3c94f583	0.018183475
43	0xbb2ce8f8	-0.0026383977
44	0x3d0aeeb9	0.03391907
45	0x3a999767	0.0011718095
46	0x39abf9a8	0.0003280167
47	0x3c3997cd	0.011327696
48	0x3b92877b	0.004471717
49	0x3cc4da34	0.024029829
50	0x3c8e8e2d	0.01740178
51	0xbce16dba	-0.027518142
52	0x3c555910	0.013021722
53	0xbc596c5d	-0.013270465
54	0xbca3ce80	-0.019995928
55	0x3ac7c856	0.00152422
56	0xbcd04907	-0.025425447
57	0xbcc2c9cb	-0.023777863
58	0xbaba7a8d	-0.0014227197
59	0x3b478c72	0.0030448702
60	0xbd302a2b	-0.043008965
61	0x3c90dfbd	0.017684812
62	0x3cee5f22	0.029098097
63	0xbd01c50a	-0.03168205
64	0x3bfc63e3	0.007702337
65	0xbc7739ef	-0.015089496
66	0x3cb97873	0.022640442
67	0xbb727795	-0.0036997546
68	0xbc24e830	-0.010065123
69	0x3c6ae46d	0.0143366875
70	0xbce2d393	-0.027688777
71	0x3c12a862	0.008951278
72	0x3d35d2df	0.044390555
73	0xbca0f385	-0.01964737
74	0x3c386f70	0.0112570375
75	0x3bdc888f	0.0067301462
76	0x3ba09909	0.0049010557
77	0xbbb07f00	-0.0053862333
78	0x3b447b8e	0.002998087
79	0xba82720b	-0.00099522
80	0xbc81c680	-0.015841722
81	0xbccc6d5c	-0.02495449
82	0x3cda58a3	0.026653593
83	0x3bc17797	0.005904149
84	0xb9241252	-0.00015647084
85	0xbcb20e2d	-0.021735275
86	0xbc14ad0f	-0.0090744635
87	0xbc3eefd8	-0.011653863
88	0xbd00aa7f	-0.031412598
89	0xbc7313d7	-0.014836273
90	0xbbe2201a	-0.0069007995
91	0xbb2240dd	-0.00247579
92	0xbae76378	-0.0017653545
93	0x3c869a30	0.016430944
94	0x3c98ae1b	0.018637707
95	0x3c1ac995	0.009447475
96	0xbba336cc	-0.0049808975
97	0x3ba2561e	0.0049541136
98	0x3c66d5c5	0.014089053
99	0x3bccce20	0.006250158
100	0x3c751f8f	0.014961137
101	0xbce48bbf	-0.027898667
102	0x3d1e1c58	0.03860125
103	0x3c4fa613	0.0126738725
104	0xbc5dfcdf	-0.013549059
105	0x3c84f05f	0.0162279
106	0xb86d475f	-5.6571673e-05
107	0x3b27c6ac	0.0025600595
108	0xbb28edff	-0.0025776622
109	0x3c4fe10b	0.012687932
110	0xbc150d18	-0.00909736
111	0xbb45db21	-0.0030190425
112	0x3acd135b	0.0015646027
113	0x3c0e0bb6	0.008669784
114	0xbce0e03a	-0.02745067
115	0xbc9a6505	-0.018846998
116	0x3c9b9ba9	0.018995123
117	0xbc44144b	-0.011967729
118	0x3c7ab345	0.01530153
119	0x3bb0f125	0.0053998404
120	0xbb8bd5b8	-0.0042674206
121	0xbd1fe931	-0.039040748
122	0xbbc1b5d3	-0.0059115677
123	0x3bb05321	0.0053810035
124	0xbc806205	-0.01567174
125	0xbc039a6d	-0.008032423
126	0xbb1b91eb	-0.0023738097
127	0x3c4eda42	0.012625279
128	0x3b9795f5	0.0046260306
129	0x3bf4e3e2	0.007473455
130	0x3b82f456	0.0039964123
131	0x3d058287	0.032595184
132	0x3c94a20b	0.018143674
133	0x3b324a8e	0.0027205083
134	0xbc2e742e	-0.010647817
135	0x3c8f9db6	0.017531257
136	0x3cfb7f77	0.030700428
137	0x3c39a26c	0.011330228
138	0xbcb7a3d3	-0.022416985
139	0xbcae60c2	-0.021286372
140	0xbd2dde95	-0.0424486
141	0xb9298103	-0.00016165157
142	0xbcd737e3	-0.026271766
143	0xbab1ce8b	-0.0013565583
144	0xbb66c3d0	-0.0035211928
145	0x3c091fe4	0.00836942
146	0x3cb0f8b5	0.021602968
147	0x3cab3c4e	0.020902779
148	0xbb45e3a8	-0.0030195508
149	0x3c22baf5	0.009932269
150	0x3bd1f15b	0.0064069456
151	0xbc82decb	-0.015975377
152	0x3d248257	0.040163364
153	0x3bc0952b	0.005877157
154	0xbc84127f	-0.0161221
155	0xbcb78c5f	-0.022405801
156	0x3ba0d549	0.004908238
157	0xbcc349e7	-0.02383895
158	0x3cb88b59	0.022527384
159	0xbbfc0ed0	-0.0076921955
160	0xbc9dd8b6	-0.019268375
161	0xbbb8d0a3	-0.005640106
162	0xb987812c	-0.00025845447
163	0xbc415bf7	-0.011801711
164	0xbc1850b0	-0.009296581
165	0x3b12d1e4	0.0022402937
166	0xbcc0e4cb	-0.023546597
167	0xbaf8b40d	-0.0018974558
168	0x3bdede9f	0.006801441
169	0xbcaebf5f	-0.021331487
170	0x3c387880	0.011259198
171	0x3d251f53	0.040313076
172	0xbb44b489	-0.0030014834
173	0xbcbb3bb3	-0.022855615
174	0xbbca9883	-0.0061827316
175	0xbc1f8df8	-0.009738438
176	0xbcb28f25	-0.021796772
177	0x3d2f593b	0.042809706
178	0xbae23ff2	-0.0017261489
179	0xbc950892	-0.018192563
180	0x3c180358	0.009278141
181	0xbbeb5037	-0.007181193
182	0x3c3ff2a0	0.011715561
183	0xbd141b0b	-0.036158603
184	0x3c26f834	0.010191012
185	0xb827c860	-4.0002516e-05
186	0x3c5321e7	0.012886501
187	0x3bfa5cef	0.007640473
188	0x3c89feab	0.016845068
189	0x3bbf36a7	0.0058353725
190	0xbcb30b13	-0.021855867
191	0xbb956eb0	-0.004560314
192	0x3cb87457	0.022516413
193	0xbd090271	-0.033449594
194	0xbc1fbd0d	-0.009749663
195	0xbae16c47	-0.0017198407
196	0xba0ecf2f	-0.0005447743
197	0xbd43dda4	-0.047818795
198	0x3d0cc1e6	0.034364603
199	0xbc0c54b7	-0.0085651195
200	0x3bbac5ad	0.0056998343
201	0xbb8290d2	-0.003984549
202	0x3c2d1d56	0.010566076
203	0x3c6d6f25	0.014491831
204	0xbc933603	-0.01797009
205	0x3bbb9749	0.0057248217
206	0x3b803f73	0.0039138137
207	0xbc6c9bca	-0.01444144
208	0x3bfc5e6d	0.007701686
209	0xbcbb107e	-0.022835013
210	0xbce14073	-0.027496552
211	0x3b2313ef	0.0024883708
212	0xbce18c95	-0.027532855
213	0x3cb59eb3	0.0221704
214	0x3b0bcb9f	0.0021331084
215	0xbd27834b	-0.040896695
216	0xbd12e8fa	-0.035866715
217	0xbc90d327	-0.01767881
218	0x3bc47db2	0.0059964294
219	0x3c196347	0.0093620485
220	0x3c13a7ab	0.009012143
221	0x3beae242	0.0071680853
222	0x3b2c430e	0.0026285085
223	0x394e1387	0.00019652965
224	0xbb38741e	-0.0028145383
225	0xbca620c2	-0.020279292
226	0x3cbb7605	0.022883425
227	0xbc588ce5	-0.013217186
228	0xbb71e733	-0.0036911487
229	0xbc50eb3d	-0.012751398
230	0x3c84c4f9	0.016207205
231	0xbc90b4ca	-0.017664332
232	0xbcdf579a	-0.027263451
233	0xbc3a92a3	-0.0113875
234	0xbd65dfb3	-0.05612154
235	0x3b7f22f3	0.0038930743
236	0x3c257c3f	0.010100423
237	0xbc77a153	-0.015114146
238	0xbce63562	-0.028101627
239	0xbbff8347	-0.007797632
240	0xbbff8dfb	-0.007798908
241	0x3c801fc9	0.015640156
242	0xba3caec3	-0.00071976724
243	0xbd137ed5	-0.03600963
244	0x3b1e55cd	0.0024160028
245	0x3b9fe7de	0.0048799356
246	0x3ce0bda8	0.027434185
247	0x3c1e83bb	0.009674962
248	0x3bb3bd8d	0.0054852427
249	0x3c359229	0.011082211
250	0x3c438933	0.011934566
251	0xbc30b15d	-0.010784474
252	0x3c5d8d42	0.013522448
253	0xbb9feabb	-0.004880277
254	0xbbc1a61b	-0.005909694
255	0x3c124d12	0.008929508

action_model._continuous_distribution.mu.bias f4 [2]
0	0x00000000	0.0
1	0x00000000	0.0

network_body._body_endoder.seq_layers.0.weight f4 [128, 1]
0	0x3e8f02ea	0.2793191
1	0xbeb43de4	-0.3520347
2	0xbef8cfd0	-0.48596048
3	0x3f049698	0.5179229
4	0xc00ed070	-2.231472
5	0xbee5e498	-0.44900966
6	0xbd923248	-0.07138497
7	0xc01565bb	-2.3343341
8	0x3df70e02	0.12063219
9	0xbfc773e3	-1.5582241
10	0xbecf8f01	-0.4053879
11	0xbb19d177	-0.0023470798
12	0xbd9212ba	-0.07132478
13	0xbce342ef	-0.027741877
14	0x3ec7502e	0.3892836
15	0xbf956079	-1.1670066
16	0x401a7424	2.4133387
17	0x3ef6c367	0.48195955
18	0x3e2b92d4	0.16755229
19	0xbf9dbb9a	-1.2322876
20	0x3f946a94	1.1595025
21	0x3eaf94aa	0.3429311
22	0xbd734bf7	-0.059398618
23	0x3f6d7051	0.92749506
24	0xbfcaba3b	-1.5838083
25	0xbfb66ca8	-1.4251909
26	0xbdf91804	-0.12162784
27	0x3faff54b	1.3746732
28	0xbf4296e2	-0.7601148
29	0xbf6e5435	-0.9309724
30	0xbde6cf4a	-0.11270006
31	0xbe0395c2	-0.12850097
32	0x3f3fb835	0.7489045
33	0xbfa5a0b8	-1.2939672
34	0xbed44bd4	-0.41464102
35	0xbf99178d	-1.1960312
36	0x3eb9cd0f	0.3628926
37	0x3d9c480a	0.07630928
38	0x3f2ebe7d	0.6825941
39	0xbf8dc02d	-1.1074272
40	0xbf77a3cb	-0.96734303
41	0xbf9b6075	-1.2138811
42	0x3fab860e	1.3400285
43	0xbec9267c	-0.39287174
44	0xbf87c92a	-1.0608265
45	0xbf7048b5	-0.9386094
46	0x3f1576f9	0.5838466
47	0xbff76778	-1.9328451
48	0xbece7179	-0.40320948
49	0x3eb5ecb8	0.35532165
50	0xbf950924	-1.1643414
51	0xbee8fb26	-0.4550411
52	0x3fee1a35	1.8601748
53	0x3f2b23c4	0.6685145
54	0x3f241c0e	0.6410531
55	0xbeb6acba	-0.35678655
56	0xbea86150	-0.32886744
57	0x4005022c	2.0782576
58	0xbe92d690	-0.28679323
59	0x3e957b1f	0.29195496
60	0x3bfac994	0.0076534245
61	0xbd9c0bde	-0.07619451
62	0xbeadbe10	-0.3393407
63	0xbf867099	-1.0503112
64	0x3f9743c8	1.181756
65	0x3e84ec50	0.25961542
66	0x3d873d30	0.066034675
67	0x3e43989c	0.19101185
68	0xbf17797c	-0.59169745
69	0x3f7d3f8a	0.9892508
70	0x3fd6d793	1.6784538
71	0xbfec11b5	-1.8442904
72	0xbf54b55c	-0.8308923
73	0x3fc15487	1.5103921
74	0x3fb5b79e	1.419666
75	0x3ff7c7df	1.9357871
76	0x3e49e3c1	0.19715787
77	0xbf452507	-0.77009624
78	0x3fbc9ec4	1.4735951
79	0xbf8db745	-1.1071554
80	0xbfc734a6	-1.5562942
81	0x3e9bde8b	0.30443224
82	0x3f254fd6	0.64574945
83	0xbf0f7fa9	-0.5605417
84	0xbfa06697	-1.2531308
85	0x3f6ee083	0.9331133
86	0xbfa850b1	-1.3149625
87	0x3f5ee528	0.87068415
88	0xbf42258f	-0.7583856
89	0x3f7e3723	0.9930288
90	0xbf886e51	-1.0658666
91	0xbf067950	-0.5252886
92	0x400cfbde	2.2028728
93	0x3aca511e	0.0015435552
94	0x3dbef946	0.09324889
95	0x3fbe44f0	1.4864788
96	0x40087a72	2.1324735
97	0x3fb5aac9	1.4192744
98	0xbfa09738	-1.2546148
99	0x3f0bc689	0.54599816
100	0xbf94d76f	-1.1628245
101	0xbea91437	-0.33023235
102	0x3f7b67eb	0.9820544
103	0x3f369932	0.7132751
104	0xbf2a094b	-0.6642043
105	0xbfc683ff	-1.5509032
106	0x3e8a1ba6	0.2697422
107	0x3fa7c677	1.3107442
108	0xbf20a4ef	-0.6275167
109	0x3f537dd8	0.826139
110	0x3f3147ca	0.69250166
111	0xbf987786	-1.1911476
112	0x3fd37bee	1.6522195
113	0x3f71ad9e	0.94405544
114	0xbf2074e6	-0.6267837
115	0xbfef8d35	-1.8714968
116	0xbe3e2989	-0.18570532
117	0x3f8094b8	1.0045385
118	0x3f441705	0.76597625
119	0xbf1830cf	-0.59449476
120	0xbfa2cb6b	-1.2718328
121	0xbf1b8874	-0.60755086
122	0x3f0db0af	0.5534772
123	0xc0510cb7	-3.266401
124	0xbf1b8948	-0.6075635
125	0xbf653de7	-0.8954758
126	0x3d5b4bc7	0.053539064
127	0x3f35a133	0.70949095

network_body._body_endoder.seq_layers.0.bias f4 [128]
0	0x00000000	0.0
1	0x00000000	0.0
2	0x00000000	0.0
3	0x00000000	0.0
4	0x00000000	0.0
5	0x00000000	0.0
6	0x00000000	0.0
7	0x00000000	0.0
8	0x00000000	0.0
9	0x00000000	0.0
10	0x00000000	0.0
11	0x00000000	0.0
12	0x00000000	0.0
13	0x00000000	0.0
14	0x00000000	0.0
15	0x00000000	0.0
16	0x00000000	0.0
17	0x00000000	0.0
18	0x00000000	0.0
19	0x00000000	0.0
20	0x00000000	0.0
21	0x00000000	0.0
22	0x00000000	0.0
23	0x00000000	0.0
24	0x00000000	0.0
25	0x00000000	0.0
26	0x00000000	0.0
27	0x00000000	0.0
28	0x00000000	0.0
29	0x00000000	0.0
30	0x00000000	0.0
31	0x00000000	0.0
32	0x00000000	0.0
33	0x00000000	0.0
34	0x00000000	0.0
35	0x00000000	0.0
36	0x00000000	0.0
37	0x00000000	0.0
38	0x00000000	0.0
39	0x00000000	0.0
40	0x00000000	0.0
41	0x00000000	0.0
42	0x00000000	0.0
43	0x00000000	0.0
44	0x00000000	0.0
45	0x00000000	0.0
46	0x00000000	0.0
47	0x00000000	0.0
48	0x00000000	0.0
49	0x00000000	0.0
50	0x00000000	0.0
51	0x00000000	0.0
52	0x00000000	0.0
53	0x00000000	0.0
54	0x00000000	0.0
55	0x00000000	0.0
56	0x00000000	0.0
57	0x00000000	0.0
58	0x00000000	0.0
59	0x00000000	0.0
60	0x00000000	0.0
61	0x00000000	0.0
62	0x00000000	0.0
63	0x00000000	0.0
64	0x00000000	0.0
65	0x00000000	0.0
66	0x00000000	0.0
67	0x00000000	0.0
68	0x00000000	0.0
69	0x00000000	0.0
70	0x00000000	0.0
71	0x00000000	0.0
72	0x00000000	0.0
73	0x00000000	0.0
74	0x00000000	0.0
75	0x00000000	0.0
76	0x00000000	0.0
77	0x00000000	0.0
78	0x00000000	0.0
79	0x00000000	0.0
80	0x00000000	0.0
81	0x00000000	0.0
82	0x00000000	0.0
83	0x00000000	0.0
84	0x00000000	0.0
85	0x00000000	0.0
86	0x00000000	0.0
87	0x00000000	0.0
88	0x00000000	0.0
89	0x00000000	0.0
90	0x00000000	0.0
91	0x00000000	0.0
92	0x00000000	0.0
93	0x00000000	0.0
94	0x00000000	0.0
95	0x00000000	0.0
96	0x00000000	0.0
97	0x00000000	0.0
98	0x00000000	0.0
99	0x00000000	0.0
100	0x00000000	0.0
101	0x00000000	0.0
102	0x00000000	0.0
103	0x00000000	0.0
104	0x00000000	0.0
105	0x00000000	0.0
106	0x00000000	0.0
107	0x00000000	0.0
108	0x00000000	0.0
109	0x00000000	0.0
110	0x00000000	0.0
111	0x00000000	0.0
112	0x00000000	0.0
113	0x00000000	0.0
114	0x00000000	0.0
115	0x00000000	0.0
116	0x00000000	0.0
117	0x00000000	0.0
118	0x00000000	0.0
119	0x00000000	0.0
120	0x00000000	0.0
121	0x00000000	0.0
122	0x00000000	0.0
123	0x00000000	0.0
124	0x00000000	0.0
125	0x00000000	0.0
126	0x00000000	0.0
127	0x00000000	0.0

network_body._body_endoder.seq_layers.2.weight f4 [128, 128]
0	0x3b2ef55a	0.0026696534
1	0x3d927347	0.07150894
2	0xbd9edb8e	-0.077567205
3	0x3e3c30c2	0.18377975
4	0x3d50bf84	0.050963894
5	0xbe186250	-0.14881253
6	0xbe0d7997	-0.13815914
7	0x3e0709c0	0.13187313
8	0xbe1bb8e0	-0.15207243
9	0x3b46c6bd	0.003033086
10	0xbdb47eff	-0.08813285
11	0x3ceb15a9	0.028696852
12	0x3c41d549	0.011830636
13	0xbd888c28	-0.06667358
14	0xbdf515a1	-0.11967016
15	0xbbcb02af	-0.0061953883
16	0xbcc6b63c	-0.024256818
17	0x3d003367	0.03129902
18	0x3da56e68	0.08077699
19	0x3e10c7f1	0.14138772
20	0x3db03e87	0.08605676
21	0xbde24fd1	-0.1105038
22	0xbd702ed1	-0.058638398
23	0xbde31b30	-0.1108917
24	0xbe7ece84	-0.24883467
25	0x3a1b964a	0.00059351756
26	0x3e0060a4	0.12536865
27	0xbd922f49	-0.07137925
28	0x3da9d54d	0.08292637
29	0xbdc146c3	-0.09437325
30	0x3d048166	0.032349966
31	0xbdb0bcbd	-0.08629749
32	0xbccc9eeb	-0.024978122
33	0xbdcdec65	-0.10054854
34	0x3cdd0e4d	0.026984358
35	0xbb147172	-0.0022650626
36	0xbe4d3e45	-0.20043285
37	0x3e300ee9	0.17193188
38	0x3e2abef4	0.16674405
39	0xbd9ced28	-0.076624215
40	0xbc848a5e	-0.01617926
41	0x3c8bc8ac	0.017063461
42	0x3dce3ceb	0.10070213
43	0x3cce844a	0.025209565
44	0xbde5ad5c	-0.11214706
45	0xbd5aad96	-0.0533882
46	0xbd989ceb	-0.07451805
47	0x3d6b5880	0.057457447
48	0xbdb20a8e	-0.086934194
49	0x3e14bdd1	0.14525534
50	0xbd8a2bd2	-0.06746639
51	0x3b88d4de	0.0041757664
52	0x3bc0353c	0.005865721
53	0x3d03c49f	0.032169934
54	0xbb3aa7a0	-0.002848126
55	0xbe263a5f	-0.16233204
56	0x3e5d7ad2	0.21628883
57	0x3a56d5d9	0.0008195318
58	0x3c0cd6d4	0.008596141
59	0xbd40528c	-0.046953723
60	0xbbdfe33b	-0.006832508
61	0x3db466f5	0.088087
62	0x3e39f599	0.18160094
63	0xbd4e4a1d	-0.05036365
64	0x3cae8b3d	0.021306628
65	0xbe06b667	-0.13155518
66	0x3e15c263	0.14624934
67	0xbd73d5ef	-0.059530195
68	0x3d9811b5	0.07425252
69	0x3b8e143f	0.0043359096
70	0x3dc86719	0.09785289
71	0x3cc3211b	0.023819497
72	0x3dabe323	0.08392932
73	0x3dfe3d16	0.12413995
74	0x3ca23348	0.019799843
75	0x3e22ba84	0.15891463
76	0x3d5a7573	0.053334665
77	0xbce27188	-0.027642027
78	0xbc9e1265	-0.01929588
79	0x3db12c1f	0.086509936
80	0x3b868065	0.0041046613
81	0x3d0aa7ad	0.033851314
82	0xbde3f1fa	-0.11130138
83	0xbd6543d7	-0.0559729
84	0xbd2f042a	-0.04272858
85	0x3d603300	0.054736137
86	0xbc49fb73	-0.012328017
87	0x3d9cbccf	0.076532
88	0x3bf4a7b5	0.0074662813
89	0xbd7a6644	-0.061132684
90	0xb9b5545c	-0.00034585863
91	0x3e835c60	0.25656414
92	0xbd171a50	-0.036890328
93	0x3dd6860f	0.104747884
94	0x3d7569aa	0.059915222
95	0x3c3f3f73	0.011672842
96	0x3d709d96	0.058744036
97	0x3ca776a7	0.02044232
98	0xbc4f972c	-0.0126703195
99	0x3dc189a9	0.09450085
100	0xbe1c9fb0	-0.15295291
101	0x3d70811e	0.058716886
102	0x3d36ba24	0.04461111
103	0xbc87e6a2	-0.016589466
104	0x3d42baf9	0.047541592
105	0xbd27cba7	-0.040965702
106	0xbdc31d7c	-0.09527108
107	0xbd9fe5d0	-0.07807505
108	0x3e0e5cab	0.13902538
109	0xbcf98648	-0.030459538
110	0x3ceefc16	0.029172938
111	0xbe02b630	-0.12764812
112	0xbc5a51bc	-0.013325151
113	0x3c8ea91b	0.01741462
114	0xbe02386c	-0.12716836
115	0xbbfd3cde	-0.007728203
116	0x3d560e46	0.052259706
117	0x3c0ed4fb	0.008717771
118	0xbd1d35b5	-0.038381297
119	0xbc06979b	-0.0082148565
120	0x3ced4f98	0.028968617
121	0xbcee94c9	-0.02912368
122	0xbc99531f	-0.018716393
123	0xbd408c7c	-0.047008976
124	0xbbd8d216	-0.006616841
125	0x3d611e91	0.05496079
126	0x3de6cf09	0.112699576
127	0xbd330b90	-0.0437122
128	0x3d83debc	0.064389676
129	0xbdb1589c	-0.08659479
130	0xbd8d6723	-0.069044374
131	0x3d18a201	0.037263874
132	0xbdd3b458	-0.10337132
133	0xbd3a682b	-0.0455095
134	0x3cb54342	0.022126798
135	0x3dab7318	0.08371562
136	0x3dad45b5	0.08460561
137	0xbd6fccc4	-0.05854489
138	0xbd33fc20	-0.043941617
139	0xbda7dbb5	-0.08196203
140	0x3c7de47f	0.015496372
141	0x3d89f92f	0.06736981
142	0xbd197467	-0.037464526
143	0x3e0df1ea	0.13861814
144	0xbb39b4f4	-0.0028336616
145	0xbc82d5e4	-0.015971132
146	0x3df8714c	0.12130985
147	0x3e9443f4	0.28958094
148	0x3cf3f249	0.029778617
149	0xbc8f41f6	-0.017487507
150	0x3cde105d	0.027107412
151	0x3e6b5ad7	0.22983871
152	0xbd92ff4c	-0.071776
153	0x3a568c35	0.00081843446
154	0x3da8785c	0.08226082
155	0xbd8eed94	-0.06978908
156	0xbdcf2eac	-0.10116324
157	0x3cc1bb0e	0.023648765
158	0x3cac7f4e	0.021056797
159	0x3d09ad25	0.03361239
160	0x3c1e860e	0.009675516
161	0x3d220dcb	0.039563935
162	0x3d6f44d1	0.058415238
163	0x3d4d68a6	0.05014863
164	0xbdf610a2	-0.12014891
165	0xbe18786f	-0.14889692
166	0xbd55e051	-0.052215878
167	0xb7909b1a	-1.7238362e-05
168	0x3e425e56	0.18981299
169	0xbd89628a	-0.06708248
170	0x3d7b043f	0.061283346
171	0xbdeddeed	-0.11614785
172	0x3c065ec2	0.008201303
173	0xbdab2a43	-0.0835767
174	0x3d0acc81	0.033886436
175	0xbd481c28	-0.048854977
176	0xbc0fc237	-0.008774332
177	0xbc2ef86e	-0.010679347
178	0xbe02ec83	-0.12785535
179	0x3d07ea4a	0.03318242
180	0xbdb3ba00	-0.08775711
181	0xbd319d21	-0.04336274
182	0x3d781a2e	0.060571842
183	0xbddca965	-0.10774497
184	0xbe2264cc	-0.15858763
185	0xbc0fad43	-0.008769336
186	0x3dac26cb	0.08405837
187	0x3d0bd3ef	0.034137663
188	0x3dffed22	0.12496401
189	0xbe35cda7	-0.17754231
190	0x3d1df25a	0.038561203
191	0xbd56d54d	-0.052449513
192	0x3d7a0e59	0.06104884
193	0xbc7177c4	-0.014738027
194	0x3db33b4a	0.08751543
195	0x3cb0f101	0.021599295
196	0xbbd7bbc9	-0.006583665
197	0xbe096f1e	-0.13421294
198	0x3d5ed53a	0.054402567
199	0xbdec4bbc	-0.11537883
200	0xbd53bb23	-0.05169214
201	0xbdc36ddf	-0.095424406
202	0xbd9b5c7d	-0.07586
203	0x3c51d71a	0.012807632
204	0xbd2ecc51	-0.04267532
205	0x3de5b153	0.112154625
206	0xbd058bb5	-0.032603938
207	0xbc10b2fb	-0.008831735
208	0x3d245249	0.040117536
209	0xbd14d8fd	-0.03633975
210	0xbe177710	-0.14791512
211	0x3cefc78a	0.029269952
212	0xbdfcb6e4	-0.12339571
213	0xbdc599d0	-0.09648478
214	0xbd2f9897	-0.04287013
215	0xbd8e4c53	-0.069481514
216	0x3e0192fd	0.12653728
217	0x3cf4a8e9	0.029865699
218	0xbca2ef1c	-0.019889407
219	0xbdc01c99	-0.093804546
220	0xbe488af8	-0.19584262
221	0xbd808606	-0.06275563
222	0x3d3950e4	0.04524316
223	0x3cd6cf54	0.026221909
224	0x3a4f36a6	0.00079045666
225	0x3d9e1975	0.07719699
226	0xbdda8c0d	-0.10671244
227	0xbdea6e58	-0.11446828
228	0xbc94ccdb	-0.018164089
229	0x3dc3d3dc	0.09561893
230	0xbde452a5	-0.11148576
231	0x3c86ca76	0.016453963
232	0xbd6318b5	-0.055443484
233	0xbd90c6e9	-0.07069189
234	0x3dc9dee0	0.09856963
235	0xbd5dfb82	-0.054194935
236	0xbcf2063a	-0.029543985
237	0xbdd2b169	-0.102877446
238	0x3cee6637	0.029101474
239	0x3ccc6d1e	0.024954375
240	0x3e2a3d6f	0.16624998
241	0x3da4019f	0.08008122
242	0x3ccc7479	0.024957882
243	0xbdd77165	-0.10519675
244	0x3c6d8912	0.014498012
245	0xbda7b4cb	-0.081887804
246	0x3d8ac388	0.06775576
247	0xbc1b2e5c	-0.009471502
248	0xbd1b4931	-0.037911598
249	0x3d129963	0.035790812
250	0x3d10b7f5	0.035331685
251	0xbd583c75	-0.05279203
252	0x3c931672	0.017955039
253	0x3c9a458f	0.018831996
254	0xbdc67e77	-0.0969209
255	0x3e25f6c8	0.16207421

network_body._body_endoder.seq_layers.2.bias f4 [128]
0	0x00000000	0.0
1	0x00000000	0.0
2	0x00000000	0.0
3	0x00000000	0.0
4	0x00000000	0.0
5	0x00000000	0.0
6	0x00000000	0.0
7	0x00000000	0.0
8	0x00000000	0.0
9	0x00000000	0.0
10	0x00000000	0.0
11	0x00000000	0.0
12	0x00000000	0.0
13	0x00000000	0.0
14	0x00000000	0.0
15	0x00000000	0.0
16	0x00000000	0.0
17	0x00000000	0.0
18	0x00000000	0.0
19	0x00000000	0.0
20	0x00000000	0.0
21	0x00000000	0.0
22	0x00000000	0.0
23	0x00000000	0.0
24	0x00000000	0.0
25	0x00000000	0.0
26	0x00000000	0.0
27	0x00000000	0.0
28	0x00000000	0.0
29	0x00000000	0.0
30	0x00000000	0.0
31	0x00000000	0.0
32	0x00000000	0.0
33	0x00000000	0.0
34	0x00000000	0.0
35	0x00000000	0.0
36	0x00000000	0.0
37	0x00000000	0.0
38	0x00000000	0.0
39	0x00000000	0.0
40	0x00000000	0.0
41	0x00000000	0.0
42	0x00000000	0.0
43	0x00000000	0.0
44	0x00000000	0.0
45	0x00000000	0.0
46	0x00000000	0.0
47	0x00000000	0.0
48	0x00000000	0.0
49	0x00000000	0.0
50	0x00000000	0.0
51	0x00000000	0.0
52	0x00000000	0.0
53	0x00000000	0.0
54	0x00000000	0.0
55	0x00000000	0.0
56	0x00000000	0.0
57	0x00000000	0.0
58	0x00000000	0.0
59	0x00000000	0.0
60	0x00000000	0.0
61	0x00000000	0.0
62	0x00000000	0.0
63	0x00000000	0.0
64	0x00000000	0.0
65	0x00000000	0.0
66	0x00000000	0.0
67	0x00000000	0.0
68	0x00000000	0.0
69	0x00000000	0.0
70	0x00000000	0.0
71	0x00000000	0.0
72	0x00000000	0.0
73	0x00000000	0.0
74	0x00000000	0.0
75	0x00000000	0.0
76	0x00000000	0.0
77	0x00000000	0.0
78	0x00000000	0.0
79	0x00000000	0.0
80	0x00000000	0.0
81	0x00000000	0.0
82	0x00000000	0.0
83	0x00000000	0.0
84	0x00000000	0.0
85	0x00000000	0.0
86	0x00000000	0.0
87	0x00000000	0.0
88	0x00000000	0.0
89	0x00000000	0.0
90	0x00000000	0.0
91	0x00000000	0.0
92	0x00000000	0.0
93	0x00000000	0.0
94	0x00000000	0.0
95	0x00000000	0.0
96	0x00000000	0.0
97	0x00000000	0.0
98	0x00000000	0.0
99	0x00000000	0.0
100	0x00000000	0.0
101	0x00000000	0.0
102	0x00000000	0.0
103	0x00000000	0.0
104	0x00000000	0.0
105	0x00000000	0.0
106	0x00000000	0.0
107	0x00000000	0.0
108	0x00000000	0.0
109	0x00000000	0.0
110	0x00000000	0.0
111	0x00000000	0.0
112	0x00000000	0.0
113	0x00000000	0.0
114	0x00000000	0.0
115	0x00000000	0.0
116	0x00000000	0.0
117	0x00000000	0.0
118	0x00000000	0.0
119	0x00000000	0.0
120	0x00000000	0.0
121	0x00000000	0.0
122	0x00000000	0.0
123	0x00000000	0.0
124	0x00000000	0.0
125	0x00000000	0.0
126	0x00000000	0.0
127	0x00000000	0.0

value_heads.value_heads.extrinsic.weight f4 [1, 128]
0	0xbde1ac6b	-0.11019214
1	0x3e52bb9a	0.20579377
2	0xbe131848	-0.14364731
3	0xbdfa57ee	-0.122238025
4	0xbe3e68e4	-0.185947
5	0xbe275cbd	-0.1634397
6	0xbe08bdd6	-0.13353667
7	0xbd94f75c	-0.072737426
8	0xbe245741	-0.1604891
9	0x3daf19e0	0.08549857
10	0x3bc54780	0.0060204864
11	0xbb160380	-0.002289027
12	0x3dd27b20	0.102773905
13	0xbcbe67d0	-0.023242861
14	0x3df44064	0.11926344
15	0x3abaff00	0.001426667
16	0x3dd8a3f4	0.105781466
17	0xbde93b9d	-0.113883235
18	0xbe5b93f2	-0.21443155
19	0x3de0b598	0.10972136
20	0xbda858c2	-0.08220054
21	0x3cdb55a8	0.026774243
22	0x3e30bc88	0.17259419
23	0x3e0e8c86	0.13920793
24	0x3cb75838	0.022380933
25	0x3e0b92c4	0.13630205
26	0x3c852460	0.016252697
27	0xbe0aac44	-0.13542277
28	0x3e2c7794	0.1684249
29	0x3db26dc0	0.087123394
30	0x3e4cc652	0.19997528
31	0xbe154265	-0.14576109
32	0xbe55b171	-0.2086847
33	0xba140e00	-0.0005647838
34	0xbe4e3be4	-0.20140034
35	0xbcdcf508	-0.026972309
36	0xbd16cf64	-0.036818877
37	0xbd26a65c	-0.040685996
38	0xbe54d0a3	-0.20782714
39	0xbdc9dc98	-0.09856528
40	0xbd48a634	-0.04898663
41	0xbdbbd71f	-0.091718905
42	0x3de804e0	0.11329055
43	0x3db845fc	0.089977235
44	0xbd28e234	-0.04123135
45	0x3daff5e8	0.08591825
46	0xbd517a44	-0.051141992
47	0xbe04bb34	-0.12962037
48	0x3ce8cd38	0.028418168
49	0x3dc0c680	0.09412861
50	0x3e1cd76e	0.15316555
51	0x3e1c490c	0.1526224
52	0xbe04bdcb	-0.12963025
53	0x3e487d1e	0.19578978
54	0xbe0d8ff4	-0.13824445
55	0xbe2a95ff	-0.16658781
56	0x3e58e6f4	0.21181852
57	0xbdf33617	-0.11875551
58	0xbd61a98c	-0.055093333
59	0x3df7f780	0.12107754
60	0xbd85bfc6	-0.065307185
61	0x3daaccb0	0.08339822
62	0x3dd163fc	0.10224149
63	0xbe14fe25	-0.14550073
64	0x3e1e2dae	0.15447113
65	0x3e2a0fd0	0.16607594
66	0x3d022b9c	0.03177987
67	0x3d5776f0	0.052603662
68	0xbd1f0f4c	-0.038832948
69	0x3c9694e0	0.018381536
70	0xbe1b1b8e	-0.1514723
71	0xbd5369d0	-0.051614583
72	0xbcb58780	-0.022159338
73	0x3d55a878	0.052162617
74	0xbd5870f4	-0.052842095
75	0x3c43a680	0.011941552
76	0xbe0ebf5e	-0.13940188
77	0xbce626d8	-0.028094694
78	0x3da3e11c	0.080019206
79	0xbd9ae4c8	-0.07563168
80	0x3a478500	0.0007611066
81	0xbe5acf5c	-0.21368164
82	0x3dee5f34	0.11639252
83	0x3e4476e0	0.19185972
84	0x3e02b52a	0.12764421
85	0xbe1a0140	-0.1503954
86	0xbcf2c050	-0.029632717
87	0x3def8694	0.116955906
88	0xbdc176aa	-0.094464615
89	0x3d581830	0.052757442
90	0xbdbddd20	-0.09270692
91	0x3de9a73c	0.114088506
92	0xbe460a67	-0.19339906
93	0xbe4020ac	-0.18762463
94	0xbe514dd4	-0.20439845
95	0xbe47f13d	-0.19525619
96	0xbdc5b273	-0.09653177
97	0xbd625708	-0.05525878
98	0x3e2bcef8	0.16778171
99	0xbe1a4294	-0.1506446
100	0xbe1b9171	-0.151922
101	0xbe17ccae	-0.14824173
102	0xbdbadf86	-0.09124665
103	0x3dcd35e4	0.100200444
104	0xbdd7b634	-0.10532799
105	0xbd0c0d74	-0.034192517
106	0x3d9bb9d0	0.076038
107	0x3e5164b4	0.20448571
108	0xbdc0bc0c	-0.09410867
109	0x3da67308	0.08127409
110	0x3e3946f2	0.1809347
111	0x3e2f37a2	0.17111066
112	0x3c82e7a0	0.015979588
113	0x39fc1000	0.00048077106
114	0xbe03f718	-0.12887228
115	0xbe34a3d8	-0.17640626
116	0x3e3aec8a	0.18254295
117	0xbe330e7c	-0.17485994
118	0xbded72f0	-0.11594188
119	0xbdec19f4	-0.11528388
120	0x3d59b448	0.053150445
121	0x3d6090d0	0.054825604
122	0xbdd8dead	-0.10589347
123	0x3e170eaa	0.14751688
124	0x3d5abea0	0.05340445
125	0xbe301177	-0.17194162
126	0x3d09af10	0.03361422
127	0xbe3167c6	-0.17324743
