results/target_agent_01/target_agent_01/target_agent_01-9310.onnx (onnx, 69901 bytes, 7 tensors)

action_model._continuous_distribution.log_sigma f4 [1, 2]
00000000: 0000 0000 0000 0000
0.0 0.0

action_model._continuous_distribution.mu.bias f4 [2]
00000000: 0000 0000 0000 0000
0.0 0.0

action_model._continuous_distribution.mu.weight f4 [2, 128]
00000000: 64d4 9dbc cf20 00bc 7f09 d0bc af6c 3d3a
00000010: 8b22 2c3b c839 043c 68f4 f53c cc6d cc3c
00000020: b1b4 1a3d 3ce1 8d3c 6fb4 c5bc 6fe9 053c
00000030: 8a4a d0bc efe0 bdbc 8fb2 9b3c acbe 983c
00000040: 73ce 953b cadd d7bb 3bce d9bc 1f66 0abd
00000050: 7b35 b5bc 986b 3b3b afc3 033d 5ba0 b6bc
00000060: db71 91bc a2c8 18bb 5f0e 5abc 6d69 493c
00000070: 5285 57bc afba 51bc f367 423c 509b 2a3a
00000080: 535e 70bc 12cc b73a 3826 733b 205b b3bc
00000090: 45b8 57bc fe96 0ebd 3202 3d3d bb86 8cbc
000000a0: 1cec c23b 5e1d a7bc c712 f0bb 1e4c 303c
000000b0: e02e 3b3c 45d5 8aba f3ee 75bc 40a3 023d
000000c0: 1bea 833a 2341 9c3c 2044 6ebc 27ba 2d3c
000000d0: 4d32 913b d341 a53c 4a5b 263c 8dc2 cc3c
000000e0: b38c 223c d7e5 3abc 701e bf3c 2aad 573c
000000f0: cf81 4cbc b5a2 d53b 65a7 643b 8341 ebbb
00000100: 3f2b 043c 005f 7bbc fbca 913a 4496 24bc
00000110: 47a3 7d3c 376a f4ba 962c 8fbc bbb1 0b3c
00000120: 73ab 023b 4c11 94bc 5767 caba 7f8e 08bd
00000130: 9b32 26bc 1a4e 57bc 4662 09bd ddef 463d
00000140: e8b9 9b3a 9657 4a3b 5730 dcbc f0de 99bb
00000150: b758 5fbb f30e 64bb c638 9e3c f344 b5ba
00000160: 2b54 ebbc f356 703c e6cc 1e3b 0045 ca3b
00000170: 1b42 aabb 4514 67bc 6d3a 88bc 15d8 e0bc
00000180: 7375 20bc 7bcc eb3b 0708 4bbc 9aec c1bb
00000190: 967f 0c3d c023 18bb f821 2c3b 75ea 8ebb
000001a0: afe8 bb3b 0f2c 603c 3d19 273d bb36 57bc
000001b0: a7f3 e2bc a8da bcbc da08 533c da62 c33b
000001c0: dac8 88ba ed87 5e3b 673f 9bbc 5a3f 163c
000001d0: 0151 0cbc 3f9e 303c d7a0 83bb 3a88 713c
000001e0: 552e abbc 0bf3 713c dff4 a93c 5e94 97bb
000001f0: e63b 803c 6775 6a3c 231a dfbc 6d80 ad3c
00000200: e818 4d3c f4a9 28bc 05e0 3cbc 5077 9fbc
00000210: 276f e73c 8948 a13a c1a1 283c 9f00 7dbc
00000220: e397 82bc c6c1 8c3b 6226 db3c db1c c1bc
00000230: 68a4 b4b6 a7fc 3bbc 1beb 173c dde4 7a3b
00000240: 030f 2cbc b331 c8bc 5bf0 64bc 7a99 90bc
00000250: 35eb 1fbc 625c 9cbc 5b25 5e3c 9615 a13b
00000260: b190 bfbc 9d44 82bc 6b66 be3c 7539 d7bb
00000270: 2329 9c3b f31a 953b 8783 b0bc 6e36 1abc
00000280: 85c9 923c af96 ca3c 3457 a03c a073 89bb
00000290: 63df e7bc 1204 543c a786 03bd fffc b63c
000002a0: 6d23 103c 6f17 a03c cc31 153c 0e32 343d
000002b0: c663 cbbb 2d05 c4bc 0f2c 06bc 5ae6 85bc
000002c0: 6fa8 6f3c 77fe b4bb 18b0 783c 6729 5dbb
000002d0: 16c0 c23c ca5e 23bc 77f0 f63b 09e8 823c
000002e0: 9fa1 afbc 191f a238 c01d 963b 8331 cd3c
000002f0: 23a9 1d3c 3bcb dfbb 45d1 203c 37b1 b53a
00000300: 1f9b b2bc d01d 89bc 2c01 b7bc d280 7f3b
00000310: e8b9 443c e728 c3bc 63e2 84bc d0ac 113d
00000320: 336a 91bc b8b9 6d3c 3e58 83bb 271b 8bbb
00000330: cb6b e3ba 508f 513c fee7 91bc af5e d1ba
00000340: b55d 0fbc 5ff4 3fba 7786 3ebc b703 b4bc
00000350: 7c6d 27bc 5189 8bbc 725a 253c 0e6b ccbc
00000360: 9bbc f9bb e66b 1c3c 5b1d 6a3c f868 523b
00000370: d996 873b 023a 623c da7c 5fbc 575e 56bb
00000380: 4376 e2bc daaf 79bc 28ab 76bb 8052 b7bc
00000390: 111f 923c 9378 8ebc ffd0 89bb 7a42 e43b
000003a0: 580e 373c 9bf0 e7bc 76cb a53b dfc3 e7bc
000003b0: 3df5 d8bb 5703 9e3c 73ff 4bba 5d66 b9bc
000003c0: c35b 963c 11fc 8a3c 780a ba3c 4fdf 9bbc
000003d0: 5bf8 813b 6260 fb3b 2c03 1f3c 8276 d2bc
000003e0: 7511 b03c 4a11 9c3c 6332 b3bb b70f e6bb
000003f0: 6d09 373b 5089 123c 5cf7 1a3c e7a2 8f3c
-0.019266315 -0.007820322 -0.025395153 0.0007225973 0.0026265706 0.008070417 0.030023769 0.024954699
0.037769977 0.017319314 -0.024133889 0.008173331 -0.025426168 -0.023178546 0.019006042 0.018645607
0.00457173 -0.0065877186 -0.026587596 -0.033788797 -0.022120228 0.0028598066 0.03216904 -0.02229326
-0.017754486 -0.0023312946 -0.01330909 0.012293202 -0.013154345 -0.0128008565 0.011865604 0.0006508129
-0.014670926 0.001402261 0.0037101638 -0.021894038 -0.013166492 -0.034811966 0.04614467 -0.017154088
0.0059485566 -0.020399746 -0.007326457 0.010760335 0.01142475 -0.0010592124 -0.015010583 0.03189397
0.0010064276 0.019074028 -0.014542609 0.010603464 0.004431045 0.020172989 0.010153601 0.024995113
0.009921241 -0.011407337 0.023329943 0.013163844 -0.012482121 0.0065196403 0.0034889814 -0.0071794405
0.008066951 -0.015342474 0.0011123115 -0.010045592 0.015480823 -0.0018647377 -0.017477315 0.008526261
0.0019938617 -0.018074654 -0.0015442175 -0.03333902 -0.010143901 -0.013141179 -0.033540986 0.048568595
0.0011880966 0.003087496 -0.026878519 -0.0046957657 -0.0034079978 -0.003479895 0.019314181 -0.0013829753
-0.028726658 0.014669168 0.0024231016 0.006172776 -0.0051958687 -0.014103954 -0.016629422 -0.027446786
-0.009793627 0.007196007 -0.012392051 -0.0059180977 0.034301363 -0.0023214668 0.0026265364 -0.0043614455
0.005734525 0.013682379 0.040795553 -0.013135607 -0.027704073 -0.023053482 0.012880528 0.0059627118
-0.0010435835 0.003395553 -0.018951131 0.009170378 -0.008564235 0.010779916 -0.0040169763 0.014741952
-0.020896116 0.014767419 0.020746646 -0.004625841 0.015653562 0.014310217 -0.027234143 0.021179402
0.012518145 -0.010294426 -0.01152802 -0.019466072 0.028251244 0.0012304942 0.010292471 -0.015442043
-0.015941566 0.0042955605 0.0267517 -0.02357333 -5.3835574e-06 -0.011473811 0.009272362 0.0038283386
-0.010501626 -0.024437761 -0.013973321 -0.017651308 -0.009760668 -0.01908702 0.013558711 0.0049159033
-0.023384424 -0.015901858 0.023242196 -0.0065681287 0.004765646 0.0045503317 -0.021547092 -0.009412391
0.017918358 0.024730055 0.019572832 -0.004194692 -0.028304761 0.012940424 -0.032110836 0.022337435
0.008797509 0.019542424 0.009106111 0.04399305 -0.0062069623 -0.02392825 -0.008189215 -0.016345192
0.01462756 -0.0055234986 0.015178703 -0.0033746602 0.023773234 -0.00997133 0.00753599 0.015979784
-0.021439372 7.730554e-05 0.004581183 0.025048023 0.009622845 -0.006829647 0.009815519 0.0013862018
-0.021802483 -0.016737849 -0.022339426 0.0038986695 0.012007214 -0.023823215 -0.01622123 0.035565197
-0.017750835 0.014509611 -0.004008322 -0.00424518 -0.001735085 0.012790516 -0.017810818 -0.0015973652
-0.008750369 -0.0007322486 -0.011628739 -0.021974428 -0.010218974 -0.017033251 0.010092365 -0.024953391
-0.0076213605 0.009547209 0.014289225 0.0032106023 0.0041378555 0.013807775 -0.013640607 -0.003271004
-0.027644282 -0.01523968 -0.0037638638 -0.022378206 0.01783708 -0.017391479 -0.0042058225 0.0069659324
0.011172853 -0.028312972 0.005059655 -0.02829164 -0.0066210316 0.019288702 -0.00077819003 -0.022631818
0.018354302 0.016965898 0.02271007 -0.01902738 0.003966374 0.007671402 0.009705346 -0.025691275
0.0214927 0.019051213 -0.005468653 -0.0070209163 0.0027929202 0.008943871 0.009458389 0.017533733

network_body._body_endoder.seq_layers.0.bias f4 [128]
00000000: 0000 0000 0000 0000 0000 0000 0000 0000
00000010: 0000 0000 0000 0000 0000 0000 0000 0000
00000020: 0000 0000 0000 0000 0000 0000 0000 0000
00000030: 0000 0000 0000 0000 0000 0000 0000 0000
00000040: 0000 0000 0000 0000 0000 0000 0000 0000
00000050: 0000 0000 0000 0000 0000 0000 0000 0000
00000060: 0000 0000 0000 0000 0000 0000 0000 0000
00000070: 0000 0000 0000 0000 0000 0000 0000 0000
00000080: 0000 0000 0000 0000 0000 0000 0000 0000
00000090: 0000 0000 0000 0000 0000 0000 0000 0000
000000a0: 0000 0000 0000 0000 0000 0000 0000 0000
000000b0: 0000 0000 0000 0000 0000 0000 0000 0000
000000c0: 0000 0000 0000 0000 0000 0000 0000 0000
000000d0: 0000 0000 0000 0000 0000 0000 0000 0000
000000e0: 0000 0000 0000 0000 0000 0000 0000 0000
000000f0: 0000 0000 0000 0000 0000 0000 0000 0000
00000100: 0000 0000 0000 0000 0000 0000 0000 0000
00000110: 0000 0000 0000 0000 0000 0000 0000 0000
00000120: 0000 0000 0000 0000 0000 0000 0000 0000
00000130: 0000 0000 0000 0000 0000 0000 0000 0000
00000140: 0000 0000 0000 0000 0000 0000 0000 0000
00000150: 0000 0000 0000 0000 0000 0000 0000 0000
00000160: 0000 0000 0000 0000 0000 0000 0000 0000
00000170: 0000 0000 0000 0000 0000 0000 0000 0000
00000180: 0000 0000 0000 0000 0000 0000 0000 0000
00000190: 0000 0000 0000 0000 0000 0000 0000 0000
000001a0: 0000 0000 0000 0000 0000 0000 0000 0000
000001b0: 0000 0000 0000 0000 0000 0000 0000 0000
000001c0: 0000 0000 0000 0000 0000 0000 0000 0000
000001d0: 0000 0000 0000 0000 0000 0000 0000 0000
000001e0: 0000 0000 0000 0000 0000 0000 0000 0000
000001f0: 0000 0000 0000 0000 0000 0000 0000 0000
0.0 0.0 0.0 0.0 0.0 0.0 0.0 0.0
0.0 0.0 0.0 0.0 0.0 0.0 0.0 0.0
0.0 0.0 0.0 0.0 0.0 0.0 0.0 0.0
0.0 0.0 0.0 0.0 0.0 0.0 0.0 0.0
0.0 0.0 0.0 0.0 0.0 0.0 0.0 0.0
0.0 0.0 0.0 0.0 0.0 0.0 0.0 0.0
0.0 0.0 0.0 0.0 0.0 0.0 0.0 0.0
0.0 0.0 0.0 0.0 0.0 0.0 0.0 0.0
0.0 0.0 0.0 0.0 0.0 0.0 0.0 0.0
0.0 0.0 0.0 0.0 0.0 0.0 0.0 0.0
0.0 0.0 0.0 0.0 0.0 0.0 0.0 0.0
0.0 0.0 0.0 0.0 0.0 0.0 0.0 0.0
0.0 0.0 0.0 0.0 0.0 0.0 0.0 0.0
0.0 0.0 0.0 0.0 0.0 0.0 0.0 0.0
0.0 0.0 0.0 0.0 0.0 0.0 0.0 0.0
0.0 0.0 0.0 0.0 0.0 0.0 0.0 0.0

network_body._body_endoder.seq_layers.0.weight f4 [128, 1]
00000000: ce70 713e 2327 e2be 27dd 0abd 5689 413f
00000010: 79a5 0f3f b73c f23e 12a1 8abf 47f5 cdbe
00000020: 92f3 edbe 1f1f 413f 84c4 f73d ef59 9fbe
00000030: 0377 2dbe e61e 8cbf 79ac cb3e c8df e9be
00000040: ed88 2abf c0a3 09be 3947 2bbf f894 cc3e
00000050: b1b9 12c0 02d2 fd3f 1098 e1bf ffbf 1a3f
00000060: fe03 b33f ff7f 953e ab7e 3240 8274 bd3f
00000070: 0d3e 2ec0 ead3 3c3f c3c2 50bf 9b19 d1bf
00000080: dd76 973f a1f3 58ba b71d 843f a1f0 0b3f
00000090: 92f1 3fc0 13ff b23e c6f9 1fbf 44bb 37bf
000000a0: 638e 0b3f 7ea6 cdbd e97d 0540 ecc6 1ac0
000000b0: cfa0 1640 479d 393f ef4a f43f 14fc 1dbf
000000c0: cf82 ba3f b941 093f 95c6 93bf 9c73 acbf
000000d0: d4a1 3abe 6a83 dabe 4ac5 3cbf 2124 25bf
000000e0: 1f08 7dbf 2bf3 2d3f 36a6 183e 676a 073f
000000f0: 3e80 afbe 7cee 303e 05c1 c13e d459 fabe
00000100: 28c1 b2be 118e 9a3f 0a7a 5cbf 37ef 7c3f
00000110: 199b 3fbd b02c 14bf f145 70be dd65 c0bf
00000120: ccf9 e93f c335 16bf a716 8b3f 6441 743e
00000130: a74c f73e 1b35 19bf 0546 933f 49b0 853d
00000140: 4105 2dbe d7b9 c1be bb21 d6bf 8822 ebbf
00000150: d911 4d3f c508 193f 65c0 423f 88bc df3f
00000160: 6197 e43e 5f4d b93f 7008 853e 7a18 cf3f
00000170: b03d 823f f007 d13f ed8d 63bd 5791 e9be
00000180: a5ce 583d fc25 11be 3303 10bd ff8f 9abe
00000190: 520d c4be 6592 cebf 09fb 72bf e249 e6bd
000001a0: 96b0 3e3f 5c07 fd3f d278 99bf 1062 17bd
000001b0: 7045 a3bf 6fbb c9bf 3bde 0abf 068f b73e
000001c0: ac36 583f ae04 d53f a8b0 32bf 5f5b 1940
000001d0: 252d afbe e7ac b3be 0eb7 8dbf 676d b73e
000001e0: 28f6 6b3e a375 8e3e 4efb ee3f 7838 c5be
000001f0: 783a 4cbf cc91 52bf 3f88 603f de6e 05bf
0.23578188 -0.44170484 -0.033902314 0.75600183 0.56111866 0.47311947 -1.0830405 -0.40226194
-0.46474892 0.7543811 0.12098029 -0.311233 -0.1693993 -1.094693 0.39780024 -0.45678544
-0.6661518 -0.13441372 -0.6690555 0.39957404 -2.2925837 1.9829714 -1.7624531 0.6044921
1.3985593 0.29199216 2.7889812 1.480118 -2.7225373 0.73760855 -0.8154718 -1.6335939
1.1833149 -0.00082760496 1.0321568 0.54664046 -2.9991193 0.3496023 -0.624905 -0.7177012
0.5451414 -0.100415215 2.08581 -2.4183912 2.353565 0.7250561 1.9085368 -0.61712766
1.457117 0.5361591 -1.1544977 -1.3472781 -0.18225795 -0.42678386 -0.7373854 -0.64508253
-0.98840517 0.6794917 0.14907154 0.5289673 -0.3427753 0.17278475 0.37842575 -0.48896658
-0.34912992 1.2074605 -0.86123717 0.9880251 -0.046778772 -0.5788069 -0.2346418 -1.5031086
1.8279357 -0.58675784 1.0866288 0.2385307 0.4830067 -0.5984666 1.1505743 0.06527764
-0.16896535 -0.37837097 -1.6729044 -1.8369913 0.8010536 0.59779006 0.7607482 1.747941
0.44646743 1.4476737 0.25983 1.6179345 1.0175076 1.6330547 -0.055555273 -0.45618698
0.052931447 -0.14174646 -0.0351593 -0.30187985 -0.38291413 -1.6138426 -0.949143 -0.11244561
0.744882 1.9767871 -1.1989996 -0.036958754 -1.2755566 -1.5760325 -0.54245347 0.35851306
0.8445842 1.6642053 -0.69800806 2.3962018 -0.3421413 -0.35092852 -1.1071489 0.35825655
0.2304312 0.27824125 1.8670442 -0.38519645 -0.79776716 -0.8225372 0.87707895 -0.52122295

network_body._body_endoder.seq_layers.2.bias f4 [128]
00000000: 0000 0000 0000 0000 0000 0000 0000 0000
00000010: 0000 0000 0000 0000 0000 0000 0000 0000
00000020: 0000 0000 0000 0000 0000 0000 0000 0000
00000030: 0000 0000 0000 0000 0000 0000 0000 0000
00000040: 0000 0000 0000 0000 0000 0000 0000 0000
00000050: 0000 0000 0000 0000 0000 0000 0000 0000
00000060: 0000 0000 0000 0000 0000 0000 0000 0000
00000070: 0000 0000 0000 0000 0000 0000 0000 0000
00000080: 0000 0000 0000 0000 0000 0000 0000 0000
00000090: 0000 0000 0000 0000 0000 0000 0000 0000
000000a0: 0000 0000 0000 0000 0000 0000 0000 0000
000000b0: 0000 0000 0000 0000 0000 0000 0000 0000
000000c0: 0000 0000 0000 0000 0000 0000 0000 0000
000000d0: 0000 0000 0000 0000 0000 0000 0000 0000
000000e0: 0000 0000 0000 0000 0000 0000 0000 0000
000000f0: 0000 0000 0000 0000 0000 0000 0000 0000
00000100: 0000 0000 0000 0000 0000 0000 0000 0000
00000110: 0000 0000 0000 0000 0000 0000 0000 0000
00000120: 0000 0000 0000 0000 0000 0000 0000 0000
00000130: 0000 0000 0000 0000 0000 0000 0000 0000
00000140: 0000 0000 0000 0000 0000 0000 0000 0000
00000150: 0000 0000 0000 0000 0000 0000 0000 0000
00000160: 0000 0000 0000 0000 0000 0000 0000 0000
00000170: 0000 0000 0000 0000 0000 0000 0000 0000
00000180: 0000 0000 0000 0000 0000 0000 0000 0000
00000190: 0000 0000 0000 0000 0000 0000 0000 0000
000001a0: 0000 0000 0000 0000 0000 0000 0000 0000
000001b0: 0000 0000 0000 0000 0000 0000 0000 0000
000001c0: 0000 0000 0000 0000 0000 0000 0000 0000
000001d0: 0000 0000 0000 0000 0000 0000 0000 0000
000001e0: 0000 0000 0000 0000 0000 0000 0000 0000
000001f0: 0000 0000 0000 0000 0000 0000 0000 0000
0.0 0.0 0.0 0.0 0.0 0.0 0.0 0.0
0.0 0.0 0.0 0.0 0.0 0.0 0.0 0.0
0.0 0.0 0.0 0.0 0.0 0.0 0.0 0.0
0.0 0.0 0.0 0.0 0.0 0.0 0.0 0.0
0.0 0.0 0.0 0.0 0.0 0.0 0.0 0.0
0.0 0.0 0.0 0.0 0.0 0.0 0.0 0.0
0.0 0.0 0.0 0.0 0.0 0.0 0.0 0.0
0.0 0.0 0.0 0.0 0.0 0.0 0.0 0.0
0.0 0.0 0.0 0.0 0.0 0.0 0.0 0.0
0.0 0.0 0.0 0.0 0.0 0.0 0.0 0.0
0.0 0.0 0.0 0.0 0.0 0.0 0.0 0.0
0.0 0.0 0.0 0.0 0.0 0.0 0.0 0.0
0.0 0.0 0.0 0.0 0.0 0.0 0.0 0.0
0.0 0.0 0.0 0.0 0.0 0.0 0.0 0.0
0.0 0.0 0.0 0.0 0.0 0.0 0.0 0.0
0.0 0.0 0.0 0.0 0.0 0.0 0.0 0.0

network_body._body_endoder.seq_layers.2.weight f4 [128, 128]
00000000: baee 203e a0ea 8c3d ad01 c03d c0e3 ab3d
00000010: fbc4 583d 5bc9 7e3d e6d3 07bd 9a3d ae3c
00000020: c4d7 4d3a f6cf 793d f9db 08be d382 3f3d
00000030: 7b7a 6bbd 064a 193e ec8e 3dbe b2c6 183e
00000040: cd6e 2b3d f264 dbbd 7745 243e 18c7 edbc
00000050: 8142 a7bc 901b fa3d 0df9 203e 818e 81bd
00000060: c4bf a1bc aa6c a3bb 8d95 5e3d 0de9 243e
00000070: 4463 9e3b be6a b9bd 2eb1 87bd 8730 13be
00000080: 3816 b2bd 33d0 b8bd 42da 89bd 93ff 2dbc
00000090: 810b a7bd b05a 0f3c 7e4c 553d 6958 483e
000000a0: 1d64 f7bd 3289 f73d 47e3 233d 6a81 6dbd
000000b0: 0cc7 7dbd 0014 2abe 29db 573e 5a8a adbd
000000c0: e2dc b1bd a69b c03d 466b 973d d787 ecbd
000000d0: 209c e6bd 27e1 1b3e 44b7 323d 0a19 093e
000000e0: f6a5 1a3d 281c f43d a4a2 cc3d 7875 13be
000000f0: ce2c 013e 8820 89bd ad03 063d b2b8 db3a
00000100: 2b5b ce3c 4ac9 62be 0934 bcbd bbaf 66bd
00000110: a6d4 883d 91fd e43c 71f1 70be 5b63 9a3d
00000120: cccd 223d dcac b93c 0417 a83c 7658 1ebd
00000130: cb17 373b 56be 8a3d 242e 52bd da51 8a3d
00000140: d8b9 8e3d 7810 c83d 121c 193e 6c5c 4f3e
00000150: 81ad 3d3d 4344 23bc 5d33 0bbe 6a53 bfbd
00000160: cc0b 15bd 5d04 f33d ccbe 4ebd da09 42bd
00000170: 1adc 29bd c440 1e3e 2db6 af3d cf06 3c3d
00000180: 0e44 e5bc fe5f 1ebe 6859 a3bd 2ef6 51bb
00000190: 53e4 94bc e39e 283d c360 2b3d 363a 283d
000001a0: cbb3 82bd e169 b83c 2dfc eb3c d2e7 9f3d
000001b0: 4196 c8bd d204 bf3d 7669 02bc 245f cbbd
000001c0: 66ac a2bd dc94 9dbd 0db3 fdbc cb5c 22bd
000001d0: fb84 33bc b8d1 a2bd 298d 053e 138d 3cbc
000001e0: 62f1 1ebd 4858 dabd e14c 7f3a e56d ee3d
000001f0: b327 59bd e1b3 353d 8011 ab3d 2113 a4bc
00000200: 9d00 46bd d488 47bd e83c 99bd efcd 913d
00000210: 82cf 8b3c 4957 3d3e 9b38 1d3c c15f 18bd
00000220: 92b4 103d abb0 d33d fce2 313c 9f6f 09be
00000230: 962e 653d 3ceb 7a3d 2eaa 97bd 199e a5bc
00000240: 33a8 ba3d 6dc7 e4bb f5fa dbbd 09a5 7dbd
00000250: 37ff ddbd 8162 34be d488 203e 953b d93c
00000260: 8767 6fbd cf83 0d3d 62db f9bc 7fc3 ddbb
00000270: 6610 9b3d c60c 173d 0f0d 85bc 510b 293e
00000280: a872 243e d943 59bc fc39 9dbd 8162 74bd
00000290: 95de dbbc e4da a8bb e7c4 2b3e c7c4 9bbc
000002a0: 5679 fb3d d745 20bc 0cf7 22be d4f1 183e
000002b0: 5acb db3d 8995 10bd a741 2abd 78c5 ac3b
000002c0: 0fed c93c 9e3e 4dbc f3be bcbc fde8 e23c
000002d0: 5df5 303c f388 823d 3fa0 fa3d 2d0c 52bd
000002e0: 2434 073d e4d0 4cbe f960 a33c 43b9 2cbc
000002f0: fecf acbc b906 e2bd 5cc8 09be c785 79bb
00000300: dc88 523c 19ce 66bd cb28 793b 6015 c33c
00000310: 3a13 0a3d 8361 d1bd 5c6f 983d b2b1 d63c
00000320: 8019 b1bc 36d8 e5bd 7064 243e 6a6f 343c
00000330: 5c92 233e 7072 d83b 8e1f 8e3d 74dd bfbb
00000340: 4e47 133c 29f1 2ebe b4cb 873a 1fb9 2c3c
00000350: 06b4 46bd bb1f 933c b212 0abc cba9 c63d
00000360: f6ee 95bb 01c6 29bd fb32 2ebd f1f8 4dbd
00000370: 8428 51bd b7fb b8bd e0db 253e 25e4 9ebd
00000380: ae02 25bd b305 5e3c f727 a63d 7a67 5e3e
00000390: 4fbb 2e3e ce98 0cbd 9d88 d2bd 5766 1d3e
000003a0: 315f 783d de81 3fbd 7f48 05be 149c 0d3c
000003b0: bd40 1cbc 830d 10bd 6014 f83d 6eba c13c
000003c0: 0eb3 25bd f1dc bfbd 333d b9bc 59c2 b13d
000003d0: b069 573d 1867 a33d c9ad b43d 3785 a13d
000003e0: c504 313d de2a 8fbd 96ac 9e3b f731 de3d
000003f0: 6a9f 0e3e fdca b8bc b471 c33c 1898 ce3d
0.15716067 0.06880689 0.0937532 0.08393049 0.05292223 0.062203746 -0.033161066 0.021269608
0.0007852281 0.060989343 -0.13365163 0.046755623 -0.057489853 0.14969644 -0.18511552 0.14919546
0.041853715 -0.10712613 0.16042124 -0.0290256 -0.020417454 0.122122884 0.15720005 -0.063260086
-0.019744761 -0.004987319 0.05434184 0.16104527 0.0048336107 -0.090535626 -0.06625591 -0.1437398
-0.08695644 -0.09024086 -0.067310825 -0.010620016 -0.08156491 0.008749649 0.0520749 0.19564976
-0.12079642 0.12086715 0.04001167 -0.057984747 -0.061957404 -0.16609192 0.21079697 -0.08473654
-0.08684708 0.094046876 0.07393508 -0.11549347 -0.11260247 0.15222608 0.043631807 0.13388458
0.03775593 0.11919433 0.09991959 -0.1440028 0.12614748 -0.06695658 0.03271835 0.0016763418
0.025189957 -0.22147098 -0.091896124 -0.056319933 0.066811845 0.027952941 -0.23529603 0.07538482
0.039747044 0.022665434 0.020518787 -0.03865858 0.0027937766 0.06774585 -0.051313534 0.06753893
0.06969041 0.09768766 0.14952114 0.202501 0.046308044 -0.009965005 -0.13593812 -0.09342082
-0.036388204 0.118660666 -0.050474927 -0.047372676 -0.04146967 0.15454394 0.08579669 0.04590493
-0.027986553 -0.15466306 -0.07976037 -0.0032037604 -0.01817528 0.04116715 0.041840326 0.04107114
-0.06381949 0.022511424 0.02880677 0.07807888 -0.09794284 0.09327091 -0.007959714 -0.09930256
-0.07943039 -0.07694408 -0.030969167 -0.039639276 -0.010956998 -0.07950157 0.1304213 -0.011508244
-0.03880442 -0.106613696 0.0009738934 0.116420545 -0.053016376 0.044361 0.08352947 -0.020028653
-0.04834043 -0.048714474 -0.0748232 0.07119357 0.01706672 0.18490328 0.009596015 -0.037200693
0.035328455 0.10336431 0.01085734 -0.13421486 0.05595263 0.061259493 -0.07405506 -0.020216988
0.09114113 -0.006981781 -0.10741226 -0.061924968 -0.10839694 -0.17615701 0.15677196 0.026517669
-0.05844834 0.03454953 -0.030500118 -0.0067676897 0.07571487 0.036877416 -0.016241578 0.16508223
0.16059363 -0.013260805 -0.07677075 -0.059664253 -0.026839534 -0.005153047 0.16774331 -0.01901473
0.12279002 -0.009782276 -0.15914553 0.14936 0.107321456 -0.035298858 -0.041566517 0.0052725635
0.024649171 -0.012527136 -0.02304027 0.027698988 0.010800687 0.06373777 0.12237596 -0.051281143
0.03300871 -0.2000156 0.019943701 -0.010542217 -0.021095272 -0.110364385 -0.13455337 -0.0038074122
0.012850013 -0.056348894 0.00380187 0.023813903 0.033709742 -0.10223677 0.07443115 0.026207779
-0.021618605 -0.112228796 0.16053939 0.011012891 0.159738 0.006605439 0.06939612 -0.0058552567
0.008989168 -0.17084183 0.0010360391 0.010542183 -0.048511527 0.017959466 -0.008427309 0.09700354
-0.0045756055 -0.041448597 -0.042529088 -0.050286237 -0.05106403 -0.09032386 0.16197157 -0.07758359
-0.04028576 0.0135511635 0.081130914 0.2171916 0.1706364 -0.034325413 -0.10279963 0.15371071
0.060637657 -0.04675471 -0.13015936 0.008643169 -0.009536919 -0.035169136 0.12113261 0.023648467
-0.040453963 -0.09368313 -0.02261219 0.08679647 0.052591026 0.07978648 0.088222094 0.07886737
0.04321744 -0.06990598 0.004842351 0.10849374 0.13927999 -0.02255773 0.023857929 0.10087603
