results/target_agent_01/target_agent_01/target_agent_01-6842.pt (torch, 144143 bytes, 12 tensors)

network_body._body_endoder.seq_layers.0.weight f4 [128, 1]
00000000: d0a8 cbbe 371d 273e 10ac 2a3f e620 aabe
00000010: ad0f 613f 4ff3 f63e 14c5 d1be d802 4d3f
00000020: 0fab febe 4331 903f 2bed a23f c593 d1be
00000030: 36a2 8ebf 395f 1dc0 a391 9dbe 357c 83bf
00000040: af51 f43e 75c8 243f a059 f83f ba91 4b3e
00000050: c2c0 29bf 09ce 3c3e f93a 3bbf 9d30 45bf
00000060: e7a7 ff3e 2fe0 bebd 28a4 b9bf 5800 aebe
00000070: 23f5 e73e bf1c 1140 25e9 32bd 7b81 9d3f
00000080: b31e 023f 77cc ab3d 6736 39be 7feb dabe
00000090: 48f7 abbf 4a8f b0bf 35a4 e03e c9a2 efbe
000000a0: 6291 a7bf 22a1 c73f d1b3 1940 7b5f 093f
000000b0: 204a e4bf 0592 14bf c779 cb3e dfab a23f
000000c0: 232f a1bf c9b6 7fbd a3dc 383f bd33 043f
000000d0: a068 cb3f 312b 943f 3489 90be 04b2 86bf
000000e0: 7153 34c0 abe4 a7bf 409a be3f 7306 e53f
000000f0: 0aa3 4cbe 4d97 44c0 51ce abbe 1652 bc3e
00000100: a7b5 de3e 0e41 84bf 1100 8d3e ed91 ff3e
00000110: 357a 8d3f dbee 613f b041 fc3e 509b 0740
00000120: 96e8 123e 7770 4cbf 2fcd 3abf 213d 923f
00000130: 8692 c8bd 2236 a03f 8020 b43e 244b 933f
00000140: 79a5 02bf 1c7e 8fbf 9545 1fc0 1102 c53f
00000150: 34ff b03f a7f2 233e 726b d3be 321a 67bf
00000160: 5d45 463f ac44 63be 7b0d 563f fc5a ffbf
00000170: 81ed 7a3c d867 0abf 4ae2 07c0 2a97 49bf
00000180: dba0 243f 3c81 e6bf e618 3c3f 20ca 12bf
00000190: 2a47 7f3e 4061 053f 35c8 49bd cd48 a4bf
000001a0: b19c 0c3f 6396 ed3e 25ad c73e 33ec 23bf
000001b0: abdc 3c3e daa4 94be bef3 b33f 7225 873f
000001c0: 6f63 fe3e 7377 61be d23d aa3f c2fa 0ebe
000001d0: 7ca0 a6be e26f 79be 4f01 31bf 83c1 3bbb
000001e0: d367 cd3e 3ab3 113f fd1b eebe cdf5 d73f
000001f0: d1c8 03c0 13c1 9fbf 1bec f33e f822 98bf
-0.3977723 0.16319738 0.66668797 -0.33228225 0.87914544 0.48232505 -0.4097067 0.80082464
-0.49739882 1.1265033 1.2728628 -0.40933052 -1.1143253 -2.458937 -0.30775174 -1.027228
0.4771857 0.64368373 1.9402351 0.19879809 -0.6630975 0.18437971 -0.7313686 -0.77027303
0.49932787 -0.093201034 -1.4503222 -0.33984637 0.45304212 2.2673795 -0.043679375 1.2305139
0.50828093 0.08388608 -0.18087159 -0.42757794 -1.3434839 -1.3793728 0.4387528 -0.46803883
-1.3091242 1.5596049 2.4016001 0.53661317 -1.7835121 -0.5803531 0.39741346 1.2708701
-1.259251 -0.062430177 0.72211665 0.51641446 1.5891304 1.1575681 -0.28229678 -1.0523076
-2.8175929 -1.3116659 1.4890823 1.7892593 -0.1998407 -3.0717347 -0.33555844 0.36781377
0.43497965 -1.0332353 0.27539113 0.4991602 1.105292 0.8825509 0.49268866 2.1188545
0.14346537 -0.7985911 -0.72969335 1.1424905 -0.09793572 1.251652 0.35181046 1.1507306
-0.5103374 -1.121036 -2.488622 1.5391256 1.3827882 0.16010533 -0.41292912 -0.90274346
0.7744959 -0.22194165 0.8361432 -1.9949641 0.015315414 -0.54064703 -2.1231866 -0.78746283
0.64307946 -1.8008189 0.7347549 -0.5733967 0.2492949 0.52101517 -0.049263198 -1.2834717
0.5492659 0.46403798 0.38999286 -0.64032286 0.18443553 -0.29032022 1.4058759 1.0558302
0.49685237 -0.22018223 1.3300116 -0.13962844 -0.32544315 -0.24359086 -0.6914262 -0.0028649278
0.40118274 0.56914103 -0.46505728 1.6871887 -2.0591319 -1.2480797 0.47641072 -1.1885672

network_body._body_endoder.seq_layers.0.bias f4 [128]
00000000: 0000 0000 0000 0000 0000 0000 0000 0000
00000010: 0000 0000 0000 0000 0000 0000 0000 0000
00000020: 0000 0000 0000 0000 0000 0000 0000 0000
00000030: 0000 0000 0000 0000 0000 0000 0000 0000
00000040: 0000 0000 0000 0000 0000 0000 0000 0000
00000050: 0000 0000 0000 0000 0000 0000 0000 0000
00000060: 0000 0000 0000 0000 0000 0000 0000 0000
00000070: 0000 0000 0000 0000 0000 0000 0000 0000
00000080: 0000 0000 0000 0000 0000 0000 0000 0000
00000090: 0000 0000 0000 0000 0000 0000 0000 0000
000000a0: 0000 0000 0000 0000 0000 0000 0000 0000
000000b0: 0000 0000 0000 0000 0000 0000 0000 0000
000000c0: 0000 0000 0000 0000 0000 0000 0000 0000
000000d0: 0000 0000 0000 0000 0000 0000 0000 0000
000000e0: 0000 0000 0000 0000 0000 0000 0000 0000
000000f0: 0000 0000 0000 0000 0000 0000 0000 0000
00000100: 0000 0000 0000 0000 0000 0000 0000 0000
00000110: 0000 0000 0000 0000 0000 0000 0000 0000
00000120: 0000 0000 0000 0000 0000 0000 0000 0000
00000130: 0000 0000 0000 0000 0000 0000 0000 0000
00000140: 0000 0000 0000 0000 0000 0000 0000 0000
00000150: 0000 0000 0000 0000 0000 0000 0000 0000
00000160: 0000 0000 0000 0000 0000 0000 0000 0000
00000170: 0000 0000 0000 0000 0000 0000 0000 0000
00000180: 0000 0000 0000 0000 0000 0000 0000 0000
00000190: 0000 0000 0000 0000 0000 0000 0000 0000
000001a0: 0000 0000 0000 0000 0000 0000 0000 0000
000001b0: 0000 0000 0000 0000 0000 0000 0000 0000
000001c0: 0000 0000 0000 0000 0000 0000 0000 0000
000001d0: 0000 0000 0000 0000 0000 0000 0000 0000
000001e0: 0000 0000 0000 0000 0000 0000 0000 0000
000001f0: 0000 0000 0000 0000 0000 0000 0000 0000
0.0 0.0 0.0 0.0 0.0 0.0 0.0 0.0
0.0 0.0 0.0 0.0 0.0 0.0 0.0 0.0
0.0 0.0 0.0 0.0 0.0 0.0 0.0 0.0
0.0 0.0 0.0 0.0 0.0 0.0 0.0 0.0
0.0 0.0 0.0 0.0 0.0 0.0 0.0 0.0
0.0 0.0 0.0 0.0 0.0 0.0 0.0 0.0
0.0 0.0 0.0 0.0 0.0 0.0 0.0 0.0
0.0 0.0 0.0 0.0 0.0 0.0 0.0 0.0
0.0 0.0 0.0 0.0 0.0 0.0 0.0 0.0
0.0 0.0 0.0 0.0 0.0 0.0 0.0 0.0
0.0 0.0 0.0 0.0 0.0 0.0 0.0 0.0
0.0 0.0 0.0 0.0 0.0 0.0 0.0 0.0
0.0 0.0 0.0 0.0 0.0 0.0 0.0 0.0
0.0 0.0 0.0 0.0 0.0 0.0 0.0 0.0
0.0 0.0 0.0 0.0 0.0 0.0 0.0 0.0
0.0 0.0 0.0 0.0 0.0 0.0 0.0 0.0

network_body._body_endoder.seq_layers.2.weight f4 [128, 128]
00000000: 1f8a a7bd 0d3f 1cbe 630d 04bc b85f babc
00000010: 86df 75bd 601e 29bd b2de e33d cdb1 bbbc
00000020: 4ca2 cc3d 945d af3d be6d 3b3d 4a2b 863d
00000030: 8b5a 6fbc a010 a13d dd3e e43c d6f4 89bd
00000040: 526a c73d 3f14 5e3d ddb9 91bc 8e81 893d
00000050: 1960 aabd 9aa1 813d f02a 703d d6b5 4abe
00000060: 66ea 85bb b21b 903d 73c9 01bc 44ef 2dbd
00000070: 5564 0abc 4c26 b0bd c10f 693b caa2 9bbd
00000080: ba03 eb3c 117e 89bc 6565 893d 163c 8f3d
00000090: 14f4 3b3d 8b64 cfbd 4e34 e3bc 529d 333e
000000a0: 30eb d3bc a171 0ebc fd7d 613d 875a 9abd
000000b0: c646 783d a129 8d3c 34a5 0dbe c690 173e
000000c0: 48ac 853d a2cd 71be 2470 803d b827 5abc
000000d0: 1be4 33be dce9 a1bd 8bd5 9d3d 581e 353e
000000e0: 983f c43d d420 003d 00f9 85bd f8a5 b1bd
000000f0: c08d 15be d99b d7bc be7f 11bd 9aba 0abd
00000100: db5e 493e 1032 4fbd ae82 32bd acb6 a0bd
00000110: d6aa 00bd 5bca 36bc 0c75 fcbc c418 e03d
00000120: 1298 84bd cfb4 253e b278 0fbe fc9e e53d
00000130: 9bd9 c33c 5e11 7dbd ea38 9dbd 90e7 063d
00000140: cd88 0dbe ede9 9fbd d41e 2ebd c772 91bc
00000150: 5224 c73c d12a 703d cce8 f33d 7d8d 203e
00000160: e1c2 ce3d 5de5 f53d 5f2e ba3b 25c4 0a3e
00000170: 7210 0cbc 14f7 95bb 1a21 733d 186e f73d
00000180: 5643 bb3c a050 ddbd e765 603d 6080 abbd
00000190: ede1 4b3c 74fc 4cba e36e 48bc 701f febd
000001a0: 25cd 2cbe 44bc 12be a234 e8bd c9dc 913d
000001b0: 5073 0b3e 3b58 5abc 37ed 2d3e 35a3 03be
000001c0: c0ea e2bd aa0a 46bd e517 91bb d135 203e
000001d0: 8e3d 8b3c 27b5 b8bd 47e0 d43d c773 b93d
000001e0: fb01 d83c cb6b 453d e5a8 a1bd 1b22 7f3c
000001f0: 2040 d8bc 1e0c 993d c4dc 933d 1710 413d
00000200: e7b1 a23d c964 4b3d 00fa 5cbc 2a8b 9cbc
00000210: 0447 c23d 0112 86ba 4f8f 8f3d 3b69 10be
00000220: 0ef1 803d cd62 3b3d 8580 d13d b582 eebd
00000230: a6d6 2cbe 4b56 09be 7d9a 61be f659 48bb
00000240: e320 66bd b774 473e 4f17 79bd 8108 c33d
00000250: 609e 153e 1609 7ebe 9998 aa3c 76c4 37bd
00000260: 9307 bf3c 154d 673d 410e 28be a847 f5bd
00000270: b695 21be 5362 aa3c bd02 053c 11cc 1ebd
00000280: 9cd8 ec3c 3b3f 0abd be86 e43b f8a7 96bc
00000290: 578a 91bd 402e 1abd ef36 a23b 7559 a7bc
000002a0: e7ea 15be 9618 9f3d 6147 c53d 21cb 90bd
000002b0: 0490 c63d 6d6a 3ebe 4135 a8bd 3f16 29bd
000002c0: 0f1b aebc 9173 c93d d9b4 73bd 6ce7 a0bd
000002d0: 8323 b43d b58c 58bd a1c4 823d acc3 84bd
000002e0: 13c1 f4bc d075 3c3e 2309 2a3e 9ce8 203e
000002f0: 0fde 333d 89bb 9dbc 74ce c8ba ac2a c23c
00000300: d086 c4bc 4937 0c3e 6085 083d 12ec 0f3e
00000310: 5c47 42bd 4b70 afbc 96ba 22bd 47ff e3bd
00000320: 8e91 493d fd9c 07bd 7736 55bc ac57 f9bd
00000330: 086a cbba 61c1 043e 0e5f 353c 81dc 31bd
00000340: 17f2 b0bd 2868 bebc 8341 aa3d 7935 c7bd
00000350: a5f6 5b3b eb97 753c 2e9a f8bd bc54 b43d
00000360: 5dc5 d73d 7d85 a63a 1c5e 333d de95 e1bb
00000370: 78d5 f5bd 9532 8fbc 516b 3e3d d0ec 2e3d
00000380: 7412 26bd 8d1d fcbc 8e4c 9d3d adf3 1d3d
00000390: 31c8 54be e74e 033e 11e1 4c3d 0549 ec3b
000003a0: 9a07 9f3d f90b 03be 0d5d de3b 236d c6bd
000003b0: de8e 61be 0840 8fbc 0461 98bd 291a 5b3e
000003c0: 30d4 8cbd 1591 933d d74b d73d bebe 46bd
000003d0: b997 113e 5cf5 593e 91bf b2bc dab0 883c
000003e0: 46d8 8cbd 0016 13bd 8ad2 3dbe 6e79 48be
000003f0: 6aaf 7c3d a826 433e 2b6f fc3d a40e f7bd
-0.081806414 -0.15258427 -0.008059832 -0.02275072 -0.06002762 -0.041288733 0.1112646 -0.02291193
0.09991893 0.085627705 0.045758955 0.065512255 -0.0146089895 0.07864499 0.027862007 -0.06736152
0.09737076 0.054218527 -0.017788822 0.06714164 -0.083191104 0.06329651 0.0586347 -0.19795927
-0.0040867804 0.070365325 -0.007921564 -0.04246451 -0.008446773 -0.086010545 0.0035562369 -0.07599409
0.0286883 -0.016783746 0.067087926 0.06993882 0.045887068 -0.10126599 -0.027734902 0.17540482
-0.025868982 -0.008694083 0.055051792 -0.07536798 0.06061437 0.017231764 -0.13832551 0.1480132
0.06527001 -0.23613599 0.06271389 -0.013315134 -0.17567484 -0.07905933 0.07706746 0.17687356
0.09582442 0.031281307 -0.065416336 -0.08674234 -0.14604855 -0.026319431 -0.035522215 -0.033869363
0.1966509 -0.050584853 -0.043581657 -0.07847342 -0.03141292 -0.011156644 -0.030817531 0.10942224
-0.064743176 0.16182254 -0.14010885 0.112119645 0.023907473 -0.06178414 -0.07676871 0.03293568
-0.13821717 -0.0780829 -0.04250987 -0.017754925 0.024309311 0.058634583 0.11909637 0.15678973
0.10095764 0.12006638 0.0056817974 0.13551386 -0.008548843 -0.004576573 0.05935774 0.120815456
0.022859257 -0.108063936 0.05478468 -0.08374095 0.012444002 -0.0007819601 -0.012233469 -0.1240834
-0.16875131 -0.1432963 -0.11338164 0.071221896 0.13618207 -0.0133267 0.16985022 -0.12855227
-0.11079931 -0.048350014 -0.0044278973 0.1564553 0.016997125 -0.09018927 0.1039434 0.09055286
0.026368132 0.048198503 -0.07893542 0.015572096 -0.026397765 0.07473014 0.07219842 0.047134485
0.079440884 0.049656663 -0.013487339 -0.019109327 0.094862014 -0.0010228754 0.07009756 -0.14102642
0.062959775 0.04574852 0.10229591 -0.11646024 -0.16878757 -0.13411824 -0.22031589 -0.00305712
-0.056183707 0.19478117 -0.060813244 0.09523106 0.14611197 -0.24808154 0.020824717 -0.044865094
0.023319041 0.056469996 -0.16411687 -0.11976558 -0.15779766 0.020798838 0.008118329 -0.03876883
0.028911881 -0.033751708 0.0069740703 -0.01839064 -0.07106464 -0.037641764 0.0049503963 -0.020428399
-0.1464039 0.07768361 0.09632755 -0.07069994 0.096954376 -0.18595286 -0.082132824 -0.04128098
-0.021253137 0.09836496 -0.05949864 -0.0785664 0.08795836 -0.052868564 0.0638516 -0.06482634
-0.029877221 0.18404317 0.16605048 0.15713733 0.043912943 -0.019254463 -0.0015320317 0.023701988
-0.023990065 0.13692965 0.03333032 0.14054897 -0.047431335 -0.02141585 -0.039728723 -0.11132675
0.049211077 -0.0331087 -0.013013474 -0.12174925 -0.0015519271 0.12964393 0.011070026 -0.04342318
-0.08639925 -0.023243025 0.083132766 -0.09726996 0.003356376 0.014989833 -0.121387824 0.08805224
0.10535691 0.0012704578 0.04379092 -0.0068843206 -0.120036066 -0.017480174 0.046489064 0.04270631
-0.040544942 -0.03077581 0.07680617 0.038562465 -0.20779492 0.12823068 0.050019328 0.007210853
0.07765122 -0.12797536 0.006785995 -0.09688785 -0.22027156 -0.017486587 -0.07440379 0.21396698
-0.06876409 0.072054066 0.10512512 -0.04852175 0.14218034 0.21285003 -0.021819862 0.016685892
-0.068771884 -0.035909653 -0.18537346 -0.19577572 0.061690725 0.19057715 0.12325891 -0.12063339

network_body._body_endoder.seq_layers.2.bias f4 [128]
00000000: 0000 0000 0000 0000 0000 0000 0000 0000
00000010: 0000 0000 0000 0000 0000 0000 0000 0000
00000020: 0000 0000 0000 0000 0000 0000 0000 0000
00000030: 0000 0000 0000 0000 0000 0000 0000 0000
00000040: 0000 0000 0000 0000 0000 0000 0000 0000
00000050: 0000 0000 0000 0000 0000 0000 0000 0000
00000060: 0000 0000 0000 0000 0000 0000 0000 0000
00000070: 0000 0000 0000 0000 0000 0000 0000 0000
00000080: 0000 0000 0000 0000 0000 0000 0000 0000
00000090: 0000 0000 0000 0000 0000 0000 0000 0000
000000a0: 0000 0000 0000 0000 0000 0000 0000 0000
000000b0: 0000 0000 0000 0000 0000 0000 0000 0000
000000c0: 0000 0000 0000 0000 0000 0000 0000 0000
000000d0: 0000 0000 0000 0000 0000 0000 0000 0000
000000e0: 0000 0000 0000 0000 0000 0000 0000 0000
000000f0: 0000 0000 0000 0000 0000 0000 0000 0000
00000100: 0000 0000 0000 0000 0000 0000 0000 0000
00000110: 0000 0000 0000 0000 0000 0000 0000 0000
00000120: 0000 0000 0000 0000 0000 0000 0000 0000
00000130: 0000 0000 0000 0000 0000 0000 0000 0000
00000140: 0000 0000 0000 0000 0000 0000 0000 0000
00000150: 0000 0000 0000 0000 0000 0000 0000 0000
00000160: 0000 0000 0000 0000 0000 0000 0000 0000
00000170: 0000 0000 0000 0000 0000 0000 0000 0000
00000180: 0000 0000 0000 0000 0000 0000 0000 0000
00000190: 0000 0000 0000 0000 0000 0000 0000 0000
000001a0: 0000 0000 0000 0000 0000 0000 0000 0000
000001b0: 0000 0000 0000 0000 0000 0000 0000 0000
000001c0: 0000 0000 0000 0000 0000 0000 0000 0000
000001d0: 0000 0000 0000 0000 0000 0000 0000 0000
000001e0: 0000 0000 0000 0000 0000 0000 0000 0000
000001f0: 0000 0000 0000 0000 0000 0000 0000 0000
0.0 0.0 0.0 0.0 0.0 0.0 0.0 0.0
0.0 0.0 0.0 0.0 0.0 0.0 0.0 0.0
0.0 0.0 0.0 0.0 0.0 0.0 0.0 0.0
0.0 0.0 0.0 0.0 0.0 0.0 0.0 0.0
0.0 0.0 0.0 0.0 0.0 0.0 0.0 0.0
0.0 0.0 0.0 0.0 0.0 0.0 0.0 0.0
0.0 0.0 0.0 0.0 0.0 0.0 0.0 0.0
0.0 0.0 0.0 0.0 0.0 0.0 0.0 0.0
0.0 0.0 0.0 0.0 0.0 0.0 0.0 0.0
0.0 0.0 0.0 0.0 0.0 0.0 0.0 0.0
0.0 0.0 0.0 0.0 0.0 0.0 0.0 0.0
0.0 0.0 0.0 0.0 0.0 0.0 0.0 0.0
0.0 0.0 0.0 0.0 0.0 0.0 0.0 0.0
0.0 0.0 0.0 0.0 0.0 0.0 0.0 0.0
0.0 0.0 0.0 0.0 0.0 0.0 0.0 0.0
0.0 0.0 0.0 0.0 0.0 0.0 0.0 0.0

action_model._continuous_distribution.log_sigma f4 [1, 2]
00000000: 0000 0000 0000 0000
0.0 0.0

action_model._continuous_distribution.mu.weight f4 [2, 128]
00000000: 41aa a6bb a3ba d83c b8c2 163c 3a4d 56bb
00000010: 3b9e 04bd f77e 98bc bf95 393c 5eb5 243c
00000020: 2f0f 1d3c 3b88 2c3d 722a 023d 0cef 9a3c
00000030: 3a26 f93b a810 b1b9 233e 3d3c e16e 86bc
00000040: 68c0 db3c 2e95 a2bc 43d5 21b9 0fbe bb3b
00000050: efa6 bf3c b475 883c 3ee7 95bc bb62 69bc
00000060: 0d9e 0d3c f12f 173d acc2 4cbc bd2f 02ba
00000070: 690e 333c e769 fc3c 18e7 8e3a 61dc aa3b
00000080: ca35 2fbd fbdf 8ebb 1f4a 533c ade6 52bc
00000090: 0d7b 72bc 9da1 cc3a 2ab4 05bb 871b 653c
000000a0: 7e2b b03a d76e c63c af98 7dbb 151b 67bc
000000b0: a17e 3abc 9dd8 7fbc ef7f b33b 482a 4fbc
000000c0: 3da1 b93b 52ee 1dbc 33af fa39 c4d1 963c
000000d0: f47a 813b 4a01 60bc e762 75bc b816 f03b
000000e0: f056 e4ba a8e2 0b3c 83c3 0b3d bf49 acbc
000000f0: 1d49 87bc ad37 5abc 2327 44bc cbb0 6dbc
00000100: c533 883b 0827 ce3c b0a4 d5bc bd91 833c
00000110: 53b4 043d cea6 943c 878b 17bd a531 f2bb
00000120: 3890 c5bc 7bb1 95bc 3267 b9bc 3145 afbc
00000130: 1801 273c cc5a b63c ef2f 8a3c ab02 0ebc
00000140: b30d 943c 890e a13b 353f 513c 17d2 26bc
00000150: 605f 55bc bf61 01bd b427 083b d894 cbbb
00000160: 0164 2d3d 58a7 03bc 9337 75bc d737 d23b
00000170: b19d a83b fb11 20bc 63cf 2d3c 8d3b 60bb
00000180: f97a 93bc 3dbc 8f3b 5347 43bc 9499 253c
00000190: 398a 9a3b d5b9 ee3c 4f04 c1bb d2ac 503a
000001a0: af54 bc3c 0750 e13c 5bdd 26bc 3c34 2ebc
000001b0: 1b0f a63c b5b6 6ebc 8f21 a0bc d5c2 6cbb
000001c0: 1ad3 11bc 7513 1bbd 0226 fabb 991d af3b
000001d0: 3b8b 033d 0e18 2a3b af8d 2b39 18da 83bc
000001e0: 7f5d 75bc 87ac d4bc a034 2f3c edb9 74bb
000001f0: bfb0 ea3c 92ab c6bb 4874 9ebc f9c3 923c
00000200: c3ac 1d3c dee1 1dbc bbc8 af3c 33fa 2fbc
00000210: 8b6e afbc 97b6 163c f9c8 20bc 1af7 443c
00000220: 64ae b5bc 5b1f 78bc e2f5 cc39 7b8b 633c
00000230: e0f9 61bc 295a 92bc 7442 48bc 3fd8 9c3c
00000240: cd8b da3c 1b33 113d 337e d8bb 1864 2c3d
00000250: bb3d 98bc 705c 8ebc 2af7 b7bc da0d 013b
00000260: 7335 48bc 378f 66bc 4f3e 243d 06cf 42bc
00000270: 90a4 e63c 95f4 d53c 54b0 423b 733b 863c
00000280: 873d 433c 723d f0bc 7904 c6bb e2f4 2fb8
00000290: 9300 2d3d f70f 21bc 2524 563d cbb5 7c3c
000002a0: 1fa4 95bc 9b14 4e3c 1ac2 113b 1c9c 263a
000002b0: a355 bb3b ad0a 553c 8524 5c3c 8aaa a43c
000002c0: 77f6 cbbb 8364 94bc 5dbf 47bc 1cf3 813c
000002d0: db85 c5bb 93eb 35bb e3ac ca3b 2f8e d23c
000002e0: e8d3 e23c 5741 8c3c 5c10 0a3c 7b07 0cbd
000002f0: 456b 4ebc 2a60 0b3b fbd4 8ebc 160f bd3b
00000300: 0aa3 e03b ca73 743c 2045 ec3c 1953 403b
00000310: cfb9 13bd cbec f3bc 0b10 053b c70b 073d
00000320: 35d0 dcbb 932e c0bb 95d2 393c 7968 c33c
00000330: b3b5 56bc ddc2 233c 8bd2 183c b3c1 1d3c
00000340: 22cd d33c 30c4 f3bc d7d7 9fbc 107d 4cbd
00000350: 5d90 e9bb 37c3 3d3c ed7b 683b 23b2 b2bc
00000360: 0f61 f5bc df12 e1bc 0de5 b9bb c5d4 083d
00000370: 6a08 c73a 4b11 90bc 3ff0 fcbb 95dd 29bd
00000380: 7361 80bc 7225 5dbc bbc4 e63c 8b69 483c
00000390: c7af d13c 973f 14bc b893 733c cfa5 013b
000003a0: 823a 593c 07c4 08bd 4ff2 063c 1c65 813c
000003b0: 53e5 1cbc 0f5c aa3c e2a7 983c af60 423b
000003c0: e023 673c 9f12 03bd 2559 2abc c2dd 58bc
000003d0: 398d 97bc 4549 37bc 13c1 35bb 3b35 903c
000003e0: 080e 783c 4875 563c 0f1d 463c 5be7 dbb9
000003f0: 79af 9bbc f7ab 3cbc 203c 9a3c c806 77bc
-0.005086214 0.026456183 0.009201698 -0.003269984 -0.032377463 -0.018615229 0.011327206 0.010053007
0.00958614 0.042122107 0.03177876 0.018912815 0.007603434 -0.0003377248 0.011550459 -0.016410293
0.026825145 -0.019846525 -0.00015433603 0.005729444 0.02339503 0.016657688 -0.018298741 -0.014244731
0.008643639 0.036910955 -0.012497585 -0.000496622 0.010928729 0.030812217 0.0010902612 0.0052142595
-0.042775907 -0.0043601966 0.01289609 -0.01287238 -0.014799845 0.0015612129 -0.0020401576 0.013983614
0.0013440696 0.024222774 -0.0038695743 -0.014105578 -0.01138273 -0.0156156095 0.0054778974 -0.012644358
0.005664973 -0.0096393395 0.0004781425 0.01841057 0.0039514247 -0.013672182 -0.014977193 0.007326927
-0.0017420929 0.008537926 0.034122 -0.021031259 -0.016514355 -0.013318938 -0.011972222 -0.014507483
0.004156562 0.025165096 -0.026079506 0.016060704 0.032398533 0.018145945 -0.036998298 -0.007391172
-0.02411662 -0.018273106 -0.022632215 -0.021395298 0.010193132 0.022260092 0.01686856 -0.008667628
0.018072939 0.004915063 0.012771417 -0.010181925 -0.013023227 -0.03158736 0.0020775618 -0.006212812
0.0423317 -0.008035503 -0.014966863 0.006415348 0.0051457514 -0.009769912 0.010608527 -0.0034215183
-0.018002974 0.0043864534 -0.0119188605 0.010107417 0.0047161845 0.029141346 -0.005890406 0.00079603225
0.022989599 0.02750398 -0.010184611 -0.010632571 0.020270875 -0.014569928 -0.019547252 -0.003612687
-0.008900428 -0.037860353 -0.0076339254 0.0053441045 0.032115202 0.002595428 0.00016360612 -0.016095206
-0.0149759045 -0.025961174 0.010693699 -0.0037342266 0.028648732 -0.0060629332 -0.019342557 0.017915713
0.009623709 -0.00963637 0.02145802 -0.0107408045 -0.021415016 0.009198806 -0.009813541 0.012021804
-0.022177882 -0.0151441945 0.0003909311 0.013888235 -0.013792485 -0.017865257 -0.012222875 0.019146083
0.02667799 0.03544913 -0.006606841 0.042087644 -0.018584123 -0.017378062 -0.022456724 0.0019692094
-0.012219775 -0.014072231 0.040098485 -0.011890179 0.028154641 0.026117602 0.002970715 0.01638577
0.011916525 -0.029326174 -0.0060430137 -4.1951316e-05 0.042236876 -0.0098304665 0.052280564 0.015424202
-0.018266736 0.012578155 0.0022240938 0.00063556596 0.005716996 0.013003034 0.013436441 0.02010085
-0.0062244493 -0.018114334 -0.012191621 0.015862994 -0.0060279197 -0.0027758821 0.0061851605 0.025702564
0.027688935 0.017121 0.008426752 -0.03418682 -0.012598817 0.0021267035 -0.017435541 0.0057696206
0.0068553733 0.014920184 0.028841555 0.0029346405 -0.036065873 -0.029775998 0.0020303752 0.032970216
-0.0067386874 -0.005864927 0.011341711 0.023853527 -0.013104844 0.0099951895 0.009327541 0.009628701
0.02585465 -0.029756635 -0.0195121 -0.049923956 -0.007127805 0.011582187 0.0035474256 -0.021813458
-0.029953508 -0.027474819 -0.005673057 0.033406038 0.0015185003 -0.01758637 -0.0077190693 -0.041471083
-0.015671467 -0.013497697 0.02816998 0.012232195 0.025596512 -0.009048364 0.014866762 0.0019782668
0.013258578 -0.03339007 0.008236482 0.015795283 -0.0095761595 0.02079585 0.01863474 0.0029659679
0.014107674 -0.03200018 -0.01039723 -0.013236465 -0.018499957 -0.011186902 -0.002773349 0.017603507
0.015140064 0.0130894855 0.012091889 -0.00041943308 -0.01900457 -0.011515609 0.018827498 -0.0150773

action_model._continuous_distribution.mu.bias f4 [2]
00000000: 0000 0000 0000 0000
0.0 0.0

network_body._body_endoder.seq_layers.0.weight f4 [128, 1]
00000000: 0aef 09bf 0a61 d33f 1051 79bf eadf 043e
00000010: bb18 8b3f 2a8c a3bf d9d3 223f b6eb a93f
00000020: 195b c33e ba7c c53e 9e98 d4bb 4b06 73bf
00000030: efe0 303f c8cd 103d 56d5 bf3e 5765 f03f
00000040: 3e31 0fbd 9208 fe3f 36ca d9bd 393f 0c3f
00000050: b103 53bf 45fc 97bf aac9 2dbe 3ba1 203f
00000060: 4a72 70be 5327 bb3e 02f2 943f 4c87 fbbe
00000070: 5d17 07c0 c1f7 423e a84e 06bf acf2 4dbf
00000080: 7555 cbbf 2041 9cbe 39c5 b5be 6898 a63e
00000090: 4bc7 a4be 0389 86bf 0ba0 18bf c5ce abbe
000000a0: fddf 15bf bd41 85bf 7bd4 d2bf 328e 073e
000000b0: 4173 993f 5050 c5bf 8472 24bf bf2a fd3e
000000c0: c695 94bd 2cbe fbbf 6f24 153e c97d ecbf
000000d0: aee6 2f40 a119 b73f f4a4 02c0 b838 69bf
000000e0: 111c 5cbd 36eb c8bf a529 a0bf f72a 19c0
000000f0: 33e2 9bbf cc33 bebe d1e5 53bf 4487 13bf
00000100: cf37 923e c430 01c0 e977 80ba bb68 c3be
00000110: 6b71 1b3e e49c 65bf 894e 7a3e 0817 77bf
00000120: 4dd9 8d3f 0cb9 863f 51e8 a63f 00a8 d9be
00000130: 8190 5fbf 6e18 2e3f 5300 ad3f cdaa 103d
00000140: efab 84bd ba42 40bf 29a0 6cbf e209 8abf
00000150: 8164 c2be f916 abbe d678 fa3d d179 21c0
00000160: 5fc8 6dbe fb3a 8abf 47d0 eebf 6c42 67bf
00000170: faf6 2f3f 66e1 49bf 8168 5d3e 75cd f83f
00000180: 710b 3cbf 06ff 893f 54a0 c0bf 35c9 d3be
00000190: d5a8 48bf 4ff6 cd3f c947 27bf 951b 83bd
000001a0: 5e57 06bd 0252 d6bf f543 713e 2ef8 84bf
000001b0: ef11 043f 2443 ddbe 5807 c53f 4f1f 6e3f
000001c0: bb81 203f 4af3 6bbf ab6b 083f 166c de3d
000001d0: a323 af3e 6879 c13f 5309 b9bf c557 d63e
000001e0: a290 983c ee51 633e e472 a5bf abf7 7abf
000001f0: a9bc b73f 6861 6ebf aa3f c13d 57d6 0a40
-0.5388037 1.6513989 -0.97389317 0.12976041 1.0866922 -1.277715 0.63604504 1.3275058
0.3815544 0.3857172 -0.00648792 -0.9493148 0.6909322 0.0353525 0.3746745 1.8780926
-0.03495907 1.9846365 -0.10634272 0.5478397 -0.8242751 -1.1873862 -0.1697146 0.6274602
-0.23481098 0.3655344 1.1636355 -0.4912666 -2.110801 0.19039823 -0.5246377 -0.8044841
-1.5885454 -0.30518436 -0.3550203 0.32538152 -0.32183298 -1.0510563 -0.59619206 -0.3355619
-0.58544904 -1.0410687 -1.6471094 0.13237837 1.1988298 -1.5415134 -0.64237237 0.49446675
-0.072551295 -1.9667411 0.1456468 -1.8475887 2.7484546 1.4304696 -2.041318 -0.9110217
-0.053737704 -1.5696781 -1.2512709 -2.3932474 -1.2178406 -0.37148893 -0.82772547 -0.57628274
0.28558204 -2.0186014 -0.0009801361 -0.3816584 0.15179984 -0.8969252 0.24444021 -0.9651952
1.108194 1.0525222 1.3039647 -0.42510986 -0.8732987 0.68006027 1.3515724 0.03531914
-0.06478106 -0.75101817 -0.92431885 -1.0784266 -0.37967303 -0.33415964 0.12230079 -2.52306
-0.23220967 -1.079925 -1.8657311 -0.90335727 0.6873623 -0.78859556 0.21621896 1.94377
-0.7345496 1.0780952 -1.5048928 -0.41364446 -0.7838262 1.6090792 -0.6534391 -0.06401745
-0.032798164 -1.6743777 0.2356108 -1.0388238 0.51589864 -0.43215287 1.5392866 0.93016523
0.62697953 -0.92168105 0.5328929 0.108604595 0.34206876 1.5115175 -1.445597 0.41863838
0.018623654 0.22199222 -1.2925687 -0.9803416 1.435445 -0.9311738 0.09435971 2.1693323

network_body._body_endoder.seq_layers.0.bias f4 [128]
00000000: 0000 0000 0000 0000 0000 0000 0000 0000
00000010: 0000 0000 0000 0000 0000 0000 0000 0000
00000020: 0000 0000 0000 0000 0000 0000 0000 0000
00000030: 0000 0000 0000 0000 0000 0000 0000 0000
00000040: 0000 0000 0000 0000 0000 0000 0000 0000
00000050: 0000 0000 0000 0000 0000 0000 0000 0000
00000060: 0000 0000 0000 0000 0000 0000 0000 0000
00000070: 0000 0000 0000 0000 0000 0000 0000 0000
00000080: 0000 0000 0000 0000 0000 0000 0000 0000
00000090: 0000 0000 0000 0000 0000 0000 0000 0000
000000a0: 0000 0000 0000 0000 0000 0000 0000 0000
000000b0: 0000 0000 0000 0000 0000 0000 0000 0000
000000c0: 0000 0000 0000 0000 0000 0000 0000 0000
000000d0: 0000 0000 0000 0000 0000 0000 0000 0000
000000e0: 0000 0000 0000 0000 0000 0000 0000 0000
000000f0: 0000 0000 0000 0000 0000 0000 0000 0000
00000100: 0000 0000 0000 0000 0000 0000 0000 0000
00000110: 0000 0000 0000 0000 0000 0000 0000 0000
00000120: 0000 0000 0000 0000 0000 0000 0000 0000
00000130: 0000 0000 0000 0000 0000 0000 0000 0000
00000140: 0000 0000 0000 0000 0000 0000 0000 0000
00000150: 0000 0000 0000 0000 0000 0000 0000 0000
00000160: 0000 0000 0000 0000 0000 0000 0000 0000
00000170: 0000 0000 0000 0000 0000 0000 0000 0000
00000180: 0000 0000 0000 0000 0000 0000 0000 0000
00000190: 0000 0000 0000 0000 0000 0000 0000 0000
000001a0: 0000 0000 0000 0000 0000 0000 0000 0000
000001b0: 0000 0000 0000 0000 0000 0000 0000 0000
000001c0: 0000 0000 0000 0000 0000 0000 0000 0000
000001d0: 0000 0000 0000 0000 0000 0000 0000 0000
000001e0: 0000 0000 0000 0000 0000 0000 0000 0000
000001f0: 0000 0000 0000 0000 0000 0000 0000 0000
0.0 0.0 0.0 0.0 0.0 0.0 0.0 0.0
0.0 0.0 0.0 0.0 0.0 0.0 0.0 0.0
0.0 0.0 0.0 0.0 0.0 0.0 0.0 0.0
0.0 0.0 0.0 0.0 0.0 0.0 0.0 0.0
0.0 0.0 0.0 0.0 0.0 0.0 0.0 0.0
0.0 0.0 0.0 0.0 0.0 0.0 0.0 0.0
0.0 0.0 0.0 0.0 0.0 0.0 0.0 0.0
0.0 0.0 0.0 0.0 0.0 0.0 0.0 0.0
0.0 0.0 0.0 0.0 0.0 0.0 0.0 0.0
0.0 0.0 0.0 0.0 0.0 0.0 0.0 0.0
0.0 0.0 0.0 0.0 0.0 0.0 0.0 0.0
0.0 0.0 0.0 0.0 0.0 0.0 0.0 0.0
0.0 0.0 0.0 0.0 0.0 0.0 0.0 0.0
0.0 0.0 0.0 0.0 0.0 0.0 0.0 0.0
0.0 0.0 0.0 0.0 0.0 0.0 0.0 0.0
0.0 0.0 0.0 0.0 0.0 0.0 0.0 0.0

network_body._body_endoder.seq_layers.2.weight f4 [128, 128]
00000000: 7008 38be ed5b 193d 4f54 b4bc d8c0 e3bd
00000010: 6e6d 6f3d b219 813b c693 f8bc fb0a 863d
00000020: c49a 963d 762a d1bd ea2f 233c 55af 9bbc
00000030: 720e dc3b fbc3 56bd ad1c 613d 0b2b 86bd
00000040: 79d6 95bd 22e2 7a3d c334 1a3c f113 173e
00000050: a90c 433d 8978 09bd e961 873d f527 c63b
00000060: 2e96 5bbb 6c4b 853d 39fd 663e 7701 8fbd
00000070: e58c af3d 64f6 46bd 6528 ddbd beae 1bbd
00000080: 8f3f 9abc 945c ab3d 543d ebbd dce7 0a3e
00000090: d97f 583b e5eb 673d 04f7 8dbd 4ec5 003c
000000a0: af98 c5bd 7a5a b8bd 7ea0 83bd b706 423e
000000b0: e611 d0bd 6feb 8c3d e36c 353d e6f8 a53c
000000c0: c901 3b3d 080e 073e 84e7 9b3d 9fc9 043e
000000d0: 43e8 f13c 0ea0 26bd c54a 5fbd e5c8 0ebd
000000e0: dd1d d5bc 5cc7 b0bd 01cf f43d e0ce 593c
000000f0: fd05 83bd d28b f5bd e7d5 833c e3c2 393e
00000100: 1b44 2cbe 1417 443e 0536 b33d 27c3 26bd
00000110: 8299 a33d 4575 de3c c8dd 6bbc 5772 1abd
00000120: 26b2 58bd ccf5 3dbd de35 323d 925d 11bd
00000130: 07f8 c4bc c535 d63c 6b38 eb3d 6c85 9a3c
00000140: 501e 01be e679 453e 43de c33d 0ad3 85bc
00000150: 4629 d5bc 82b7 333c 0dac 8ebc 0e59 cabd
00000160: 8deb 233e 27bd 833d 0c6e 9c3d 3d1d db3d
00000170: d1f6 64bd 8a39 873b 56bf 2bbd f0fe d5bd
00000180: acd2 29be 4fe1 3e3b 2caf 8f3d 60d3 4dbd
00000190: 3851 0b3d a890 343e 050f aebd 312f 003e
000001a0: 3996 f93a 5df5 42be adbb ae3d 6a1a 26bc
000001b0: b0e7 883d b7fb 03be f38b 51be 6b91 27bd
000001c0: 7ebc b43b 3e03 1c39 961a d3bd 8722 e23c
000001d0: 6fc5 a1bc cfc1 a0bd 4180 4f3d 3380 c2bd
000001e0: d3ef 023e 2412 db3a e9af 49bd 52a4 1b3e
000001f0: 174d 9c3c 8b43 843d 3da3 1ebc d2c8 3ebb
00000200: ada4 c13d e419 0fbd b9e8 ffbc daff cabd
00000210: 844f ca3c 4375 7cbd 32f4 19bd 6794 9d3d
00000220: c018 3abd 71ac 5fbd fc71 33bd a1b4 773d
00000230: afc5 8fbd 7445 033d 8f49 823c 6056 0a3d
00000240: 8d07 f6bd 77bf 8f3b 6c66 1bbd 6719 a23b
00000250: 30da 2fbd f2bf 45bd b20c b3bd 29e4 103d
00000260: 82c3 903c e886 9fbb 5080 7cbd 606e 9d3d
00000270: 554c 8b3d 474f 41be 084c 4d3d 88e8 ea3c
00000280: 4916 493e f31d 13bd 4513 753c 9ed0 ffbc
00000290: 7319 df3c c8f7 603c 24f0 b3ba cf25 343c
000002a0: 82f4 8dbd db9a 5abd 32b9 9e3c 7806 203d
000002b0: 4d4b 73bd dd9d 7a3c e31c 893d 4f29 693d
000002c0: 8618 3dbd e2ca 373b 45e9 8e3d ffbd 31bc
000002d0: 333f 4abd 33cf b03c 4a28 4bbd 86f8 15bd
000002e0: 569b ffbc 497a 203e dac5 1a3c 9abe 8abd
000002f0: 527b 103e 794e ef3d 1337 3e3d 1bb9 bfbd
00000300: 855e c33d 6625 063e 64d5 83bd c6cf a6bc
00000310: 3eac 9638 7544 cebd 1c1b 3fbe 3281 033e
00000320: 7a78 1cbb 5412 353d 732e 023e f928 87bd
00000330: 1902 833d a350 4c3e d53d f03d f2ac 4e3c
00000340: 5307 2cbe 09ab 43bd 2147 b8bc 5976 f3bc
00000350: 75f5 09bc 4f30 22bd 1dd9 363d b7dd c8bc
00000360: d3a8 09bd cf58 bd3d 6385 7fbd b5d0 19be
00000370: 2961 f03d c0ce ddbd 5294 7fbd 6fd6 f0bd
00000380: 33e9 81bb 6370 153d 8cac 90bd 5c5b 163c
00000390: 5000 6e3d 6fed 833d 9dc6 ce3c 046c cdbd
000003a0: 3e7f 01bb 1277 dabd c5cc 9abd 7a19 7fbd
000003b0: fd34 86bd 0345 b13d b37f 51bd bc82 0cbe
000003c0: 64a5 e3bd 474a 2abc 73d6 c7bd 755d 22bb
000003d0: 2946 94bd dde6 043e c027 3d3e e6b6 82bd
000003e0: b93a 31be aa2c 3bb8 4e56 a8bc 38eb 8d3d
000003f0: 81df 57bd a7f5 09be aff7 40bd e08c a9bd
-0.17971969 0.037441183 -0.022012858 -0.111207664 0.05845397 0.0039398307 -0.030343901 0.06545063
0.07353738 -0.10213177 0.009960154 -0.019004503 0.006715589 -0.052432995 0.054958988 -0.065511785
-0.07316298 0.061250813 0.009411993 0.14753701 0.047619496 -0.033562217 0.06610472 0.0060472437
-0.0033506262 0.06508526 0.22557534 -0.06982701 0.085717954 -0.04857482 -0.1079872 -0.038008444
-0.018829135 0.08367267 -0.11486307 0.1356501 0.0033035188 0.05662145 -0.0693188 0.007859541
-0.09648263 -0.09001632 -0.06427096 0.18947874 -0.10159664 0.06880843 0.044293296 0.020260286
0.045656 0.13188946 0.076125175 0.12967537 0.029529696 -0.040679984 -0.054514665 -0.034859557
-0.026015216 -0.08631775 0.11953545 0.013293952 -0.063976265 -0.11989559 0.016093208 0.1814075
-0.16822855 0.19149429 0.08750538 -0.040713456 0.07988264 0.027155528 -0.0143961385 -0.0377067
-0.05290427 -0.04637699 0.043508403 -0.035489626 -0.02404405 0.026148686 0.1148537 0.018862449
-0.1260922 0.19284782 0.095638774 -0.016335983 -0.026020657 0.010969045 -0.017416025 -0.09880267
0.16007824 0.06432562 0.07638177 0.10698936 -0.055899445 0.0041267322 -0.04193052 -0.10449016
-0.16584271 0.0029125994 0.07015833 -0.05025041 0.034013003 0.17633307 -0.084989585 0.12518002
0.0019041962 -0.19038911 0.0853189 -0.010138134 0.06684816 -0.1288899 -0.20463543 -0.040910166
0.005515634 0.00014878527 -0.10307805 0.027604355 -0.019747464 -0.07849466 0.05065942 -0.09497108
0.12786798 0.001671378 -0.049240027 0.15199402 0.019079728 0.06458195 -0.009682474 -0.0029111397
0.094552375 -0.0349368 -0.0312389 -0.09912081 0.02469612 -0.061635267 -0.0375864 0.07694321
-0.04543376 -0.054607812 -0.043809876 0.060474996 -0.07020127 0.032048658 0.015904216 0.03377378
-0.12013159 0.004386838 -0.037939474 0.004946876 -0.04293269 -0.048278756 -0.08742656 0.03537384
0.01767135 -0.004868377 -0.061645806 0.07687068 0.068016686 -0.18877898 0.050121337 0.028675333
0.19637407 -0.035917234 0.0149582075 -0.031227406 0.027233815 0.013730951 -0.0013728184 0.010995342
-0.06931402 -0.053370338 0.019375417 0.03906867 -0.059397984 0.015296427 0.06694963 0.05692416
-0.046165965 0.0028044512 0.069780864 -0.010848521 -0.049376678 0.021583175 -0.04959897 -0.036613964
-0.031202 0.15671648 0.009446586 -0.067746356 0.14109543 0.11684889 0.04643924 -0.09361478
0.095395125 0.13100204 -0.064371854 -0.020362746 7.18464e-05 -0.10071651 -0.18662685 0.12842253
-0.002387552 0.044206932 0.12713031 -0.06599612 0.063968845 0.19952635 0.117305435 0.012614476
-0.16799669 -0.047770534 -0.022494854 -0.029719518 -0.008420338 -0.039596852 0.04464065 -0.024519784
-0.03360827 0.092454545 -0.062383067 -0.15021022 0.11737282 -0.1083045 -0.06239731 -0.1175965
-0.003964567 0.036484133 -0.07064161 0.009177055 0.058105767 0.06441771 0.02524119 -0.10030368
-0.001975968 -0.10667242 -0.07558588 -0.062280156 -0.065530755 0.08655741 -0.051147174 -0.13721746
-0.1111553 -0.010393686 -0.097577 -0.0024774943 -0.072399445 0.12978692 0.18472195 -0.06382541
-0.17307557 -4.462587e-05 -0.020548966 0.0692963 -0.052703384 -0.13472615 -0.04711121 -0.08278823

network_body._body_endoder.seq_layers.2.bias f4 [128]
00000000: 0000 0000 0000 0000 0000 0000 0000 0000
00000010: 0000 0000 0000 0000 0000 0000 0000 0000
00000020: 0000 0000 0000 0000 0000 0000 0000 0000
00000030: 0000 0000 0000 0000 0000 0000 0000 0000
00000040: 0000 0000 0000 0000 0000 0000 0000 0000
00000050: 0000 0000 0000 0000 0000 0000 0000 0000
00000060: 0000 0000 0000 0000 0000 0000 0000 0000
00000070: 0000 0000 0000 0000 0000 0000 0000 0000
00000080: 0000 0000 0000 0000 0000 0000 0000 0000
00000090: 0000 0000 0000 0000 0000 0000 0000 0000
000000a0: 0000 0000 0000 0000 0000 0000 0000 0000
000000b0: 0000 0000 0000 0000 0000 0000 0000 0000
000000c0: 0000 0000 0000 0000 0000 0000 0000 0000
000000d0: 0000 0000 0000 0000 0000 0000 0000 0000
000000e0: 0000 0000 0000 0000 0000 0000 0000 0000
000000f0: 0000 0000 0000 0000 0000 0000 0000 0000
00000100: 0000 0000 0000 0000 0000 0000 0000 0000
00000110: 0000 0000 0000 0000 0000 0000 0000 0000
00000120: 0000 0000 0000 0000 0000 0000 0000 0000
00000130: 0000 0000 0000 0000 0000 0000 0000 0000
00000140: 0000 0000 0000 0000 0000 0000 0000 0000
00000150: 0000 0000 0000 0000 0000 0000 0000 0000
00000160: 0000 0000 0000 0000 0000 0000 0000 0000
00000170: 0000 0000 0000 0000 0000 0000 0000 0000
00000180: 0000 0000 0000 0000 0000 0000 0000 0000
00000190: 0000 0000 0000 0000 0000 0000 0000 0000
000001a0: 0000 0000 0000 0000 0000 0000 0000 0000
000001b0: 0000 0000 0000 0000 0000 0000 0000 0000
000001c0: 0000 0000 0000 0000 0000 0000 0000 0000
000001d0: 0000 0000 0000 0000 0000 0000 0000 0000
000001e0: 0000 0000 0000 0000 0000 0000 0000 0000
000001f0: 0000 0000 0000 0000 0000 0000 0000 0000
0.0 0.0 0.0 0.0 0.0 0.0 0.0 0.0
0.0 0.0 0.0 0.0 0.0 0.0 0.0 0.0
0.0 0.0 0.0 0.0 0.0 0.0 0.0 0.0
0.0 0.0 0.0 0.0 0.0 0.0 0.0 0.0
0.0 0.0 0.0 0.0 0.0 0.0 0.0 0.0
0.0 0.0 0.0 0.0 0.0 0.0 0.0 0.0
0.0 0.0 0.0 0.0 0.0 0.0 0.0 0.0
0.0 0.0 0.0 0.0 0.0 0.0 0.0 0.0
0.0 0.0 0.0 0.0 0.0 0.0 0.0 0.0
0.0 0.0 0.0 0.0 0.0 0.0 0.0 0.0
0.0 0.0 0.0 0.0 0.0 0.0 0.0 0.0
0.0 0.0 0.0 0.0 0.0 0.0 0.0 0.0
0.0 0.0 0.0 0.0 0.0 0.0 0.0 0.0
0.0 0.0 0.0 0.0 0.0 0.0 0.0 0.0
0.0 0.0 0.0 0.0 0.0 0.0 0.0 0.0
0.0 0.0 0.0 0.0 0.0 0.0 0.0 0.0

value_heads.value_heads.extrinsic.weight f4 [1, 128]
00000000: 90c5 263e 2284 2cbe 2675 27be 20c6 b43b
00000010: 6009 d73c b68c 94bd a006 22be a8c8 363e
00000020: b6ad 143e 2007 bebd cc9c 86bd 4ccb 9a3d
00000030: e449 103e 30a5 d83c 5012 053e 8218 4ebe
00000040: 3f60 31be 6a11 08be 00bf fe3d 867f 123e
00000050: d00e 09be a206 aabd 6cc9 9f3d 8012 873d
00000060: 44c3 62bd 5269 2a3e 80e2 a5bc 5398 28be
00000070: 8ca9 acbd 7eac 283e 208f f53c 0832 983c
00000080: 4601 c1bd 6846 ae3c fc82 fe3d 87e7 bbbd
00000090: d8ba f53d 38f9 b1bd bac8 90bd 404a e1bc
000000a0: 449f 9a3d 123a 5a3e 6394 3fbe 2767 0dbe
000000b0: fa25 28be 68e0 3e3e 246f 3e3e da8d 4ebe
000000c0: 2c8b 293e 39f2 bfbd e862 eabc 7c74 9c3d
000000d0: 6ace 19be 9275 09be 5a97 4f3e cdea c3bd
000000e0: 2065 babc bcf3 7dbd e081 4e3c 601c 1f3e
000000f0: 3083 113e 34dd e93d 1610 dcbd ecd2 003e
00000100: ee33 8bbd 58a5 4a3e 6985 26be 297a 45be
00000110: b0cf 7d3d 0a20 4c3e d43d f83d e034 f1bd
00000120: 5185 4dbe f4d3 073e 3f8b 4dbe 5c73 3e3e
00000130: 14d7 da3d 90e1 19be 2cad 493e 9ee3 98bd
00000140: 20e3 393d c033 cc3d 6c6e 953d 0a97 98bd
00000150: c54a f3bd 28b0 4a3e 1cac c03d f000 3e3e
00000160: 9a36 b8bd aae7 003e 6e42 273e 283f aa3c
00000170: 902d f5bc 50d5 063e 2c3c 16be 943e d13d
00000180: 26c2 293e 9405 03be 982a bb3d 036e 32be
00000190: c03f 293b 2431 963d 88d7 5e3d 8007 12bd
000001a0: 84a1 09be 0e66 3bbe 5ecd 19be b0aa de3d
000001b0: fca1 4e3e 8037 c9bb 8a91 363e c0c6 e8bd
000001c0: 38a3 2e3e e8d7 4a3e fc09 2c3e 6850 bfbc
000001d0: 28c2 1d3e 7cfb 19bd d44a 4b3e 604d d43d
000001e0: e67f 11be 4887 10bd 9666 20be 4ffc b9bd
000001f0: 6845 373d f4cc 8b3d e847 8ebc 30e3 573c
0.16286302 -0.1684728 -0.16353282 0.0055167824 0.026249588 -0.07253401 -0.1582284 0.17849982
0.1451939 -0.09278703 -0.065728754 0.07558307 0.14090687 0.026445955 0.12995267 -0.20126536
-0.17321871 -0.13287893 0.12438774 0.14306459 -0.13384557 -0.08302046 0.0780209 0.065953255
-0.055362 0.16641739 -0.020249605 -0.16464357 -0.08430776 0.1647205 0.029975474 0.018578544
-0.09424071 0.021273807 0.12427327 -0.0917502 0.11998528 -0.08690113 -0.070695356 -0.027501225
0.07549909 0.21311215 -0.18708949 -0.13808881 -0.16420737 0.18640292 0.18597084 -0.201713
0.16556996 -0.09372372 -0.028611615 0.07639405 -0.15020147 -0.13423756 0.2027258 -0.09566269
-0.022753298 -0.06200002 0.012604207 0.15538168 0.142102 0.11419144 -0.10745256 0.1258046
-0.06797014 0.19789636 -0.1626183 -0.19284882 0.061965644 0.19934097 0.12121168 -0.11777663
-0.20070387 0.13264447 -0.2007265 0.18598694 0.10685554 -0.15027452 0.19694966 -0.074652895
0.04538262 0.09970808 0.07296452 -0.074506834 -0.118794955 0.19793761 0.09407827 0.18555045
-0.089947894 0.12588373 0.16333935 0.020782068 -0.029928952 0.1316731 -0.14671391 0.10217014
0.16577968 -0.12795097 0.091389835 -0.17424779 0.0025825351 0.073335916 0.054404765 -0.035651684
-0.1344052 -0.1830065 -0.15019748 0.108724 0.2017898 -0.0061406493 0.17828956 -0.113660336
0.1705445 0.19808924 0.16800684 -0.02335377 0.15406096 -0.03759335 0.19852763 0.103663206
-0.14208946 -0.035285264 -0.15664133 -0.09081327 0.044743925 0.06826201 -0.017368272 0.013176724
