results/AgentTarget_Simple_01/AgentTarget/AgentTarget-499990.onnx (onnx, 71949 bytes, 7 tensors)

action_model._continuous_distribution.log_sigma f4 [1, 2]
0	0xbcad91d4	-0.0211877
1	0xbcea8b32	-0.028630827

action_model._continuous_distribution.mu.bias f4 [2]
0	0xbb77fde0	-0.003784053
1	0x3b970e91	0.0046098907

action_model._continuous_distribution.mu.weight f4 [2, 128]
0	0xbcdd74df	-0.027033268
1	0xbd076ee6	-0.033064745
2	0xbc5a207f	-0.013313412
3	0xbcdcdb9e	-0.02696019
4	0x3a146ac9	0.0005661664
5	0x3cbb89fa	0.02289294
6	0xbc5e5b0a	-0.01357151
7	0x3bd52c04	0.006505491
8	0xbbc757f4	-0.006083483
9	0x3c9f7438	0.019464597
10	0xbc60bc3a	-0.013716752
11	0x3cd69fc1	0.026199223
12	0x3cca1c11	0.024671586
13	0xbca4a25c	-0.02009695
14	0xbbc7e6bf	-0.006100505
15	0xbbf9c041	-0.0076217954
16	0x3cd3698c	0.025807165
17	0xbd8ed938	-0.06975025
18	0xbd27cdc4	-0.040967718
19	0xbc8c5d93	-0.017134463
20	0x3cd9e78e	0.026599672
21	0xbc0d06dd	-0.008607593
22	0x3d271315	0.040789682
23	0x3be24b29	0.0069059324
24	0x3d0a2728	0.03372875
25	0xbd37f72d	-0.04491346
26	0xbc0263ab	-0.007958333
27	0x3d185dbb	0.037198763
28	0x3cb5a333	0.022172546
29	0x3b86036f	0.004089765
30	0x3c9764ba	0.018480647
31	0x3cd07efa	0.025451172
32	0x3ce0cd59	0.027441667
33	0xbd53059a	-0.051519014
34	0x3cd6dee5	0.026229331
35	0x3d2fc312	0.042910643
36	0xbc59045d	-0.013245669
37	0xbcb99dbe	-0.022658225
38	0x3c8ab5b2	0.016932342
39	0xbd1a4f90	-0.037673533
40	0x3c5a47b6	0.013322761
41	0x3c7d5438	0.015461974
42	0x3b9c41b4	0.0047685746
43	0xbcb6c8a3	-0.022312468
44	0xbd2d9122	-0.042374738
45	0x3cbabf25	0.022796223
46	0xbd010c94	-0.031506136
47	0xbce6da7a	-0.02818035
48	0x3c80e4cf	0.015734104
49	0x3c26e4af	0.010186358
50	0xbcd99889	-0.026561992
51	0x3d241c0e	0.040065818
52	0xbccb3002	-0.024803165
53	0x3bcde12b	0.0062829456
54	0x3c36eeb7	0.0111653125
55	0x3d33ef7f	0.043929573
56	0x3d17a43c	0.03702186
57	0x3cd9269c	0.026507668
58	0x3c9db296	0.019250195
59	0x3a053708	0.00050817477
60	0x3cd10ddc	0.025519304
61	0x3d6ef3e2	0.058338054
62	0x3c8ae764	0.016956039
63	0x3ca76a00	0.020436287
64	0x3d6d94c8	0.058003217
65	0xbc82f956	-0.015988033
66	0xbc54d7b9	-0.012990885
67	0xbc0876fa	-0.0083291475
68	0x3d6272d0	0.055285275
69	0x3c8c0250	0.017090946
70	0x3c3c02ce	0.011475278
71	0xbc9bcaaf	-0.019017546
72	0xbd345d9d	-0.04403459
73	0x3cbf3f14	0.023345508
74	0x3c814d79	0.015784012
75	0xbc0d3ada	-0.008619988
76	0xbd268391	-0.040652815
77	0x3c253e7e	0.0100857
78	0xbca52592	-0.020159516
79	0xbc4accdf	-0.012377947
80	0x3c4a62b0	0.0123526305
81	0xbd1dfd90	-0.038571894
82	0x3bb35e5f	0.0054738964
83	0x3a7d38a0	0.0009659622
84	0xbd0c1941	-0.03420377
85	0xbd19739b	-0.037463766
86	0x3d177355	0.036975224
87	0xbd570258	-0.05249247
88	0x3c39e7da	0.011346782
89	0xbc8b56db	-0.01700919
90	0x3d1465b6	0.03622981
91	0xbcbf7b70	-0.02337429
92	0xbd2cb257	-0.042162266
93	0xbd4aa940	-0.049477816
94	0xbcb4d9f7	-0.02207659
95	0x3ca2259c	0.019793324
96	0xbcc05c29	-0.023481445
97	0xbc4a42fc	-0.012345072
98	0xbca4f3fb	-0.02013587
99	0x3c97306f	0.018455712
100	0xbd115867	-0.035484698
101	0x3c3f4db8	0.011676244
102	0x3bdb4f36	0.0066927923
103	0xbcc4eff1	-0.024040194
104	0x3ca03b17	0.019559426
105	0x3ca8fd32	0.020628545
106	0xbccb5f9d	-0.024825865
107	0x3c0587b4	0.00815003
108	0x3c0ecb10	0.008715406
109	0xbcd771e6	-0.026299428
110	0xbd332675	-0.043737847
111	0xbba16d2d	-0.004926345
112	0x3c8a57f2	0.016887639
113	0xbc0d9549	-0.008641549
114	0xbd0e375e	-0.03472077
115	0xbc1fef46	-0.009761637
116	0xbd52f080	-0.05149889
117	0x3cf199c5	0.029492268
118	0xbca5bf81	-0.020232918
119	0xbcff0f43	-0.031135207
120	0x3c8b2e2a	0.016989786
121	0xb901a666	-0.00012364387
122	0x3ba8f6c9	0.005156372
123	0xbced5fc1	-0.028976323
124	0xbc76aee7	-0.015056348
125	0xbce01867	-0.027355386
126	0x3c4d7c58	0.012541853
127	0xbd5de9c0	-0.054178
128	0xbbf370ea	-0.007429232
129	0x3c69098b	0.014223467
130	0xbb916024	-0.0044365097
131	0x3c80a089	0.01570155
132	0xbb3712c0	-0.002793476
133	0x3cc7243b	0.024309268
134	0xbc538552	-0.012910204
135	0xbccdb308	-0.025109783
136	0x3d1ab49a	0.03776989
137	0xbc9f777a	-0.01946615
138	0xbc2e5a1e	-0.010641603
139	0xbcbc249c	-0.022966675
140	0x3a9a24e2	0.001176026
141	0x3d1facde	0.03898322
142	0xbcb48f91	-0.022041114
143	0x3cfa87e0	0.030582368
144	0x3cdab185	0.026695976
145	0x3cd6e2b9	0.026231157
146	0xbc810d0d	-0.015753293
147	0x3ce49bc1	0.0279063
148	0x3d042f4e	0.032271676
149	0xbc4c3690	-0.012464181
150	0xbcdfb31c	-0.027307086
151	0xbd897013	-0.067108296
152	0xbd42af80	-0.04753065
153	0xbcb7d1e8	-0.022438958
154	0xbd143ad8	-0.03618893
155	0xbca53d3e	-0.020170804
156	0x3c8f6953	0.017506277
157	0xbc23e5cd	-0.010003519
158	0x3d19c931	0.037545387
159	0xbcc356cd	-0.0238451
160	0xbcb77563	-0.022394842
161	0xbcac691a	-0.02104621
162	0xbc8e8e33	-0.01740179
163	0x3d476c03	0.048686992
164	0xbc383359	-0.011242711
165	0xbcb5f483	-0.022211319
166	0xbd70c086	-0.058777355
167	0x3ca6c8f1	0.020359488
168	0x39c96f29	0.00038420528
169	0x3b1750e4	0.0023088986
170	0xbca2817a	-0.01983713
171	0xbc4dd1aa	-0.012562195
172	0xbc1e1814	-0.009649295
173	0x3ca732b5	0.020409921
174	0x3d6a469f	0.057196256
175	0xba9f5b3f	-0.0012157931
176	0x3c308cc3	0.010775748
177	0x3d27de20	0.04098332
178	0x3c5f48c4	0.0136281885
179	0xbc90619e	-0.017624673
180	0xbc524b8f	-0.012835397
181	0xbc9c543d	-0.019083137
182	0xbcd56d11	-0.026052983
183	0xbcae1feb	-0.021255454
184	0xbc43440d	-0.01191808
185	0x3ca0e948	0.019642487
186	0x3af92822	0.0019009153
187	0x3af1a9ba	0.0018437423
188	0x3d0345e3	0.03204907
189	0xbc188265	-0.009308432
190	0x3ca8dec0	0.020614028
191	0x3c612018	0.013740562
192	0x39ed4475	0.00045255167
193	0x3d30db37	0.04317781
194	0xbd24a88e	-0.04019981
195	0xbd37b267	-0.044847872
196	0x3ca4c66a	0.020114142
197	0xbb072fc0	-0.0020627826
198	0xbc809cc0	-0.015699744
199	0x3cb65b09	0.022260206
200	0xbc5d9108	-0.013523348
201	0xbcab473d	-0.020907992
202	0xbcb0f428	-0.021600798
203	0x3d79e274	0.06100698
204	0xbd1359bf	-0.03597426
205	0xbcb7bf85	-0.02243019
206	0xbd39b6af	-0.045340236
207	0x3d590fa6	0.05299344
208	0x3c52bb4c	0.012862038
209	0xbc39fdf7	-0.011352054
210	0xbd156267	-0.036470797
211	0xbcb15059	-0.021644758
212	0xbc3c7b60	-0.011504024
213	0x3d5b74e9	0.05357829
214	0x3b334d15	0.0027359177
215	0x3c9d97bb	0.01923739
216	0xbce1e903	-0.027576929
217	0x3c53747d	0.012906191
218	0xbd238c9b	-0.039929014
219	0x3d29f2e9	0.041491423
220	0xbbf87239	-0.007581976
221	0x3d1809ab	0.037118595
222	0xbcd94cf7	-0.026525958
223	0xbcfc7d92	-0.030821595
224	0xbd028ce4	-0.031872645
225	0x3be1b0cf	0.0068875323
226	0x3bd447a7	0.006478268
227	0x3cf8e8fc	0.030384533
228	0xbcc2ee90	-0.023795396
229	0xbd4cc8eb	-0.049996298
230	0x3d16ff97	0.036864843
231	0x3c0517df	0.008123367
232	0xbc4535f5	-0.01203679
233	0x3d081ba1	0.033229474
234	0xbcd13394	-0.02553729
235	0xbd2813d2	-0.041034527
236	0xbc8f479e	-0.017490204
237	0x3b8e542c	0.00434353
238	0xbc898bf8	-0.016790375
239	0x3d6ac665	0.05731811
240	0x3d339c25	0.043850083
241	0x3d100fe4	0.035171404
242	0xbca19006	-0.019721996
243	0xbd4e2314	-0.05032642
244	0xbc9847e1	-0.018588962
245	0xba02a69b	-0.00049839326
246	0xbb4a27fa	-0.0030846582
247	0x3cf06bf0	0.029348344
248	0x3c4e7964	0.012602184
249	0xbd5e746b	-0.054310244
250	0xbc9b3f51	-0.01895109
251	0x3caae6be	0.02086198
252	0x3d7becd9	0.061505172
253	0x3c1ab6ff	0.009443044
254	0xbd18d85b	-0.037315708
255	0x3cad44e9	0.021151023

network_body._body_endoder.seq_layers.0.bias f4 [128]
0	0xbbfc64a8	-0.007702429
1	0x3c113dd7	0.008864841
2	0x3c1513b7	0.009098939
3	0xba526068	-0.000802523
4	0x3c68e430	0.01421456
5	0xbcbe704e	-0.02324691
6	0x3c8a355d	0.016871149
7	0x3b8a90f7	0.004228707
8	0x3cbcbd2e	0.023039427
9	0x3c5ce59a	0.013482476
10	0x3c5f673c	0.013635453
11	0x3c2052f2	0.009785401
12	0x3bebc212	0.007194766
13	0x3cd89b0d	0.026441121
14	0x3cd18f47	0.025581015
15	0x3be473f4	0.0069718305
16	0xbc20efc0	-0.009822786
17	0x3c0ada45	0.008474891
18	0x3cac0745	0.02099956
19	0xbb4d8154	-0.0031357603
20	0x3b8f01bf	0.004364222
21	0x3c9230b4	0.01784549
22	0xbc8a4d32	-0.016882513
23	0x3c80e358	0.015733406
24	0xbb9b4550	-0.0047384873
25	0xbad19d05	-0.001599223
26	0xbc07c6a6	-0.008287108
27	0x3cd45a97	0.025922103
28	0x3cbfd93f	0.02341902
29	0xbc8cc9aa	-0.017186005
30	0xbc953e4b	-0.01821818
31	0x3c1993c3	0.009373608
32	0x3c9278d3	0.01787988
33	0x3ca0f0d8	0.019646093
34	0x3bd4ab02	0.0064901123
35	0x3ca412eb	0.020028552
36	0x3d0407e2	0.03223408
37	0xbb8a63c0	-0.004223317
38	0x3be3d0dc	0.006952388
39	0xbc1195c5	-0.0088858055
40	0x3c9366a6	0.017993283
41	0x3bcf0917	0.0063182223
42	0x3b1acbd7	0.0023620033
43	0x3b3249f9	0.0027204736
44	0x3bbd6c0c	0.0057807025
45	0x3b930d1b	0.0044876463
46	0xbc3c10a0	-0.011478573
47	0x3a037d95	0.00050159666
48	0xbb2f10cd	-0.0026712895
49	0xb99450dc	-0.00028289005
50	0x3c7e9f13	0.015540856
51	0x3c87803e	0.016540643
52	0xbc1bf436	-0.009518674
53	0x3c563353	0.01307376
54	0xbb4112bd	-0.0029460632
55	0xbbde6a95	-0.006787608
56	0xbbe20534	-0.006897593
57	0xbbc54e3c	-0.006021289
58	0xba997221	-0.0011706987
59	0x3bffb70f	0.0078038047
60	0x3c3921ba	0.011299545
61	0xbc3e8217	-0.0116276955
62	0x3c4e7a2d	0.012602371
63	0xbb0e18c1	-0.0021682235
64	0x3c509c9f	0.012732654
65	0xbc47af32	-0.012187766
66	0x3b2ff9fa	0.0026851879
67	0x3c056396	0.008141419
68	0x3c4b8aca	0.012423227
69	0xbb26ff50	-0.0025481768
70	0xba890f28	-0.0010456787
71	0x3c6e6c59	0.014552199
72	0x3ca0fd22	0.019651953
73	0x3cbf3586	0.023340952
74	0xb9175fb8	-0.0001443614
75	0x3c8eed9a	0.017447282
76	0x3c89b095	0.016807834
77	0x3c8abcc4	0.016935714
78	0x3cb7ce21	0.022437157
79	0x3c63c8ee	0.013902886
80	0x3c9229a6	0.017842125
81	0xbc29e68c	-0.010369908
82	0x3c1da28e	0.009621276
83	0x3c59a4d8	0.013283931
84	0x3c1a2261	0.009407611
85	0x3c0fc8fa	0.008775944
86	0x3ab72d05	0.0013975209
87	0xbca2c989	-0.01987149
88	0x3c83ee56	0.016104858
89	0x3c50f7a6	0.0127543565
90	0xbc344158	-0.011001907
91	0x3c8b3334	0.016992189
92	0xbbedec33	-0.007260823
93	0x3bee1586	0.0072657494
94	0x3c063561	0.008191437
95	0x3c352ee4	0.011058543
96	0x3cab4562	0.020907108
97	0xbb42d11e	-0.0029726694
98	0x3c382ce4	0.0112411715
99	0xbb2018c0	-0.0024428815
100	0x3b7b638c	0.0038358895
101	0x3bd8e03e	0.0066185286
102	0x3c3b48ec	0.01143096
103	0x3c102bd1	0.008799509
104	0x3cd4e957	0.025990171
105	0x3b5c30fa	0.0033598528
106	0x3c032cb4	0.0080062635
107	0x3c8fef34	0.017570116
108	0x3b5ff2df	0.0034171862
109	0xbc4baa3b	-0.012430723
110	0x3c3e3019	0.011608147
111	0xbb690e9b	-0.0035561684
112	0x3ca86ac0	0.020558715
113	0xbc416878	-0.011804692
114	0x3c46d308	0.012135275
115	0x3b953a10	0.0045540407
116	0x3ccb5a7d	0.024823422
117	0x3c6c916d	0.014438969
118	0x3ca41b62	0.020032588
119	0x3aa6d40d	0.0012727991
120	0x3c172e4e	0.0092273485
121	0x3c6a542d	0.014302296
122	0x3c09ae27	0.008403338
123	0x3ca09255	0.019601027
124	0x3d2135b8	0.03935787
125	0x3abf2607	0.0014583477
126	0x3c34480e	0.011003507
127	0x3c95c3e7	0.01828189

network_body._body_endoder.seq_layers.0.weight f4 [128, 5]
0	0x3eb9c7cc	0.36285245
1	0xbe33865d	-0.17531724
2	0x3e6c32ce	0.23066255
3	0xbce28c27	-0.02765472
4	0x3e8954d1	0.26822522
5	0x3e2eb87a	0.1706256
6	0x3daa9196	0.083285496
7	0xbe85892b	-0.26081213
8	0xbf09443e	-0.53619754
9	0x3d7cce94	0.061720446
10	0x3e9e47ec	0.30914247
11	0xbeb3da18	-0.3512733
12	0xbec3ec7b	-0.38266358
13	0x3ec694e7	0.38785478
14	0xbf0c1305	-0.5471652
15	0x3ec9ca0d	0.39411965
16	0xbf3e31b0	-0.7429457
17	0x3e9833e4	0.2972709
18	0x3e09ec9e	0.13469169
19	0x3f577095	0.8415616
20	0x3edba04d	0.42895737
21	0x3ed15f7d	0.40893164
22	0xbe73f33e	-0.23823258
23	0x3d670e6a	0.05641023
24	0xbed02d1a	-0.4065941
25	0xbed87d62	-0.4228316
26	0xbcf569ab	-0.029957613
27	0x3e609455	0.21931584
28	0xbf1e5576	-0.61849153
29	0xbf5fe86e	-0.87464035
30	0xbf13b4f8	-0.5769801
31	0x3f2fc434	0.6865876
32	0xbe9535d3	-0.29142627
33	0x3e207b53	0.15672044
34	0xbeff8f47	-0.49914
35	0x3e6daa60	0.23209524
36	0x3e42df22	0.19030431
37	0x3ed5217f	0.41627118
38	0x3f71a356	0.94389856
39	0x3e372316	0.17884478
40	0xbe914793	-0.2837492
41	0x3e948edd	0.29015246
42	0xbe48d646	-0.19612989
43	0xbd7911ad	-0.060807873
44	0xbe888b02	-0.26668555
45	0x3eaa5512	0.33268028
46	0x3f1ef6bf	0.62095255
47	0xbf0f910b	-0.56080693
48	0x3f9d8f1a	1.2309296
49	0xbf55dfcb	-0.83544606
50	0x3ef0a8a9	0.47003677
51	0xbe5c0385	-0.21485718
52	0xbf4a329c	-0.78983474
53	0x3ee7424a	0.45167762
54	0xbd21c206	-0.039491676
55	0x3e56511a	0.20929375
56	0xbf560eeb	-0.83616513
57	0xbee22457	-0.4416835
58	0x3e39525d	0.18097825
59	0xbeafe7b6	-0.3435647
60	0xbf2e009e	-0.6796969
61	0x3f48acda	0.7838875
62	0xbf087b7f	-0.5331344
63	0x3e8cddc5	0.27512947
64	0x3d42b00d	0.047531176
65	0xbf41601e	-0.7553729
66	0xbecc50b3	-0.3990532
67	0x3f3fc793	0.749139
68	0x3d9efec0	0.077634335
69	0xbec04cf1	-0.37558702
70	0xbe21117b	-0.15729325
71	0xbe31ae3a	-0.17351618
72	0xbec3a332	-0.38210446
73	0xbbe3d606	-0.006953004
74	0x3e875560	0.26432323
75	0x3e413804	0.18869025
76	0x3ea53fd6	0.32275265
77	0xbe3f88f4	-0.18704587
78	0x3c832f51	0.016013773
79	0xbc9913ac	-0.018686138
80	0x3e1608fa	0.14651862
81	0xbe542fe8	-0.207214
82	0x3ec8ca84	0.39217007
83	0xbd9ac5d1	-0.07557262
84	0xbebe4d01	-0.37168124
85	0x3f48cc9f	0.78437227
86	0xbe557ee2	-0.20849183
87	0x3f7ee1ae	0.9956311
88	0xbf3879d3	-0.7206089
89	0x3db12b58	0.08650845
90	0xbf14226e	-0.57865036
91	0x3e875851	0.26434568
92	0x3eb7e8f7	0.35919926
93	0xbe741b40	-0.2383852
94	0xbf4fa031	-0.8110381
95	0xbf1bb224	-0.60818696
96	0x3e6baf48	0.23016083
97	0x3f496c5a	0.78680956
98	0x3e6f1a1e	0.23349807
99	0xbe5ee801	-0.2176819
100	0xbe32d52a	-0.17464128
101	0x3e9cc3da	0.30618173
102	0x3d19076b	0.03736059
103	0x3e0626e0	0.13100767
104	0xbe2265cb	-0.15859143
105	0xbdfd8428	-0.123787224
106	0x3daaefe6	0.08346538
107	0xbf35d25e	-0.7102412
108	0xbeeda4ea	-0.46414882
109	0x3eccf67c	0.40031803
110	0x3e9009cb	0.2813247
111	0xbeeac930	-0.4585662
112	0xbf21ee65	-0.63254386
113	0xbccca14b	-0.024979254
114	0x3b59c38a	0.0033228123
115	0xbcd4749f	-0.025934516
116	0x3f18e190	0.5971918
117	0xbf76e7ea	-0.9644762
118	0x3e3378ae	0.17526504
119	0xbe2cbeb5	-0.16869624
120	0x3efcaa53	0.49348697
121	0x3ea93ab1	0.3305259
122	0xbdedde06	-0.11614613
123	0xbe91797e	-0.28413004
124	0xbf18e373	-0.5972206
125	0x3e834ff4	0.25646937
126	0x3e49e390	0.19715714
127	0x3ef48de0	0.47764492
128	0xbe17c78f	-0.1482222
129	0xbf1c6e5a	-0.61105883
130	0xbee5b022	-0.4486094
131	0xbe14af71	-0.1452005
132	0xbee28ef2	-0.44249684
133	0xbf379705	-0.7171481
134	0xbeed320c	-0.46327245
135	0xbeeab3c5	-0.45840278
136	0x3f8383e2	1.0274622
137	0xbea71df2	-0.32640034
138	0x3e9d0589	0.30668285
139	0x3d2c20a5	0.04202332
140	0xbe24a9f2	-0.16080454
141	0xbea1f2f4	-0.3163067
142	0x3f14b24a	0.5808455
143	0xbef14490	-0.47122622
144	0xbe448696	-0.19191965
145	0x3e1e0b04	0.1543389
146	0x3f268fd5	0.6506322
147	0x3edcf10f	0.43152663
148	0x3ee24e1c	0.44200218
149	0xbe34f2e0	-0.17670774
150	0xbe64af22	-0.22332433
151	0xbdaf60f7	-0.085634165
152	0xbe9efadb	-0.31050763
153	0x3f7442f3	0.95414656
154	0xbe966893	-0.2937666
155	0x3f17df90	0.59325504
156	0x3dda9e36	0.106747076
157	0xbecf9a6f	-0.4054751
158	0xbf15c7e4	-0.58508134
159	0x3ee8bab3	0.4545494
160	0xbf8596d2	-1.0436652
161	0x3b1c2f02	0.002383173
162	0x3e6058a4	0.21908814
163	0xbe78fec6	-0.24315938
164	0xbeb0c428	-0.34524655
165	0x3f205399	0.6262756
166	0xbe1ef1d3	-0.15521936
167	0xbf2ac9de	-0.66714275
168	0x3e0acabf	0.13553904
169	0x3dc840b8	0.09777969
170	0x3e1659a8	0.14682639
171	0x3e98190d	0.29706612
172	0x3f7311e8	0.949492
173	0xbf4e7101	-0.8064118
174	0xbe850c6e	-0.25986046
175	0xbdb0a5e1	-0.08625389
176	0x3c838d69	0.01605864
177	0xbe1a7520	-0.15083742
178	0xbf0bec14	-0.546571
179	0x3e48dc73	0.19615345
180	0x3e87d1a5	0.26527134
181	0x3f6fa620	0.9361286
182	0x3f0487da	0.51769793
183	0x3d861021	0.06546045
184	0x3e901457	0.28140518
185	0x3e027a1d	0.12741895
186	0xbb680b76	-0.0035407222
187	0xbf83a2f0	-1.02841
188	0xbca82785	-0.020526657
189	0xbd3fc331	-0.04681701
190	0x3d519b8e	0.05117374
191	0xbf985100	-1.1899719
192	0x3f969445	1.1763998
193	0xbf270bbe	-0.6525229
194	0xbed3eb4b	-0.41390452
195	0x3ed0632f	0.4070067
196	0x3d1dc023	0.038513314
197	0x3ea238e9	0.31684044
198	0x3f3d1adb	0.73869103
199	0xbf727756	-0.9471334
200	0xbe4216fd	-0.18954082
201	0x3f750806	0.9571537
202	0xbede2a3b	-0.43391594
203	0xbf17efef	-0.59350485
204	0x3ea320df	0.31861016
205	0xbe5ff804	-0.21871954
206	0x3e2810a1	0.16412593
207	0xbf0f9c70	-0.5609808
208	0xbdc2a279	-0.095036454
209	0x3e10ffaf	0.14160036
210	0x3f40fcdf	0.7538585
211	0x3f983e07	1.1893929
212	0x3cf98cef	0.03046271
213	0xbf4ef4c0	-0.8084221
214	0x3edea4ab	0.43485007
215	0xbedbbadb	-0.42915997
216	0xbf40be84	-0.75290704
217	0x3d87dc66	0.066338345
218	0xbf59a351	-0.85014826
219	0xbdfe39cb	-0.12413367
220	0xbf18f697	-0.59751266
221	0x3be154d1	0.006876566
222	0x3ee024ca	0.43778068
223	0xbf190953	-0.5977985
224	0xbdc12c85	-0.094323196
225	0x3ecd8f14	0.40148222
226	0xbea3276c	-0.31866014
227	0x3ed2db37	0.41182873
228	0x3f01dcff	0.5072784
229	0x3eddf064	0.43347466
230	0x3ed27f4a	0.4111274
231	0xbbe8f489	-0.007109229
232	0xbd7efe8c	-0.062254474
233	0x3e457032	0.1928108
234	0xbd51fe56	-0.051267944
235	0xbf1e75f2	-0.6189872
236	0xbea8d19a	-0.32972413
237	0xbee49f80	-0.4465294
238	0x3ea80f59	0.3282421
239	0xbde5c573	-0.11219301
240	0x3f05a6be	0.52207553
241	0x3db3b7dc	0.08775303
242	0x3e5ba0a7	0.21448003
243	0xbf290df5	-0.6603692
244	0xbe8f427c	-0.2798041
245	0x3e5fafd8	0.21844423
246	0xbed6a62a	-0.41923648
247	0xbda5c870	-0.08094871
248	0x3e992087	0.2990763
249	0x3e132966	0.14371261
250	0xbd96c667	-0.07362061
251	0x3df674da	0.120340064
252	0x3f2ae11e	0.6674975
253	0x3f7cb9c3	0.9872095
254	0xbb36065b	-0.0027774784
255	0xbf778da8	-0.96700525

network_body._body_endoder.seq_layers.2.bias f4 [128]
0	0x3c85323e	0.016259309
1	0x3c1350ba	0.008991415
2	0xba2525dd	-0.00062998926
3	0x3b113948	0.0022159386
4	0xbbb9f21c	-0.0056746136
5	0x3acb8a45	0.0015528878
6	0x3ba64de8	0.005075205
7	0x3a471bf7	0.00075954146
8	0x3c023f56	0.007949671
9	0xbbacf1ce	-0.005277849
10	0xba93762f	-0.0011250431
11	0x3a0c2f66	0.0005347639
12	0x3adf283b	0.001702554
13	0x3c7dbe1d	0.015487221
14	0xbb11dfa2	-0.002225854
15	0x3c7c59c5	0.015402262
16	0x3c606763	0.013696524
17	0x3c825989	0.015911834
18	0x3cb6193b	0.022228828
19	0x3c5cf9f1	0.013487325
20	0x3c6ee31e	0.014580516
21	0xbbff1031	-0.0077839126
22	0x3981726d	0.0002469005
23	0x39cb6d19	0.0003880046
24	0x3bc23bee	0.0059275543
25	0x3c3d6772	0.011560308
26	0xb824ce77	-3.9292932e-05
27	0x3c17d144	0.009266201
28	0xbb1a3b63	-0.0023533932
29	0xbc0ab80e	-0.008466734
30	0x3c2b7745	0.010465448
31	0x3b5dd99d	0.0033851631
32	0x3ba09e6e	0.004901699
33	0x3c2a17e3	0.010381672
34	0x3b263c26	0.002536544
35	0x3c7ed9a1	0.015554816
36	0x3c4fcf51	0.012683705
37	0xbad2ce42	-0.0016083198
38	0x3b977f9b	0.004623366
39	0x3ca9b19e	0.020714577
40	0x3a8200e8	0.0009918483
41	0xbbfcf5db	-0.007719738
42	0xbc26d6ca	-0.010183046
43	0xbb4657ea	-0.0030264803
44	0x3a994d82	0.0011696073
45	0x3b84f54c	0.004057562
46	0x3cc36299	0.023850726
47	0x3cc92917	0.024555726
48	0x3bf16888	0.0073671974
49	0x3bab4f90	0.0052279904
50	0x3c6b9548	0.014378853
51	0x3c0094c7	0.007847971
52	0x3b7b98d9	0.0038390665
53	0xbb78e68c	-0.0037979214
54	0xbb1cb546	-0.0023911758
55	0x3c625f06	0.013816601
56	0x3af8ae24	0.0018972796
57	0x3ba51e1e	0.0050389906
58	0xb9e29098	-0.0004321381
59	0xbbd2a8ae	-0.0064287996
60	0xb904e2ff	-0.00012673064
61	0x3c3f8dd3	0.011691528
62	0x3c20b936	0.009809783
63	0xbae8a7dd	-0.0017750222
64	0x3b7203bf	0.0036928502
65	0x3c492ec4	0.012279216
66	0x3b7e4c1c	0.003880269
67	0x3b4e212f	0.0031452884
68	0x3c9d4048	0.01919569
69	0xbbaeb474	-0.0053315703
70	0xbb765f59	-0.0037593453
71	0x3c913cc5	0.017729172
72	0x3c600db1	0.013675139
73	0x3be8c26e	0.007103256
74	0xbb3bee41	-0.0028675946
75	0x3c869a99	0.01643114
76	0x3c4fdcbb	0.012686904
77	0xbb290b22	-0.002579399
78	0x3c2a946c	0.010411363
79	0x3cc82506	0.024431717
80	0x3ae60831	0.0017550049
81	0x3c7d466b	0.0154586835
82	0x3bb5ada9	0.0055443835
83	0x3ac39bf3	0.0014923796
84	0x3a3b42d7	0.0007143444
85	0x3c44653c	0.011987027
86	0x3b4366af	0.0029815843
87	0x3c41f2b7	0.011837653
88	0x3bbc35dc	0.005743725
89	0xb891af42	-6.946783e-05
90	0x3bdad0fb	0.0066777444
91	0x3c369530	0.0111439675
92	0x3c0916e9	0.008367279
93	0x3c30a7f6	0.0107822325
94	0x3bdf5b31	0.006816291
95	0x3c01c075	0.0079194205
96	0x39eda8f4	0.00045330042
97	0xba132db3	-0.00056144147
98	0x3c44cbc4	0.012011472
99	0x3c951cb8	0.01820217
100	0x3b55f249	0.0032645634
101	0x3aadb619	0.0013253122
102	0x3bdf48d3	0.0068141012
103	0x3b2ea137	0.0026646385
104	0x3b2efd7c	0.0026701381
105	0x3c5ca0b1	0.013466046
106	0x3c85550a	0.016275901
107	0x3ab12869	0.0013516071
108	0xbc015f5e	-0.007896272
109	0x3c0e6080	0.00869
110	0x3c153e73	0.009109127
111	0x3c682b15	0.014170428
112	0x3c25049b	0.010071899
113	0x3c4e8241	0.012604297
114	0x3cb16f21	0.021659436
115	0x3c3a6022	0.011375459
116	0x3cce5594	0.025187291
117	0xbbe3a7dc	-0.0069475006
118	0x3ba68e26	0.0050828634
119	0x3cc9e61d	0.02464586
120	0x3ba19a2d	0.0049317093
121	0x3c3763f3	0.011193263
122	0x3a362b30	0.00069491845
123	0x3c93a8ea	0.01802488
124	0x3c6b5e41	0.014365734
125	0x3c226088	0.00991071
126	0x3bb25299	0.0054419753
127	0x3cc06c3e	0.023489114

network_body._body_endoder.seq_layers.2.weight f4 [128, 128]
0	0xbdd94e07	-0.10610586
1	0xbd87e591	-0.06635583
2	0x3cd5258b	0.026018878
3	0x3d980a95	0.07423893
4	0xbd8067f7	-0.0626983
5	0x3dbbbd80	0.09167004
6	0x3da88b91	0.08229745
7	0xbd79f5a7	-0.061025288
8	0x3da21d16	0.07915704
9	0xbd84541e	-0.064613566
10	0xbcad30ee	-0.021141496
11	0x3d94ce49	0.07265908
12	0x3e2d8f1f	0.16949128
13	0x3d45b59d	0.048268903
14	0x3da2122b	0.079136215
15	0xbdc49572	-0.09598817
16	0xbd253b69	-0.04033986
17	0xbdf29c00	-0.11846161
18	0x3e20f601	0.15718843
19	0x3e4f1fd3	0.20226984
20	0xbe07f245	-0.13276012
21	0x3d6a5828	0.05721298
22	0xbde073a3	-0.10959556
23	0x3ccaedef	0.024771659
24	0x3cc9e520	0.024645388
25	0x3dbe955c	0.09305832
26	0x3d545a94	0.051844195
27	0x3dc6e5b7	0.097117834
28	0x3d65be16	0.056089483
29	0xbbef6ab3	-0.0073064207
30	0xbdb9f218	-0.09079379
31	0xbd0c06c2	-0.034186132
32	0x3d7f365c	0.0623077
33	0x3e066e75	0.13128074
34	0xbda29981	-0.07939435
35	0xba9214a4	-0.0011145067
36	0xb9813c63	-0.0002464979
37	0xbe0a989c	-0.13534778
38	0xbc11e648	-0.008905001
39	0xbdd078b3	-0.101792715
40	0xbd575a30	-0.052576244
41	0x3c89bece	0.016814616
42	0xbd82067a	-0.063488916
43	0xbc8d533b	-0.017251601
44	0x3d591fc2	0.053008802
45	0x3bde9248	0.0067923404
46	0xbdc34497	-0.09534567
47	0xbdae9ac3	-0.08525612
48	0x3e02b673	0.12764911
49	0x3ce8e8d2	0.02843133
50	0xbc11b325	-0.008892809
51	0x3e34b6ce	0.1764786
52	0x3ded0b91	0.11574472
53	0xbdfae446	-0.12250571
54	0x3e011685	0.12606247
55	0x3cae9b67	0.021314336
56	0xbe2f92bb	-0.17145817
57	0xbdba28e3	-0.0908983
58	0xbd944744	-0.07240155
59	0x3dad4cbd	0.08461902
60	0x3e22dcd4	0.15904552
61	0xbd6a322d	-0.057176758
62	0x3bf510c4	0.0074788053
63	0xbd98360d	-0.07432184
64	0x3cc5ef3d	0.02416193
65	0xbd396e0a	-0.045270957
66	0xbdfabd50	-0.1224314
67	0x3d5a96d1	0.053366486
68	0x3df3199b	0.11870118
69	0x3e0fa032	0.14025953
70	0x3c0e25b3	0.00867598
71	0xbd0812bf	-0.033221003
72	0x3d0fe5c8	0.035131246
73	0xbc55f35a	-0.013058508
74	0x3e8e64f5	0.278114
75	0x3c892f26	0.016746115
76	0xbd0955ba	-0.03352902
77	0x3d137c72	0.036007352
78	0x3e43f3ce	0.19135973
79	0x3e0ccbe0	0.13749647
80	0x3c8adee3	0.016951984
81	0x3ca1974d	0.019725466
82	0xbd40b5bd	-0.04704832
83	0x3c6a7543	0.014310184
84	0xbd3c683e	-0.04599785
85	0x3c31cccd	0.010852051
86	0x3d2a82ad	0.04162853
87	0xbe057c3a	-0.1303567
88	0xbdb9b577	-0.09067815
89	0x3e27e6f0	0.1639669
90	0x3d44b872	0.048027463
91	0x3de3dde5	0.111263074
92	0x3e5af026	0.21380672
93	0xbd967d7e	-0.073481545
94	0xbb852b8f	-0.0040640305
95	0x3e296882	0.16543773
96	0xbca847b5	-0.020542005
97	0xbe55b583	-0.20870022
98	0xbc7f552e	-0.015584273
99	0x3d43147a	0.04762695
100	0x3d4501ad	0.0480973
101	0xbcc8fe97	-0.02453546
102	0x3df13ec7	0.11779552
103	0xbd246479	-0.04013488
104	0x3e0257f0	0.12728858
105	0x3da200a0	0.079102755
106	0xbd8322e8	-0.06403142
107	0x3c369490	0.0111438185
108	0x3c912b98	0.017720982
109	0xbe0c2162	-0.1368461
110	0xbd9ac817	-0.07557695
111	0x3d56ae62	0.0524124
112	0x3d9e1248	0.077183306
113	0x3b25a537	0.0025275478
114	0xbb8da096	-0.004322122
115	0xbd357f1f	-0.044310685
116	0xbd8c5f99	-0.06854171
117	0xbc7bad86	-0.015361195
118	0x3e223ec9	0.15844263
119	0xbd3ee1fd	-0.046602238
120	0xbcac15f9	-0.021006571
121	0xbda8a2ab	-0.082341515
122	0x3cd0703b	0.02544414
123	0x3e07c906	0.13260278
124	0x3d5fc076	0.054626904
125	0xbd9d4a32	-0.07680167
126	0xbb52d9f2	-0.0032173363
127	0x3e520d12	0.20512798
128	0xbd8435d3	-0.06455579
129	0xbc09b30d	-0.008404505
130	0xbdc6bf93	-0.09704509
131	0xbcca19db	-0.024670532
132	0xbe1d07ac	-0.15334958
133	0x3b56b625	0.0032762375
134	0xbd55ab5c	-0.052165374
135	0x3defa6b9	0.11701722
136	0xbcf885c2	-0.030337218
137	0x3ddecd5f	0.10879015
138	0xbd088740	-0.03333211
139	0xbd76139b	-0.06007729
140	0x3d886479	0.06659789
141	0xbcd27cda	-0.0256943
142	0x3de48f38	0.11160129
143	0x3d367d42	0.04455305
144	0xbe1b1579	-0.1514491
145	0x3e6ad328	0.22932112
146	0x3bf2a210	0.0074045733
147	0x3d65f34e	0.056140237
148	0x3d8d8ac5	0.06911234
149	0x3d96fa5d	0.07371972
150	0xbdb96dd2	-0.0905415
151	0x3cb7966e	0.022410598
152	0xbd5bfbf2	-0.05370707
153	0x3cb60f8a	0.022224206
154	0x3cd58d10	0.02606824
155	0x3de7900b	0.11306771
156	0xbda66ea1	-0.081265695
157	0xbb5351dd	-0.003224484
158	0xbe17658b	-0.1478483
159	0xbb0c6aef	-0.0021426042
160	0xbca2a3a9	-0.01985343
161	0x3da3a34a	0.07990129
162	0xbd8ae652	-0.06782211
163	0xbe2253fc	-0.1585235
164	0x3959c51a	0.00020768159
165	0xbe3c68b2	-0.18399313
166	0x3d630bb6	0.05543109
167	0x3d666d4d	0.05625658
168	0xbcff01dd	-0.031128818
169	0x3d54a63a	0.05191634
170	0x3d207fed	0.0391845
171	0x3d17b55e	0.0370382
172	0x3cc72d5f	0.024313627
173	0xbd16336b	-0.03667013
174	0xbba1e9f6	-0.0049412204
175	0xbd63ef8c	-0.05564837
176	0x3cc4d298	0.0240262
177	0xbd0c5c8e	-0.034267955
178	0xbda6d5e2	-0.08146264
179	0x3e3cdb2b	0.18442981
180	0xbdf2c0b6	-0.11853163
181	0xbd870306	-0.065923735
182	0x3d52af51	0.051436726
183	0x3d20afee	0.03923028
184	0x3c6f9c60	0.014624685
185	0x3df00cab	0.11721166
186	0x3d161732	0.036643215
187	0x3d5005e3	0.050786864
188	0x3b9e2bad	0.004826984
189	0xbe22413e	-0.158452
190	0x3b345860	0.0027518496
191	0x3d1e1675	0.038595635
192	0x3db37f81	0.08764554
193	0x3d095175	0.03352495
194	0x3e3dfe56	0.18554053
195	0x3e17a58b	0.14809243
196	0x3d39808e	0.045288615
197	0xbda20b8f	-0.07912361
198	0x3c01cdd4	0.007922608
199	0x3cba6479	0.022752987
200	0xbc18bd00	-0.009322405
201	0x3da211b0	0.0791353
202	0x3db23cf8	0.08703035
203	0x3e1b414d	0.15161629
204	0xbda9d603	-0.082927726
205	0xbe091da1	-0.13390209
206	0x3c301d1a	0.010749126
207	0x3ded148e	0.11576186
208	0xbde07822	-0.109604135
209	0x3e28eaec	0.16495866
210	0xbd9dbe69	-0.077023335
211	0xbd4b11db	-0.049577575
212	0xbab6992c	-0.0013931147
213	0xbde253a3	-0.11051109
214	0xbc8c30b8	-0.017113075
215	0x3e13460d	0.14382191
216	0xbbb418cb	-0.0054961196
217	0x3dab8a80	0.08376026
218	0x39ab6236	0.00032688834
219	0x3dcaf938	0.09910816
220	0xbd6d3351	-0.057910267
221	0xbccb3f98	-0.024810597
222	0x3d27fb09	0.04101089
223	0x3d646757	0.055762615
224	0x3db876a5	0.09007005
225	0xbdfe06b6	-0.12403624
226	0xbc380e86	-0.011233931
227	0x3d2a0f82	0.041518696
228	0x3b94a5d2	0.004536369
229	0x3d5b4c53	0.053539585
230	0xbd6cb1d3	-0.057786774
231	0xbd1dc739	-0.03852007
232	0x3e29398d	0.1652586
233	0x3de2252d	0.11042247
234	0xbdbd0540	-0.09229517
235	0xbdd94c95	-0.1061031
236	0xbcc5007e	-0.024048086
237	0xbdec4dbf	-0.115382664
238	0x3e271983	0.16318326
239	0x3d9c3e76	0.07629101
240	0x3dd42b86	0.10359864
241	0x3b31effe	0.0027151103
242	0x3df11185	0.1177092
243	0xbdd3299d	-0.103106715
244	0xbdbb3202	-0.091403976
245	0x39816ebf	0.0002468731
246	0xbd2dfd30	-0.042477787
247	0xbde4db5a	-0.111746505
248	0x3de5c7e8	0.1121977
249	0xbcf07016	-0.029350322
250	0xbd36650d	-0.044529963
251	0x3da97f7e	0.0827627
252	0x3ea167db	0.31524548
253	0xbd421800	-0.04738617
254	0xbd7ada57	-0.06124338
255	0x3d866690	0.06562531
