results/AgentTarget_Simple_03/AgentTarget/AgentTarget-133806.onnx (onnx, 71949 bytes, 7 tensors)

action_model._continuous_distribution.log_sigma f4 [1, 2]
00000000: b6c2 11bc 56dc 91bc
-0.00889652 -0.01780526

action_model._continuous_distribution.mu.bias f4 [2]
00000000: 7c88 263b a722 adbb
0.002541094 -0.005283672

action_model._continuous_distribution.mu.weight f4 [2, 128]
00000000: 5332 bdbc 69e0 493d c53e 9fbc 0c28 bf3a
00000010: 508e a0bc 7517 e8bc df1b 573d 2f3d 2e3c
00000020: b811 803c f135 98bd 0c32 e93c d18a 6ebb
00000030: 1542 8d3c 81ca 09bd fb20 30bd 01fa 0f3d
00000040: 60d0 bebc 3df5 b43c 159d 4ebc c706 8c3b
00000050: f243 a6bc e239 1f3d 98b1 e03b d32f 01ba
00000060: 226e 0f3c 37b1 04bd 3db0 383d e336 803c
00000070: 001f bbbb 6838 fcbc 1cd2 093c bda5 8c3c
00000080: 76d1 4dbb 21c2 983c 964c ddbc 0ffc 1cbd
00000090: e462 9b3c 3670 4abd 5697 c43c 61c6 aa3b
000000a0: 7975 0ebd ba85 24bd 5aa9 7dbc 4bcc 9abc
000000b0: 7675 963c 9534 67bc ea46 803c 12e1 fd3c
000000c0: 0fd5 eb3c de6e 583d 1436 18bd d3af 943c
000000d0: 7436 a0bb f646 55ba 8aa3 c33b 10fc 3f3c
000000e0: 49d9 62bc 413c 19bd a32a 05bd d531 453b
000000f0: dc7d 88ba f547 82bd 1529 013c c0bc 45bd
00000100: 3337 c639 5ec3 f13b 437a 433d 6277 61bc
00000110: 386c 693d 485c a43c 48c2 36bd f893 543c
00000120: 1d2c 463d 475d f7bb dc98 903c 67f1 adbc
00000130: d6fd d3bc b3af 743b bae0 f03b c0ad bdbc
00000140: 55c2 8f3c 3ca1 713c 0227 a9bb db76 a8bc
00000150: 6830 17bc bb4a 15bc ca4c 123d a84a 77bc
00000160: 75f4 143c da47 c8bc 443e bc3c b9e2 1ebd
00000170: 16fa 623c 859d 9ebb a640 fbbc 7a2b 00bc
00000180: 638e 9ebb 8c92 5c3c d9fd e3ba 47d1 453d
00000190: a2b3 b4bc 6c10 ac3c 4cdf 0fbd a169 f5bb
000001a0: e9e2 acbb e478 19bd dc07 093d 7019 7cbc
000001b0: 045f fc3b 65be edbc e92e bc3c acae 95bc
000001c0: ca71 703c 8327 94bb 81cc cbbc 3fcd e33b
000001d0: 513a 57bc 3976 d2bc 8228 3e3d 526f c8bc
000001e0: 0394 263d 0143 0abc 6162 aa3b 7aa5 a2bc
000001f0: c686 6abb 1d15 13bd 7b1c 323d da38 06bc
00000200: 7049 c3bb 847e 273d 0641 d93c 3fc6 e3bb
00000210: 1c2d f9bc e074 893b b52a abbc 4d9d 303d
00000220: 4640 b33c d9a0 1d3c 4ae3 aabc 28a0 dbbc
00000230: 1d2d 913c 3544 b4bc a4e7 9ebc d0c9 143b
00000240: ebde dbb9 f5c5 223d 0575 e7bc 8be8 13bc
00000250: a97e 0d3d 9f22 34bc c20d 3fbd 1d61 8c3d
00000260: 5895 393d 451f d7bc c704 f5b9 f73f cebb
00000270: ad89 01bd d81f 203b b970 11bd ce62 e23c
00000280: eaaf 853c 639c c939 8c77 b23c f53b 51bc
00000290: 5d46 913c e124 853c 2f8b 5dbb 3a81 5a3c
000002a0: dd74 633c e609 833c aad6 113c bdf2 e93c
000002b0: 913d c43c 5c9c 58bb 7385 49bc aab9 c63c
000002c0: 48fc aebc 4709 e5bc 6e0e 89bc 792c b2bc
000002d0: d170 11bd e5cd cabc c0b1 3e3d 3f86 a1bc
000002e0: 1701 40bd 7e3b 57bb 118b 133c c73f 493c
000002f0: f85a 9e3b 3e6c 7bbd 64aa 903c 3ab1 34bb
00000300: 2680 81bc f30b 89bc 06aa b2bb 82a6 abbc
00000310: a288 083d 1428 0cbc feb9 97bc d554 05bc
00000320: e754 37bc c1e1 033d b3d0 2a3d 085d 8ebc
00000330: 2222 57bc 04dc f23b 80f6 16bd 1266 333d
00000340: d73a 0dbd da0a 5b3c 5d84 323d e7de be3c
00000350: adb1 bd3c 4858 0f3b bf6d dcbb a99f 69bc
00000360: ee6f 1d3b 1016 c53c 433a 363c c492 d03c
00000370: 4e72 cc3c 3489 c3bc 1eb5 dabc 2aba 2cbc
00000380: 8d64 3ebd 756e 973c bbf4 e43c 9a66 1fbd
00000390: d9af 223c 3429 a63c 4706 22bd 5dfb 9abc
000003a0: f5b4 593c 9258 78bb 8747 953a e8bd b2bc
000003b0: 6acd 8bbd b590 2bbd c3b5 c03b 9db2 fe3c
000003c0: f77f 5cbd 2f7e f33c caf2 c6bc f03c 84bc
000003d0: 38af 183d b12f 593d 07f8 da39 f981 82bb
000003e0: 9781 1dbc 7d8d a63c 4917 643c 6e26 183c
000003f0: 083b 09bd eef8 e13c 7296 edbb a19e cb3c
-0.023095286 0.04928628 -0.01943911 0.0014584078 -0.01959911 -0.028331498 0.052516814 0.0106347045
0.015633449 -0.074321635 0.028466247 -0.003639866 0.017243424 -0.03364039 -0.043000203 0.03515053
-0.02329272 0.022089595 -0.012610693 0.004273269 -0.02029607 0.03887356 0.0068571083 -0.0004928086
0.008754285 -0.032395568 0.04508995 0.015651172 -0.0057104826 -0.030788615 0.00841191 0.017168874
-0.0031405366 0.018647255 -0.027014058 -0.03832632 0.018968053 -0.04942342 0.023997944 0.005211637
-0.03478 -0.040166594 -0.015482271 -0.018896243 0.018366557 -0.014111658 0.015658814 0.030991111
0.028788118 0.052840106 -0.037160948 0.018150246 -0.004889304 -0.0008135879 0.005970423 0.011717811
-0.01384575 -0.03741098 -0.032511365 0.0030089517 -0.0010413486 -0.06361381 0.00788333 -0.04827571
0.0003780663 0.007378026 0.04772402 -0.013761373 0.05698797 0.020063534 -0.044618875 0.012974732
0.048381913 -0.0075489613 0.017651014 -0.021233274 -0.025877874 0.003733617 0.0073510082 -0.02315414
0.01754872 0.014747914 -0.005162121 -0.020564487 -0.00922785 -0.009112055 0.035717763 -0.015093483
0.009091486 -0.024448324 0.02297891 -0.03879044 0.01385357 -0.004840555 -0.030670475 -0.007822866
-0.004838751 0.013462674 -0.0017394378 0.048295286 -0.022058312 0.021003924 -0.035125062 -0.0074893986
-0.0052760732 -0.037468806 0.03345476 -0.015386924 0.0077017564 -0.029021451 0.022971587 -0.018271767
0.014675567 -0.0045213117 -0.024877788 0.0069519575 -0.013136462 -0.025691139 0.04642535 -0.024467144
0.0406685 -0.008438827 0.005199716 -0.019854296 -0.0035785898 -0.035908807 0.043484192 -0.008192265
-0.005959682 0.04089214 0.026520263 -0.006951123 -0.030417018 0.004194841 -0.020894388 0.043118764
0.021881234 0.009620869 -0.020860333 -0.026809767 0.017721707 -0.02200518 -0.019397564 0.0022703297
-0.00041937022 0.039739568 -0.028254041 -0.0090276105 0.03454462 -0.010994582 -0.04664398 0.068544604
0.04530844 -0.026260028 -0.000467336 -0.0062942463 -0.03162544 0.0024433043 -0.03550789 0.027635004
0.016319234 0.00038454225 0.02178552 -0.0127706425 0.017733747 0.016252937 -0.0033804884 0.013336474
0.013882843 0.01599593 0.008901278 0.02855813 0.023955138 -0.0033052182 -0.012299883 0.024258453
-0.021360531 -0.027958525 -0.016730513 -0.021749722 -0.03550798 -0.024756381 0.046556234 -0.019717334
-0.04687604 -0.0032841857 0.009005324 0.012283272 0.0048326217 -0.061382525 0.017659374 -0.0027571456
-0.015808176 -0.01672933 -0.0054523973 -0.02095342 0.03333343 -0.008554477 -0.018521305 -0.008137901
-0.011189676 0.032197718 0.041702937 -0.017378345 -0.0131306965 0.007411482 -0.036856174 0.043798514
-0.034479942 0.013369286 0.043583263 0.023299647 0.023156011 0.0021872688 -0.00672695 -0.014259257
0.0024023014 0.024058372 0.011122289 0.025460608 0.024956848 -0.023869134 -0.026697692 -0.010542432
-0.04648261 0.018485287 0.027948728 -0.038916208 0.009929621 0.020283319 -0.039556768 -0.018918687
0.013287772 -0.003789459 0.0011389115 -0.02181907 -0.06826289 -0.04188605 0.0058810427 0.031091029
-0.053832974 0.029723255 -0.024285693 -0.016142339 0.037276477 0.053023998 0.00041764995 -0.003982779
-0.009613416 0.020331139 0.013921567 0.009286506 -0.033503562 0.02758452 -0.0072506005 0.024855914

network_body._body_endoder.seq_layers.0.bias f4 [128]
00000000: 8c51 72bb d012 d13c b748 603c 053f 683b
00000010: 875c 5f3b 36af a93c 8902 563c c56e 693b
00000020: cae1 893c d979 00bb bb9b 8dbb 9536 823c
00000030: 38d3 df3b af59 56bb cbd9 4abb a954 c43c
00000040: 3b7f eb3c 1436 a93c 821c 653c 6cc6 ee3b
00000050: 3877 a93c 675f 823c 968a f53b 4971 86bc
00000060: d89d f23b d001 143c dfea 5cbc 44e5 2abc
00000070: d0a6 d83c 1a9f b13b 0ca0 dabb a24f bfbb
00000080: 8428 d43a 72a4 a43b 3ad1 84bb cf8f 16bb
00000090: 8050 873c 7125 883c 4b4e 80bb f294 cb3b
000000a0: fb91 ddbb 721a fe3a c180 513b c382 80bb
000000b0: a5da 723c f13c 6c3c aaab 6fbc 90af 733c
000000c0: c51f 0b3c 6175 0a3c c717 c13c 6bc6 b53c
000000d0: e7df 803c 2f26 8c3c f1c0 473c b39b 0bbb
000000e0: d77e a1bc ed46 be3b ff1d b53c 2d75 733c
000000f0: 8ddc bbbc 8aab 1d3b 3f68 5a3c 47e4 753b
00000100: 3a95 3e3c 17a6 a43c cf80 80b9 15ed d03b
00000110: f6b3 563c 4368 753c fc1d 993c f0ef 5c3c
00000120: dbd1 483c b8a8 0d3c c72d 853c efd1 263b
00000130: 4857 ad3c 3950 8bbc 7ff7 b4ba d0bb d03b
00000140: 9a62 6c3c 2208 883b d767 b6bb 537e a03b
00000150: 8e30 813c 0e86 4abb 27a9 5c3c c219 1b3c
00000160: 32d4 a3bc 6c01 913c f586 873b e770 51bc
00000170: 0caa 263c cf8b 49bb 2a17 adbb 94b3 8b3c
00000180: 23c0 303c e853 cfbb f259 953c d11c d5bc
00000190: 61cc 26bc fe7d 383c 95c3 3e3b d0b2 ecba
000001a0: d7e7 353b a04c 22bc 8d38 11bb 5665 483b
000001b0: 592b 53b9 dafe 883b 9f84 a83c 25a7 b73c
000001c0: a14f a43c a39d e73b f275 07ba d252 2a3c
000001d0: 32e5 ed3c d482 353b b329 983c 6ff1 443c
000001e0: 4e58 b43b 4a13 b23c 15c0 3eba 298a b0bb
000001f0: f864 fcbb eb79 48bb f67b 32bc 9749 fb3b
-0.0036974875 0.025521666 0.013689212 0.0035437953 0.003408225 0.02071343 0.013062128 0.0035619002
0.016831297 -0.0019603877 -0.004321543 0.015895167 0.006830599 -0.0032707264 -0.0030952569 0.02396615
0.028747192 0.02065567 0.013983848 0.0072868373 0.02068673 0.015914632 0.0074933274 -0.01641144
0.0074040703 0.009033635 -0.013483732 -0.010430638 0.02644673 0.0054205777 -0.006671911 -0.0058383504
0.0016186391 0.005024486 -0.004053262 -0.00229739 0.016517878 0.016619416 -0.0039155832 0.006212824
-0.006761787 0.0019386543 0.0031967612 -0.003921838 0.014822637 0.014418826 -0.01462833 0.0148734
0.008491461 0.008450837 0.023570908 0.02218934 0.015731765 0.017108051 0.012191997 -0.002130252
-0.019713802 0.005806795 0.02210903 0.01485948 -0.022932315 0.0024058544 0.013330518 0.0037520097
0.011632258 0.020098729 -0.00024510032 0.0063759186 0.0131044295 0.014978471 0.018691055 0.01348494
0.012257065 0.008646183 0.01625718 0.002545472 0.021159783 -0.017006027 -0.001380667 0.0063700452
0.014427805 0.00415136 -0.005566578 0.0048978715 0.015770223 -0.0030902657 0.013468063 0.00946659
-0.019998644 0.017700873 0.004135961 -0.012783266 0.010172378 -0.0030753498 -0.0052823024 0.017053403
0.010787996 -0.006327141 0.018231366 -0.026014717 -0.010180564 0.011260508 0.0029108275 -0.0018058661
0.0027756596 -0.009905964 -0.002215895 0.003057798 -0.00020138676 0.0041807713 0.020571051 0.022418568
0.020057501 0.0070683523 -0.00051674165 0.010395722 0.029039953 0.0027696388 0.018574571 0.012020453
0.005503691 0.021737713 -0.0007276547 -0.0053875637 -0.007702466 -0.0030590247 -0.010893812 0.0076686847

network_body._body_endoder.seq_layers.0.weight f4 [128, 5]
00000000: cb37 323f abd1 3ebc c8d9 3a3f 4b8d 353f
00000010: 06db 573e 05c8 b7bd 4dee 203f 891e ecbc
00000020: 4731 65be b498 933e 0232 41bf 8b12 7cbf
00000030: 0ea3 1cbf 03d8 483f 0070 20bf 7bad 0a3f
00000040: b871 0abf 7080 103e 2533 393f 73bb 463e
00000050: ced1 903c bd41 2a3e c04b a4be 3df6 283e
00000060: d261 103f 4e7b ffbe 9eda 9b3e 0aeb e43e
00000070: 195e ca3d 3392 ebbe c529 8fbe 9738 94be
00000080: d5ec 3a3e 5279 3cbf 99f2 9a3e 96a3 87be
00000090: 0c0a d3be d4bc 973e 2316 d4be 894d b93d
000000a0: c1ab 113e f28e b43d 011d 18ba af7d ba3e
000000b0: d6e5 b83e 0b5c f2be 1139 6cbe 5267 32bf
000000c0: 3a2d dc3e bacc 1d3f 57bb d5be d75c b63e
000000d0: bf01 53be 50e0 e1be 2e3b 503e 765b 7a3f
000000e0: 467e 0a3f 556e 843d 6d8b e23e 60a1 5e3c
000000f0: 8a20 313e 7ed4 c7bd 9429 0fbe 132f 223e
00000100: fd9d 6bbd b13a 5fbf 8577 673d 2962 89be
00000110: 9da7 f13d e9d8 c2bf 6cea 863c 9e09 31be
00000120: 47ff 9f3e 97fc e93e 5462 653c eb45 debe
00000130: ce6f 1e3e bbac 053e dcff fe3e 1283 893f
00000140: df24 5ebf 470c 883e cca7 09bf 1aa7 d13e
00000150: 5e32 68bc 1c98 07bf 53f5 5abe a66a 403e
00000160: 7a17 3f3f 2947 b23e 4631 15be db7e 073f
00000170: 4db0 3f3e b3a6 a9be eebb 4d3e 8567 99be
00000180: 0ffe 20bf d42f bbbe c7ae 46bf ed07 1f3f
00000190: 5849 04bd e400 553f 0503 763d 8e01 dcbd
000001a0: 9cab 203f 76e9 33bf aa3c d63d 9df9 c43d
000001b0: e351 903d 20a9 08bf 5fe1 97bd 8b9c 96be
000001c0: 18b8 c43e 648d c63f 5ad7 043f bf2f 073e
000001d0: 6613 12bf faaa 6f3e 4241 383f 7051 993f
000001e0: 231a adbd 2353 273d 6330 0ebf 5e8a 0fbf
000001f0: c14e 99be 9e8c 413f 7ece 3abf 45b5 163f
00000200: a6bb 873d 033c b73d 4e5d 88be c400 c5bd
00000210: 47b6 2d3d 6ff2 8bbf 116c fabd 29d8 9abe
00000220: 8cb8 7cbe 4b85 483e 6372 c03e 0dc3 233d
00000230: e306 d13e c55d bdbe b5a8 8ebe 82ab 8dbe
00000240: 279a 19bf eae8 22bf 5687 b33c c1fc 013f
00000250: 38a0 acbb 1f31 3b3f aa29 323e d9ea 74bd
00000260: df93 d3bd ce08 403f 7075 3d3e 15dd 5dbc
00000270: 0aff 9f3d 4d32 80be c21b 00bc a707 63bf
00000280: fc8e 28bf cc67 25be 358f 813e 76ad 253e
00000290: d4d1 063f cc39 a63e 049b 43bd c9a3 2c3f
000002a0: 49c7 08bf 77a2 853d 64ef 783e 7a9c b13d
000002b0: 0513 863d 8d12 1dbf 170f 813c 29ec 07be
000002c0: 9be8 fe3e 303e c33c f5e6 c23e cfdb bcbe
000002d0: 7988 aebe 27d6 abbe 3d23 9a3e d843 6a3d
000002e0: 8f90 953d 3c3f 293f e239 f1bc de9d 8fbe
000002f0: 5635 ecbd fb4e 08be 5db2 52be ef91 513b
00000300: 6b50 03bc 07d1 11bf 1d2e 72bf 5c37 bfbe
00000310: 4623 a63e 763a cdbe 56fb 99be 0deb f8be
00000320: f5b1 3f3e 5c20 4a3e febb fabe 4b48 353e
00000330: e8a3 83be 8013 103f 0a25 e43d ebf1 82bd
00000340: d744 ab3d 834c bebb ab11 043f 46ef 20bf
00000350: bfe3 85be 3f78 083f 29b4 163f afbe d43e
00000360: 6b76 bfbd 2d63 4b3e 1573 c7bf faeb 0fbe
00000370: 5042 2d3f 9c35 a7be 9a04 41bf 4fc3 6b3f
00000380: 6be1 5e3e f6c2 c2be 534f ffbe 7b0b 5ebe
00000390: 3d83 9a3e 2f0e 0b3d 23ed 2e3e be8a 9cbe
000003a0: 20c7 053f f43b a3be f9e1 843e 28c9 1c3e
000003b0: d4e0 b4bd decf 57be 691f 0dbe c814 043e
000003c0: 31ff 9c3e 4497 67bf 572f 04bf 6d19 59bf
000003d0: 94cc bb3d dfed 5fbf 7ad2 4bbe ac9f f03c
000003e0: bdfd bc3b 263d d63d 0c86 353e 03c9 3cbc
000003f0: d859 0d3f 0ad7 0cbf e763 1bbe 7f59 58bf
0.69616383 -0.011646668 0.7298856 0.7091872 0.21079645 -0.089736976 0.6286362 -0.028823154
-0.22382079 0.2882744 -0.7546693 -0.98465794 -0.611863 0.7845461 -0.626709 0.5417096
-0.5407977 0.14111495 0.72343665 0.19407444 0.017678168 0.1662664 -0.32089043 0.16500182
0.5639926 -0.49898762 0.3044023 0.4471057 0.09881229 -0.4600998 -0.27961555 -0.28949425
0.18254407 -0.7362262 0.30263212 -0.26491994 -0.41218603 0.29636252 -0.4142314 0.09047992
0.14225675 0.08816327 -0.0005802662 0.36424014 0.3611285 -0.47335848 -0.23068644 -0.69688904
0.43003255 0.6164051 -0.4174449 0.35617706 -0.20606135 -0.4411645 0.20335075 0.9779581
0.5409893 0.06466357 0.44246998 0.0135882795 0.17297569 -0.097573265 -0.13980705 0.1583827
-0.057523716 -0.8719893 0.056510467 -0.26832703 0.11799548 -1.5222446 0.016469203 -0.17288825
0.3124945 0.45700523 0.014000494 -0.43412718 0.15472338 0.13054173 0.4980458 1.0743124
-0.8677501 0.26571867 -0.5377166 0.409478 -0.014172165 -0.52966475 -0.21382646 0.18790683
0.746452 0.34819916 -0.14569578 0.5292794 0.18719597 -0.33134994 0.2009122 -0.29961792
-0.6288766 -0.36559927 -0.7761044 0.6212147 -0.03229651 0.83204484 0.060061473 -0.10742484
0.62761855 -0.7027811 0.104607895 0.096179225 0.07046869 -0.53383064 -0.07416033 -0.29416308
0.38421702 1.5511899 0.518911 0.13201807 -0.5706085 0.23405066 0.71974576 1.1977978
-0.08452251 0.04085077 -0.5554258 -0.56070507 -0.29942897 0.7560519 -0.7297133 0.58870345
0.06627588 0.08946993 -0.26633686 -0.09619287 0.04241016 -1.093336 -0.12227643 -0.30243042
-0.24679774 0.19582097 0.3758727 0.039980937 0.40825567 -0.36985603 -0.27863088 -0.27669913
-0.6000084 -0.6363665 0.02191512 0.50776297 -0.005268123 0.7312183 0.17398706 -0.05979428
-0.103309385 0.75013435 0.1850183 -0.01354148 0.07812317 -0.25038376 -0.007819118 -0.8868355
-0.65843177 -0.16152877 0.2530457 0.16179451 0.5266392 0.3246597 -0.047755256 0.67437416
-0.53429085 0.06525128 0.2431007 0.08672424 0.065465964 -0.6135643 0.015754266 -0.13273682
0.4978684 0.023833364 0.3806683 -0.3688645 -0.34088495 -0.33561823 0.3010501 0.057193607
0.07302963 0.66112113 -0.029446546 -0.2805013 -0.115336105 -0.13311379 -0.20575853 0.0031977852
-0.008014779 -0.56959575 -0.94601613 -0.37346923 0.32448786 -0.40083665 -0.30074567 -0.4861683
0.18720229 0.19738907 -0.48971552 0.17703359 -0.25710988 0.56279755 0.11139877 -0.063937984
0.083627395 -0.0058074608 0.5158946 -0.628651 -0.2615032 0.5330848 0.5886865 0.4155173
-0.09348758 0.19862051 -1.5581995 -0.14054862 0.6767931 -0.32658088 -0.75397646 0.9209489
0.21765678 -0.38039368 -0.49865207 -0.21684067 0.30178252 0.033949073 0.17082648 -0.30574602
0.52256966 -0.31881678 0.25953653 0.1531111 -0.08831945 -0.21075389 -0.13781513 0.12898552
0.30663446 -0.9046519 -0.51634735 -0.8480442 0.091698796 -0.8747234 -0.19904509 0.029373012
0.0057675526 0.10460882 0.17726916 -0.011522534 0.55215216 -0.55015624 -0.15174828 -0.8451156

network_body._body_endoder.seq_layers.2.bias f4 [128]
00000000: acd9 fd39 1189 583c ac21 123b 7f69 10bc
00000010: 3418 9c3c 3301 743b 61fe 853c 17fd 6439
00000020: 642b 213c ab1d 0f3c f08d 8e3c 8927 4e3c
00000030: ff81 61bb 87e1 993b 7882 353c 2e35 85bb
00000040: 05dc 39bb 1b4a 5e3b 51ae c73b e5b1 3cbb
00000050: 81fa e43a eea7 2b3c 92b9 8c3c 08fc 9db7
00000060: 14a5 8c3c ca6f 5c3c f509 d43b 60e4 223c
00000070: 85f6 a93c 27b2 213c 38d0 713c 8b1b dd3a
00000080: 7d5a ecba 102f 70bb 658d 6dbb 77aa 1b3c
00000090: cf2f e7bb 5b9e 263c 4759 873c 419a 96bb
000000a0: a198 013c c43a a83b 4a77 5fbb 66aa 19bc
000000b0: cc1c 873c c89e f7bb 3b40 8a3b 4af5 9c3c
000000c0: 3979 8b3c e1a4 c53c fca0 993c 86a7 793c
000000d0: 79f2 3d3c c19d 303c 4938 d8bb d8b5 983b
000000e0: 3aa6 1a3b 2c7f e83b 037c e53b 5ada 08bb
000000f0: ff20 e4bb 7516 6e3c 7305 3339 955f 0e3c
00000100: 2eaf 193c 8d56 483c fdc4 003c d1b0 e1bb
00000110: c551 173c 56fb ce3b f552 bd3b 9961 593a
00000120: 7f7d 443c 92cd 393b 5f0c f33b d70b f73a
00000130: fc45 a33b 005d 9ebb 7651 7f3c 1d63 213c
00000140: dea2 803c 7ab9 c038 721b 8b3b 7655 523c
00000150: 3ae8 e03a f00f a2ba 473e 393b eade 493c
00000160: 638f 60ba 47db 4d3a 9cff 8d3b 81f4 863c
00000170: cd70 7638 2735 1e3c 9c51 503c b1c7 5fbb
00000180: 1938 3a3c f60c c73b aa51 fabb dcfe 1a3c
00000190: 88d1 db3a 4250 763b 2579 d43c fd72 b73b
000001a0: 42d3 6bbb 7953 353b dfb0 85b9 d2c8 e3bb
000001b0: 4519 893c 89ad 5e3c baf8 8c3c f3a3 b43b
000001c0: 2958 733c c287 88bb 871f 493c 308e 2e3c
000001d0: 6b59 dbba 64f3 2bb8 08fe 153c 1364 763c
000001e0: 811f 813b bce5 0f3b f50c e0bb 80c7 f1ba
000001f0: 3211 ad3c 9392 91bb c3a0 2f3c 8605 5bbb
0.000484181 0.013216273 0.0022297902 -0.008814215 0.01905451 0.003723216 0.016356649 0.00021838058
0.009837005 0.008735101 0.017401665 0.012582668 -0.003440976 0.0046960744 0.011078469 -0.0040651774
-0.0028359902 0.0033918682 0.006093778 -0.0028792557 0.0017469676 0.010477049 0.01717833 -1.883322e-05
0.01716856 0.013454387 0.0064709135 0.009942144 0.020747432 0.009869135 0.014759116 0.001686917
-0.0018032339 -0.0036649145 -0.0036247608 0.009501091 -0.00705526 0.010169591 0.016522063 -0.004596025
0.007909925 0.0051339585 -0.0034098201 -0.009379005 0.016493224 -0.00755677 0.0042190826 0.019159932
0.017025577 0.024126472 0.018753521 0.015237695 0.0115934545 0.010779799 -0.0065985066 0.0046603493
0.0023597614 0.007095238 0.0070033087 -0.00208821 -0.0069619413 0.014531721 0.000170728 0.008689781
0.009380145 0.012227667 0.007859466 -0.0068875332 0.009235804 0.0063165827 0.0057777115 0.0008292436
0.011992811 0.002835129 0.0074172462 0.0018848133 0.004982708 -0.004832864 0.015583387 0.009850291
0.015702661 9.189821e-05 0.004245215 0.012837758 0.0017159053 -0.0012364369 0.002826588 0.012321213
-0.0008566288 0.0007852804 0.0043334495 0.01647401 5.8756024e-05 0.009656227 0.01271477 -0.0034146125
0.011365914 0.006074543 -0.0076391296 0.009460177 0.0016770819 0.0037584458 0.025936672 0.0055984245
-0.0035984074 0.0027668162 -0.00025499516 -0.00695143 0.016735682 0.013591179 0.017208446 0.0055127083
0.014852562 -0.004166574 0.012275583 0.010654017 -0.0016735023 -4.0996252e-05 0.009154804 0.015038508
0.003940523 0.0021957 -0.006837482 -0.0018446296 0.021126363 -0.004442522 0.010719481 -0.003342004

network_body._body_endoder.seq_layers.2.weight f4 [128, 128]
00000000: c9b3 d6ba 33b5 08be 5613 01bd 98b6 fcbc
00000010: 5186 0f3d 8607 373d b7e4 b4bd 5ead 153c
00000020: e53d bf3c f962 af3d 1b61 f6bb 1580 633c
00000030: 9f48 62bd b227 9bbc d2c2 49bd 0910 49bd
00000040: 94aa 4a3d 43ee be3d eefc af3c a04b 213e
00000050: a144 1cbd 51e0 0dbd 11fc 43be 9511 f73d
00000060: e7e6 043d a3a0 1b3d eb43 743c afab 8f3d
00000070: fd33 4ebb dfd9 2c3e fe4e 87bc 01c7 033a
00000080: e488 1dbe 95dd 5b3d 8491 673c 47d3 02bd
00000090: 0f3f c23d 886a dcbd 201a 023e 985f e93c
000000a0: 1835 1dbd 377e aebd 2673 89bd 81db 8f3a
000000b0: 6477 a43c bed5 203e 6b3a e13d 1256 7ebe
000000c0: d3bb 573d 3ece 6c3e db06 6cbd 4c30 3ebe
000000d0: 5110 8dbd bca8 a53c dd86 413d 40d6 80bd
000000e0: 556a 093c 293a 27be 1299 16bd 7d68 6cbd
000000f0: 17ff 463d 120d 01bb eecf e3bb 8382 48bc
00000100: 4023 10bd b29f c5bd f5e7 20bc 9076 993d
00000110: 8421 19bb 8314 f33c a3ac b03d 79b6 37be
00000120: a4d0 7dbd 714c 6cbd 6dce 99bd 475b 26be
00000130: ee77 5f3e c02f 4d3d 54e4 ca3c 519a 213d
00000140: 324e 25be eff9 fe3c b083 d03c c566 39bd
00000150: ed27 bdbd 560a 89bd 8d0c ad3d d662 70bb
00000160: 9be2 f8bc b368 99bb b7d5 e93c 5fb9 46bd
00000170: f122 4c3d 36d7 b83d 476b 123e 5baf aa3d
00000180: 4860 e53d cdef 6d3d b6a4 fabc 69a2 253e
00000190: ee9f 5a3e 1139 c13d 9f54 0bbd 3824 ef3c
000001a0: f563 f33d 7481 61bd 3f0d e3bc b4b6 323e
000001b0: c7cc 503c ceba d93d dd9e acbd ce23 a9bc
000001c0: e705 643c cd0a 9b3d 0d67 0bbe bf4a 16be
000001d0: ce61 2b3c 2556 b7bd 3813 353e bec5 5e3e
000001e0: 02ae 173e 88f9 6fbd de36 5fbc 6b41 13bd
000001f0: 2e65 3abc 902c cabc 79cf 303d 75b9 28bd
00000200: f141 4f3c 48d4 893e 326f 82bd 1e2b 193e
00000210: db2d abbc f624 9f3c 4324 da3d 4832 94bd
00000220: 4d2a 1cbe 7767 1c3d f3fe 5b3d 4453 6c3e
00000230: 0987 65bc 3b1b eabc 42d6 8abd f2e1 fe3c
00000240: 063a e73d 238f a8bd efad a53d 3e3c 0cbd
00000250: 5f9c aa3c ce0e 06b9 6292 113d fceb 92bd
00000260: 697e 203e de7b a9bd eee5 19be 2704 e93c
00000270: 9ce7 223c f8f8 9cbc 8c5f 073e 4e08 02be
00000280: 8a98 cbbc a1e8 8d3d 9363 10be 3c34 f03c
00000290: 7854 503d 4c94 b93d 2ccb b8bd ae0c 8d3d
000002a0: 49e3 43bd 21cd 303e f2c9 ee3d cb99 583e
000002b0: f949 a1bd 251d 06bd 391a 16bd a30b 4abd
000002c0: ba51 11be 0618 9ebd 9e13 86bd 5efb c13b
000002d0: 05ec f83d c131 df3c 3e7a 68bd 34d2 34be
000002e0: 604f d23c 9331 373e e372 143e eca4 953d
000002f0: d95a ed3d 2163 8e3d 2769 ebbd 28ad 9f3d
00000300: 168a 643c 7b96 30be 288c 70bd ec20 aabd
00000310: 760d 1dbd 2e41 33bd 16e3 cabd e906 293e
00000320: 1513 803d 1679 efbc 0181 863d 277d 70bd
00000330: 5275 a13d 9a6c 5fbe beb3 5d3d 1f11 30bc
00000340: a562 793d 1d23 b7bd 65bc 1fbd 1341 9d3d
00000350: c044 0bbd 95d4 8abc ec63 6c3d 436d 26bd
00000360: 2db3 92bc 7d1a 9cbd 476d 123d 0672 d4bc
00000370: 740e 82bd 0730 81bc 2567 a93c 6147 0cbe
00000380: fd2e 973c d3f3 5fbc 35b0 683c dea0 4e3d
00000390: 6351 573c 0a02 993d 3105 d4bd d73e f33d
000003a0: b2e0 c53c 942d edbd 2f76 613d fe57 a93d
000003b0: 0f1a 953c 8187 c73d 5642 b8bc be30 6c3d
000003c0: 9916 25bd 7b1f 1bbe 89ba 96bd 0ba8 6b3d
000003d0: 0123 313e b0ad b9bd 12f4 8abd a53e babd
000003e0: 2a2f c03d a35d 8a3d 73b7 96bd 8321 e03d
000003f0: de27 e03c bbf3 073d b02e bebc 4105 7f3c
-0.0016380484 -0.13350372 -0.03151258 -0.030848786 0.035040203 0.04468491 -0.088326864 0.009135572
0.023344943 0.085637994 -0.0075189 0.013885518 -0.055245038 -0.018939827 -0.04925806 -0.049087558
0.049479082 0.093227886 0.021482911 0.15751505 -0.038151387 -0.034637753 -0.19139124 0.120639004
0.032446768 0.037994992 0.014908771 0.07015168 -0.0031464093 0.16879986 -0.016517159 0.00050269073
-0.15384251 0.053678114 0.014133815 -0.03193977 0.09484684 -0.10762507 0.12705278 0.028487965
-0.038380712 -0.08520167 -0.06711416 0.0010975451 0.020076461 0.15706536 0.109974705 -0.2483752
0.052669358 0.2312555 -0.057623725 -0.18573111 -0.06887878 0.02022206 0.047247756 -0.06290865
0.008387168 -0.1633078 -0.036767073 -0.057716835 0.048583116 -0.0019691628 -0.0069522774 -0.012238148
-0.035189867 -0.096496 -0.009820928 0.07493317 -0.0023365924 0.029672867 0.08626678 -0.17940702
-0.061966553 -0.057690088 -0.07510076 -0.16245757 0.21823093 0.050094366 0.024767078 0.03945381
-0.1614311 0.031125037 0.025453418 -0.045264024 -0.09236131 -0.066914245 0.084496595 -0.0036680005
-0.030381491 -0.0046816706 0.02854429 -0.048516627 0.04983801 0.09025423 0.14298736 0.08334228
0.11200005 0.05809002 -0.030596118 0.16175236 0.21350071 0.09434713 -0.034016248 0.029192075
0.118843 -0.055055097 -0.027716277 0.17452508 0.012744135 0.10631333 -0.08428738 -0.020646956
0.013917423 0.075704195 -0.1361353 -0.14676951 0.01046033 -0.08951978 0.17683113 0.2175512
0.14812472 -0.05858758 -0.013623921 -0.03595106 -0.011376662 -0.024679452 0.04316661 -0.04119249
0.012649999 0.2691977 -0.06368865 0.14957854 -0.020895889 0.019426804 0.106514476 -0.07236153
-0.15250511 0.03818461 0.053709935 0.23078638 -0.014009246 -0.028577438 -0.06779148 0.031113598
0.11290364 -0.08230426 0.08089816 -0.03423714 0.020826517 -0.00012784751 0.035539992 -0.07173917
0.15673222 -0.08275579 -0.15029117 0.028444363 0.009942915 -0.019161686 0.13220042 -0.1269848
-0.02485301 0.06929136 -0.14100485 0.029321782 0.050861806 0.090614885 -0.09023127 0.06887184
-0.047824178 0.1726575 0.11659612 0.21152417 -0.07875437 -0.03274264 -0.0366461 -0.049327504
-0.14191332 -0.07719426 -0.065467104 0.005919858 0.12154392 0.027245404 -0.056757204 -0.17658311
0.025672615 0.17890005 0.14496951 0.07306847 0.115895934 0.06952501 -0.114946656 0.07796699
0.013948938 -0.17244904 -0.058727413 -0.083070606 -0.038342915 -0.043763332 -0.099065945 0.16506542
0.062536396 -0.029232543 0.06567574 -0.058713105 0.07883705 -0.21818772 0.054126494 -0.0107462695
0.06088509 -0.08942244 -0.038998026 0.076784275 -0.034001112 -0.01694707 0.05771248 -0.040631544
-0.017907703 -0.0762224 0.035748746 -0.025933277 -0.06350413 -0.015769972 0.020679066 -0.13699104
0.018455023 -0.013668972 0.014202167 0.050446384 0.013141963 0.07471092 -0.10352553 0.1187722
0.024154995 -0.11580959 0.05504435 0.08268736 0.018200902 0.09742642 -0.022492569 0.05766367
-0.040304754 -0.15148728 -0.073597975 0.057533305 0.17298509 -0.090663314 -0.06784834 -0.0909398
0.09383996 0.06756141 -0.07359209 0.10943892 0.02736276 0.033191424 -0.023215622 0.0155652175
