results/wonderAgent01/WonderAgentHealing/WonderAgentHealing-500059.onnx (onnx, 134460 bytes, 7 tensors)

action_model._continuous_distribution.log_sigma f4 [1, 3]
00000000: 1923 e3bc 623f ebbc 981d 10bc
-0.027726697 -0.028716747 -0.008796118

action_model._continuous_distribution.mu.bias f4 [3]
00000000: 7aca d23b 7b1a 7bbb b2f8 90b9
0.0064328285 -0.0038315344 -0.00027651113

action_model._continuous_distribution.mu.weight f4 [3, 128]
00000000: 8a51 fd3a 4917 fa3a c1bc ce3b 0655 e4bc
00000010: b972 eb3c 8bf2 74bc 8071 2c3c 0e3f a53c
00000020: b810 20bb 7a3c 813b 4b05 54bb d05b dc39
00000030: 6dff 05bc d178 f6bc f909 e2bc a2aa f3bc
00000040: 8498 743c 6370 a5bc b3cc dd3c a5c2 dfbb
00000050: 8bda 423a 5d1c 283c 8781 a13b d8d4 69bc
00000060: 8951 c23a 32d2 26bc 563b cf3c f432 f5ba
00000070: 0759 92bb 49b6 5bbc cc7e 85bc ba65 c53c
00000080: 6cc8 c2bc 4c64 dd3c d7e2 5fbc 485e 813c
00000090: a56d 173c 892c 1e3c 1889 633c 9dbd bd3b
000000a0: ed5c 28bd 4cc8 9b3b 0f43 20bd af39 44ba
000000b0: 005c 01bd cc69 4cbd 5ad2 abbb 8e29 4dba
000000c0: 276e ce3b ab67 05bd c655 c2bc d762 bdbb
000000d0: cc24 973c 5c2b 5dbc f740 a2bc c4ec 993c
000000e0: 0b97 453c b8e5 ab3c 7117 bf3c 83b8 223c
000000f0: 6429 663c 2247 93bb a6ea 49bb 61ab 09bb
00000100: 41fe 9ebc 1d68 19bd 2506 88bb f347 76bb
00000110: 8792 633c 6967 e93a dc5d 95bc a505 bb3c
00000120: 638b 68bb cbe1 ed3b 29c1 173c ef8a a53b
00000130: 7166 49bc 6dfa a33c 7a2e e3bc 7b06 6e3b
00000140: aefc 79bc 1ec6 743b ac69 eabc 8ca6 4bbb
00000150: cb09 46bc 11bd 94bc 6088 fcba c2e6 fd3c
00000160: 1703 31bb a89e acbc b036 723c 4bb2 0537
00000170: 08db 1dbc 3f16 2fbd a7e4 dabb 92ff f9bc
00000180: d074 34ba 138d bd3c 94b4 933c 8dd9 313c
00000190: b200 2b3c 63f6 9c3c fcdf 133d 72bd 4bbd
000001a0: df95 89bc e2c6 51bd 8e92 753c 1108 0b3a
000001b0: b9a1 b03c 221d ca3c 1527 273b 3d9a 17bc
000001c0: b7ba 193d a3af ab3c ad2a ba3c 4165 2e3d
000001d0: f775 34bc 8eec 6a3c 493b 22bc ba34 323d
000001e0: 3007 19bc 54e3 dc3c 99a2 a0bc 3609 29ba
000001f0: 8dc9 113d 3557 633c 4506 77bc 7f1c 153c
00000200: 28a5 163a df02 47ba 1d18 373c cc88 a3bb
00000210: 7eec c6bb 039a 6e3b 0977 393b 5f0f 9e3c
00000220: 69f5 23bc a653 c43c c7a6 dfbb 01e2 613c
00000230: 2af5 ac3c 8b8e 98bc 0d8f 90bc 8970 4fbb
00000240: a9a4 19bc fd93 103c f428 ee3b 1c38 64bc
00000250: 563c fdbb 1dfe 8a3b 3b80 bc3b 6869 53ba
00000260: d297 8b3b f490 753a bcd7 fd3c 125c 1f3b
00000270: 15e2 223c 2d0f acbc d2c3 93bc 1734 493b
00000280: 2562 c23b bd96 e6bc f9f6 80bc 731e 4b3c
00000290: 2f44 de3a c09b 0fbc 4e45 ac3b 0147 b4bb
000002a0: 4571 94bc b9e3 f73c 851d 85bc 9372 543c
000002b0: b293 1b3c 2e56 563b b73f 653c cd1f 563c
000002c0: cb40 77bb 47ad babc 9d99 723c a148 22bc
000002d0: 296f 8cbc 2870 5e3c 522a a4bc 4b46 d2ba
000002e0: 9262 473c 4cf0 2dbb a20b 5bbb d44e 953c
000002f0: 6974 33bc c7fd 12bd ac4e f1ba 8d8c abbc
00000300: f10e 423b 62b2 d0ba 2daa 95bc 0adb a53c
00000310: 4194 473b f14d 8ebc b75c 3f3c 5732 53bc
00000320: 7999 0e3d ad47 1ebc 2ed5 04bd f818 e23c
00000330: c885 833c ab65 1f3d 0dfe 053d 1226 b83c
00000340: fdaa a7bc 394e 00bc 6796 d43c 5192 8e3a
00000350: eb55 053d 207e 793a 7943 89bc 59b9 7abc
00000360: 7166 be3c 1c7e 26bc d98c 92bc 8db1 d2bb
00000370: 49a1 313c 280c 10bd e1e5 1a3c c6ef 8abb
00000380: 55f1 85bc 6943 443c c2d7 ff39 a38e 963b
00000390: 24e8 873b bf70 39bc 9360 a2bc e562 033d
000003a0: c685 d33b faca 03bd a309 18bc 8ac8 7dbc
000003b0: 56c8 03bb 4a00 203c b5b5 18bc aea8 653c
000003c0: 7b69 81bc 7be7 213c 87b7 86bc 1639 38bc
000003d0: b753 1bbd 307f 2f3c ceb5 543c c6c4 da3b
000003e0: 6ed2 35bc b7f3 6cbc 7be4 e43c 1b06 ab3b
000003f0: 98a0 31bc 4320 413b 8a1a 1abc a720 e4bb
0.0019326669 0.0019080426 0.0063091223 -0.027872574 0.028741227 -0.014950405 0.010525107 0.020171668
-0.0024424028 0.003943977 -0.0032351788 0.00042030076 -0.008178574 -0.030086907 -0.027592646 -0.02974445
0.014928941 -0.020195192 0.027075147 -0.0068286234 0.0007433078 0.010260669 0.004928771 -0.014271937
0.0014825325 -0.01018195 0.025296848 -0.0018707202 -0.0044661793 -0.013410159 -0.016295813 0.024096359
-0.02377721 0.027025364 -0.013664923 0.015792027 0.00924245 0.009654173 0.013887666 0.005790426
-0.041104246 0.004754102 -0.039126452 -0.0007485402 -0.03158188 -0.049905583 -0.0052435817 -0.00078263215
0.0062997523 -0.03256957 -0.02372254 -0.005779605 0.018450163 -0.013499107 -0.019806368 0.018789656
0.012059937 0.020983562 0.023326607 0.009931686 0.014047954 -0.0044945637 -0.0030810027 -0.002100669
-0.019408347 -0.037452806 -0.004151123 -0.0037579506 0.013889915 0.0017807308 -0.018233232 0.02282984
-0.0035483472 0.0072595826 0.009262362 0.0050519626 -0.01229249 0.020016873 -0.027732123 0.003631978
-0.015257997 0.0037349532 -0.028614841 -0.0031074611 -0.012087296 -0.01815656 -0.0019266717 0.030993823
-0.0027009898 -0.021071747 0.014783546 7.96893e-06 -0.009634741 -0.042745825 -0.0066800895 -0.030517373
-0.00068838615 0.023138558 0.018030442 0.010855091 0.0104371775 0.019160455 0.03610228 -0.049741216
-0.016795097 -0.05121506 0.014988555 0.0005303631 0.02156149 0.024672095 0.0025505472 -0.009253082
0.03753158 0.020957774 0.022725428 0.042577032 -0.011014453 0.014338626 -0.00990183 0.043507315
-0.009340093 0.026963867 -0.019608783 -0.0006448211 0.035592604 0.013875772 -0.015077178 0.009101032
0.0005746656 -0.00075916754 0.011175183 -0.0049906727 -0.0060706725 0.0036407716 0.002829971 0.019294439
-0.010007241 0.023965668 -0.0068253013 0.013786794 0.021112997 -0.018622657 -0.017646337 -0.003165277
-0.009377637 0.008824346 0.0072680656 -0.013929393 -0.00772814 0.0042417184 0.005752591 -0.0008064718
0.0042600418 0.0009367608 0.03098666 0.0024316353 0.0099415975 -0.02100333 -0.01803771 0.0030701214
0.00593211 -0.02814805 -0.015742766 0.012397396 0.0016957576 -0.008765161 0.005257285 -0.0055016284
-0.018120417 0.030259954 -0.016249428 0.01296677 0.0094956625 0.0032705176 0.013992242 0.013069105
-0.0037727829 -0.022787703 0.014807132 -0.009905011 -0.017142849 0.013576545 -0.020039711 -0.0016042677
0.012169497 -0.0026540933 -0.0033423682 0.018226065 -0.010953047 -0.035886552 -0.0018410287 -0.020941043
0.0029610957 -0.0015922303 -0.018269623 0.020246048 0.0030453356 -0.01737115 0.01167982 -0.01289042
0.03481433 -0.0096606435 -0.032429866 0.027599797 0.016055003 0.038915318 0.032712985 0.02247909
-0.020467276 -0.00783115 0.025950624 0.0010877346 0.03255264 0.000951739 -0.016755806 -0.015302979
0.023242207 -0.010161903 -0.017889427 -0.006429857 0.010841676 -0.035167843 0.009454221 -0.004240009
-0.016350428 0.011978962 0.00048798142 0.0045946403 0.0041475464 -0.011318385 -0.01982144 0.032076735
0.006455156 -0.032175995 -0.009279641 -0.015489707 -0.0020108423 0.009765694 -0.009320666 0.014017267
-0.015797367 0.009881849 -0.016444935 -0.011244079 -0.037921634 0.010711476 0.012982799 0.0066762893
-0.011097534 -0.014462403 0.02794098 0.0052192337 -0.010841511 0.0029468692 -0.0094057415 -0.0069619003

network_body._body_endoder.seq_layers.0.bias f4 [128]
00000000: b9a7 a93a 054f 1d39 5de4 3d39 d9a6 723b
00000010: 9dea 3ebb 036b 24bb 36e8 4ebb e550 dc3b
00000020: 0cc7 7b39 c7f7 9bbb 2369 90bb 8b3e afbb
00000030: 388d 973a 2a9b c63a 2fae 4e3b ad5c 0bbb
00000040: dcea 1fbb ee2b 503b 84ff 76bb ea4d 76bc
00000050: e00d 8139 2742 b73b 3ff5 03bc d569 163b
00000060: 2199 4dba 545c 91ba 8974 5dbb 7696 30ba
00000070: f7fc 633c ad27 68ba 8652 19bb 3a4f bdbb
00000080: 0968 94ba d6d7 183a 266a aabb 5039 38bb
00000090: b965 c6ba bc2e b3ba 1c12 45bb 0975 493b
000000a0: 5755 16bb 4c25 95ba 1a16 2e3a 2101 80bb
000000b0: f37c 363a ecb6 04bc a6c6 69bb f9b0 b23a
000000c0: 58b8 523b 5249 10bb 23a8 7a3b e05b 77ba
000000d0: 5747 16bc d4b8 33bb b526 60bb f204 ca3a
000000e0: d4d6 1b3a bfce 6f39 96d1 663b 85c1 3b3a
000000f0: d567 8e3a 7c26 47bb 6ff2 28bb 12ab 523a
00000100: cbd6 79bb 28d6 b33b 6fdf 28bb 9172 683b
00000110: f043 1c3b 18ae dab9 8a45 60bb e54c ddba
00000120: 7c78 a23a 5229 16bb d99f 103b 2be6 3abb
00000130: 0d14 753c f8de 383b 82a6 fcba 77d5 5aba
00000140: 6517 3239 5b22 17ba e94d 8bbb 25fb db3b
00000150: fc67 9dbb 5ff4 51bc 68f1 313b a7c3 08bb
00000160: 617e 413a 6148 86bb cb62 cfba 309b 9bba
00000170: 7d37 933b 0d19 e5bb b320 06bc 244d 653b
00000180: 65bd 31bb e48a 63bb cb3a 5bbb 67f1 fcba
00000190: 7cbb 46bb 5513 463a 0a9a 5a3b 7f14 acbb
000001a0: 0ef1 95b9 b36e c9b9 c690 1cba 4c47 1fba
000001b0: 0023 3c3b 1a68 b43a ed01 9ebb c4b7 eeb9
000001c0: 216a 78b8 289e 23bb d410 c7ba d009 03bb
000001d0: e1d7 6d3b ae86 e63a bd96 243a 90db d23a
000001e0: ee3d 303b 9c45 aabb 94ab a0bc 3e55 fb3b
000001f0: a103 783b 26c4 f5b8 d596 f43b 18e6 02bc
0.0012943662 0.00015002124 0.00018109517 0.0037025718 -0.002913154 -0.0025088198 -0.0031571514 0.0067235106
0.00024011376 -0.004759762 -0.0044070645 -0.005348032 0.0011562472 0.0015152444 0.0031536927 -0.0021264956
-0.0024401462 0.0031764465 -0.003768892 -0.015033225 0.00024615135 0.005592603 -0.008054077 0.0022951264
-0.00078429474 -0.0011090138 -0.0033791384 -0.00067362876 0.013915292 -0.000885601 -0.0023395135 -0.005777267
-0.0011322509 0.0005830502 -0.005200642 -0.0028110333 -0.0015136517 -0.0013670544 -0.0030070608 0.0030739924
-0.002293905 -0.0011378913 0.00066408666 -0.0039063846 0.0006961368 -0.008100253 -0.0035671382 0.0013633064
0.0032153334 -0.0022016359 0.003824719 -0.00094359927 -0.009172282 -0.0027423399 -0.0034202759 0.0015412851
0.00059447926 0.00022869835 0.0035220138 0.00071623205 0.0010864685 -0.0030387929 -0.0025779267 0.0008036356
-0.0038122411 0.005488176 -0.0025767942 0.0035468678 0.0023844205 -0.0004170991 -0.0034221136 -0.0016883878
0.0012395526 -0.0022912812 0.0022067933 -0.0028518538 0.014958394 0.0028209072 -0.0019275697 -0.0008347849
0.00016984118 -0.0005765312 -0.004251231 0.0067132884 -0.0048036557 -0.01281461 0.0027151946 -0.002086857
0.00073811976 -0.0040979837 -0.0015822289 -0.0011871811 0.0044926987 -0.0069915117 -0.008186507 0.0034988606
-0.0027120945 -0.0034720236 -0.0033451791 -0.0019298018 -0.0030324152 0.0007555981 0.0033355975 -0.0052514668
-0.00028599094 -0.00038420185 -0.00059725007 -0.0006075993 0.0028707385 0.0013763935 -0.004822007 -0.00045531814
-5.9226648e-05 -0.0024966095 -0.001518751 -0.0019994862 0.0036292004 0.0017587745 0.0006278565 0.0016087163
0.0026892382 -0.0051962864 -0.019613065 0.007670074 0.003784396 -0.00011719046 0.0074642696 -0.007989429

network_body._body_endoder.seq_layers.0.weight f4 [128, 126]
00000000: c983 383e e620 a9bc 4e87 b13b bc66 f5b9
00000010: c2ec adbd 81ae 86bd 2e73 fc3d b5ef 983d
00000020: 9117 553d 74ad 33be 773f 9f3d bb36 443d
00000030: fb09 70bd 08bd 9b3d b9b7 9dbe 1f75 aa3d
00000040: cc20 a53c bd04 993d e84c af3c 6eaf 973d
00000050: 1931 aa3c 7c81 cb3d 1b01 f9bc e660 e5bb
00000060: 5c53 9cbd c451 8c3d 59fc 7b3d 1add e63d
00000070: 8792 a83d 9457 fcbd 72d2 f8bc f36b 623d
00000080: 9086 103c cc31 1b3d 80d9 693d 5c3a b33d
00000090: b53d c5bc 586f db3d 1d86 a0bd 197e dabd
000000a0: 2fdf bcbd 05cd 0b3e db09 25be cdff ba3d
000000b0: f7c6 0ebe aa86 a63d a2b7 203e 847d db3d
000000c0: c340 b93d 1068 3abd ab16 da3c 90bc 3bbe
000000d0: dff2 523d 3ac6 273d 378c d53d 2293 893d
000000e0: 36a3 6cbd 7768 29be 242f c9bd 2f76 073e
000000f0: f6bf 553d a43b bc3b fb47 533d a4b5 50bc
00000100: f088 87bc 0fe3 bdb8 7dc1 863d 0875 13be
00000110: 4b58 04be b57e 0ebc 7024 5d3d 1078 813c
00000120: be37 cc3c 87cd 293e ce35 433e 766b 96bd
00000130: 2742 93bd 02b0 043e b3f1 c6bc 3f1a 6c3c
00000140: 2ca3 653d 509f aa3d af4e e93d cb9e 5e3c
00000150: c9e9 fb3d 3f06 303d 80bb b1bd c1ea b4bb
00000160: 5d4b 983d 967a 4d3d 1178 533c a290 ff3d
00000170: 78f3 273d 2abb d7bd e2e1 56be 1999 963d
00000180: b515 31bd 885b 463d afc8 053e 2a4d 1bbd
00000190: 0742 eabd 4104 66bd 8dc8 f03d d8a6 fd3c
000001a0: 9cc7 0a3d 837c 143d 07be 553d d490 edbd
000001b0: f746 c63d b8f0 bb3d 4a41 0a3e 6b67 0e3e
000001c0: 8c3f 623d 104f 263e e1f7 863d 260e 553c
000001d0: 242f 98bc 8d6b b13d 91b5 703d 4532 943a
000001e0: dd52 343d c9ac 64bd cb7b 9f3c 1166 abbd
000001f0: 6a57 bb37 d134 403d 7c1f ffbc def8 9fbc
00000200: e015 02be 9a70 8fbd 6b19 0cbd f8f3 4fbd
00000210: d602 c13d 4c0d ff3c 5fe1 14bd 7b23 ff3c
00000220: cddf 823d 9cdb fa3b a84b b3bd e82f a93d
00000230: c137 883d 8d22 91bc c8ea d2bc f3ae d0bd
00000240: a4ee 48bd ded1 d939 f222 81bc 16e4 0dbe
00000250: 9b4f 07be 7621 57bc 966b b83c 1711 2e3d
00000260: df67 b63d 032a a5bd 34c5 68bd 91d2 413d
00000270: 253b c63c 7de0 31bc 40c7 91bd 307b 9abd
00000280: 6389 be3d 3846 8bbd 7517 9e3b d18b 533d
00000290: 3d05 a43b c5f7 a93c dab5 5cba 7238 843d
000002a0: 7ed8 1cbe 1148 b13d f6e7 b4bb a18a c23c
000002b0: 7a13 18be aaa3 933d 98ef 5bbe 31ce 13be
000002c0: 0533 cf3d bbd0 893d cfe5 cdbc 3d8b e1bd
000002d0: 5351 c5bd 5a7e 353d 0a1f 8b3b 5c07 6e3d
000002e0: fe35 25bd c9ae 923d ad40 153e 9866 243d
000002f0: 2cea bebd d51f 223e cf19 2d3e 0742 83bc
00000300: ef7f 3fbc 65a6 0dbd 5109 fcbd 778f abbd
00000310: 581e 81bc d75f 353d cc13 333d 8950 9cbd
00000320: d91e 213e a3f4 963d 4069 833d 357c d5bd
00000330: 19b3 c53c 1e9a b53d 23e7 c03c 3902 0c3c
00000340: b565 29bd 171e 2a3d 516f 7cba 7697 11bd
00000350: 129d f83d 479a 76bd e4fc f7bc 0d6c 88bd
00000360: f640 743d 8c5d b33d 5a35 babd 1c61 ecbd
00000370: b52c 123d da04 103e 9235 503d 8dab 043e
00000380: be6e 8bbd d3c4 6e3b 0aca d1bd 2278 a4bd
00000390: bf74 63bd 508f 55bc bf74 f63d ea7d c83d
000003a0: 448b 4fbd ff7b 523e f201 0a3d f20a f03d
000003b0: a842 ba3d 5308 153d d270 c43d f156 73bd
000003c0: c658 1a3e d983 bb3d ca97 623d f1af 873c
000003d0: 2460 bc3d 628e 3d3d 0e03 d53d d162 d5bd
000003e0: 3c23 083e dbb6 d53c 8d91 8a3d c145 4ebb
000003f0: ccab 953c 50dc e9b9 f7d6 f8bd 75aa 56bd
0.18019022 -0.02064557 0.005417741 -0.00046806585 -0.084924236 -0.06576253 0.12326656 0.074675955
0.052024428 -0.17546636 0.07775777 0.047903758 -0.058603268 0.07604414 -0.30804232 0.0832312
0.02015724 0.07471607 0.021398976 0.074065074 0.020775365 0.099368066 -0.030396035 -0.0070000766
-0.07633087 0.06851533 0.061519954 0.112726405 0.08231073 -0.12321392 -0.030373786 0.05527873
0.008821145 0.037889287 0.05709219 0.087513655 -0.024077276 0.107145965 -0.0783808 -0.106685825
-0.092222564 0.13652427 -0.16117041 0.091308214 -0.13943087 0.08131154 0.1569505 0.107172996
0.090455554 -0.045509398 0.026622137 -0.1833365 0.05150115 0.040960528 0.104271345 0.067175165
-0.057772838 -0.16543756 -0.098234445 0.13228677 0.05218502 0.0057444144 0.051582318 -0.012738619
-0.01654479 -9.054515e-05 0.06579874 -0.14400113 -0.12924306 -0.0086972015 0.053989828 0.01580432
0.024928924 0.16582309 0.19063494 -0.07344715 -0.07190352 0.12957767 -0.024285173 0.014410554
0.056063816 0.08331168 0.11391961 0.013587664 0.1230045 0.042974707 -0.08678341 -0.005521149
0.074362494 0.050165735 0.012907044 0.124787584 0.041003674 -0.105337456 -0.20984605 0.0735342
-0.043233592 0.048427135 0.13064836 -0.037915386 -0.11438375 -0.0561564 0.11757002 0.030963346
0.03388177 0.036251556 0.052183177 -0.115998894 0.09681504 0.09176773 0.13501468 0.13906638
0.055236384 0.16241097 0.06590248 0.0130038615 -0.018577166 0.08663092 0.058766905 0.0011306485
0.044024337 -0.055828843 0.019468209 -0.08369077 2.2332842e-05 0.04692537 -0.031142943 -0.019527849
-0.12703657 -0.07003899 -0.034203928 -0.050769776 0.09424369 0.03113427 -0.036347743 0.031144848
0.06390343 0.007655574 -0.08754665 0.082610905 0.06651259 -0.01771667 -0.025746718 -0.10189619
-0.04905571 0.0004154583 -0.015763734 -0.13856539 -0.13213961 -0.013130536 0.022512238 0.042496767
0.089065306 -0.08064654 -0.056828693 0.047319952 0.024198124 -0.010856745 -0.07118082 -0.075430274
0.09303548 -0.068005025 0.0048245736 0.05164701 0.0050055073 0.020748029 -0.0008419432 0.064560786
-0.1531696 0.08656324 -0.005520816 0.023747744 -0.1485118 0.07208951 -0.21478117 -0.14434125
0.10117153 0.06729265 -0.025133995 -0.11012886 -0.09634652 0.04430995 0.0042456435 0.058112487
-0.040334694 0.07162244 0.14575453 0.040136904 -0.093220085 0.15832455 0.16904376 -0.016022695
-0.011688217 -0.034582514 -0.123064645 -0.08376973 -0.01576154 0.044280853 0.04372005 -0.07632548
0.15734424 0.073708795 0.06416559 -0.10424081 0.024133252 0.08867286 0.023547715 0.008545452
-0.04135676 0.041532602 -0.00096296245 -0.035544835 0.12139334 -0.060205724 -0.030271955 -0.06661234
0.059632264 0.08758077 -0.09092207 -0.1154196 0.035687167 0.1406435 0.05083234 0.12956066
-0.06808232 0.0036433234 -0.10243614 -0.08030726 -0.05553126 -0.013034657 0.12033986 0.09789641
-0.050669923 0.20555113 0.03369326 0.11720838 0.09094745 0.03638489 0.09591831 -0.059409086
0.15072927 0.09156007 0.05532054 0.016563388 0.09198025 0.046278365 0.10400973 -0.10419238
0.13294691 0.026088169 0.06766043 -0.0031474682 0.018270396 -0.0004460537 -0.12150376 -0.052408654

network_body._body_endoder.seq_layers.2.bias f4 [128]
00000000: 4974 d8b9 2a6d c039 795f 6739 a074 95bb
00000010: 66c1 833a 1883 c2bc 8392 423c 1544 01b9
00000020: e4c5 213a b81c a4ba b837 e73b e071 36bb
00000030: c52b b5bb 8672 7ebb 7a69 37bb 6af6 42bb
00000040: 3dd8 823b 2bd9 d4bb 0ba4 333c f413 d2ba
00000050: c4f9 073a c574 0d3a 18cd d039 3f29 bdbb
00000060: fc39 c93b c3ae deba ccb6 dc3b f413 27bc
00000070: 62fb c3ba 8eed 223c 34ac f4b9 0310 093b
00000080: fa32 d6bb 9d96 183b d213 14bb e21d 063b
00000090: 5d1c 953a 4436 af3b ccd1 2d3b 59ce a03a
000000a0: 311d 9abb 5034 b9ba e66a 05bb 61ba c5b8
000000b0: ebb0 b8bb 97e1 1ebb 9df3 01bb 1210 e8bb
000000c0: dde4 433b 320f 50bb 7d64 56bb 8af9 56ba
000000d0: 30db 9f3b e00e ceba 9cd0 09bb d428 763b
000000e0: 3df9 783b 243c e03b e2ef 513b 1f9f 923a
000000f0: ed95 813b 5def 303b edfa 15bb 7ccc ed3a
00000100: d8b5 40bc 6290 56bc 2f65 1cbb 20d1 31bb
00000110: d75d 033a 1cbc 3a3a 2a2f 49bb a9f7 c63a
00000120: d105 36bb 899c 233c 6065 4b3c 002f 1e3a
00000130: d5cd d0bb 3bc5 4cb8 1de9 95bb 9791 fcba
00000140: 36b9 aeba 78a9 b23a 7a88 9fbb 621e 81ba
00000150: d5a2 abbb 9b29 91bb 1526 6539 64d0 ae3b
00000160: f264 babb 5c27 a7bb 8a03 c83b 8edd 053c
00000170: d2a4 dcbb bcdb 2938 eba6 36bb f284 9bbb
00000180: 13fa f93b 8c56 1c39 7b3e 9b3b 1c8b bb3a
00000190: 6f60 c93a f09a e33b 42b6 b93c a7a7 63bc
000001a0: ac78 d3bb e270 cdbb fa09 a43b d9d9 323b
000001b0: 65e1 c03b 3f86 7f3b 9bfd a83b 42a3 c9bb
000001c0: 499d 023c 51d1 373b 624d 403c 8265 6f3b
000001d0: bfd4 e539 8fce 8e3a 0593 abbb 4918 803b
000001e0: a7d5 00bb 82f6 7d3b c236 38bc 4d01 6dbb
000001f0: 5001 c13b 4bc1 003c 6f2c 9eba 4ed8 613c
-0.0004128537 0.00036702427 0.00022065443 -0.004561022 0.0010052144 -0.023744151 0.011875751 -0.00012327761
0.00061711506 -0.0012520766 0.0070562027 -0.002783887 -0.0055288994 -0.0038825586 -0.0027986453 -0.0029748925
0.003993063 -0.006495615 0.010964404 -0.0016027675 0.0005187059 0.0005396123 0.00039825658 -0.005772739
0.0061409455 -0.0016989339 0.0067356583 -0.010197628 -0.0014952237 0.009944333 -0.00046667608 0.0020914085
-0.0065368386 0.0023283132 -0.0022594822 0.002046459 0.0011376251 0.005347045 0.0026522754 0.0012268528
-0.004703187 -0.001412997 -0.0020357906 -9.428408e-05 -0.0056363246 -0.0024243349 -0.0019829043 -0.007081994
0.0029891052 -0.0031747338 -0.0032713704 -0.00082006364 0.004878424 -0.0015720986 -0.0021028882 0.0037560957
0.0037990354 0.006843107 0.003203385 0.0011186338 0.00395464 0.002699814 -0.002288516 0.0018142606
-0.011762105 -0.013095947 -0.002386402 -0.0027132705 0.00050112366 0.00071233674 -0.0030698278 0.001518001
-0.0027774463 0.009986051 0.012414306 0.0006034225 -0.0063721933 -4.8821075e-05 -0.0045749084 -0.0019269463
-0.0013330344 0.0013630828 -0.004868564 -0.0009850974 -0.005237917 -0.0044300086 0.00021853329 0.0053349007
-0.005688303 -0.0051011276 0.0061039375 0.008170499 -0.0067335153 4.0497383e-05 -0.0027870487 -0.004746073
0.007628688 0.0001490956 0.004737673 0.0014308426 0.0015363822 0.00694596 0.022669915 -0.013894952
-0.006453594 -0.00626956 0.005006072 0.0027290492 0.005886244 0.003898993 0.0051571853 -0.006153495
0.00797207 0.0028048346 0.0117371995 0.003652901 0.00043836792 0.00108953 -0.005236032 0.003909145
-0.0019658597 0.0038751666 -0.011243524 -0.0036164105 0.005890049 0.007858585 -0.0012067686 0.013784481

network_body._body_endoder.seq_layers.2.weight f4 [128, 128]
00000000: ff14 bf3a 8ae8 81bc 66d9 823d decc 58bd
00000010: c2c2 313e 4233 68bd d134 363d a991 7ebc
00000020: 508d 64bd 92fc 8b3d 10ed a2bd eb49 453e
00000030: 0e73 2abc 591d c93d 04ac 2abe c5c0 3c3d
00000040: 1f99 a43d 40cb 80bd 9743 833d df6f b4bd
00000050: 9f13 20bd ecc2 e7bb 3053 533d 2f5c 123e
00000060: 32f0 cfbd 0a85 a73c d342 febb 5f9a 2abe
00000070: 2b52 cb3d 2396 8b3c a604 01bd 0609 b23c
00000080: 3987 d53d 9d25 f73c eef1 15bd 897a 2fbe
00000090: 768e adbc c710 9d3d a871 633a 8a90 e03d
000000a0: 3763 a5bd 3531 24bd 1254 40bc 250f b73d
000000b0: b59a e5bd bb64 1abd 179b 823d 81d6 a83d
000000c0: cd70 f83c 0f72 bfbd cafe 47bd 42b0 de3c
000000d0: ac6b 45bc 5314 a8bd a646 173d ae10 3cbc
000000e0: 7202 cdbd fe5d e53b 86e4 08be 6f25 cbbd
000000f0: fe45 f7bc 3990 bfbd 5246 bebc d488 01be
00000100: c16f dc3c c32e 9a3d 8570 2e3b 2df0 d8bd
00000110: 2457 f63d 0d96 9bbb f5d3 063d 0bd3 663e
00000120: fe9b 46bd e0ba 5a3e 8451 29ba 4eb7 173e
00000130: 59b2 9ebd 77c2 893d 60f1 4bbe c353 863c
00000140: 75fb 78bd 3887 a33d 7eb0 143e 8e98 423d
00000150: 25d2 32bd 921d 94bd 43a2 40bd 0b3b 233e
00000160: 293e 94bc 1447 c4bd 8cea bfbd 1994 7c3c
00000170: 584a 74bd a366 21be 6714 b73d fcc6 f03c
00000180: c20c 973d 2a5e ddbd e7ff 113e bac6 29bd
00000190: 46fd 6ebd c09f cd3d e206 853c f10b a03d
000001a0: c3d8 a9bd 0bfd 97bd bf1a 1fbd da90 f53d
000001b0: 9aea 06bd d604 91bd eb33 d0bd 2803 0ebc
000001c0: b67c 653d 2213 893d b060 c8bb 26d7 323d
000001d0: 6138 3a3d d657 4ebe 3d0c 5a3b 22f7 f6bd
000001e0: 6a1d 913d 3ebb 0e3e 9df4 6fbd cb62 59be
000001f0: 26fd f2bd 968b c8bd d67e 423d 340c 2b3c
00000200: a6b7 9abc 8ca9 98bb f1c0 3d3d 1400 bc3d
00000210: 0416 263e 700b 01be 613e dbbd f0d4 143d
00000220: ddba 9bbc 1aea c23d c33a 84bd c452 aebd
00000230: 2da5 b0bd 92f1 233c 9241 16bd b346 ee39
00000240: 500f d13d 023b ac3d d8d2 30be 82fd c4bc
00000250: 467d acbd 0466 293d c01f 513c 144b a0bd
00000260: 42ea 01bd 5e0e d5bc 8f06 5d3c 33de f8bd
00000270: edef 843d 41bb 223d aeef ea3d a816 9ebc
00000280: 1a42 bfbd 1309 423d ff2e ca3a 0a8e 0abd
00000290: d971 05be fd7b dbbd 2f54 003e 8f54 8a3d
000002a0: 5d44 1cbc 814e e23d 4470 2f3d 905c c43d
000002b0: e194 b0bc f11c 3d3e b926 533d 3929 423e
000002c0: 3dae a2bd c3db 9fbd 6447 30bd 9f7e 403b
000002d0: 3910 67bd 991f cd3d 5410 0fbd a893 243b
000002e0: 0b12 d3bd 968f 0b3e b595 783c faad 45bd
000002f0: 9333 a5bd f433 93bd d1a2 60bd 49ea 29be
00000300: c178 783d 55c6 b0bd 48ea 883c ddc5 963d
00000310: e894 8a3d 13ba c83c d731 d13d 720a ac3c
00000320: 8316 123d 0c16 fd3d f93a c43d 70fa 77bd
00000330: f890 dd3d b0ff f4bd 1eca 0abc c613 15bd
00000340: 367c 00be b1f9 3d3e 280a 6b3d 7ef1 83bc
00000350: 28a2 3d3d 5239 25bc 06e0 8cbd b990 c8bb
00000360: e961 c93b 2f6d 09bc 5f63 313e ee3f bfbd
00000370: ad55 d93d b53b 2dbd d78a 06be 6cca 02be
00000380: d357 edbd efbb d9bc 811c 16bb 87e4 f9bd
00000390: efca fc3d b36a ba3d 3211 643c d079 d6b9
000003a0: 462c 14bd 1ce7 52be ba54 6b3e 9c87 b13d
000003b0: 71de 41be a226 6fbd a435 c7bc 7b76 f4bb
000003c0: 7ef5 0dbe 1464 9d3d d189 393e 3550 34bc
000003d0: 7fe6 a2bc d6a4 d33b 0b52 b3bc fc16 06bd
000003e0: f337 1fbe f2b5 053c 10df f8bb 2192 423d
000003f0: 8ae1 ecbc 2090 fcbd 94c2 b03d 98e6 b1bc
0.0014578401 -0.015857954 0.06389122 -0.05292975 0.1735945 -0.05668951 0.044483963 -0.015537658
-0.05579883 0.06835283 -0.07955372 0.19266479 -0.010403408 0.09820051 -0.16667181 0.046082277
0.08037018 -0.06288767 0.06409376 -0.088104 -0.039081212 -0.007072797 0.051593006 0.14292978
-0.101532355 0.02044918 -0.007759431 -0.1666045 0.09927782 0.017039364 -0.031498574 0.021732818
0.10426182 0.030169303 -0.036607675 -0.17136587 -0.021186095 0.07669216 0.0008676299 0.10965069
-0.08075564 -0.04008599 -0.011738794 0.089384355 -0.11211149 -0.03769372 0.06377237 0.082440384
0.030327225 -0.09347927 -0.04882697 0.027183656 -0.012049597 -0.082070015 0.03693261 -0.011478586
-0.10010232 0.00699973 -0.13368425 -0.09919249 -0.030184742 -0.0935368 -0.02322689 -0.12649852
0.026908757 0.0752845 0.002661736 -0.10592685 0.120283395 -0.004748112 0.03291698 0.22541444
-0.04848861 0.2136035 -0.0006458985 0.14816019 -0.07748861 0.06726544 -0.19916296 0.016397363
-0.060786683 0.07984775 0.14520451 0.04750877 -0.04365744 -0.072322026 -0.047029745 0.15940492
-0.018096047 -0.095838696 -0.09370908 0.015416169 -0.059641212 -0.15761809 0.08939438 0.029391758
0.0737548 -0.10808976 0.14257775 -0.041449286 -0.05834701 0.100402355 0.016238634 0.07814778
-0.08293297 -0.07421311 -0.038843866 0.11990519 -0.032938577 -0.070810005 -0.101661526 -0.008667745
0.056027137 0.066931024 -0.0061150417 0.043662213 0.045463923 -0.20150694 0.0033271455 -0.120588556
0.070856884 0.13938615 -0.05858289 -0.21229093 -0.118646905 -0.09792249 0.04748424 0.010439921
-0.018886399 -0.0046588834 0.04632658 0.091797024 0.16219336 -0.1260202 -0.10705257 0.036335886
-0.019010002 0.095173076 -0.064565204 -0.0851188 -0.08625255 0.010006325 -0.036683626 0.00045447572
0.10207999 0.08409692 -0.1726793 -0.024046663 -0.084223315 0.041357055 0.012763917 -0.0782682
-0.031717546 -0.026007827 0.013490333 -0.12151756 0.06491075 0.03972936 0.114714965 -0.019297913
-0.0933878 0.047371935 0.0015425383 -0.033826865 -0.1303171 -0.10717008 0.12532113 0.067544095
-0.009537783 0.1105013 0.042831674 0.095879674 -0.021555366 0.18468072 0.0515506 0.18961038
-0.079433896 -0.07805588 -0.043036833 0.0029372347 -0.056411956 0.100157924 -0.03492768 0.0025112424
-0.10306176 0.13628992 0.015172412 -0.04826162 -0.080664776 -0.07187644 -0.054842774 -0.16593279
0.060662035 -0.08631579 0.016713277 0.07361958 0.06766683 0.02450279 0.10214584 0.021001074
0.035666 0.12357721 0.09581561 -0.06054157 0.10818666 -0.11962831 -0.00847104 -0.03639581
-0.12547383 0.18552281 0.057382733 -0.016106363 0.046297222 -0.010084467 -0.068786666 -0.006120768
0.006145705 -0.008387848 0.17323063 -0.093383655 0.106120445 -0.04229327 -0.131389 -0.1277253
-0.11589017 -0.026578872 -0.0022905173 -0.12201791 0.12343394 0.091023825 0.013920115 -0.00040908018
-0.036175035 -0.20595974 0.2298154 0.086684436 -0.18932511 -0.058386452 -0.02431757 -0.007460413
-0.13863179 0.07685104 0.18118979 -0.011005451 -0.0198853 0.006458859 -0.021889707 -0.032736763
-0.15548687 0.008161055 -0.0075949505 0.04750264 -0.02891614 -0.12332177 0.08630863 -0.021716401
