results/testing/target_agent_01/target_agent_01-0.onnx (onnx, 78710 bytes, 13 tensors)

action_model._discrete_distribution.branches.0.bias f4 [3]
00000000: 0000 0000 0000 0000 0000 0000
0.0 0.0 0.0

action_model._discrete_distribution.branches.0.weight f4 [3, 128]
00000000: 858f d1ba c2b3 b33c 6aab 243c 0fd3 35bc
00000010: f257 70bb 746a 26bc 20f7 263b 1657 1abc
00000020: fceb 20bb 8afe 663c 46dc a53b f729 5ebb
00000030: dfa8 4ebb 4002 db3b e9a9 bd3b 6dd2 153c
00000040: 30a5 b83b 4b5f 273a 2f01 e63c d091 b6bc
00000050: 6d39 d23b 4b09 1d3b 9316 98bb 0b0b 6b39
00000060: 5fab 1c3c 32f8 253b 73ae e4ba 09c0 0e3c
00000070: 483f fe3b 720b deba 7819 a63b cffc 6dbc
00000080: 336d dc3b 0b31 7b3c b967 093c b5c9 a6bc
00000090: 4779 d5ba c3e5 f9bb 78f2 23bc 0a30 10bb
000000a0: db0c 01bc dbea 803c a840 67ba d8bc 61b8
000000b0: 581f 843b 0357 6ebc 8be2 3b3c dd42 ae3b
000000c0: abc6 903b 96ec 2fbc 036a 3ab9 1d74 dbbb
000000d0: 869f 37ba 1780 b13a 5395 1cbb 505c 673b
000000e0: 9874 8ebc a7db 313c 8f8e 8a3b 5368 3abb
000000f0: 67d0 a33c 2f48 6fbb 3099 a23a 5061 0e3b
00000100: 6626 00bc 37b1 c23b 536b 153c bfb4 2c3b
00000110: 37d5 f4bb 4b74 71bb 03b6 8f3b 6960 493c
00000120: 9bee 0f3a d397 ae3b b43b ba3b 8b3a 87bb
00000130: c882 82bc 9b7a 053c 58b0 893c 5fd7 4bba
00000140: 3c3c bd3c 39af 0abb b395 353b 26e9 983b
00000150: 8f4c d8bb c9a2 2636 bf31 32bc 0738 2b3b
00000160: 7073 663c c7b3 0fbb 5bfd f1bb a49b bbba
00000170: 5e8f a63b e015 12bc 7896 6cb9 208e 08bc
00000180: 27f8 3f3b 55b4 d63b 8b55 82ba a677 a43c
00000190: f096 1dbc bddc 94bb ce7e 92bc fcdf 853b
000001a0: d5dc d93b 8986 203b 3d66 fc3a ba59 643c
000001b0: ed57 453b 833d 8c3c 57c8 2fbb 84d6 383c
000001c0: 676f 8aba 5bf0 39bb 6752 9e3a f437 153c
000001d0: c751 3cb9 7c0a 02bb 8b7b 9b3b 4364 68ba
000001e0: ccdd 40ba 2c3a 033c bb7c 65bb 93ac 983c
000001f0: 5ec2 4b3b 0492 0a3c 4950 14bc 4f2a 26bc
00000200: a07d 1a3c b83b 6bbc fad9 fab9 6395 81bb
00000210: 3c07 8d3a 9802 663b c2a4 83bb ceb7 313c
00000220: c2a4 523b 7a13 1fbb 80e1 493b dd5f 523c
00000230: 50ff 0d3c 0f5d 113c 22d5 56bc c25a 2b3b
00000240: 9709 e7bb 4249 11bc f318 00bc e0c7 b1bb
00000250: f1d1 95ba 0094 5a3b e485 033b a5af 5ebc
00000260: 15f4 183c 027d 0dbc 8b5d 2e3c 4128 4c3c
00000270: 3944 34bc c2a9 643c 9e95 33ba 5135 c4bb
00000280: 9fa4 edbb 0638 41b8 209f 7bbb 54a7 ab3b
00000290: c07f 5b3b b37f 6e3c a76a 663c 1d80 5e3c
000002a0: 8cf6 0bbc 33e7 8e3a 5264 8ebb 7022 1c3c
000002b0: 6f12 223b b83c ea3b 158c d9bb bd88 493c
000002c0: eac9 b73b 1b2e 0e3c 1f8e e6ba 1fb9 12bc
000002d0: d14f 14bc e3f7 e439 1a50 5a3a 28a9 5a3c
000002e0: 8b08 33bb a9c7 87ba 3def c7bb 7b06 20bc
000002f0: 7356 3ebb ef4e c439 3022 f43b 4c31 1339
00000300: 05cc 073c beb9 00bc 8d0a 7cba 9856 f4ba
00000310: 4ca0 2f3b c85f acbb d6ef c3bb ff52 e83b
00000320: c5aa d939 d182 c4bb dbdd 79bc 9718 223b
00000330: 5261 edbb 784e 473b 7b97 373c 52e0 31bb
00000340: 40e3 d0b9 d2bb 653b 2ae3 cebb f3a0 893b
00000350: cbb3 bd3b 42dd a13b d7cc 48ba 7426 4bba
00000360: da23 893c 258e d43c c9a7 0c3b c0d6 6fbc
00000370: 384b 6cbc 97c8 cdbb ef28 5cbc 6aa0 6cbc
00000380: 8a6b e1bc adb6 f9ba 6afe 393b a7c7 023b
00000390: 10d6 82bc 3b42 77bb 2215 3bbc 2de4 edbb
000003a0: bf6c 16bc 2b52 4f3c 7362 74bb 20e8 30bc
000003b0: 2b16 dd3b 6216 b7bb a893 8cbc 325a 8c3a
000003c0: 530b 1fbc 920f 6ebc d42b 883c b0ed e3bb
000003d0: 510f 00bc ff17 69bc 7f79 e23a a268 893b
000003e0: ff0d 9ebb c3d5 4fbb f547 913b bb83 7e3b
000003f0: 598a 8abc e389 16bc 27bd 1bbc 972d 4fbc
-0.0015988207 0.021936301 0.010050634 -0.011097684 -0.0036673513 -0.010157216 0.0025476888 -0.009420177
-0.002455472 0.014098773 0.005061659 -0.0033899525 -0.003153376 0.006683618 0.005788077 0.009144408
0.0056349263 0.0006384744 0.028076736 -0.022286326 0.006415537 0.0023961838 -0.004641363 0.0002241546
0.009562342 0.0025324938 -0.001744701 0.008712777 0.0077590086 -0.0016940667 0.005068954 -0.014525606
0.0067268847 0.015331517 0.008386546 -0.020359853 -0.0016286754 -0.0076262667 -0.0100065395 -0.002200129
-0.0078766 0.015736988 -0.0008821585 -5.3820055e-05 0.004032057 -0.014547112 0.011467586 0.0053180293
0.0044182143 -0.010737559 -0.00017777835 -0.0066971914 -0.0007004667 0.0013542202 -0.0023892715 0.0035302825
-0.01738958 0.010855592 0.00422842 -0.002844353 0.019996835 -0.003651153 0.0012405273 0.0021725483
-0.007821655 0.005941536 0.009119826 0.002635285 -0.0074717063 -0.0036842998 0.004385711 0.012291052
0.0005490572 0.0053281575 0.0056833867 -0.004126852 -0.015931502 0.008146907 0.01680772 -0.0007775928
0.023100011 -0.002116157 0.0027707636 0.0046664653 -0.0066009234 2.483068e-06 -0.010876118 0.0026125924
0.014065608 -0.0021927224 -0.0073849387 -0.0014313352 0.0050830087 -0.008916348 -0.00022562768 -0.0083346665
0.0029292197 0.006552259 -0.0009943707 0.020076584 -0.009618506 -0.0045429156 -0.01788273 0.004085539
0.0066486397 0.0024494252 0.0019256544 0.013937408 0.0030112222 0.017119175 -0.0026822293 0.011281613
-0.0010561765 -0.0028372023 0.0012079001 0.009107579 -0.00017959542 -0.0019842675 0.004744952 -0.0008865038
-0.0007357269 0.008009475 -0.0035016972 0.018636977 0.0031091194 0.008457664 -0.009052345 -0.010141923
0.009429365 -0.0143575 -0.0004784612 -0.003954576 0.0010759602 0.003509676 -0.0040174434 0.010847045
0.003214166 -0.0024273084 0.0030804574 0.012840238 0.008666828 0.008872285 -0.013112338 0.0026146625
-0.0070507037 -0.008867564 -0.007818448 -0.0054254383 -0.0011430365 0.0033352375 0.0020068819 -0.013591682
0.009335537 -0.008635761 0.01064242 0.012460769 -0.011002594 0.013956489 -0.0006850603 -0.005987801
-0.0072522904 -4.606696e-05 -0.0038394406 0.005238453 0.0033492893 0.014556813 0.014063514 0.013580349
-0.008542668 0.0010902643 -0.004345455 0.009529695 0.0024730226 0.0071483515 -0.0066390135 0.012300667
0.005608787 0.008677985 -0.0017589963 -0.008955269 -0.009052233 0.0004367224 0.0008327976 0.013345994
-0.0027318324 -0.0010359186 -0.0061015175 -0.00976717 -0.0029043227 0.00037442843 0.0074503645 0.00014037377
0.008288388 -0.007856784 -0.00096146093 -0.001864153 0.0026798425 -0.0052604415 -0.0059795184 0.007089972
0.000415167 -0.00599704 -0.015250648 0.0024733895 -0.0072442675 0.0030411761 0.011205549 -0.0027141762
-0.00039842166 0.0035054577 -0.006313701 0.004200095 0.0057892553 0.004939706 -0.0007659918 -0.00077495654
0.016740728 0.025946686 0.0021462312 -0.014638603 -0.01442223 -0.0062800157 -0.013437494 -0.014442543
-0.027517099 -0.0019051634 0.0028380402 0.0019955428 -0.015971214 -0.0037728685 -0.011418613 -0.0072598667
-0.0091812005 0.012653868 -0.0037290126 -0.01079753 0.0067470274 -0.005587385 -0.017160252 0.0010708033
-0.00970729 -0.014530079 0.016622461 -0.006955825 -0.007816152 -0.0142269125 0.001727864 0.0041933814
-0.004823446 -0.0031713105 0.004433627 0.0038835842 -0.016911672 -0.009188148 -0.009505547 -0.012645147

action_model._discrete_distribution.branches.1.bias f4 [3]
00000000: 0000 0000 0000 0000 0000 0000
0.0 0.0 0.0

action_model._discrete_distribution.branches.1.weight f4 [3, 128]
00000000: 27c7 203a 4e0f 2bbb 741a a2ba 3a5b 533b
00000010: 8923 bebb 4678 a73a 9d58 02bc 7068 8ebb
00000020: 3f00 cabb afe3 26bc a2c6 a33b b88f 1fbb
00000030: ddb7 043c 0ff1 d73b 8e0a a1bb 8bad d5bb
00000040: 6f1c ceb9 38d6 d83a 50ff 91bc 622f 69ba
00000050: 553f b73b 5dc3 9cba 8dde 4d3c d39d 913a
00000060: 919d 38bc 4b53 59bc c394 48bb ff00 2a3b
00000070: 0370 933b 4f61 3a3c 090c 003c 9c4d 363b
00000080: 8f72 f7bb 28d7 79bc 8ceb a43c ad94 3c3c
00000090: 9766 d73b efeb ae3c 3a0f dbbb d771 aebc
000000a0: f038 48bb 06ac 873b 9819 90bc cac7 273b
000000b0: 0693 aebb 9dd2 9d3b 9356 a6ba 9897 b7ba
000000c0: 450d a1bb 409b c9bb 8cc6 b53b d313 e5bb
000000d0: 4287 a43b 36d1 9dbb f539 e0bb 53ab 0aba
000000e0: 33dd 473c bffb 9e3b eb46 9dbb abd7 8d3b
000000f0: 8a95 61bb 6f7b 1ebc 5834 87ba 7b4b bd3b
00000100: b3bf 62bc 2e2e 1e3c 7732 28bc 9f25 3b3a
00000110: bb94 f7ba 8177 b8bc b706 d8bb 2f6a 02bb
00000120: a884 b63b 2784 70ba 5bd4 8e3a eff4 b93b
00000130: 158d 48bc 3f86 a53b 8018 653c b46b 18bb
00000140: 1bcc 62bb 5326 103a 3a82 5bbc bfc8 99bb
00000150: 6514 6f3c 5119 423c 66aa 2ebc 4a09 36bb
00000160: 4066 923b 072b afbb 04dd 123c f9b7 883b
00000170: cdc9 cd3a 733e df3b 703e cfbb db78 d437
00000180: 68ba 1abc 31ce 413b 6164 1b3c 6036 a23a
00000190: 0f50 e4bb 0328 0a3b 0e4d 9b3a a604 173b
000001a0: 5351 e53b f729 163c 67b6 213b 7a0b ddbc
000001b0: 0fe0 db3b 4ba3 2a3c 3fe9 81ba 6650 323c
000001c0: 336f a53b 1c9e 8aba 3ba0 603b e794 5d3a
000001d0: affa f8bb 72b5 14bc d32f 8bbc 891b c83b
000001e0: 17d7 09bc 5b5a 00bc dadb 0f3b 112e adb9
000001f0: bb6c 493c cba4 36bb cc9f 4bbc cbbd 1abb
00000200: 9730 2abb 58b4 60bb 8f89 3abc 7ba1 d8bb
00000210: 7a69 1f3c d94d 903a a093 5bbb 81f2 0b3b
00000220: 5d63 25bc 2388 0e3c b25f 0d3c 98ea e639
00000230: 4f50 fd3a 456c 5c3b fe7d 893c 27e6 673b
00000240: e4b6 a839 9039 63bc c538 6fbc 93a3 143c
00000250: 6bd9 9d3b 6db2 1b3c 4361 7e3c d5ff 5f3c
00000260: 177e 36ba 36c9 983b 17c4 a0bb a3fd 103c
00000270: 11aa 1bbc 7fda 91bc e7da 18bb 0ce5 22bb
00000280: cf71 84bb ab04 47bc d366 b1bb dbbd da3a
00000290: c7dd 2bbb 3ad3 6dbc 8f60 cdbb c38e b2bb
000002a0: 0fa8 d1bb 8435 b43b 0d40 73bc d028 9b37
000002b0: fbe2 b4bb 2af5 2b3c ef73 f0bb 2bd0 c23a
000002c0: efff a1ba 80e0 4e3b 2496 3abb ad0a a33b
000002d0: a072 04bc 6a88 4b3b 6023 703c 2c07 ab3b
000002e0: 733e 29bb 8264 f2ba e21f baba 4fae d23b
000002f0: 3d3f 813b 6fff a9bb f7ac 09bc 13eb 21bb
00000300: 74db 09ba ef9f 0b3c f70a 73bb d5bc e43b
00000310: 95e8 e8bb d30e 07bb 6d85 7fbc bf37 30bc
00000320: 8bf5 053b 06bd 3c3c 5ab0 6dbb bb19 20bb
00000330: 7021 38bb e584 7dbb 048f 0f3c d9d3 283a
00000340: 6f6c 833c 93b8 993b 7732 3a3c d031 7abc
00000350: adf1 733b 494f a83b 9764 4cbc 61b0 06bc
00000360: ab7d 163c 93d7 97bc 957d 3b3c 1b87 43bc
00000370: 0bb9 4ebc f5ac f9ba 8f0e b0bc 75f1 593a
00000380: 90f2 a8ba c3e7 bbbb fd93 c5bb 51ef 1e3c
00000390: 401b 633a ebcf 013c 10bd 993c 12bd 723c
000003a0: 3a77 123c 1bd6 f1bb 9f20 1c3c 27c3 88bb
000003b0: 6a2c adbb 07d8 ac3c 4f32 0f3c e015 63bb
000003c0: 0048 45bc c74a 133c 488e 41bb 260f aeb9
000003d0: 8772 363b 3dec 54bb ffc2 253c 8a78 eb3a
000003e0: 470e 04bc d8d1 013c 457d 56bc 2e38 9c3b
000003f0: 0a56 8fbc fb09 8e3b c303 08bb 9d21 553c
0.00061331916 -0.0026101652 -0.0012367503 0.003225042 -0.005802576 0.0012776933 -0.007955697 -0.004345946
-0.00616458 -0.01018612 0.004998044 -0.0024347138 0.008100477 0.0065900157 -0.0049145883 -0.006520932
-0.00039312567 0.0016543334 -0.017821938 -0.0008895305 0.0055922666 -0.0011960078 0.012565267 0.0011109657
-0.0112680355 -0.0132644875 -0.0030606247 0.0025940535 0.004499437 0.011375739 0.007815369 0.0027817255
-0.0075514982 -0.015249051 0.020131849 0.011510056 0.006573509 0.021352736 -0.0066851648 -0.021294517
-0.0030551516 0.00414038 -0.017590329 0.0025601261 -0.005327585 0.004816367 -0.0012690596 -0.001400697
-0.004914912 -0.0061525404 0.0055473503 -0.0069908886 0.005021007 -0.0048161997 -0.0068428465 -0.00052898115
0.012198734 0.004851788 -0.004799714 0.004328688 -0.0034421408 -0.009672984 -0.0010315282 0.0057768202
-0.01383965 0.009654565 -0.010265938 0.000713909 -0.001888893 -0.022517921 -0.0065925973 -0.0019899716
0.005570013 -0.00091749657 0.0010897027 0.0056749503 -0.012240668 0.005051404 0.013982892 -0.0023257555
-0.003460652 0.0005498875 -0.013397748 -0.0046931203 0.014592265 0.011846856 -0.010660743 -0.0027776533
0.0044677556 -0.0053457054 0.008963827 0.004172322 0.00157004 0.0068128644 -0.006324582 2.5328647e-05
-0.009443857 0.0029572363 0.009484381 0.0012375824 -0.0069675515 0.0021080978 0.0011848526 0.0023043542
0.00699822 0.009165279 0.002467537 -0.026983012 0.0067100595 0.010414909 -0.0009911432 0.010883426
0.0050486564 -0.0010575685 0.0034275192 0.0008452669 -0.007598243 -0.009076463 -0.016990578 0.006106798
-0.008413098 -0.007834042 0.002195111 -0.00033031453 0.01229399 -0.002786922 -0.012428235 -0.002361166
-0.0025968903 -0.003428718 -0.011385336 -0.006611047 0.009729737 0.0011009529 -0.003350474 0.002135426
-0.010094491 0.00869945 0.008628773 0.00044043805 0.0019326302 0.003363387 0.01678371 0.0035384984
0.0003217972 -0.013868704 -0.014600937 0.009072202 0.004817178 0.009502989 0.015526119 0.013671835
-0.0006961538 0.004662658 -0.004906188 0.008849534 -0.009500996 -0.017804382 -0.0023323835 -0.002485576
-0.0040418874 -0.012147109 -0.005413869 0.0016688661 -0.002622472 -0.014515692 -0.006267614 -0.0054491474
-0.006398208 0.0054995436 -0.014846814 1.8496445e-05 -0.0055202222 0.010495463 -0.007338039 0.0014863064
-0.0012359599 0.0031566918 -0.0028470838 0.004975638 -0.008083969 0.003105665 0.014656872 0.005219361
-0.0025824576 -0.0018493088 -0.0014200176 0.0064294706 0.003944306 -0.0051879208 -0.008403054 -0.0024706766
-0.00052588363 0.008522018 -0.0037085393 0.0069805183 -0.007107804 -0.00206082 -0.015595776 -0.010755478
0.0020440544 0.011519676 -0.0036268444 -0.00244294 -0.0028096102 -0.0038683948 0.008762125 0.0006440259
0.016042916 0.0046911924 0.011364571 -0.015270665 0.0037222907 0.0051364047 -0.012475154 -0.008220763
0.009185235 -0.018535411 0.011443515 -0.011934067 -0.01261736 -0.0019048738 -0.021491317 0.0008313873
-0.0012889672 -0.0057344153 -0.0060296045 0.009700612 0.00086634234 0.007923107 0.01876691 0.014815586
0.008939559 -0.0073802597 0.009529262 -0.0041736546 -0.0052848356 0.021099104 0.008740022 -0.003465049
-0.012041092 0.008989996 -0.002953427 -0.00033199153 0.002783926 -0.0032489442 0.0101172915 0.0017965001
-0.008060045 0.007923566 -0.01309139 0.0047674393 -0.017497081 0.004334686 -0.0020754195 0.013008502

action_model._discrete_distribution.branches.2.bias f4 [3]
00000000: 0000 0000 0000 0000 0000 0000
0.0 0.0 0.0

action_model._discrete_distribution.branches.2.weight f4 [3, 128]
00000000: 125d 70bb e161 c3bb fbc9 943a 9e93 a5bc
00000010: 0373 623b 73c0 6c3a f79e a43b 3639 2f3c
00000020: e85c c8bb 83ab 413c 4a0e e4bb b766 153c
00000030: 7b47 d3bb 758d ed3b dd02 de3b b99f 9e3b
00000040: e379 b0b9 8a54 e53b 2f3c 26bc dd46 f53b
00000050: a300 68bb 6bd4 413c 9f98 46b9 9871 55bc
00000060: 9c41 35bc 51ca ca3b 2082 74bc be56 473c
00000070: b678 163c eb85 a7bb 12c0 373c 5bca 8bbb
00000080: d797 3d3b 8c74 a63a bdf1 13bb 4989 3cbc
00000090: e6b1 2b3b d91c 92bb 8fef 7ebb 1e86 85bb
000000a0: 092c 2abc 77c1 baba 0682 86b9 14c5 adbc
000000b0: 1f93 92bc 7220 22bc 1566 b1b9 0377 3b3a
000000c0: dfa8 25bc 7aa9 ac3a 5b01 103b 9311 803b
000000d0: 90e7 263c a7ce 133c 87fd 02ba ee51 3f3a
000000e0: 3d5d 393b 9f27 45bc d7d8 65bc 68be 15b9
000000f0: a338 553b be04 463c 9ba7 4bbb 4b8d 6bbc
00000100: 203d aa3b 7a8c c0bb 0bf2 91bb f2a4 283b
00000110: 3f8e d83b b7c9 27bc 9b4c 59bc 8563 32bc
00000120: 4117 90bb 9f85 8d3c 5222 a8b9 a787 fd3a
00000130: 2721 3ab9 8288 d73b f5c5 363c 3404 843b
00000140: 4f08 a0bc 236c 883b aadf 493b cfa9 49bb
00000150: fb75 f6bb 3f7f e8bb 4b92 4a3c b013 92bb
00000160: 9a46 be3b 1d11 24bc 7c13 963b f622 8c3b
00000170: aa8b 66bc 57c5 95bb 895c c23c 8b60 c3bb
00000180: 10a0 1ebb 0838 873b 1d58 06bc 40ec 1dbb
00000190: ffde 42bc faa7 243a 2f2e 2cbb ff69 c33c
000001a0: 5bd7 953b 574c e83a e689 a33b 982c b4bb
000001b0: c76b 473c 83b6 0ebc 3651 2bbc 0b51 e13b
000001c0: b65a 38bb a3fd 4cbc 7fd9 abbc 9aa0 9cba
000001d0: 8fc3 6dbc 357f a236 68d7 2fbc 50a1 acbb
000001e0: 7bb9 88ba 6f54 94bb d56e fabb a0d5 4d3c
000001f0: ba66 d639 c063 68bc fb3d 1abc 691d c03b
00000200: fd5f b23c 7d2b 33bc b4c1 153c 5272 d0bb
00000210: a297 6b3c 33dc c93c 5a78 b93a 7b54 6c3c
00000220: a35b 24bc 1730 52bc 6173 093c 5fba 493c
00000230: 6ba5 153b b48e 08bc f0da ecbb 2ecc 0939
00000240: f7c8 8a3b 5b08 8abc 9506 8538 5723 c23a
00000250: 43c6 81bb 482b 76bc fb58 0bbc 09f0 c13a
00000260: 5eb3 16bb 3126 163c d2dd 53bc df1e 8a3b
00000270: 5e93 263b 7744 fb3a 80dc 213c 5512 f7ba
00000280: a6e5 893c 2775 ba3b 4aa1 90bb 9a10 f3bb
00000290: 1b0e 62bb e2ec ceb9 f308 b0bb 70b8 843b
000002a0: 3f28 0ebc 53ab 673c 9917 a4bb 783d 54ba
000002b0: 6791 523b 37b8 f83b ec1a 9a3b e236 04bc
000002c0: 81d5 8f3b 6dad ff3a 6094 63bc 789a be3b
000002d0: 735a a03b c087 ecbb f3f1 223c 54da 343c
000002e0: a008 83bb 95ef 0fbc 8309 fe3b 46eb 86ba
000002f0: 08d6 d03b 7af4 c93b 1a37 f63b caab fabb
00000300: 923f 58bc 65c2 cd3b 3be1 223c 1352 d8bb
00000310: d728 8ebc a3e0 423a c81d f93b 3a9e 74bc
00000320: 57e8 d73b 16cc 2b3b ace5 0abb fd3c 723b
00000330: e0f2 e4bc bfe8 9bbb 83cf 73bc 5700 0d3c
00000340: b3af a1bb 8f8e 7c3c dbf8 263c de8a babb
00000350: 631d 9bbb 0b83 243a 05c0 58b9 373b 63ba
00000360: 537a 93bc 355b d53b 72cf aa3b efcd 7cbc
00000370: 9678 a93b b08c 48ba 90ee b039 adf2 a33b
00000380: c11b 90bc 0220 a537 cecf 403c 8b3d 633c
00000390: b004 503c 24cd 1bbb 123a 133c 627a 8abc
000003a0: 7dab cdba 652b a03b a4b1 46bc 2ac7 a83b
000003b0: 3229 703c 5e8d 393c 4f8d 3e3c 5c1b 2bba
000003c0: b6f8 2dbb fb10 2c3c 8324 e9bb 75f7 363b
000003d0: e525 b8bc 85c3 07bc b3a8 213b 7f43 c9bb
000003e0: 82bc eb3b 9f03 27bc 69be 8c3b 1ec1 aa3b
000003f0: e4cd 35bc af52 db3a 7be5 493a 8a27 77bb
-0.0036676568 -0.005962596 0.0011351699 -0.02021199 0.0034553416 0.0009031363 0.005023833 0.0106947925
-0.006114591 0.011820677 -0.006959711 0.009118727 -0.00644773 0.007249529 0.0067752437 0.004840818
-0.0003366015 0.006998603 -0.010146185 0.007485254 -0.003540077 0.01183043 -0.00018939607 -0.013027571
-0.011063006 0.006188669 -0.014923602 0.012166677 0.009184053 -0.0051124 0.011215227 -0.004266066
0.0028929615 0.0012699529 -0.0022574507 -0.011507341 0.0026198565 -0.0044590053 -0.0038900112 -0.004074826
-0.010386475 -0.0014248331 -0.00025655347 -0.021212138 -0.017892418 -0.009895431 -0.00033836128 0.0007151218
-0.010111063 0.0013173067 0.0021973464 0.003908345 0.010187045 0.009021438 -0.0004996885 0.000729828
0.0028284334 -0.012033372 -0.014028749 -0.00014280679 0.0032534979 0.012086092 -0.0031075242 -0.014376949
0.005195275 -0.005876121 -0.0044539026 0.002573308 0.006608754 -0.010240964 -0.013262893 -0.010887985
-0.0043973033 0.01727563 -0.00032069028 0.0019342796 -0.00017750692 0.0065775523 0.011155595 0.0040288214
-0.019535212 0.0041632815 0.003080348 -0.003077138 -0.0075213886 -0.007095247 0.0123639805 -0.0044579133
0.005806756 -0.010013846 0.0045799594 0.0042766286 -0.014071384 -0.004570644 0.023725765 -0.0059624366
-0.0024204291 0.0041265525 -0.008199719 -0.0024097115 -0.011893987 0.0006281134 -0.0026272645 0.023854254
0.0045727915 0.0017722946 0.004990804 -0.00549848 0.012171692 -0.008710506 -0.010456374 0.006876116
-0.002813024 -0.012511644 -0.020977734 -0.0011949718 -0.014511957 4.842785e-06 -0.010732509 -0.0052682534
-0.0010431254 -0.004526667 -0.0076426067 0.012563139 0.00040893798 -0.0141839385 -0.009414191 0.005862881
0.021774286 -0.010935661 0.009140421 -0.0063612843 0.014379414 0.024641132 0.0014150247 0.014424439
-0.0100316135 -0.012828848 0.008389325 0.012312501 0.0022834192 -0.008334804 -0.007228248 0.00013141401
0.0042353827 -0.016849687 6.34316e-05 0.0014811557 -0.003960402 -0.0150249675 -0.008505101 0.0014796267
-0.0022995095 0.009164379 -0.012931304 0.004215106 0.0025417428 0.0019170184 0.009879231 -0.0018850068
0.016833138 0.005690235 -0.0044137584 -0.0074177505 -0.003449327 -0.00039467873 -0.0053721606 0.004050307
-0.008676588 0.014139968 -0.005007696 -0.0008096318 0.0032130124 0.0075903195 0.0047029164 -0.008069726
0.0043894653 0.0019506641 -0.013890356 0.005816754 0.004893595 -0.007218331 0.0099453805 0.011038382
-0.003998831 -0.008785148 0.0077525987 -0.0010293506 0.0063731708 0.006163177 0.007513893 -0.0076498734
-0.01319875 0.006279277 0.009941394 -0.006601581 -0.017353458 0.0007433986 0.007602427 -0.014930302
0.0065889764 0.0026214174 -0.0021194024 0.0036962621 -0.027947843 -0.00475797 -0.014881018 0.008606038
-0.004934275 0.015414848 0.010191168 -0.005692824 -0.004733728 0.00062756304 -0.00020670898 -0.00086681865
-0.018002665 0.006511117 0.0052127177 -0.015429958 0.0051718457 -0.00076503586 0.0003374708 0.0050032944
-0.01759136 1.9684438e-05 0.0117682945 0.013869653 0.01269643 -0.0023773396 0.008986013 -0.01690406
-0.0015691366 0.0048879855 -0.012127314 0.0051506953 0.014658259 0.0113252085 0.01163037 -0.0006527209
-0.0026545948 0.010502095 -0.0071149482 0.0027918492 -0.022479007 -0.008286362 0.0024667203 -0.0061420794
0.0071941027 -0.010193734 0.0042951596 0.0052110096 -0.011096451 0.0016733016 0.0007701737 -0.0037712776

action_model._discrete_distribution.branches.3.bias f4 [2]
00000000: 0000 0000 0000 0000
0.0 0.0

action_model._discrete_distribution.branches.3.weight f4 [2, 128]
00000000: fd02 f73b 6498 343c 530a 563b d055 433c
00000010: eae1 89bb ff43 1f3c 65ec 1abc 6c96 1c3c
00000020: 7f8e 7d3a 1d40 cabb 5646 97b9 7747 5ebc
00000030: 6165 b937 acbf 113c 928a 743b f53f 8abb
00000040: 0b80 32bb f0dc b9bb 4bf9 07bc 5a86 3139
00000050: 8b30 f93b cf9e ec3b de50 acbb 7118 ccbb
00000060: 27d8 99ba 9742 57bc 79f5 a33a 7362 833b
00000070: a8bf 0b3c 900f ea39 95ad 0d3b e0e3 9fba
00000080: e727 993a 959b 393c d0fe a63b aabb 0a3c
00000090: 3d01 dc3b 026f e3bb 4b0f 5e3b 9c01 353c
000000a0: 1c17 8eba 28e5 51bb 9f4a babb 9059 cbbb
000000b0: f8d2 7cbb 5720 11bc 445e a5bc ad53 233b
000000c0: fe45 9fbc 3d1e d6bc 91b0 2d3b 3e12 46bb
000000d0: c063 01bc 56bf 863c 13ca f53b 6a04 e439
000000e0: 5e3f 343b c719 c93a babf 9dbb dc1f 1ebc
000000f0: 3a08 703b a0a3 b4bb e3b7 5a3c 37f4 c83b
00000100: b25e f93a a701 acbb a393 f9ba 8f5a 163c
00000110: 7bd6 de3b 06af 813a adb4 f238 7ab6 d53b
00000120: ffbb 8dbb b78f b8bb 6454 39bc ef4f 5b3c
00000130: aedb 3cbb d74d 3dbc cd61 e8ba 2e9b 14bc
00000140: eb81 2cbc 53b8 5e3c 20e1 8dbb 3ba8 30bc
00000150: c436 35bc 82fe 843c 4199 0cbc 2ff2 52bb
00000160: 5269 04bc 9749 263c d3a6 1ebb 92da a8bb
00000170: cb08 a4bc b228 33bc cbcd edba 43ed 00bc
00000180: ea69 8ebb 90cf 013c b39e 5eba fbda 2b3c
00000190: fd1f 573c 594c c13c b532 b0bb 49d5 0d3b
000001a0: a52a 023c a57a e63b 077b 17bc bb63 573b
000001b0: 5508 edbb 457a 713b 21e2 033c 1f55 cc3b
000001c0: 1d56 9e39 dfc5 f939 0d2d b03b 77ec d83b
000001d0: 826a 28bb f728 013c 50a7 793c 89af 253c
000001e0: e245 7eba afe7 233c 0f91 033b 38fe 663c
000001f0: 2770 113c c971 b2ba 5198 c93b 1a2c 5e3b
00000200: 63e5 6ebc 75e4 c1ba e394 3b3c 6793 7f39
00000210: 8ab0 edb9 fb87 e5bb f575 8cba 86b4 a7bb
00000220: 007b b1bb 22d3 463c 8051 54bc 0ca2 c6bb
00000230: be75 2a3b 9739 4a3b b5d4 d1bb 3e91 8db9
00000240: 1b44 413c 3283 f93a c4f7 863b 83d1 f1bb
00000250: 4e9c 213b 6b23 02bb b302 9fbc 52f2 e03b
00000260: a02e 5eb9 60ea 363c ed33 12bc 44c9 0a3b
00000270: df91 823c 57d5 ba39 03f5 d73b b224 4a3a
00000280: 7f11 9b39 ca5e e13a c031 f6bb 7bdf 04bc
00000290: cffe a03c 9b41 c1bb b47c baba b5c7 a33b
000002a0: faa0 9ebc 4941 b83b 45ee 693b 7a89 6bbc
000002b0: 3f45 82bb 3b63 5b3b 790f 823b 50c6 d0b9
000002c0: a45a 98bb 5280 853b ba3a 3b3c 42c9 61bc
000002d0: bdb1 f0b9 5f21 8d3b 8e26 c8b9 81a1 85b9
000002e0: 9f80 993c f057 4f3c e5be 913b c5f7 ff3b
000002f0: e544 d33b 3c44 b2bb 9b36 073c 75a4 e63a
00000300: 97f9 753a c02d 163c f362 9439 ebc8 a73b
00000310: 350b 543c f52e 1b3c 285e 433c 8d8e 4d3c
00000320: 97e7 17bc 46cf 0a3c b2af 633b dff3 643c
00000330: b821 d93b a70c 0e3c d0a7 ff3b c675 b53c
00000340: b1d5 8e3b 6ec3 8abc 4512 633c 651d 713c
00000350: 5a3c f0bb 1be8 e4ba b203 73bb 37c0 923c
00000360: b6bd b9ba c2f2 0fbc 4a5b d73b 88a4 7bbc
00000370: 1955 b73b 8ded cb3c e240 21bc 770c acbc
00000380: b141 283b 43f7 87bc b0f0 fcbb e494 103c
00000390: 8333 f7bb 4ab2 503b 5c8d 1e3c 67ae 993c
000003a0: 57e5 a0bb 61cd 0ebc a9ea 283c c37a 15bc
000003b0: ce7d 893b 43df 6ebb a9ef 0bbb 3bb6 e03b
000003c0: 40c5 1dbc 25c0 e6ba fdcc f73b 0381 e6b9
000003d0: 8342 a339 751a c6ba df33 1cbc a2c1 60bc
000003e0: 2d9f 943b 2710 fa3b 9360 003a b311 5a3c
000003f0: a76b 3d3b 9756 e93b 0d14 deba 9275 d2bb
0.007538198 0.011022661 0.0032659962 0.011922315 -0.0042078393 0.009720801 -0.009455775 0.009557348
0.00096724177 -0.0061721937 -0.0002885337 -0.013566843 2.2100927e-05 0.008895796 0.003731404 -0.00421905
-0.0027236964 -0.0056720898 -0.008299182 0.00016930085 0.0076046637 0.00722108 -0.0052586636 -0.0062284996
-0.0011737392 -0.013138435 0.001250907 0.004009539 0.008529581 0.00044643553 0.0021618356 -0.0012198649
0.0011684865 0.011328598 0.005096294 0.008467594 0.006714015 -0.0069407234 0.0033883627 0.011047747
-0.0010840627 -0.0032027457 -0.005685165 -0.006205745 -0.0038577896 -0.008857808 -0.02018655 0.00249217
-0.019442555 -0.026137466 0.0026502947 -0.0030223276 -0.007897317 0.016448658 0.0075008958 0.00043490838
0.002750359 0.0015342765 -0.0048141154 -0.009651151 0.0036625997 -0.0055126697 0.013349506 0.0061326283
0.0019025414 -0.0052492204 -0.0019041192 0.009176864 0.0068004704 0.000989408 0.00011573113 0.006521997
-0.0043253894 -0.0056323665 -0.011311624 0.013385757 -0.0028817463 -0.011554203 -0.0017729342 -0.009070201
-0.010529022 0.013593751 -0.0043298155 -0.010782297 -0.01106042 0.01623464 -0.00858146 -0.003218781
-0.008081751 0.010149381 -0.0024208322 -0.0051530087 -0.020023724 -0.0109349955 -0.0018142996 -0.007869068
-0.004346122 0.007923022 -0.0008492276 0.010489221 0.013130185 0.023595976 -0.0053771385 0.002164202
0.007944738 0.0070336633 -0.009245641 0.003286584 -0.0072336593 0.003684656 0.008049519 0.006235733
0.00030200268 0.00047640406 0.005376464 0.0066199857 -0.002569825 0.007883302 0.015237644 0.010112652
-0.00096997444 0.010003968 0.0020075475 0.014098696 0.008876837 -0.0013614233 0.0061521907 0.0033900798
-0.014581057 -0.0014792817 0.011449072 0.00024373607 -0.00045335694 -0.0070047355 -0.0010716306 -0.0051179556
-0.005416274 0.012135299 -0.012958884 -0.006061798 0.0026010121 0.003085708 -0.0064035305 -0.0002700183
0.011796023 0.0019036292 0.0041188914 -0.007379712 0.0024659815 -0.0019857537 -0.019410467 0.0068648243
-0.00021188939 0.011164278 -0.008923513 0.0021177093 0.015938697 0.00035635635 0.006590487 0.00077111565
0.0002957694 0.0017194387 -0.007513255 -0.0081099225 0.019652752 -0.0058977134 -0.0014227838 0.004998172
-0.019363869 0.005623017 0.0035694998 -0.014376039 -0.00397554 0.0033475894 0.0039691296 -0.00039820606
-0.004649477 0.004074135 0.011427576 -0.013780894 -0.00045908793 0.0043069567 -0.00038175698 -0.00025488067
0.01873809 0.012655243 0.004447805 0.007811519 0.006447422 -0.005440263 0.008252765 0.001759662
0.00093832 0.009166181 0.00028302483 0.005120387 0.012942125 0.009471645 0.011924304 0.012546194
-0.009271524 0.008472269 0.0034742174 0.013974159 0.006626334 0.008670009 0.007801987 0.022150885
0.00435897 -0.016938891 0.013859336 0.014716481 -0.007331413 -0.0017464192 -0.003708106 0.01791392
-0.0014170918 -0.008785905 0.006572162 -0.0153590515 0.005594861 0.024893546 -0.009842129 -0.021002037
0.002567392 -0.016597396 -0.007719122 0.008824561 -0.0075439825 0.003184455 0.009677257 0.01875992
-0.004910152 -0.008715958 0.010309854 -0.009123507 0.0041959053 -0.0036448992 -0.0021352565 0.006857661
-0.009629548 -0.0017604871 0.0075622783 -0.0004396514 0.00031139338 -0.0015114086 -0.009533851 -0.013718041
0.004535577 0.00763132 0.0004897203 0.013309884 0.0028903277 0.007120918 -0.0016943231 -0.006422707

discrete_action_output_shape f4 [1, 4]
00000000: 0000 4040 0000 4040 0000 4040 0000 0040
3.0 3.0 3.0 2.0

network_body._body_endoder.seq_layers.0.bias f4 [128]
00000000: 0000 0000 0000 0000 0000 0000 0000 0000
00000010: 0000 0000 0000 0000 0000 0000 0000 0000
00000020: 0000 0000 0000 0000 0000 0000 0000 0000
00000030: 0000 0000 0000 0000 0000 0000 0000 0000
00000040: 0000 0000 0000 0000 0000 0000 0000 0000
00000050: 0000 0000 0000 0000 0000 0000 0000 0000
00000060: 0000 0000 0000 0000 0000 0000 0000 0000
00000070: 0000 0000 0000 0000 0000 0000 0000 0000
00000080: 0000 0000 0000 0000 0000 0000 0000 0000
00000090: 0000 0000 0000 0000 0000 0000 0000 0000
000000a0: 0000 0000 0000 0000 0000 0000 0000 0000
000000b0: 0000 0000 0000 0000 0000 0000 0000 0000
000000c0: 0000 0000 0000 0000 0000 0000 0000 0000
000000d0: 0000 0000 0000 0000 0000 0000 0000 0000
000000e0: 0000 0000 0000 0000 0000 0000 0000 0000
000000f0: 0000 0000 0000 0000 0000 0000 0000 0000
00000100: 0000 0000 0000 0000 0000 0000 0000 0000
00000110: 0000 0000 0000 0000 0000 0000 0000 0000
00000120: 0000 0000 0000 0000 0000 0000 0000 0000
00000130: 0000 0000 0000 0000 0000 0000 0000 0000
00000140: 0000 0000 0000 0000 0000 0000 0000 0000
00000150: 0000 0000 0000 0000 0000 0000 0000 0000
00000160: 0000 0000 0000 0000 0000 0000 0000 0000
00000170: 0000 0000 0000 0000 0000 0000 0000 0000
00000180: 0000 0000 0000 0000 0000 0000 0000 0000
00000190: 0000 0000 0000 0000 0000 0000 0000 0000
000001a0: 0000 0000 0000 0000 0000 0000 0000 0000
000001b0: 0000 0000 0000 0000 0000 0000 0000 0000
000001c0: 0000 0000 0000 0000 0000 0000 0000 0000
000001d0: 0000 0000 0000 0000 0000 0000 0000 0000
000001e0: 0000 0000 0000 0000 0000 0000 0000 0000
000001f0: 0000 0000 0000 0000 0000 0000 0000 0000
0.0 0.0 0.0 0.0 0.0 0.0 0.0 0.0
0.0 0.0 0.0 0.0 0.0 0.0 0.0 0.0
0.0 0.0 0.0 0.0 0.0 0.0 0.0 0.0
0.0 0.0 0.0 0.0 0.0 0.0 0.0 0.0
0.0 0.0 0.0 0.0 0.0 0.0 0.0 0.0
0.0 0.0 0.0 0.0 0.0 0.0 0.0 0.0
0.0 0.0 0.0 0.0 0.0 0.0 0.0 0.0
0.0 0.0 0.0 0.0 0.0 0.0 0.0 0.0
0.0 0.0 0.0 0.0 0.0 0.0 0.0 0.0
0.0 0.0 0.0 0.0 0.0 0.0 0.0 0.0
0.0 0.0 0.0 0.0 0.0 0.0 0.0 0.0
0.0 0.0 0.0 0.0 0.0 0.0 0.0 0.0
0.0 0.0 0.0 0.0 0.0 0.0 0.0 0.0
0.0 0.0 0.0 0.0 0.0 0.0 0.0 0.0
0.0 0.0 0.0 0.0 0.0 0.0 0.0 0.0
0.0 0.0 0.0 0.0 0.0 0.0 0.0 0.0

network_body._body_endoder.seq_layers.0.weight f4 [128, 4]
00000000: d71f 57bf 9060 613f 2cb0 0dbf 696a 093f
00000010: 2949 ad3e c4c2 13bf 2d89 b33d e43c a53b
00000020: 8500 f0bc d89c b8bd 366b 43be 1860 16bf
00000030: 2fc9 c83e 4950 4d3f 1891 39bd de28 9f3e
00000040: cef5 d7be 8cf0 4fb8 e304 a9bd 07ba 4ebe
00000050: e7b4 80be 7cf8 f0be 7f97 f0bc b9c1 bb3d
00000060: cfb8 a13f 0fda 3e3e 6120 1dbf 5e8c 89bf
00000070: abfc 8ebe d371 62bf b4f5 fbbe c4c2 2ebf
00000080: 7259 d73e c156 f93e 7d50 4c3d 51b8 ae3c
00000090: 51c0 6cbd c7e2 1d3f d5af 02bf 30d4 0fbf
000000a0: 168d 47bf e991 223e 5b5f 623f ae14 d13e
000000b0: 8e16 bf3d fdd3 553f fcb1 abbe c484 1bbf
000000c0: fcac ac3d ea11 ad3c bb6e 193f d0a1 a5bd
000000d0: 4c58 2d3e 714e cd3d da84 e33d c04b f03d
000000e0: 79b8 b4bd fcd4 bc3e 65a8 463d 1280 82bd
000000f0: 52f4 6b3f 3ab2 663f 23b3 14bf 4f13 50bf
00000100: 764f c83e 27e1 21be 6b83 0dbe 64b9 243e
00000110: be20 0a3f 686e 883f 4601 42be 48ac 93be
00000120: 29fa f93e 094a 413e 8e90 95be 0c07 1dbe
00000130: 6540 0d3f e2d8 87bf 886f 27be 1b49 98bf
00000140: 661e 823e 4078 5ebe 7320 c63e ea70 2ebe
00000150: bfa9 5ebf 1c7c 93be a7c4 a13e 0893 823f
00000160: ec61 97bc 9b99 d4be dc0f 02bf 409a 143f
00000170: 3eb5 edbe d7d8 363f f763 cdbd dd95 4cbd
00000180: 7080 e03d 7c63 493f 004b 693c 6b4a e33e
00000190: 0911 433f c01e 833f 149a 653e 6cee d73e
000001a0: b513 b6be 3e0a 57bf 1658 d63e 95cd 5e3f
000001b0: c8c7 21bf f2c1 423f 4b88 01be 7904 a83e
000001c0: b8a6 26bf ce08 dd3e c14b 0e3f 04be 12bf
000001d0: d8e8 b7bd f592 863e 17e3 fcbe 647d ab3e
000001e0: 1307 ac3e 0dc5 533f 1c7a 4cbf 7eac b1bd
000001f0: 6db5 a93e ac4a f13d 33d9 34be 3c6c acbe
00000200: 0147 4f3f e1ea dcbe 5d4b abbe d071 b2be
00000210: 4121 a03d a4cf 5a3f c72f b2be 6928 a4be
00000220: 0fc8 6b3f 2008 053d ff53 72be 59e1 63bf
00000230: fe06 273e ce78 81be 9a9b 5d3f 1fd5 723e
00000240: f65e 1abf b528 a0be f0da 023f 7fdc c53e
00000250: db5a 103f 905f 0a3f aa6d c8be 77aa 35be
00000260: 8c04 e43e b393 93be 9899 e23e cdcd 3a3f
00000270: 81b7 1c3f e41d 4c3f 85ad 313e ee53 ecbe
00000280: 80e6 36be 07e7 a8be 1a37 66bf 81f0 21bf
00000290: 1c2d 22bc c42b 1e3f d7e7 213d 90b3 4f3f
000002a0: 3b12 2b3e e9ea 78bf 905e d9bc 319c a6bb
000002b0: ebb7 8bbf f90f 843e c27c a63e eb6b 0dbe
000002c0: 7b8a 49bf 844f fbbd b1f9 2b3f 5c7f 84bf
000002d0: 0751 63be b937 8f3c bf19 9b3d da5d 71bf
000002e0: 0efe 113e e922 d03d e35f 22bb 7df4 733d
000002f0: dee3 113e d69e a9be 0ae8 823e 0dd7 193d
00000300: 0c4f 74be 69d5 293e 917d 7dbe 747e a03f
00000310: 98ef 803e d540 a53e e015 73be fd35 e8bd
00000320: aa0e da3e 7a7e c6be c39e bfbb aa78 713f
00000330: fe50 18bf 4205 7bbd 29c4 8b3f be52 0c3f
00000340: 4e5e 853e 2f28 aa3e f1ab 0fbf f6bf 4e3e
00000350: 874a e1be 19d8 5abe d0da b0be f8b7 1a3d
00000360: cb57 043f cd3e 133d 1bb5 d73e fed3 f4be
00000370: 88b4 1bbf ff4b 103f b788 fcbe f3d8 643f
00000380: 246c 7d3f be52 103f 1fe7 223f db0e 813f
00000390: 6da6 db3e 605c c5bd a7f1 8ebf e85a 8e3c
000003a0: 087c a9bd ecf3 f2be 2748 2ebc 9b14 8f3e
000003b0: dd08 8a3e 9545 1f3f a061 9d3e e23c c6be
000003c0: ebf4 b83e 313e c33d e1cf 893f 0219 963e
000003d0: b75c f7bd 05e8 083d e982 18bf d659 b03e
000003e0: 2b87 b43e e020 a2bd 9cf3 633f 67ff 183f
000003f0: 5a7d b83e efcd 3cbd 1269 9abd 0091 cb3d
-0.8403296 0.8803797 -0.5534694 0.53677994 0.3384488 -0.57719064 0.087663986 0.005042659
-0.029297123 -0.090142906 -0.19083866 -0.5874038 0.3921599 0.8020063 -0.045304388 0.31085867
-0.42179722 -4.9576673e-05 -0.08252885 -0.20188151 -0.25138018 -0.4706458 -0.029369114 0.09167809
1.2634524 0.1863787 -0.6137753 -1.0745962 -0.27927145 -0.8845493 -0.49210894 -0.6826594
0.4206043 0.48699 0.049881447 0.021328123 -0.057800595 0.6167416 -0.5104955 -0.5618315
-0.77949655 0.15875973 0.8842675 0.4083609 0.09330474 0.83526593 -0.3353423 -0.6074946
0.08431432 0.021126706 0.59934586 -0.08087504 0.16928214 0.10024727 0.11109324 0.11733198
-0.08824248 0.36881244 0.048500437 -0.06372084 0.9216968 0.901157 -0.5808584 -0.8127946
0.39123124 -0.15808545 -0.13819663 0.16086346 0.5395621 1.0658693 -0.18945798 -0.28842378
0.4882367 0.18875898 -0.2921185 -0.1533472 0.55176383 -1.0613062 -0.1635114 -1.189731
0.25413817 -0.21725559 0.38696632 -0.17035261 -0.8697776 -0.28805625 0.31595346 1.020112
-0.01847931 -0.41523442 -0.5080545 0.58047867 -0.4642734 0.7142462 -0.100288324 -0.04994761
0.109619975 0.78667426 0.014239073 0.44392714 0.7619787 1.0243759 0.22422057 0.4217409
-0.3556191 -0.84000003 0.4186408 0.87032443 -0.63195467 0.7607719 -0.12649648 0.32815912
-0.6509814 0.4317078 0.5558434 -0.5732119 -0.08979958 0.26283994 -0.49392006 0.33494103
0.33599147 0.8272255 -0.79873824 -0.086754784 0.3314623 0.11781821 -0.1766098 -0.33676326
0.8096772 -0.43147948 -0.33455935 -0.34852457 0.07818843 0.85473084 -0.34802076 -0.3206208
0.9210214 0.03247845 -0.23664854 -0.8901573 0.16311261 -0.2528748 0.86565554 0.23714112
-0.6030115 -0.31281057 0.5111532 0.38644788 0.56388634 0.54052067 -0.39146167 -0.17740808
0.4453472 -0.28823623 0.44257808 0.7297028 0.61217505 0.7973311 0.17351349 -0.46157783
-0.17861366 -0.3298876 -0.8992783 -0.63257605 -0.00989845 0.6178553 0.03952774 0.81133366
0.16706173 -0.97233444 -0.026534349 -0.0050845374 -1.0915502 0.25793436 0.32517058 -0.13810699
-0.7872693 -0.12271026 0.67177874 -1.0351367 -0.22198878 0.017482625 0.0757327 -0.9428383
0.1425707 0.101629086 -0.0024776391 0.059559334 0.1424708 -0.33128995 0.25567657 0.037558604
-0.23858279 0.16585316 -0.24754931 1.253859 0.25182796 0.32276025 -0.23738813 -0.113384224
0.42589313 -0.3876837 -0.0058477833 0.94324744 -0.59498584 -0.06128431 1.0919238 0.54813755
0.2604851 0.33233783 -0.56121737 0.20190415 -0.44002172 -0.21371497 -0.3454194 0.037773103
0.5169646 0.035948563 0.4213036 -0.47817987 -0.60822344 0.5636596 -0.49323055 0.8939354
0.98993134 0.56376255 0.6363391 1.0082659 0.4290041 -0.0963676 -1.1167496 0.017377332
-0.0827561 -0.47451723 -0.01063732 0.27945408 0.26959887 0.6221555 0.30738544 -0.38718325
0.36124358 0.095333464 1.0766565 0.29315954 -0.12078231 0.033424396 -0.59574753 0.3444354
0.35259375 -0.07916427 0.89043593 0.59764713 0.36033136 -0.04609483 -0.07539572 0.09939766

network_body._body_endoder.seq_layers.2.bias f4 [128]
00000000: 0000 0000 0000 0000 0000 0000 0000 0000
00000010: 0000 0000 0000 0000 0000 0000 0000 0000
00000020: 0000 0000 0000 0000 0000 0000 0000 0000
00000030: 0000 0000 0000 0000 0000 0000 0000 0000
00000040: 0000 0000 0000 0000 0000 0000 0000 0000
00000050: 0000 0000 0000 0000 0000 0000 0000 0000
00000060: 0000 0000 0000 0000 0000 0000 0000 0000
00000070: 0000 0000 0000 0000 0000 0000 0000 0000
00000080: 0000 0000 0000 0000 0000 0000 0000 0000
00000090: 0000 0000 0000 0000 0000 0000 0000 0000
000000a0: 0000 0000 0000 0000 0000 0000 0000 0000
000000b0: 0000 0000 0000 0000 0000 0000 0000 0000
000000c0: 0000 0000 0000 0000 0000 0000 0000 0000
000000d0: 0000 0000 0000 0000 0000 0000 0000 0000
000000e0: 0000 0000 0000 0000 0000 0000 0000 0000
000000f0: 0000 0000 0000 0000 0000 0000 0000 0000
00000100: 0000 0000 0000 0000 0000 0000 0000 0000
00000110: 0000 0000 0000 0000 0000 0000 0000 0000
00000120: 0000 0000 0000 0000 0000 0000 0000 0000
00000130: 0000 0000 0000 0000 0000 0000 0000 0000
00000140: 0000 0000 0000 0000 0000 0000 0000 0000
00000150: 0000 0000 0000 0000 0000 0000 0000 0000
00000160: 0000 0000 0000 0000 0000 0000 0000 0000
00000170: 0000 0000 0000 0000 0000 0000 0000 0000
00000180: 0000 0000 0000 0000 0000 0000 0000 0000
00000190: 0000 0000 0000 0000 0000 0000 0000 0000
000001a0: 0000 0000 0000 0000 0000 0000 0000 0000
000001b0: 0000 0000 0000 0000 0000 0000 0000 0000
000001c0: 0000 0000 0000 0000 0000 0000 0000 0000
000001d0: 0000 0000 0000 0000 0000 0000 0000 0000
000001e0: 0000 0000 0000 0000 0000 0000 0000 0000
000001f0: 0000 0000 0000 0000 0000 0000 0000 0000
0.0 0.0 0.0 0.0 0.0 0.0 0.0 0.0
0.0 0.0 0.0 0.0 0.0 0.0 0.0 0.0
0.0 0.0 0.0 0.0 0.0 0.0 0.0 0.0
0.0 0.0 0.0 0.0 0.0 0.0 0.0 0.0
0.0 0.0 0.0 0.0 0.0 0.0 0.0 0.0
0.0 0.0 0.0 0.0 0.0 0.0 0.0 0.0
0.0 0.0 0.0 0.0 0.0 0.0 0.0 0.0
0.0 0.0 0.0 0.0 0.0 0.0 0.0 0.0
0.0 0.0 0.0 0.0 0.0 0.0 0.0 0.0
0.0 0.0 0.0 0.0 0.0 0.0 0.0 0.0
0.0 0.0 0.0 0.0 0.0 0.0 0.0 0.0
0.0 0.0 0.0 0.0 0.0 0.0 0.0 0.0
0.0 0.0 0.0 0.0 0.0 0.0 0.0 0.0
0.0 0.0 0.0 0.0 0.0 0.0 0.0 0.0
0.0 0.0 0.0 0.0 0.0 0.0 0.0 0.0
0.0 0.0 0.0 0.0 0.0 0.0 0.0 0.0

network_body._body_endoder.seq_layers.2.weight f4 [128, 128]
00000000: ae9e 3e3d 0ba0 373d 0531 1cbe 0b9b ab3d
00000010: c04a 3c3d 9e29 34bd 1cc4 553d 5dbc b2bd
00000020: 7442 2e3d 1d58 ba3d 1f96 183d c90c e93d
00000030: 95f0 a6bd 16fd 90bd 19c4 933d 0208 693d
00000040: 5272 2b3e 8783 e23d 6d77 20bb eb30 01be
00000050: 7ecd a8bd b7f9 bebb a441 8ebd b3b3 043d
00000060: dae3 d1bd a3c6 e83d 7525 8f3d d1fc afbd
00000070: 6f9b 82bd a809 71bd 20ae cfbb 52cc a6bd
00000080: f3ce 5b3c 8137 febd 1131 863d 63be cb3b
00000090: 43cb 07bc 20d1 c3bd 68e2 c7bb 221a bfbd
000000a0: 8aa5 84bc 9795 163e 6c72 daba 005a 29be
000000b0: b058 4cbd 6425 243e d00d 8fbd c639 0d3e
000000c0: d034 26bd 4c06 b03d d0ee 863d a73b 3bbc
000000d0: ee22 c4bd c994 bb3d 6567 eabd a6db c13c
000000e0: 4b44 bcbd 538c 01bd 1966 ec3d bc09 813d
000000f0: de71 e3bd bc24 bd3d 8c44 6cbd 5506 843d
00000100: 9a83 0fbd 77b8 c4bd 3cdc 6e3e 3e33 0f3e
00000110: 4834 16bd 4a54 e2bd 1a46 8abc 715b 7b3d
00000120: 504f bcbc 1efb b3bd 6c80 193d 9bfa 1c3d
00000130: e1d8 8e3d d7bd 20be 7be3 16bd b119 f13c
00000140: 4dd9 b43d e6b4 05ba 03e1 d3bc b00d a13d
00000150: 4221 86bd fa3d a23d 0c64 033d fd24 023d
00000160: 465f e3bd 53b8 82bd 64b9 7c3c 6bda b2bd
00000170: 4112 3b3d dbf1 bb3d 88ca 49bd da53 d53d
00000180: 1ea3 c53b f281 ec3d 4711 b13d b525 b73d
00000190: 5871 bbbd 52d2 bfbd 3804 a13c f0df c8bc
000001a0: 0fb8 153b 8d54 3dba 7c2e 53bd 05e5 b1bc
000001b0: f9aa 983d 336f 53bb 30c6 8fbc 62cd 4f3d
000001c0: 087e 513e e183 86bd 93ef e53d 3da8 62bd
000001d0: c164 463d ec0f 5e3d 79bd a4bd 27fe 1c3d
000001e0: 1e31 54be d436 9d3c 4a9f 903d 8932 73bd
000001f0: acc7 bfbd 80b3 1bbe dd0d 98bd e23d 5dbd
00000200: 09f0 cfbd 78b4 4bbd ca9a 853d 4d76 823d
00000210: acb9 1ebe 7f49 63bd 9967 93bd 4531 423d
00000220: a208 3f3e f2a6 0fbd be62 823c 04ca 733d
00000230: 5ece 8e3d 00e4 bcbd f1b3 1abd 0337 f93d
00000240: 6c4d 4b3d 3fe0 f53d 5902 073e d6a4 1b3d
00000250: 752e 22be 7ec7 cbbd 47f8 0f3e ba0b 853d
00000260: f7d2 943c 0e5b 8f3d 8ced 3f3d 7b6e 51be
00000270: 763b 573d 2ef0 41bd 3b92 a03d 442e f2bc
00000280: 8c39 f3bc dc50 483c 618b ecbc 06dd bdbd
00000290: 0430 aebd 6b7d f93c 3511 dbbd 58f1 c8bc
000002a0: ceb3 f43d 261e 403e fff2 bb3c dcbf 79bd
000002b0: 31d7 6a3d cd88 0abd 7fcc ecbd 1c20 463e
000002c0: 558f 3a3d d5b4 80bd 0a35 50bc c4c2 903d
000002d0: c085 bcbd 256f ecbd e71f 173c 4ad1 ab3c
000002e0: 5cf7 8cbd 3bd9 903c 1376 32be 9f73 a5bc
000002f0: fe02 ecbd 4775 7ebd 9ac8 36bd 2d1d 6ebd
00000300: 67e7 aebd 482a ec3c a5f5 b2bd b007 c7bb
00000310: a48c f03d bbd6 8f3d 0aa0 ae3d b8b0 633d
00000320: 5b9d a9bd caeb b0bd 608f 523e c462 02be
00000330: eb3e fd3d 67df b73c 076e 8f3b 857e d0bd
00000340: 99ac 3f3d 8a68 333d 4b72 f4bb 1a10 7dbd
00000350: f079 18be e123 02bd 3741 8d3d c0a0 473d
00000360: ec22 dc3c 1a60 1a3e 9818 aabc 9606 3f3d
00000370: 2ced 47bd e8fd 49be 27ac 5abd 0031 c5bd
00000380: 339b a3bd 8ff9 5b3d 9109 303d e458 b5bd
00000390: 77e3 893c 9b1f babd 8a8f 633d 66ad 5b3d
000003a0: 18ea 923d ac3c b23c 72cd bebd 855b f73d
000003b0: 8ad1 ed3d a9c2 c0bd 587f 583d 021b aabc
000003c0: fcd5 9f3d f3a5 043e 6a19 6bbd f69a 1bbe
000003d0: fa9e 61bd 99b4 08bd 75cd 6aba fc57 1b3d
000003e0: a95f 2ebd c13d 8f3c 2965 203c 6093 99bb
000003f0: cec3 c2bd 1fc2 ff3b 5a5e 073d cd1b e53c
0.046538047 0.044830363 -0.15253074 0.083791815 0.045969725 -0.043985 0.052188978 -0.08727334
0.042543843 0.090988375 0.03725254 0.11379392 -0.08151356 -0.07079522 0.07215137 0.056892402
0.16742828 0.11060243 -0.0024485246 -0.12616317 -0.082423195 -0.005828108 -0.06946114 0.032397937
-0.10248537 0.11366012 0.06989566 -0.08593143 -0.06377303 -0.0588471 -0.006337896 -0.0814444
0.01341604 -0.1241293 0.065523274 0.006217764 -0.008288207 -0.09561372 -0.006099988 -0.09331156
-0.016192216 0.14705501 -0.001666618 -0.16538239 -0.049889266 0.16029888 -0.069850564 0.1379157
-0.04057771 0.08594951 0.065885186 -0.011427796 -0.09576975 0.09159238 -0.11445502 0.023664307
-0.09192713 -0.031627964 0.11542911 0.06300685 -0.11105703 0.09235522 -0.05768256 0.0644652
-0.035037614 -0.096054964 0.233262 0.13984391 -0.036670953 -0.11051233 -0.01687913 0.061366502
-0.022987038 -0.08788131 0.03747599 0.038324933 0.0697496 -0.15697418 -0.036838036 0.029431196
0.08830509 -0.00051005033 -0.02586413 0.07863939 -0.06549312 0.07921977 0.032077834 0.031773556
-0.11102156 -0.06382813 0.01542506 -0.08733066 0.045671705 0.0917699 -0.049265414 0.10416384
0.006031408 0.115482226 0.086458735 0.08942739 -0.09152478 -0.09366287 0.019655332 -0.024520844
0.0022845303 -0.0007222377 -0.051558003 -0.02171565 0.074544854 -0.0032262325 -0.017550558 0.050732978
0.20458233 -0.06568123 0.11227336 -0.055336226 0.04843593 0.054214403 -0.080439515 0.038328316
-0.20721862 0.019191183 0.07061632 -0.059374366 -0.09364256 -0.15205193 -0.07424519 -0.054014094
-0.10153205 -0.049732655 0.06523664 0.0637022 -0.15500516 -0.055490013 -0.07197494 0.04741027
0.18655637 -0.03507132 0.015916225 0.05951883 0.06972955 -0.09223175 -0.03776926 0.12168696
0.049634382 0.12005662 0.1318449 0.037998997 -0.15838034 -0.099501595 0.14059554 0.06496377
0.018167002 0.06999789 0.0468574 -0.20452301 0.05254694 -0.047348194 0.07840391 -0.029563077
-0.029690526 0.01222631 -0.028875055 -0.092706725 -0.08505252 0.030455312 -0.10696641 -0.024529144
0.119483575 0.187615 0.022943018 -0.060973987 0.05733413 -0.03382187 -0.11562442 0.19348186
0.04554685 -0.06284491 -0.012707958 0.070683986 -0.09205198 -0.11544637 0.009223915 0.02097382
-0.068831176 0.017681709 -0.17427854 -0.020196734 -0.11524008 -0.062123563 -0.044624902 -0.058133293
-0.0854023 0.028828755 -0.08738259 -0.0060739145 0.11745575 0.070233785 0.08526619 0.055588454
-0.08281966 -0.08638723 0.20562506 -0.12732989 0.12365516 0.022445394 0.00437713 -0.10180382
0.04679546 0.043800868 -0.007459914 -0.061782934 -0.14890265 -0.031772498 0.06897204 0.048737288
0.02687212 0.15075722 -0.02076368 0.04663714 -0.04881017 -0.19725764 -0.053386834 -0.09628487
-0.07988586 0.053704794 0.042977873 -0.08854845 0.016832097 -0.090880595 0.05555681 0.053632163
0.07173556 0.021757446 -0.09316529 0.12078003 0.11612232 -0.094121285 0.05285582 -0.020764831
0.07804486 0.1295393 -0.057397284 -0.15195832 -0.055083252 -0.033375356 -0.0008957007 0.037925705
-0.042571697 0.017485501 0.009789743 -0.004686758 -0.09510003 0.0078051235 0.033048965 0.027967358
