results/wonderAgent02/WonderAgentHealing/checkpoint.pt (torch, 438495 bytes, 36 tensors)

network_body._body_endoder.seq_layers.0.weight f4 [128, 6]
0.4237563 0.10381157 0.07225169 0.61657816 0.35799825 -0.17405325 0.33042485 0.3421539
0.57221305 -0.1616322 -0.1908074 -0.39809898 -0.38840392 -0.97742754 0.5640553 0.04616595
0.017127134 0.67951083 0.16882756 -0.054251272 0.50397575 -0.039907545 0.12008486 -0.4025857
0.47277817 0.6322031 -0.098716475 -0.15578437 -0.27927592 0.2885867 0.21482465 0.18265496
-0.51434916 0.73012656 0.26713783 -0.09957846 -0.17268717 -0.26082805 0.1458648 0.55956924
-0.030275194 -0.3032362 -0.5396794 -0.6264829 -0.21054843 0.0595376 0.06532719 0.44649598
0.076112166 -0.14515266 -0.2501515 -0.38036588 0.12544061 0.3221287 0.35106438 0.35327724
0.055768006 -1.2724935 0.11909382 -0.013272827 0.3166931 -0.33136588 -0.0121947 -0.3098671
-0.3002278 -0.1837032 -0.5465506 -0.43427756 -0.12552305 -0.5236982 -0.48485205 -0.29028314
-0.2868547 -0.41521558 -0.014562871 -0.09772987 -0.7112318 0.14177 0.21784914 0.067515336
-0.11598448 -0.0501602 0.41632918 0.13175525 -0.20258068 0.3668959 -0.56136805 0.022075325
0.21004096 -0.09510117 0.1264544 -0.35050213 -0.42764264 -0.9997717 0.17803282 -0.74333215
0.47251052 0.7551507 -0.07313337 0.41018373 0.14859378 0.4816708 0.81275946 -0.16955636
0.22128874 -0.45007733 0.17484152 -0.15628894 -0.5271818 -0.3960099 -0.21386622 0.29194748
-0.949577 0.4506627 0.1537843 0.3666091 0.012702176 0.0431398 0.2734998 0.37991825
0.84628505 -0.5102832 0.14316796 0.16188823 0.2337855 -0.22472161 -0.18605177 0.5905275
-0.15017338 0.22163668 -0.43458635 0.41382417 -0.5549437 -0.05837345 -0.3450032 0.2179352
0.32781854 -0.17797518 -0.014029051 -0.60388637 -0.52441007 0.068566196 0.9636646 -0.29245755
-0.81997967 0.27100047 0.10134083 0.27440542 0.42027226 0.4813507 0.0015193546 0.049955543
0.2631603 -0.44653568 -0.8417502 0.55821866 -0.3977596 -0.17534688 0.71868175 0.19838817
-0.019375613 0.27537632 0.10734818 -0.20588988 -0.20145535 0.3050973 -0.13495925 -0.7899704
-0.5616919 0.1721191 0.04704753 -0.51495206 0.35442042 -0.20147742 -0.18001159 -0.013498087
0.12534997 -0.06559961 0.30403924 0.28626257 -0.65374506 -0.11369749 0.15394504 0.39666465
0.2187073 -0.253761 -0.5549562 0.03212605 -0.32141295 0.51359236 0.42833117 0.2722414
0.6499038 0.29810476 -0.08765337 -0.1545715 -0.1069181 0.054521643 -0.27374405 1.1742054
0.6897873 -0.3731485 -0.16781974 -0.40717375 0.26102653 -0.16717868 -0.05622447 0.53547883
0.1164466 -0.58491206 0.02546322 -0.50006366 -0.23192148 -0.31994498 0.17572334 0.21130472
0.6859109 -0.00041444233 0.12764834 -1.3221812 0.30570197 0.0050580488 0.28605995 -0.3821927
0.13922003 -0.34059924 -0.34212786 0.51620907 0.27131614 0.85778147 0.73385847 0.6799609
0.22021961 0.8191511 -0.29699898 0.17925882 -0.046357173 -0.3893977 0.6709449 -1.1070626
0.5957594 -0.015148654 -0.010810414 -0.39171493 -0.29924482 0.048859857 -1.288703 -0.036926735
-0.21096836 -0.38385022 -0.29714686 0.12108413 0.7667305 -0.4952755 -0.81103146 -0.23192616
00000000: 96f6 d83e 299b d43d b2f8 933d 11d8 1d3f
00000010: 8c4b b73e 043b 32be 722d a93e cc2e af3e
00000020: 8e7c 123f e982 25be 0463 43be a1d3 cbbe
00000030: e1dc c6be b138 7abf ee65 103f 8218 3d3d
00000040: 344e 8c3c 6cf4 2d3f 22e1 2c3e 9536 5ebd
00000050: 8e04 013f 1876 23bd 0def f53d b61f cebe
00000060: fb0f f23e 10d8 213f dd2b cabd f085 1fbe
00000070: 41fd 8ebe a3c1 933e fefa 5b3e e709 3b3e
00000080: 63ac 03bf 93e9 3a3f 4ac6 883e cbef cbbd
00000090: e8d4 30be 418b 85be 955d 153e ee3f 0f3f
000000a0: af03 f8bc c641 9bbe 6e28 0abf 2f61 20bf
000000b0: 029a 57be b3dd 733d 43ca 853d 1f9b e43e
000000c0: b2e0 9b3d e6a2 14be db13 80be 51bf c2be
000000d0: 8173 003e 0eee a43e b6be b33e c1e0 b43e
000000e0: fe6c 643d 11e1 a2bf 76e7 f33d 4576 59bc
000000f0: 9925 a23e caa8 a9be 47cc 47bc e7a6 9ebe
00000100: 75b7 99be b11c 3cbe bdea 0bbf a159 debe
00000110: 1d89 00be 1611 06bf 873e f8be fe9f 94be
00000120: 9fde 92be 2397 d4be 1c99 6ebc 9926 c8bd
00000130: 4a13 36bf 282c 113e d813 5f3e 7b45 8a3d
00000140: 4589 edbd c874 4dbd 1929 d53e d9ea 063e
00000150: 4f71 4fbe c8d9 bb3e d1b5 0fbf 50d7 b43c
00000160: fa14 573e 67c4 c2bd 437d 013e 0475 b3be
00000170: faf3 dabe 0af1 7fbf 3c4e 363e 044b 3ebf
00000180: e6ec f13e 8e51 413f f3c6 95bd 9a03 d23e
00000190: f828 183e 8e9d f63e 0111 503f 2fa0 2dbe
000001a0: 8499 623e 8970 e6be a809 333e 350a 20be
000001b0: 63f5 06bf cfc1 cabe bfff 5abe 247a 953e
000001c0: 7a17 73bf 43bd e63e a279 1d3e 30b4 bb3e
000001d0: ca1c 503c 5cb3 303d 2a08 8c3e a584 c23e
000001e0: 23a6 583f eba1 02bf 9f9a 123e 07c6 253e
000001f0: 7765 6f3e 6c1d 66be 5b84 3ebe cf2c 173f
00000200: 0dc7 19be baf4 623e 1a82 debe c3e0 d33e
00000210: ca10 0ebf 0019 6fbd 42a4 b0be 682a 5f3e
00000220: d5d7 a73e 203f 36be 1bda 65bc 4c98 1abf
00000230: bd3f 06bf 6f6c 8c3d b9b2 763f ffbc 95be
00000240: 30ea 51bf 93c0 8a3e c88b cf3d de7e 8c3e
00000250: ed2d d73e 9973 f63e 1525 c73a 2f9e 4c3d
00000260: f2bc 863e 53a0 e4be f17c 57bf 6be7 0e3f
00000270: 25a7 cbbe 228e 33be 87fb 373f 4526 4b3e
00000280: 9bb9 9ebc 20fe 8c3e 5dd9 db3d ccd4 52be
00000290: 504a 4ebe b735 9c3e c232 0abe 803b 4abf
000002a0: 0acb 0fbf fd3f 303e e9b4 403d e6d3 03bf
000002b0: 9876 b53e 1950 4ebe f554 38be 1527 5dbc
000002c0: be5b 003e 1759 86bd 08ab 9b3e 0291 923e
000002d0: d65b 27bf 3bda e8bd c5a3 1d3e a117 cb3e
000002e0: cef4 5f3e f6ec 81be 9c11 0ebf 9b96 033d
000002f0: 3d90 a4be ca7a 033f 394e db3e 3a63 8b3e
00000300: 1860 263f 30a1 983e 9c83 b3bd fe47 1ebe
00000310: e0f7 dabd 1652 5f3d 2e28 8cbe 5d4c 963f
00000320: e795 303f 520d bfbe f0d8 2bbe 1479 d0be
00000330: 45a5 853e e330 2bbe a14b 66bd 2415 093f
00000340: 8e7b ee3d ccbc 15bf 3e98 d03c 2c04 00bf
00000350: d37c 6dbe d4cf a3be d2f0 333e 4460 583e
00000360: db97 2f3f 8249 d9b9 3fb6 023e 3c3d a9bf
00000370: f884 9c3e fdbd a53b 7376 923e c3ae c3be
00000380: b28f 0e3e 0663 aebe 622b afbe 4726 043f
00000390: f3e9 8a3e 9197 5b3f 26de 3b3f eb11 2e3f
000003a0: 4081 613e e3b3 513f 4010 98be a08f 373e
000003b0: 05e1 3dbd 235f c7be 0cc3 2b3f 3ab4 8dbf
000003c0: b083 183f 0f32 78bc 2a1e 31bc dc8e c8be
000003d0: 9e36 99be 4621 483d 38f4 a4bf 7d40 17bd
000003e0: 1708 58be 0488 c4be a223 98be f5fa f73d
000003f0: 7348 443f c094 fdbe c29f 4fbf 0d7e 6dbe

network_body._body_endoder.seq_layers.0.bias f4 [128]
-0.00010362949 0.00047263724 0.0039041147 -0.0006023385 -0.00043203242 6.203074e-05 0.00034412756 0.0047086757
-0.0005440265 -0.00048550148 -0.00079260574 -0.0052088723 0.003271023 0.000161917 0.00012327512 -0.0006321659
8.555991e-05 -0.00065514864 0.0028018842 -0.0009661325 -0.00037060608 -3.1395289e-06 -0.0024188128 -0.0015616152
0.00027246837 2.0031654e-05 0.00044546736 0.00013479267 -0.00044654927 0.002737903 0.0040409407 -0.00030922747
0.00017179191 -0.00032614387 -0.00042907408 0.0034580457 -0.0012190477 0.00086426846 9.207009e-05 -0.00012422742
-0.00027554986 0.003958138 -0.00018486865 -0.0053061503 0.00037906022 -0.0042354916 -0.00047404398 -0.00024643616
-0.005441704 0.0013244137 -0.00035371442 0.0010998684 -8.319862e-05 -0.0011722851 -0.0036518094 -0.0013510252
-0.0003403978 -0.0003537428 0.00026348245 0.0008309783 -0.0044595683 -0.00031941768 -0.00050114375 0.0011071056
-0.00047580674 -0.00013629126 -0.0049830866 -0.00038167412 0.0037969186 -0.0004574172 -0.0029099945 -0.0007442216
0.0002513615 -0.005441725 0.00016176487 -0.00010648122 -4.6072342e-05 0.0012633948 0.00020596864 -0.00040351707
8.3913495e-05 0.00031835283 -0.00013259453 0.0012421681 -0.00034338984 0.000868551 0.0014606299 0.0027264075
0.0021497495 6.4438896e-06 -0.0024261964 -9.7999946e-05 -2.2089132e-05 -0.00093266077 -2.811858e-05 -0.0016890441
0.0034895171 -0.00027857584 -0.0031570485 -0.00018740896 -0.00024152892 7.384476e-05 0.0024130023 -0.0002787563
-0.0036881946 5.7982215e-05 -8.33222e-05 0.00045701608 0.0003510632 -0.00037789633 0.0008720469 0.0020580632
-0.00096278696 -9.681699e-05 -0.00030330205 -0.00031935173 -0.0008933193 -0.00016993575 -0.0025814446 0.00015133103
0.0021822245 -0.0013642976 0.00033140846 2.680612e-05 -0.0005943032 0.00023913648 0.00015783074 -3.2906206e-05
00000000: a953 d9b8 4ccc f739 2ddc 7f3b 41e6 1dba
00000010: 6982 e2b9 8016 8238 056c b439 3c4b 9a3b
00000020: 009d 0eba e88a feb9 dfc6 4fba 30af aabb
00000030: a95e 563b 44c8 2939 6a43 0139 efb7 25ba
00000040: a06e b338 48be 2bba d19f 373b 0e44 7dba
00000050: e84d c2b9 b2b0 52b6 f284 1ebb 1caf ccba
00000060: 16da 8e39 a609 a837 9e8d e939 2257 0d39
00000070: d41e eab9 646e 333b de69 843b cf1f a2b9
00000080: 0a23 3439 4afe aab9 59f5 e0b9 61a0 623b
00000090: 74c8 9fba 1390 623a c115 c138 0b43 02b9
000000a0: ad77 90b9 45b3 813b 4dd9 41b9 37df adbb
000000b0: 9abc c639 e1c9 8abb 1b89 f8b9 1a34 81b9
000000c0: 5250 b2bb f397 ad3a bf72 b9b9 7629 903a
000000d0: eb7a aeb8 5ca7 99ba 3253 6fbb e214 b1ba
000000e0: 6b77 b2b9 8e76 b9b9 0424 8a39 02d6 593a
000000f0: 9221 92bb 8477 a7b9 305f 03ba 4d1c 913a
00000100: b375 f9b9 68e9 0eb9 2949 a3bb 6f1b c8b9
00000110: b9d5 783b 7fd1 efb9 9bb5 3ebb de17 43ba
00000120: 2bc9 8339 7f50 b2bb 6d9f 2939 ab4e dfb8
00000130: cd3d 41b8 7f98 a53a 49f9 5739 258f d3b9
00000140: b7fa af38 98e8 a639 1309 0bb9 3fd0 a23a
00000150: 0109 b4b9 79af 633a 9b72 bf3a 87ad 323b
00000160: d0e2 0c3b 9738 d836 d200 1fbb 5285 cdb8
00000170: 0d4c b9b7 ce7d 74ba 31e0 ebb7 ea62 ddba
00000180: 62b0 643b d10d 92b9 7ce6 4ebb 3683 44b9
00000190: ed42 7db9 1bdd 9a38 7623 1e3b 0a26 92b9
000001a0: a3b5 71bb ee31 7338 44bd aeb8 a99b ef39
000001b0: e80e b839 6320 c6b9 149a 643a 92e0 063b
000001c0: 8a63 7cba 3a0a cbb8 8304 9fb9 aa6e a7b9
000001d0: a52d 6aba c830 32b9 742d 29bb 9dae 1e39
000001e0: a703 0f3b 3bd2 b2ba e4c0 ad39 b4dd e037
000001f0: 03cb 1bba b6c0 7a39 5e7f 2539 c504 0ab8

network_body._body_endoder.seq_layers.2.weight f4 [128, 128]
-0.020024061 -0.015610692 0.13883512 -0.039500084 0.06775552 -0.032887775 0.1757604 -0.07605296
-0.019135721 0.13339254 0.044351146 -0.027690563 0.026067706 0.02955687 -0.12217161 0.114333495
0.07700156 -0.15037309 0.10045728 0.012593081 0.07282974 -0.13915133 0.07943639 -0.0360412
0.08815035 -0.03183973 -0.08965953 -0.09149556 0.016678607 -0.08080893 0.08239336 -0.11987208
0.22498716 0.08011496 -0.118684486 0.013483761 0.114896335 0.008860826 0.009601359 -0.09411946
0.17279452 -0.051104777 0.027288362 -0.15368958 -0.08416219 0.038778815 0.039813705 0.10108455
0.13622764 -0.03059235 0.11887317 -0.10449947 -0.0970532 0.038471088 0.04014771 -0.017350104
0.061765965 -0.0049729673 -0.108229995 0.07339005 -0.017544122 -0.028889224 0.080262825 -0.068214394
0.06553342 -0.032479808 0.029052163 0.04695332 0.09227636 -0.07818124 0.08678257 0.002793597
-0.03000391 -0.11991561 -0.011709841 0.020171035 0.06780175 0.14143804 -0.076683864 0.0100635225
0.0682879 -0.025972595 -0.006831951 0.023522908 -0.13095908 0.07321285 -0.08872893 0.020799628
-0.0010227275 -0.24160595 -0.029189581 -0.15877296 0.02286225 -0.12189575 -0.08807408 0.08705211
-0.17984399 0.0054335496 -0.14728709 -0.06713199 0.05685617 -0.03690663 0.1454806 0.03783349
-0.12108432 -0.081369035 0.11637597 0.028327327 -0.040987864 -0.14429273 -0.030456353 -0.03289363
-0.06450469 0.14540875 0.054576408 0.18613824 -0.09830675 -0.10179055 -0.04111637 0.022900509
-0.05751822 0.06979105 -0.03756537 -0.059316877 -0.05036426 -0.032540083 -0.033822548 -0.09521947
0.042959534 -0.17687412 0.10114336 0.061839476 0.06918173 0.041833106 -0.0072886525 0.024088413
-0.024911847 -0.09295594 0.017700005 -0.044619653 -0.0893446 -0.030518234 0.096043244 0.12243534
-0.107253484 0.055472612 -0.06760957 0.1379236 0.021336002 0.077771775 -0.032075983 -0.006909152
0.07879655 -0.036363665 0.1225806 0.0065384344 -0.085993215 0.00817273 0.057657555 -0.05471312
-0.12000383 -0.044920847 -0.020589374 -0.00433711 -0.06426804 -0.13403864 -0.08252256 0.11899161
0.122478314 -0.049679905 -0.084606834 -0.00022297843 -0.04598347 0.077440515 0.033889674 -0.0915678
-0.083321445 -0.04131977 -0.15653868 0.048252814 0.08216359 0.022767356 0.018446159 0.02232215
0.06747893 0.0600766 0.0758065 0.038247485 -0.09362993 -0.0059032463 0.09240266 -0.039167825
-0.11888516 0.08308213 0.047056083 0.0026385617 -0.21511145 -0.21032295 0.030849643 0.015244412
-0.101491906 -0.03390318 -0.056775678 0.021853996 -0.051077854 -0.022475211 0.08889075 0.01699567
-0.021408662 -0.09282592 0.02325019 0.15939112 0.086694196 0.0055835345 -0.14484626 0.07442417
0.06844922 -0.0205233 0.14315838 -0.070038304 0.065192156 -0.06557746 0.036434412 0.0515082
0.19240884 -0.025582196 -0.06451072 0.1467517 0.15095925 -0.06942809 -0.095123865 -0.12734318
-0.08350876 0.033500995 0.13963087 0.029688517 0.038705286 -0.09142371 -0.101873286 -0.023449866
-0.013176431 0.1208774 0.05217008 0.03332169 0.14444934 0.09828596 -0.057075683 -0.050414603
-0.027099341 0.04471118 -0.12736255 0.07009859 -0.16923195 0.048224524 -0.0037324606 0.01978057
00000000: 8009 a4bc fdc3 7fbc cb2a 0e3e d7ca 21bd
00000010: 68c3 8a3d 55b5 06bd 89fa 333e a7c1 9bbd
00000020: 84c2 9cbc 0e98 083e 8ca9 353d 52d7 e2bc
00000030: f18b d53c 4021 f23c 1c35 fabd ae27 ea3d
00000040: feb2 9d3d 67fb 19be 8cbc cd3d 3653 4e3c
00000050: c227 953d b07d 0ebe 8caf a23d f09f 13bd
00000060: 2c88 b43d 606a 02bd 6a9f b7bd 0662 bbbd
00000070: 93a1 883c 277f a5bd dabd a83d 7e7f f5bd
00000080: 0963 663e 5013 a43d da10 f3bd feea 5c3c
00000090: c54e eb3d ff2c 113c 054f 1d3c b4c1 c0bd
000000a0: 0cf1 303e 3e53 51bd d88b df3c cd60 1dbe
000000b0: 3a5d acbd 89d6 1e3d b213 233d 6b05 cf3d
000000c0: 427f 0b3e cf9c fabc c773 f33d d103 d6bd
000000d0: d4c3 c6bd dc93 1d3d ed71 243d ce21 8ebc
000000e0: 4ffe 7c3d 46f4 a2bb b0a7 ddbd 864d 963d
000000f0: b1b8 8fbc 18a9 ecbc d660 a43d fdb3 8bbd
00000100: 6336 863d 8c09 05bd cdfe ed3c 2052 403d
00000110: 63fb bc3d 7c1d a0bd 0fbb b13d c814 373b
00000120: c3ca f5bc 5196 f5bd a2da 3fbc ba3d a53c
00000130: a5db 8a3d 22d5 103e 6e0c 9dbd 79e1 243c
00000140: 87da 8b3d 7bc4 d4bc 8fde dfbb 1db3 c03c
00000150: 231a 06be 9ef0 953d 83b7 b5bd fb63 aa3c
00000160: 0a0d 86ba 8d67 77be fd1e efbc 6195 22be
00000170: 9d49 bb3c 7ba4 f9bd 2f60 b4bd 6048 b23d
00000180: 0629 38be eb0b b23b 6dd2 16be 7f7c 89bd
00000190: 04e2 683d 682b 17bd def8 143e 4af7 1a3d
000001a0: 0efb f7bd cfa4 a6bd 8656 ee3d b60e e83c
000001b0: e4e2 27bd 79c1 13be 9a7f f9bc 79bb 06bd
000001c0: 091b 84bd 08e6 143e 838b 5f3d 069b 3e3e
000001d0: 0d55 c9bd 9077 d0bd a469 28bd d999 bb3c
000001e0: 3a98 6bbd 9cee 8e3d 25de 19bd 41f6 72bd
000001f0: c14a 4ebd c048 05bd 8389 0abd 6d02 c3bd
00000200: 56f6 2f3d 7d1e 35be 4024 cf3d 644b 7d3d
00000210: 27af 8d3d 3159 2b3d a6d5 eebb 1055 c53c
00000220: ee13 ccbc af5f bebd 9aff 903c 19c3 36bd
00000230: 4dfa b6bd 6001 fabc 52b2 c43d 61bf fa3d
00000240: b7a7 dbbd 4037 633d e376 8abd d83b 0d3e
00000250: d7c8 ae3c cf46 9f3d 1b62 03bd 2b66 e2bb
00000260: 1660 a13d 11f2 14bd 8a0b fb3d 5d40 d63b
00000270: 361d b0bd eae6 053c 542a 6c3d dd1a 60bd
00000280: 91c4 f5bd ecfe 37bd 0cab a8bc 511e 8ebb
00000290: f69e 83bd 6d41 09be 9701 a9bd e0b1 f33d
000002a0: e9d5 fa3d 287d 4bbd 5946 adbd 51cf 69b9
000002b0: 2a59 3cbd 2299 9e3d e6cf 0a3d e687 bbbd
000002c0: 6fa4 aabd eb3e 29bd ad4b 20be bea4 453d
000002d0: 6245 a83d 9b82 ba3c 661c 973c f1dc b63c
000002e0: 6532 8a3d e212 763d 7040 9b3d 65a9 1c3d
000002f0: 0cc1 bfbd 0570 c1bb 9b3d bd3d 716e 20bd
00000300: 107a f3bd f726 aa3d e1bd 403d b8eb 2c3b
00000310: 2d46 5cbe e65e 57be 64b8 fc3c b3c3 793c
00000320: fdda cfbd 10de 0abd 9d8d 68bd 2707 b33c
00000330: 0337 51bd ef1d b8bc 5b0c b63d 813a 8b3c
00000340: 3861 afbc 841b bebd 2f77 be3c 6d37 233e
00000350: ba8c b13d 15f6 b63b 9452 14be b36b 983d
00000360: 1b2f 8c3d 7b20 a8bc 1c98 123e 3e70 8fbd
00000370: 7783 853d 7a4d 86bd 403c 153d 43fa 523d
00000380: d306 453e c191 d1bc 321e 84bd 1446 163e
00000390: 1095 1a3e 5030 8ebd 4dd0 c2bd 4066 02be
000003a0: a406 abbd 5738 093d 65fb 0e3e 5535 f33c
000003b0: 6f89 1e3d 5b3c bbbd f1a2 d0bd ef19 c0bc
000003c0: f5e1 57bc 928e f73d 4bb0 553d 537c 083d
000003d0: 87ea 133e 264a c93d 31c8 69bd 8b7f 4ebd
000003e0: 70ff ddbc 1223 373d 546b 02be d98f 8f3d
000003f0: 244b 2dbe 1487 453d 4c9c 74bb dd0a a23c

network_body._body_endoder.seq_layers.2.bias f4 [128]
3.8469356e-05 -0.0009787498 0.00051664654 0.005173455 -0.00031066837 0.00031783056 -0.00018532913 0.004712522
0.000102462785 0.004164482 -0.001590675 0.0005995086 0.00027515233 6.88646e-05 -0.00018375427 -3.576873e-05
0.0001018952 0.0029873815 -0.0015911198 0.0018872678 -5.5036133e-05 -0.0003974735 -0.0005678919 -0.00071279256
-0.00020321867 -0.002446225 -0.00013631913 -0.0006928776 9.09903e-05 -0.00014059618 0.00025886734 0.00070703344
-8.0449856e-05 -0.0007027571 0.0003331665 0.00014813758 -0.0015071956 -0.00012955829 0.00012204991 -0.0026778695
-0.0012014522 -0.0032901976 -0.002852671 -0.0013068914 -0.003044232 -0.0011421124 -0.004100105 9.6755255e-05
0.0004612814 0.00052264123 0.00046739733 0.00021938155 5.459249e-05 0.00022830084 6.7503854e-05 -0.0019381626
-0.00062337116 -0.003944461 -0.00087985 -0.0047170315 0.00020339654 0.00011671379 -0.00029951564 -0.00092633814
0.004613637 0.001768777 -0.003467993 -0.00026791776 -0.003731486 -0.0010774874 -3.824125e-05 -0.0001424401
-0.0053438535 0.0051082624 -9.5355135e-05 -9.515991e-05 -6.251995e-05 -0.00032792008 -0.00020991947 -0.00015264007
0.00031689982 -0.0032974563 0.0005353862 0.00017086405 0.0036243713 0.00021592136 -0.00010378932 -0.0003935447
-0.00043665592 0.0001668956 -0.00026005544 0.00019636942 -0.00021610616 0.0036504292 -0.0009968686 -0.0032841049
-9.640299e-05 0.00075858616 1.8346102e-05 -6.1493265e-05 -0.00010694159 -9.628292e-05 0.0045505906 -8.89391e-05
0.00013379761 0.0014100316 -0.0049756956 0.0024883042 0.004702307 3.2144417e-05 -0.0006402475 0.005094634
-0.00011943713 0.0030699228 -0.00034253826 0.0038164996 0.00046024204 0.0035554003 -0.00015761492 -0.0006022115
0.005096227 -0.0034393535 -0.00033895182 0.00044982813 0.0058655487 -0.0024620339 -0.0009651325 -0.0017131633
00000000: 285a 2138 6549 80ba 906f 073a 1686 a93b
00000010: 34e1 a2b9 7fa2 a639 e954 42b9 806b 9a3b
00000020: 4ae1 d638 3576 883b 327e d0ba 5728 1d3a
00000030: 5242 9039 676b 9038 29ae 40b9 6206 16b8
00000040: 92b0 d538 f2c7 433b 1f8d d0ba 335e f73a
00000050: 99d6 66b8 fd63 d0b9 95de 14ba b3da 3aba
00000060: 1917 55b9 d850 20bb e3f0 0eb9 3ba2 35ba
00000070: 0cd2 be38 006d 13b9 96b8 8739 3658 393a
00000080: 30b7 a8b8 3b39 38ba daac ae39 6155 1b39
00000090: 188d c5ba 0ada 07b9 0cf5 ff38 327f 2fbb
000000a0: 0c7a 9dba 5ba0 57bb e1f3 3abb 004c abba
000000b0: bd81 47bb efb2 95ba 2c5a 86bb 15e9 ca38
000000c0: 24d8 f139 dc01 093a 020d f539 c909 6639
000000d0: 3dfa 6438 0a64 6f39 db90 8d38 f209 feba
000000e0: bb69 23ba 8940 81bb bca5 66ba 5491 9abb
000000f0: d846 5539 3dc4 f438 4f08 9db9 80d5 72ba
00000100: fe2d 973b 4fd6 e73a 4547 63bb 5077 8cb9
00000110: f28b 74bb 7a3a 8dba 3b65 20b8 f95b 15b9
00000120: 7e1b afbb 3663 a73b 66f9 c7b8 9690 c7b8
00000130: 241d 83b8 b0ec abb9 d41d 5cb9 020e 20b9
00000140: 9325 a639 231a 58bb 2959 0c3a f829 3339
00000150: dc86 6d3b f368 6239 78a9 d9b8 ad54 ceb9
00000160: f7ee e4b9 b200 2f39 0d58 88b9 84e8 4d39
00000170: 8e9a 62b9 0a3c 6f3b 5ca9 82ba 233a 57bb
00000180: f62b cab8 dbdb 463a f4e5 9937 f2f5 80b8
00000190: d445 e0b8 80eb c9b8 1f1d 953b d184 bab8
000001a0: 064c 0c39 cfd0 b83a 290b a3bb d112 233b
000001b0: cf15 9a3b ced2 0638 48d6 27ba e3f0 a63b
000001c0: 527a fab8 c230 493b b596 b3b9 3d1e 7a3b
000001d0: a44c f139 b801 693b 6f45 25b9 bbdd 1dba
000001e0: 40fe a63b c766 61bb 58b5 b1b9 e9d6 eb39
000001f0: ca33 c03b 135a 21bb f200 7dba 398c e0ba

action_model._continuous_distribution.log_sigma f4 [1, 2]
0.0032049082 0.0008144226
00000000: 7009 523b fa7e 553a

action_model._continuous_distribution.mu.weight f4 [2, 128]
0.021929258 -0.0053929137 0.009780809 0.016016418 -0.018945707 0.010373095 0.0106361685 0.009485504
0.015422894 0.010829875 0.001318341 0.039668202 -0.006943406 0.005302666 -0.0151265105 0.022709314
0.013235016 0.02716639 -0.013029375 -0.0014399698 -0.01730476 -0.0346844 0.0019837748 -0.009127017
0.0066763237 0.0023223856 -0.016904483 -0.010087014 0.009439408 0.013502833 0.0056859665 -0.00023078924
-0.026289105 -0.020162364 0.004427906 0.02306393 -0.010015987 0.009843297 -0.018956782 -0.021824135
-0.018652808 -0.024555476 -0.02209852 -0.018877406 -0.014204271 0.002122019 -0.018356241 0.024005791
0.0034390525 -0.0007781924 0.0070358366 -0.009443065 0.012195779 0.0018751273 0.019638244 -0.014109865
-0.01137782 -0.01316321 -0.009829763 -0.03786785 0.009667904 0.020486506 -0.015064237 0.01577132
0.019661635 0.0004798077 -0.0072654705 0.0010329816 -0.0062963837 0.035911612 0.020357395 -0.007109822
-0.014126622 0.013703347 -0.026682323 -0.019372314 0.009668714 -0.002014917 0.0066672913 0.001836828
0.022624763 -0.0019174246 0.012456783 0.034777615 0.0267044 0.016958361 -0.045580115 -0.003375201
0.004369115 0.01593673 -0.017712072 0.009782235 -0.014892385 0.021125391 -0.00054685946 0.006812331
0.004609393 0.02033454 -0.0031886161 0.028125603 -0.0151814 0.027693724 0.008709562 -0.0039397115
-0.018700333 0.027785748 -0.018495943 0.01259862 0.014541538 -0.013626678 -0.03164866 0.03645673
0.01006272 0.026743485 -0.0058019734 0.016160928 0.0096714245 -9.026339e-05 -0.009896945 0.0033920624
0.024848439 -0.0075429576 0.0062409597 0.0003844263 0.018369107 -0.0361323 -0.0004540642 -0.00222842
-0.0044092503 -0.021077652 0.004760413 -0.017360054 0.0010701296 -0.0004447423 -0.0102394195 -0.007995275
0.028880356 0.015180985 0.008950343 0.012137622 0.018159082 0.012644127 -0.0005476556 -0.008402959
0.007834395 -0.0017404907 -0.0028961485 -0.024504552 0.0077763 0.0038568368 0.0011907375 -0.0029815743
-0.012184701 -0.013743245 -6.107068e-05 0.0017589645 0.012976489 -0.006237191 -0.013899069 0.020633897
0.0075363927 -0.018821843 -0.014638435 0.011720745 0.009474965 -0.00347228 0.03263914 0.025390938
0.028369086 0.023384996 0.012569365 -0.022918891 -0.02018718 0.0019642336 0.024517616 -0.007936083
0.02182271 0.029431326 0.0019467932 0.030713614 -0.031016435 0.007400002 -0.004341395 -0.004307895
-0.036080673 0.010007043 -0.014668974 0.01434748 0.0028758363 0.0027769273 -0.0054507195 0.01616362
-0.0341835 -0.018197006 -0.005872376 0.042451832 -0.008106061 -0.011335969 -0.04301222 0.0031957612
-0.0024528604 -0.008492753 0.0051581007 0.0062952205 0.04178996 0.0013596147 -0.006209128 0.0039085257
0.016356211 0.0067151417 0.0048394124 0.015984649 -0.031299163 0.009583447 0.00038607468 -0.009062695
-0.01862453 0.03447486 -0.007824855 0.011284789 -0.003613571 -0.014095404 0.029154956 0.024879726
-0.00044934993 0.01887544 -0.018807715 -0.015304428 0.019731667 -0.016378257 -0.020595593 0.0077109113
0.019508436 -0.021000797 -0.0039671767 0.018879207 -0.017253347 0.020061435 -0.008712705 0.0041670683
-0.006287745 -0.0043609077 -0.0007950569 -0.0024206592 0.019018367 -0.046065982 0.008123465 0.022387639
0.028998766 0.01422143 -0.014198135 0.022218013 0.008601936 -0.026414387 0.022021197 -0.0234574
00000000: fda4 b33c 0ab7 b0bb b03f 203c dd34 833c
00000010: 0734 9bbc eaf3 293c 5343 2e3c 1669 1b3c
00000020: 4eb0 7c3c ca6f 313c 2fcc ac3a 207b 223d
00000030: 8385 e3bb fdc1 ad3b 2fd5 77bc e208 ba3c
00000040: aed7 583c 0d8c de3c 2979 55bc 5ebd bcba
00000050: b6c2 8dbc 3b11 0ebd 3802 023b 7c89 15bc
00000060: 10c5 da3b 2a33 183b 457b 8abc 0144 25bc
00000070: bfa7 1a3c fd3a 5d3c 5851 ba3b 0400 72b9
00000080: 405c d7bc 8b2b a5bc f817 913b 91f0 bc3c
00000090: 181a 24bc c845 213c 414b 9bbc 87c8 b2bc
000000a0: c6cd 98bc 9128 c9bc f507 b5bc caa4 9abc
000000b0: 08b9 68bc 9211 0b3b d45f 96bc cba7 c43c
000000c0: ba61 613b 9cff 4bba e08c e63b 16b7 1abc
000000d0: ced0 473c d5c6 f53a 62e0 a03c 102d 67bc
000000e0: 096a 3abc 81aa 57bc 040d 21bc 521b 1bbd
000000f0: 2166 1e3c 51d3 a73c fdcf 76bc db32 813c
00000100: 7011 a13c b38e fb39 2f13 eebb 1c65 873a
00000110: e551 cebb 0e18 133d 8dc4 a63c 82f9 e8bb
00000120: 5973 67bc 0184 603c e394 dabc b0b2 9ebc
00000130: 8769 1e3c b30c 04bb 4b79 da3b b8c1 f03a
00000140: 9157 b93c 1852 fbba 8917 4c3c f972 0e3d
00000150: 30c3 da3c 43ec 8a3c 37b2 3abd 7a32 5dbb
00000160: cb2a 8f3b bf8d 823c e818 91bc ab45 203c
00000170: 31ff 73bc 280f ad3c 1e5b 0fba f939 df3b
00000180: 640a 973b 9f94 a63c 1af8 50bb aa67 e63c
00000190: 68bb 78bc f3dd e23c 8db2 0e3c b218 81bb
000001a0: 7131 99bc f09e e33c ce84 97bc 716a 4e3c
000001b0: a23f 6e3c 6e42 5fbc 06a2 01bd a753 153d
000001c0: 1bde 243c 2715 db3c 7b1e bebb ec63 843c
000001d0: e574 1e3c ca4b bdb8 cc26 22bc 5d4d 5e3b
000001e0: f48e cb3c ea2a f7bb f780 cc3b d38c c939
000001f0: cf7a 963c 76ff 13bd 770f eeb9 af0a 12bb
00000200: 797b 90bb 0aab acbc 3dfd 9b3b ac36 8ebc
00000210: 9743 8c3a 4d2c e9b9 3dc3 27bc 9dfe 02bc
00000220: 7f96 ec3c abb9 783c 76a4 123c e0dc 463c
00000230: 5bc2 943c 5029 4f3c 8c90 0fba 91ac 09bc
00000240: d65b 003c 2d21 e4ba 4fcd 3dbb c5bd c8bc
00000250: 55d0 fe3b fcc2 7c3b 8512 9c3a 8466 43bb
00000260: 57a2 47bc 592b 61bc 1213 80b8 0e8d e63a
00000270: 579b 543c 5a61 ccbb ecb8 63bc 6b08 a93c
00000280: d8f3 f63b 4430 9abc 0cd6 6fbc 5e08 403c
00000290: e23c 1b3c 318f 63bb 9eb0 053d a800 d03c
000002a0: 4966 e83c e491 bf3c bdef 4d3c 66c0 bbbc
000002b0: 965f a5bc 5fba 003b 2bd9 c83c 5806 02bc
000002c0: 8ac5 b23c f719 f13c 8a2b ff3a 1e9b fb3c
000002d0: 2e16 febc b77b f23b 4342 8ebb 3e29 8dbb
000002e0: 54c9 13bd 95f4 233c 2356 70bc b111 6b3c
000002f0: 8778 3c3b 1cfd 353b f39b b2bb 9169 843c
00000300: ff03 0cbd e311 95bc 0f6d c0bb f9e1 2d3d
00000310: 49cf 04bc 80ba 39bc 952d 30bd fa6f 513b
00000320: 2bc0 20bb 3025 0bbc 4905 a93b 2348 ce3b
00000330: f32b 2b3d 1935 b23a f175 cbbb 1713 803b
00000340: 76fd 853c b10a dc3b ef93 9e3b 3df2 823c
00000350: 8d33 00bd e403 1d3c 116a ca39 b37b 14bc
00000360: 7892 98bc 8335 0d3d d233 00bc d6e3 383c
00000370: a9d1 6cbb 69f0 66bc 60d6 ee3c 91d0 cb3c
00000380: ba96 ebb9 aba0 9a3c a312 9abc 6cbf 7abc
00000390: 4ea4 a13c b22b 86bc 17b8 a8bc d0ab fc3b
000003a0: 28d0 9f3c dd09 acbc 17ff 81bb 91a8 9a3c
000003b0: e456 8dbc e157 a43c bcbf 0ebc e78b 883b
000003c0: 6e09 cebb f2e5 8ebb 5e6b 50ba eca3 1ebb
000003d0: 68cc 9b3c afaf 3cbd 4818 053c 4866 b73c
000003e0: d28e ed3c 0001 693c 4b9f 68bc 8d02 b63c
000003f0: 22ef 0c3c fc62 d8bc cc65 b43c bc29 c0bc

action_model._continuous_distribution.mu.bias f4 [2]
0.0002486434 0.0003894453
00000000: 5a5c 8239 772e cc39

exp_avg f4 [128, 6]
0.0012721224 -0.0005147755 1.9673349e-05 -1.6074118e-05 0.0 0.0 -0.0012506256 -0.001818873
-8.8696015e-06 3.312406e-06 0.0 0.0 -4.471697e-06 5.1810707e-06 1.8597124e-06 3.6337622e-07
0.0 0.0 -0.0014323026 -0.0014259419 -7.1152017e-06 1.7416534e-05 0.0 0.0
-0.0014581452 -0.0020753932 -2.2875425e-05 2.5582853e-05 0.0 0.0 0.0015536004 0.0009743925
6.652723e-06 -1.072567e-05 0.0 0.0 8.529891e-06 8.9379955e-06 3.0487854e-06 1.1902808e-05
0.0 0.0 -8.605893e-06 1.9739082e-06 1.4621473e-07 2.4343226e-06 0.0 0.0
0.0010106016 0.0004621165 -2.1411173e-05 -1.1007841e-06 0.0 0.0 0.00026095263 0.0013500056
-8.292363e-06 1.50124215e-05 0.0 0.0 -0.00021121209 0.0003609591 2.2164408e-05 -7.638387e-06
0.0 0.0 8.323779e-06 -1.2946205e-05 6.640527e-06 3.0181104e-06 0.0 0.0
-8.5818665e-06 5.6293306e-06 -3.7610612e-06 3.3144217e-06 0.0 0.0 -0.002320421 -0.0012835022
-4.3709682e-05 1.7455604e-05 0.0 0.0 0.00042950647 0.00014403871 8.488228e-06 -2.5687552e-06
0.0 0.0 0.00025074006 0.00010359315 1.204081e-05 1.3035087e-05 0.0 0.0
0.0006967223 0.00023344206 -1.9232516e-06 5.000724e-06 0.0 0.0 0.0007937751 0.00017591298
7.850769e-06 -1.8319552e-05 0.0 0.0 -6.7953697e-06 5.134245e-06 2.402685e-07 -2.8003913e-06
0.0 0.0 0.0001659349 0.001805626 6.491264e-07 -1.0650851e-05 0.0 0.0
-0.0017873487 -0.0012541949 -1.1609937e-05 -4.7943395e-06 0.0 0.0 -0.0005142783 -0.0009568242
1.1692971e-05 9.214669e-06 0.0 0.0 -1.0774718e-05 -3.6949026e-05 2.4015717e-06 -3.3057195e-06
0.0 0.0 1.0946442e-06 8.080741e-06 -1.1181193e-05 -8.225024e-06 0.0 0.0
-4.9182927e-06 0.0006474245 3.6947515e-06 -5.5887385e-06 0.0 0.0 -0.0016414607 0.0009972947
-1.6161706e-05 1.842155e-05 0.0 0.0 -8.286625e-06 6.6676284e-06 -7.322923e-06 -4.207077e-06
0.0 0.0 0.00029940848 0.00021449706 -5.6264303e-06 2.3346354e-06 0.0 0.0
2.0729505e-05 0.0022942226 -1.4348795e-05 -1.3335287e-05 0.0 0.0 7.616715e-06 -0.00012837569
-1.1615899e-06 3.6600793e-06 0.0 0.0 -1.8770972e-05 7.680139e-06 -5.63905e-06 -2.4129404e-06
0.0 0.0 -1.2301432e-05 -0.0008498626 1.1115062e-05 1.188495e-05 0.0 0.0
-0.0009999305 -5.8220117e-05 1.4204996e-05 1.773623e-05 0.0 0.0 -0.00043504633 0.00091362844
2.4914457e-06 2.0901689e-05 0.0 0.0 0.00377164 0.0034345817 2.0038238e-05 -1.2325855e-05
0.0 0.0 0.00033629648 1.7541108e-05 -2.0956788e-06 8.799982e-06 0.0 0.0
0.0028493097 0.0049471734 3.6886016e-05 1.0378701e-05 0.0 0.0 0.00037534616 0.00016486569
4.739842e-06 -9.783403e-07 0.0 0.0 0.00041465662 -0.0003128769 1.5932898e-06 -2.1797314e-06
0.0 0.0 -0.00019747007 -0.0005037753 9.414522e-06 -2.6359298e-06 0.0 0.0
-0.0025247177 -0.0014796769 -1.6249798e-05 1.4002902e-05 0.0 0.0 1.28856655e-05 -1.5498954e-05
3.0241717e-06 5.8946575e-06 0.0 0.0 -0.0012656245 -0.0010191281 -9.414274e-06 7.693105e-06
00000000: 58bd a63a 00f2 06ba 3208 a537 e8d6 86b7
00000010: 0000 0000 0000 0000 08ec a3ba 4067 eeba
00000020: a6ce 14b7 b44a 5e36 0000 0000 0000 0000
00000030: 960b 96b6 0fd9 ad36 3b9b f935 0c16 c334
00000040: 0000 0000 0000 0000 1abc bbba ace6 baba
00000050: 1ebf eeb6 b919 9237 0000 0000 0000 0000
00000060: 3c1f bfba 5203 08bb 9ae4 bfb7 c29a d637
00000070: 0000 0000 0000 0000 2ea2 cb3a 606e 7f3a
00000080: 753a df36 67f2 33b7 0000 0000 0000 0000
00000090: 9a1b 0f37 66f4 1537 bc99 4c36 2cb2 4737
000000a0: 0000 0000 0000 0000 0762 10b7 7c77 0436
000000b0: 33ff 1c34 585d 2336 0000 0000 0000 0000
000000c0: 2a76 843a 3a48 f239 259c b3b7 a7be 93b5
000000d0: 0000 0000 0000 0000 78d0 8839 acf2 b03a
000000e0: 6e1f 0bb7 dcdd 7b37 0000 0000 0000 0000
000000f0: d078 5db9 1c3f bd39 b4ed b937 9f26 00b7
00000100: 0000 0000 0000 0000 5ca6 0b37 8733 59b7
00000110: b1d1 de36 be8a 4a36 0000 0000 0000 0000
00000120: d6fa 0fb7 95e3 bc36 8a66 7cb6 556d 5e36
00000130: 0000 0000 0000 0000 3412 18bb 303b a8ba
00000140: ea54 37b8 a06d 9237 0000 0000 0000 0000
00000150: 622f e139 1909 1739 a968 0e37 e162 2cb6
00000160: 0000 0000 0000 0000 c375 8339 2640 d938
00000170: e302 4a37 46b1 5a37 0000 0000 0000 0000
00000180: 3ea4 363a 20c8 7439 3611 01b6 e4cb a736
00000190: 0000 0000 0000 0000 5815 503a 4875 3839
000001a0: ccb6 0337 f0ac 99b7 0000 0000 0000 0000
000001b0: c803 e4b6 d446 ac36 40fe 8034 5bee 3bb6
000001c0: 0000 0000 0000 0000 d0fe 2d39 c1aa ec3a
000001d0: a03f 2e35 0fb1 32b7 0000 0000 0000 0000
000001e0: 7845 eaba cc63 a4ba 4dc8 42b7 10df a0b6
000001f0: 0000 0000 0000 0000 a2d0 06ba 63d3 7aba
00000200: ee2c 4437 b498 1a37 0000 0000 0000 0000
00000210: 10c5 34b7 b7f9 1ab8 b02a 2136 d4d7 5db6
00000220: 0000 0000 0000 0000 b0eb 9235 8592 0737
00000230: dc96 3bb7 36fe 09b7 0000 0000 0000 0000
00000240: d007 a5b6 ecb7 293a 59f3 7736 e686 bbb6
00000250: 0000 0000 0000 0000 4826 d7ba a8b7 823a
00000260: 0093 87b7 fa87 9a37 0000 0000 0000 0000
00000270: c906 0bb7 7eba df36 6eb7 f5b6 842a 8db6
00000280: 0000 0000 0000 0000 edf9 9c39 9eea 6039
00000290: abca bcb6 bbac 1c36 0000 0000 0000 0000
000002a0: 46e4 ad37 ab5a 163b 9bbb 70b7 9fba 5fb7
000002b0: 0000 0000 0000 0000 1593 ff36 969c 06b9
000002c0: ede7 9bb5 af9f 7536 0000 0000 0000 0000
000002d0: 5b76 9db7 f2d9 0037 1237 bdb6 00ee 21b6
000002e0: 0000 0000 0000 0000 4062 4eb7 50c9 5eba
000002f0: d47a 3a37 7965 4737 0000 0000 0000 0000
00000300: 1a10 83ba 6031 74b8 fe51 6e37 44c8 9437
00000310: 0000 0000 0000 0000 ee16 e4b9 9180 6f3a
00000320: b632 2736 0956 af37 0000 0000 0000 0000
00000330: 9e2d 773b b816 613b ca17 a837 25cb 4eb7
00000340: 0000 0000 0000 0000 f350 b039 3e25 9337
00000350: 7da3 0cb6 a3a3 1337 0000 0000 0000 0000
00000360: 7cbb 3a3b e61b a23b 0fb6 1a38 2e20 2e37
00000370: 0000 0000 0000 0000 1cca c439 ccdf 2c39
00000380: ef0a 9f36 844f 83b5 0000 0000 0000 0000
00000390: 4566 d939 a009 a4b9 05d9 d535 8047 12b6
000003a0: 0000 0000 0000 0000 f80f 4fb9 ca0f 04ba
000003b0: 10f3 1d37 eee4 30b6 0000 0000 0000 0000
000003c0: bc75 25bb b8f1 c1ba 2d50 88b7 02ee 6a37
000003d0: 0000 0000 0000 0000 832f 5837 c003 82b7
000003e0: e0f2 4a36 b9ca c536 0000 0000 0000 0000
000003f0: 50e3 a5ba 4494 85ba 00f2 1db7 a211 0137

exp_avg_sq f4 [128, 6]
0.00011749307 0.0004892816 8.188059e-11 7.232728e-11 0.0 0.0 6.504492e-05 0.00021120039
1.684552e-10 7.376465e-11 0.0 0.0 8.945461e-11 5.2389433e-11 4.0417144e-12 7.052775e-12
0.0 0.0 4.8264446e-05 4.485346e-05 5.4807176e-11 2.7152693e-11 0.0 0.0
2.415983e-05 9.823195e-05 1.5906704e-10 1.3967602e-10 0.0 0.0 4.1132997e-05 7.432146e-05
2.3480974e-11 2.649638e-11 0.0 0.0 4.6836746e-11 3.3018702e-11 3.375165e-12 3.5151278e-11
0.0 0.0 7.002823e-11 1.4405699e-11 9.938535e-13 2.2885023e-12 0.0 0.0
5.463405e-06 7.163826e-07 4.78305e-11 1.7269164e-11 0.0 0.0 6.5092645e-05 0.00015898928
2.557665e-11 4.069811e-11 0.0 0.0 1.7480785e-05 4.029004e-06 7.89199e-11 4.3491905e-11
0.0 0.0 7.6180645e-11 1.1796672e-10 1.2762021e-11 2.520928e-11 0.0 0.0
4.2336263e-11 8.052556e-11 2.1949495e-12 3.3110587e-12 0.0 0.0 0.00012500657 0.00042879806
1.9903343e-10 1.1841553e-10 0.0 0.0 3.2978785e-06 9.857238e-06 1.3836839e-11 1.603944e-11
0.0 0.0 3.0941717e-07 3.6575013e-08 1.7382394e-11 2.5638514e-11 0.0 0.0
1.6092876e-05 3.425872e-05 5.816112e-11 3.3098232e-11 0.0 0.0 7.4056084e-06 1.058828e-05
4.82975e-11 4.4296476e-11 0.0 0.0 4.304317e-11 2.2220309e-11 1.917851e-12 5.5959963e-12
0.0 0.0 4.941976e-07 2.4676618e-05 2.63239e-11 3.6742116e-11 0.0 0.0
4.1992236e-05 3.208971e-05 2.0518717e-11 1.7586129e-11 0.0 0.0 3.523089e-05 9.8761666e-05
2.5325625e-11 7.016456e-11 0.0 0.0 1.517284e-10 3.7787543e-10 5.2160815e-12 1.0772865e-11
0.0 0.0 4.7431287e-10 9.387716e-11 1.3864486e-11 1.0824116e-11 0.0 0.0
2.1390012e-08 2.2490765e-05 8.743485e-12 1.1775975e-11 0.0 0.0 0.00010992592 0.0005303802
7.0737104e-11 1.4248133e-10 0.0 0.0 4.2384537e-11 3.1517646e-11 2.3714267e-11 1.40589285e-11
0.0 0.0 3.0848512e-06 4.0458343e-07 1.3420812e-11 1.526231e-11 0.0 0.0
2.7375776e-08 0.000117538926 3.4897942e-11 4.8821693e-11 0.0 0.0 2.1492348e-10 6.209254e-07
7.362238e-12 1.0517321e-11 0.0 0.0 4.479519e-11 8.624202e-11 9.812642e-12 2.2387297e-11
0.0 0.0 5.946322e-08 0.00026414456 6.7189455e-11 1.1931921e-10 0.0 0.0
2.9590075e-05 0.00020570707 9.7614195e-11 6.988653e-11 0.0 0.0 9.855587e-07 4.2030588e-05
1.8530576e-11 3.2571328e-11 0.0 0.0 8.818059e-05 6.711237e-05 5.9743356e-11 3.4613083e-11
0.0 0.0 4.182618e-08 1.4748805e-10 1.680242e-11 2.2692563e-11 0.0 0.0
8.697564e-05 0.0002778309 1.7816801e-10 6.61589e-11 0.0 0.0 3.7184823e-06 9.756913e-07
1.2557673e-11 1.0566284e-11 0.0 0.0 3.1144624e-05 0.00014393748 1.0682277e-10 7.841119e-11
0.0 0.0 1.7575597e-07 1.7941678e-05 7.352707e-12 9.0450356e-12 0.0 0.0
0.00012209144 0.00011325669 5.5033127e-11 6.521443e-11 0.0 0.0 5.5357715e-11 7.941711e-10
6.3384775e-12 1.5378298e-11 0.0 0.0 1.4180212e-05 1.1316384e-05 2.2041669e-11 1.4427091e-11
00000000: 9d66 f638 2243 003a ad0e b42e a40c 9f2e
00000010: 0000 0000 0000 0000 ba68 8838 ac75 5d39
00000020: ec37 392f ce35 a22e 0000 0000 0000 0000
00000030: 78b6 c42e 4269 662e 8734 8e2c c025 f82c
00000040: 0000 0000 0000 0000 8e6f 4a38 0921 3c38
00000050: 650b 712e 6ed6 ee2d 0000 0000 0000 0000
00000060: d7aa ca37 e001 ce38 64e5 2e2f 4e93 192f
00000070: 0000 0000 0000 0000 3886 2c38 08dd 9b38
00000080: 748a ce2d 8b10 e92d 0000 0000 0000 0000
00000090: 7dfd 4d2e c137 112e 9181 6d2c d298 1a2e
000000a0: 0000 0000 0000 0000 64fe 992e 806d 7d2d
000000b0: 59df 8b2b fe09 212c 0000 0000 0000 0000
000000c0: 4b52 b736 704d 4035 5b5c 522e b3e6 972d
000000d0: 0000 0000 0000 0000 5982 8838 5cb6 2639
000000e0: 7ff9 e02d 00fe 322e 0000 0000 0000 0000
000000f0: b3a3 9237 e130 8736 f48b ad2e 8847 3f2e
00000100: 0000 0000 0000 0000 e485 a72e aeb4 012f
00000110: 0883 602d 41be dd2d 0000 0000 0000 0000
00000120: 6532 3a2e dc13 b12e b274 1a2c bbfe 682c
00000130: 0000 0000 0000 0000 3214 0339 4dd0 e039
00000140: eed6 5a2f 0233 022f 0000 0000 0000 0000
00000150: 1f51 5d36 8460 2537 956b 732d 9c15 8d2d
00000160: 0000 0000 0000 0000 f91d a634 a716 1d33
00000170: ace5 982d cd84 e12d 0000 0000 0000 0000
00000180: 30ff 8637 05b1 0f38 99cb 7f2e 4c91 112e
00000190: 0000 0000 0000 0000 b17d f836 51a4 3137
000001a0: 276a 542e 66d1 422e 0000 0000 0000 0000
000001b0: 4d4e 3d2e b073 c32d eff4 062c 41e4 c42c
000001c0: 0000 0000 0000 0000 00a9 0435 a200 cf37
000001d0: 278c e72d f297 212e 0000 0000 0000 0000
000001e0: d220 3038 1098 0638 0b7c b42d 71b0 9a2d
000001f0: 0000 0000 0000 0000 e1c4 1338 441e cf38
00000200: 3dc4 de2d 234b 9a2e 0000 0000 0000 0000
00000210: bfd3 262f 3dbd cf2f 4986 b72c ac84 3d2d
00000220: 0000 0000 0000 0000 cd60 0230 2570 ce2e
00000230: 18e8 732d 7c6b 3e2d 0000 0000 0000 0000
00000240: 22bd b732 8daa bc37 28d1 192d 472a 4f2d
00000250: 0000 0000 0000 0000 0788 e638 3609 0b3a
00000260: 738d 9b2e eea8 1c2f 0000 0000 0000 0000
00000270: bf68 3a2e b79d 0a2e c897 d02d c953 772d
00000280: 0000 0000 0000 0000 5705 4f36 8635 d934
00000290: f719 6c2d ab3f 862d 0000 0000 0000 0000
000002a0: f827 eb32 3b7f f638 977b 192e 57b8 562e
000002b0: 0000 0000 0000 0000 954f 6c2f abad 2635
000002c0: 9384 012d ce05 392d 0000 0000 0000 0000
000002d0: e602 452e f1a5 bd2e 36a0 2c2d b6eb c42d
000002e0: 0000 0000 0000 0000 8064 7f33 e27c 8a39
000002f0: 4dc0 932e 5f31 032f 0000 0000 0000 0000
00000300: 3438 f837 12b3 5739 e8a7 d62e 9eae 992e
00000310: 0000 0000 0000 0000 8a47 8435 004a 3038
00000320: 26ff a22d 0e40 0f2e 0000 0000 0000 0000
00000330: 98ed b838 aebe 8c38 8560 832e de3a 182e
00000340: 0000 0000 0000 0000 5fa4 3333 322a 222f
00000350: b0cb 932d 1c9b c72d 0000 0000 0000 0000
00000360: b166 b638 d5a9 9139 d6e5 432f 267c 912e
00000370: 0000 0000 0000 0000 0a8b 7936 7ff4 8235
00000380: bbea 5c2d 50e2 392d 0000 0000 0000 0000
00000390: 49a1 0238 eced 1639 e0e7 ea2e 936d ac2e
000003a0: 0000 0000 0000 0000 6fb7 3c34 7681 9637
000003b0: a659 012d 381f 1f2d 0000 0000 0000 0000
000003c0: ac05 0039 3984 ed38 cb09 722e 7668 8f2e
000003d0: 0000 0000 0000 0000 3f77 732e d34c 5a30
000003e0: ee03 df2c d944 872d 0000 0000 0000 0000
000003f0: 8ce7 6d37 80db 3d37 6de1 c12d d7cd 7d2d

exp_avg f4 [128]
-1.7527462e-05 -4.9427428e-05 -6.1814685e-06 5.542279e-07 -2.0729334e-05 -4.4946155e-06 -3.866336e-08 -8.507641e-06
1.7076638e-05 2.9334486e-05 -1.512939e-06 1.2645765e-05 -8.303828e-06 -1.4304409e-05 5.8587257e-06 4.4334e-08
1.7265458e-05 7.3475258e-06 -7.0580786e-06 2.5779267e-05 -1.6626833e-05 -8.325204e-06 7.382392e-06 3.855917e-06
6.6225175e-06 -1.3518402e-05 -2.9352695e-06 4.9938803e-06 2.0666408e-05 -1.33112e-05 -1.1625373e-05 3.2877506e-07
-2.8648208e-05 -7.4895684e-06 2.9648367e-05 -5.6207e-07 5.797165e-05 -2.1013352e-06 -2.095584e-05 -9.161067e-08
4.308862e-06 -8.655226e-06 -1.5110587e-05 1.7187936e-05 -1.8499561e-06 1.1428728e-05 1.5798276e-05 3.811891e-05
1.993382e-05 -1.5590676e-05 3.017503e-05 -1.3614364e-05 8.7375156e-07 -8.3987607e-07 4.525434e-06 -1.1529735e-06
-5.495529e-06 -1.4646423e-05 -1.0822487e-05 -1.2231661e-05 9.833796e-06 -6.329765e-08 1.2958535e-05 -6.1964856e-06
-1.7850132e-05 6.7010624e-06 1.3999956e-05 1.3924396e-05 -1.0441789e-05 2.3340202e-05 7.4444392e-06 6.125525e-05
9.952564e-06 1.6748505e-05 9.902164e-06 -1.3554927e-05 -7.923459e-07 -5.1258758e-06 -2.1324653e-05 2.2360002e-05
-4.5302346e-05 -2.1444286e-05 -7.009934e-06 2.8323348e-06 4.882612e-05 7.884082e-06 -3.7282052e-06 -1.4822968e-05
-4.843791e-06 -4.7120484e-06 -7.991082e-08 2.2913468e-05 -1.1994207e-06 1.2265145e-06 3.0079245e-06 3.5143603e-06
-4.410457e-06 7.665759e-06 8.996805e-06 1.2030567e-05 -3.6392448e-06 5.810076e-06 -8.848206e-06 5.7052082e-05
4.737043e-06 -2.1316544e-05 3.5443678e-05 -1.5456226e-05 -2.2526925e-05 1.4614634e-06 -2.6843638e-05 -5.2643004e-06
1.9892053e-05 1.3934059e-05 -1.9743366e-06 5.3901633e-05 1.1964496e-05 -3.0091802e-05 7.75132e-06 1.2970813e-06
-6.1657283e-06 6.7949663e-06 -2.9559484e-05 -1.925779e-05 4.4418593e-06 3.0255542e-05 3.29539e-05 -5.524824e-06
00000000: f007 93b7 4c50 4fb8 696a cfb6 40c6 1435
00000010: e8e3 adb7 74d0 96b6 d00e 26b3 0abc 0eb7
00000020: cd3f 8f37 5413 f637 3010 cbb5 2629 5437
00000030: ab50 0bb7 f8fc 6fb7 1296 c436 c069 3e33
00000040: 4ad5 9037 c48a f636 6fd4 ecb6 8e40 d837
00000050: da79 8bb7 7bac 0bb7 44b6 f736 1362 8136
00000060: fe36 de36 18cd 62b7 8cfb 44b6 1b91 a736
00000070: c65c ad37 2b53 5fb7 990a 43b7 8082 b034
00000080: 8f51 f0b7 e74e fbb6 62b5 f837 28e1 16b5
00000090: 9626 7338 aa04 0db6 53ca afb7 80bb c4b3
000000a0: d894 9036 ea35 11b7 7a83 7db7 d02e 9037
000000b0: 024c f8b5 03be 3f37 8a86 8437 dee1 1f38
000000c0: 8d37 a737 b9c8 82b7 6220 fd37 4069 64b7
000000d0: c08b 6a35 d873 61b5 2fd9 9736 debf 9ab5
000000e0: 3c66 b8b6 e8b9 75b7 3a92 35b7 9536 4db7
000000f0: d5fb 2437 40ee 87b3 7c68 5937 68eb cfb6
00000100: debc 95b7 b0d9 e036 5ae1 6a37 d39c 6937
00000110: 242f 2fb7 b4ca c337 3fcb f936 2976 8038
00000120: f0f9 2637 247f 8c37 7821 2637 f869 63b7
00000130: 98b1 54b5 f0fe abb6 58e2 b2b7 bd91 bb37
00000140: 0603 3eb8 41e3 b3b7 e036 ebb6 2413 3e36
00000150: a6ca 4c38 e045 0437 1432 7ab6 2ab0 78b7
00000160: d987 a2b6 301c 9eb6 709b abb3 4c36 c037
00000170: c8fb a0b5 b89e a435 c0db 4936 40d8 6b36
00000180: 8afd 93b6 2f9c 0037 fcf0 1637 e4d6 4937
00000190: c039 74b6 2cf4 c236 c172 14b7 354b 6f38
000001a0: e4f2 9e36 eed0 b2b7 5ca9 1438 fea7 81b7
000001b0: 34f8 bcb7 8027 c435 462e e1b7 ffa3 b0b6
000001c0: dcdd a637 54c6 6937 d87e 04b6 7014 6238
000001d0: 1ebb 4837 a76d fcb7 aa0b 0237 6017 ae35
000001e0: 34e3 ceb6 5100 e436 82f6 f7b7 ca8b a1b7
000001f0: 480b 9536 48cd fd37 fb37 0a38 e061 b9b6

exp_avg_sq f4 [128]
2.8560535e-08 1.3121788e-08 1.7322034e-11 3.0795007e-09 5.5920846e-09 5.42564e-09 1.0907298e-11 1.264002e-11
3.9540984e-10 9.622475e-09 1.2872738e-09 3.435983e-11 1.5124355e-11 2.5492593e-08 5.8580385e-10 3.5790995e-11
2.434774e-09 6.9159667e-10 1.2359726e-11 1.2607638e-09 2.2786728e-09 5.894781e-09 2.4801447e-11 1.0505541e-11
1.1832862e-09 3.0007477e-08 1.5117017e-11 2.0438533e-10 5.808731e-09 5.0114437e-11 2.1366164e-11 1.2199799e-08
1.0685423e-08 2.2969089e-09 5.190905e-09 3.8516742e-11 1.6944888e-08 2.3881233e-10 8.412617e-09 9.56547e-10
7.765588e-09 1.1874665e-11 7.6882145e-10 5.804769e-11 3.2599012e-12 4.6835043e-11 2.4286173e-09 1.01770565e-08
5.3093835e-11 1.08360265e-10 1.9587755e-08 1.6409919e-11 2.375349e-09 3.1553912e-10 1.879013e-11 7.375472e-12
2.975187e-11 1.5854367e-08 4.3172435e-09 5.3339533e-10 1.6505271e-11 5.732775e-09 1.39782e-08 1.0676862e-08
1.419158e-09 4.0578083e-08 2.9709353e-11 3.158927e-09 1.6978478e-11 1.6159519e-09 3.2922425e-11 1.9943414e-08
3.4368388e-09 3.6039727e-11 4.236286e-08 3.1385e-08 1.6193931e-09 5.1739526e-11 1.5865565e-08 2.6950726e-09
3.039146e-08 6.830749e-09 7.0093624e-09 7.9238816e-10 2.601164e-08 5.510027e-10 1.4507262e-10 6.511254e-11
5.9457876e-11 1.1999045e-08 1.5462479e-11 6.443349e-08 1.8184397e-09 9.9788344e-11 2.90523e-09 1.069118e-11
1.9518524e-11 2.0756707e-09 2.4665789e-11 3.3221264e-09 2.2099677e-08 5.924562e-09 3.2121264e-11 2.1364725e-08
1.2342244e-11 1.8621387e-09 1.4656625e-08 4.3502553e-09 1.0455951e-08 2.0064235e-09 8.4154383e-10 5.4233293e-12
1.8188169e-09 3.33233e-08 3.2566043e-09 2.2214682e-08 3.5326797e-10 1.6573479e-08 1.7947083e-10 2.5558258e-08
3.0363195e-11 1.029163e-10 1.1720625e-08 1.2968248e-08 6.792293e-10 3.7006735e-08 3.5952579e-09 2.3676117e-09
00000000: 4855 f532 3c6e 6132 c15d 982d 269f 5331
00000010: 7f24 c031 6f6c ba31 1ae2 3f2d 975d 5e2d
00000020: fd60 d92f 1850 2532 eceb b030 bb1d 172e
00000030: 0509 852d cefa da32 4806 2130 1469 1d2e
00000040: ff50 2731 ca1a 3e30 426f 592d 2f47 ad30
00000050: d696 1c31 0b8b ca31 e527 da2d c0d0 382d
00000060: 2fa1 a230 92e1 0033 7ff8 842d 5bb9 602f
00000070: 2396 c731 d767 5c2e 53f0 bb2d 4997 5132
00000080: fd92 3732 a6d7 1d31 af5b b231 ff65 292e
00000090: 348e 9132 d949 832f 1587 1032 8177 8330
000000a0: 6b69 0532 bde6 502d 0055 5330 e44b 7f2e
000000b0: 2965 652c 92fb 4d2e b0e4 2631 2bd7 2e32
000000c0: 5882 692e 6849 ee2e ee41 a832 da57 902d
000000d0: 953b 2331 2f78 ad2f 9c47 a52d 2cc0 012d
000000e0: a1d9 022e 1f30 8832 e056 9431 5c9e 1230
000000f0: 912e 912d 06fa c431 c624 7032 566d 3732
00000100: 2f0c c330 1348 2e33 c2a9 022e 6e14 5931
00000110: 2258 952d 4118 de30 5bcb 102e 0850 ab32
00000120: 822d 6c31 2081 1e2e 75f2 3533 2ccc 0633
00000130: 5491 de30 878d 632e bf48 8832 3834 3931
00000140: c387 0233 e7b3 ea31 01d7 f031 5ccf 5930
00000150: 3470 df32 5e75 1730 5082 1f2f 1a2f 8f2e
00000160: cfbf 822e 5c24 4e32 6802 882d b05e 8a33
00000170: a9ec f930 d86f db2e 59a5 4731 cb14 3c2d
00000180: cfaf ab2d 96a3 0e31 6bf6 d82d 774b 6431
00000190: b4d5 bd32 0091 cb31 5445 0d2e 8785 b732
000001a0: 8720 592d 2eee ff30 85cc 7b32 4079 9531
000001b0: c2a1 3332 60e1 0931 6252 6730 02d1 be2c
000001c0: eef9 f930 5b1f 0f33 caca 5f31 9ad2 be32
000001d0: 0c36 c22f 775d 8e32 8c54 452f 348b db32
000001e0: eb89 052e ba50 e22e db5b 4932 f5ca 5e32
000001f0: 83b4 3a30 56f1 1e33 7210 7731 77b3 2231
