results/wonderAgent02/WonderAgentHealing/WonderAgentHealing-7124.onnx (onnx, 132924 bytes, 7 tensors)

action_model._continuous_distribution.log_sigma f4 [1, 3]
00000000: 0000 0000 0000 0000 0000 0000
0.0 0.0 0.0

action_model._continuous_distribution.mu.bias f4 [3]
00000000: 0000 0000 0000 0000 0000 0000
0.0 0.0 0.0

action_model._continuous_distribution.mu.weight f4 [3, 128]
00000000: 588e e5bc 7511 463c bbc8 b9bc 1c96 9f3c
00000010: 57ad 99ba 1d92 1dbb 0d07 483c ba68 09bc
00000020: 20e2 073d 176f 27bd 8952 24bc 5735 88bc
00000030: 9a77 44bc deb4 233c 7b4e fb3c bbaf ac3c
00000040: 9757 73bc 69e6 02bc c5ab 763b 7875 623c
00000050: 32ea d2ba a67a c03c 52a0 fdba d38f 75bc
00000060: be3f 013c afb7 17bb 774b 38bb 01ac 89bb
00000070: 701d cd3c bf75 043d fbb0 08bb 6fc9 843c
00000080: b9f7 90bc 2a3a 88bc 4ba2 e83c 8a5a 0abd
00000090: abff c237 cb4b fabc e81f 723c 7d52 4fbc
000000a0: 86df 2f3b 7568 94bb 8f20 0dbb 8035 d8bc
000000b0: d8fe 333c a56f 993c c649 2dbc 5d85 523b
000000c0: c080 faba 8adb 473c b744 ab3c abde 69bc
000000d0: 9f41 3bbb 6960 0d3c b7e1 963b cc0b a33c
000000e0: 2717 653c c277 cabc 4f1c 84bb 7a78 cebc
000000f0: d612 a43c a3ab 28bc 4352 15bc 1269 c6bb
00000100: b441 14bb 0549 cf3c ba08 233b b16d 40bc
00000110: feaf 843c c92c 26bc 9fc0 01bd 0bde 1b3c
00000120: 053e f4bb 4a27 273d 6505 ecbb 23b5 5b3a
00000130: 57c1 78b9 3aac 3abd a46e 89bb a3ab 603b
00000140: 8dc2 673b 3935 cb3c 7ad2 d7bc a27e d43c
00000150: f5a9 873c 0788 1a3c 2bfc 2c3c 0209 dc3a
00000160: 4b83 99ba cdbc 64bc 2872 a239 536a d73a
00000170: c39f 97bb 34f8 913c 0ef9 803b 386b 62bc
00000180: eb5f 93bb f967 943c 746e bb3b 8f2f 863c
00000190: 9f56 ec3c 68f7 ac3c d0cf b038 b5bc f83b
000001a0: ad86 3cbc 2bec fa3c 16ba 4a3c c36e c2bc
000001b0: e7b1 2fbc cb7b 30bc 7afb f33b a8cd c23b
000001c0: 93c2 8abc 2cd0 cabc 90cb fd3a ab86 9a3c
000001d0: dd72 f53a bd39 03bc 8f4c 0dbd bb3d 0b3c
000001e0: 58c8 0abc 977a 2b3c 7307 533c 44fd 813c
000001f0: 7228 a2bc 185e 3b3c 9786 08bc 9bca a5bc
00000200: df41 3cbc 90f6 3abc 8b4b f4bb c9a4 42bb
00000210: 8d35 c63c ced7 8c3b 77e0 813c b404 953c
00000220: d3ec 29bc 4c8b bd3c 543b 243c 1fc2 0c3c
00000230: fd12 c3bc 237a b43c bd3c 4cbd 75cf dd3c
00000240: 7bb0 94bc c646 163d cc50 9fbb f724 2eba
00000250: 9ae7 f13b 3bd1 ce3c 5e29 35bc f8a9 d3ba
00000260: df3b 893b 95f0 cdbc 9d86 873b d968 1d3c
00000270: 53c5 97bc 1fa7 b43b 4bb4 023c bb4a 203d
00000280: 9261 cd3c eb10 ab3b ad54 273c 7bfe 9ebc
00000290: c0c3 13bc fac9 543c a77d 973c 2766 95bc
000002a0: c586 32bc 9035 debb ceaa 343c bbbc b8bb
000002b0: f5ce 6abc 2332 a33c 372b 853b dbb6 33bc
000002c0: 4b83 78bc 4ba2 04bd d2c4 fbbc fdd4 883b
000002d0: a9d1 89bb da46 76bc 66fd 0bbb d682 42bc
000002e0: 511c 153b ca8c 793c 7776 af3c 9311 2a3c
000002f0: 1116 87bc 0fb3 de3c b26b c9bc f096 0abb
00000300: 3b2f 57bc a9b0 c63c a051 17bb 8a8f 6c3c
00000310: ef9a 36bd 53a1 7dbc 803d 3fbc f0db ccbc
00000320: a6cc 00bc 8ebd 903c 3d4c edbc ebb2 3a3c
00000330: b0b4 d23c eb7f 53bc 7751 a6bc 41ad babc
00000340: c528 5a3b b1ac 9b3c a773 f33c c297 dc3c
00000350: 8375 9b3c 2bf8 85bb d25e e7ba ddc2 60bc
00000360: f98b a4bc 9fdf 2f3c 900d 8c3c 48ce 7d3c
00000370: 053e d0bc 81a1 313c 30e9 acbc 0b51 013c
00000380: 03c6 16bc 3d50 25bc 4df0 aabc ea39 efbc
00000390: df4b b83a 182b e03b 1dd4 c73b ad03 043c
000003a0: 8d83 b6bc d9f4 903c 365c 22bc 0ab8 fdbc
000003b0: 1d8b 253c 95b9 f13c 6d37 6d3b 4482 963c
000003c0: 9faf 9f3c cf80 a73c 696a 40bc ad36 083c
000003d0: 5fd9 28bc 23b4 113c 006d 3bba dd7c d33a
000003e0: 7989 13bd 1fab abbc 6631 82bc 4746 a3bb
000003f0: 4bb5 96bc 08c1 7abc 258a 653c d161 8dbc
-0.028021976 0.012089123 -0.022678724 0.019480757 -0.0011724633 -0.002404339 0.012208712 -0.008386785
0.033174634 -0.040877428 -0.010029444 -0.016626997 -0.011991406 0.009991853 0.03067707 0.021079889
-0.014852426 -0.007989504 0.0037639004 0.013821952 -0.0016091524 0.023495983 -0.0019350147 -0.014987904
0.0078887325 -0.0023150255 -0.0028121152 -0.0042014127 0.025038451 0.032338854 -0.0020857442 0.016209332
-0.017696248 -0.016629297 0.0283977 -0.03377775 2.3245657e-05 -0.030553719 0.014778115 -0.012653944
0.0026836111 -0.004529054 -0.00215343 -0.026392698 0.010986052 0.018729994 -0.010576671 0.0032122948
-0.0019111857 0.012198338 0.02090679 -0.01427428 -0.0028573049 0.008628943 0.004604544 0.019903086
0.013982571 -0.024715308 -0.004031695 -0.025203932 0.020028513 -0.010294828 -0.009113851 -0.006055006
-0.002262217 0.025303373 0.0024877028 -0.0117449025 0.0161972 -0.010142514 -0.03167784 0.009513388
-0.0074536824 0.040808953 -0.0072027915 0.00083811785 -0.00023723148 -0.045574404 -0.0041940976 0.003428199
0.0035363764 0.024805652 -0.02634548 0.02593929 0.016560534 0.0094318455 0.010558168 0.0016787353
-0.0011712102 -0.013961029 0.000309841 0.0016434885 -0.0046271994 0.017818548 0.0039359396 -0.013819508
-0.0044975183 0.018115984 0.005719954 0.0163801 0.028849898 0.021114066 8.431042e-05 0.007590855
-0.011506719 0.030630192 0.012373468 -0.023734456 -0.010723568 -0.010771702 0.00744575 0.0059449263
-0.016938483 -0.024757467 0.0019363035 0.018863043 0.0018726249 -0.008009371 -0.03449684 0.008498604
-0.008470617 0.010466239 0.012880194 0.015867837 -0.019794676 0.011436008 -0.00833287 -0.020238211
-0.011490314 -0.011411324 -0.0074552945 -0.002970027 0.024195457 0.004298187 0.015854103 0.01819072
-0.010371405 0.023137711 0.010023911 0.008591204 -0.023812765 0.022030896 -0.049862612 0.027076462
-0.018150559 0.03668859 -0.0048619267 -0.00066430814 0.0073823454 0.025246253 -0.011057226 -0.0016148677
0.0041880454 -0.025139133 0.00413592 0.009607517 -0.018526709 0.0055130864 0.0079775555 0.03913377
0.02507094 0.0052205226 0.010213059 -0.019408455 -0.009018838 0.012987608 0.018492533 -0.018237187
-0.010896389 -0.0067812875 0.011027051 -0.005637733 -0.014331569 0.019921368 0.0040639895 -0.010968889
-0.015168021 -0.032381337 -0.0307335 0.004175781 -0.0042059016 -0.015031541 -0.0021360754 -0.011872014
0.0022752474 0.015231321 0.021418793 0.010380167 -0.016490014 0.027184991 -0.024587486 -0.0021147095
-0.013133819 0.02425416 -0.0023089424 0.014438519 -0.04458135 -0.015480357 -0.011672378 -0.025007218
-0.007861292 0.017668512 -0.028967017 0.011395196 0.025720924 -0.012908916 -0.020302517 -0.022787692
0.003328846 0.019003244 0.029718233 0.026927833 0.018976932 -0.004088422 -0.001765216 -0.013718334
-0.020086275 0.010734468 0.01709631 0.015491076 -0.025420198 0.010841728 -0.021107286 0.007892857
-0.009202483 -0.010089931 -0.020866537 -0.02920242 0.0014060697 0.0068410747 0.006098284 0.008057517
-0.022279525 0.017694877 -0.00990968 -0.030971546 0.010103968 0.029507438 0.0036196366 0.018372662
0.019492922 0.020447163 -0.01174412 0.008313817 -0.010305732 0.008893046 -0.0007149726 0.0016135235
-0.036019776 -0.02095562 -0.015892696 -0.004982743 -0.018396994 -0.015304811 0.014009987 -0.017258557

network_body._body_endoder.seq_layers.0.bias f4 [128]
00000000: 0000 0000 0000 0000 0000 0000 0000 0000
00000010: 0000 0000 0000 0000 0000 0000 0000 0000
00000020: 0000 0000 0000 0000 0000 0000 0000 0000
00000030: 0000 0000 0000 0000 0000 0000 0000 0000
00000040: 0000 0000 0000 0000 0000 0000 0000 0000
00000050: 0000 0000 0000 0000 0000 0000 0000 0000
00000060: 0000 0000 0000 0000 0000 0000 0000 0000
00000070: 0000 0000 0000 0000 0000 0000 0000 0000
00000080: 0000 0000 0000 0000 0000 0000 0000 0000
00000090: 0000 0000 0000 0000 0000 0000 0000 0000
000000a0: 0000 0000 0000 0000 0000 0000 0000 0000
000000b0: 0000 0000 0000 0000 0000 0000 0000 0000
000000c0: 0000 0000 0000 0000 0000 0000 0000 0000
000000d0: 0000 0000 0000 0000 0000 0000 0000 0000
000000e0: 0000 0000 0000 0000 0000 0000 0000 0000
000000f0: 0000 0000 0000 0000 0000 0000 0000 0000
00000100: 0000 0000 0000 0000 0000 0000 0000 0000
00000110: 0000 0000 0000 0000 0000 0000 0000 0000
00000120: 0000 0000 0000 0000 0000 0000 0000 0000
00000130: 0000 0000 0000 0000 0000 0000 0000 0000
00000140: 0000 0000 0000 0000 0000 0000 0000 0000
00000150: 0000 0000 0000 0000 0000 0000 0000 0000
00000160: 0000 0000 0000 0000 0000 0000 0000 0000
00000170: 0000 0000 0000 0000 0000 0000 0000 0000
00000180: 0000 0000 0000 0000 0000 0000 0000 0000
00000190: 0000 0000 0000 0000 0000 0000 0000 0000
000001a0: 0000 0000 0000 0000 0000 0000 0000 0000
000001b0: 0000 0000 0000 0000 0000 0000 0000 0000
000001c0: 0000 0000 0000 0000 0000 0000 0000 0000
000001d0: 0000 0000 0000 0000 0000 0000 0000 0000
000001e0: 0000 0000 0000 0000 0000 0000 0000 0000
000001f0: 0000 0000 0000 0000 0000 0000 0000 0000
0.0 0.0 0.0 0.0 0.0 0.0 0.0 0.0
0.0 0.0 0.0 0.0 0.0 0.0 0.0 0.0
0.0 0.0 0.0 0.0 0.0 0.0 0.0 0.0
0.0 0.0 0.0 0.0 0.0 0.0 0.0 0.0
0.0 0.0 0.0 0.0 0.0 0.0 0.0 0.0
0.0 0.0 0.0 0.0 0.0 0.0 0.0 0.0
0.0 0.0 0.0 0.0 0.0 0.0 0.0 0.0
0.0 0.0 0.0 0.0 0.0 0.0 0.0 0.0
0.0 0.0 0.0 0.0 0.0 0.0 0.0 0.0
0.0 0.0 0.0 0.0 0.0 0.0 0.0 0.0
0.0 0.0 0.0 0.0 0.0 0.0 0.0 0.0
0.0 0.0 0.0 0.0 0.0 0.0 0.0 0.0
0.0 0.0 0.0 0.0 0.0 0.0 0.0 0.0
0.0 0.0 0.0 0.0 0.0 0.0 0.0 0.0
0.0 0.0 0.0 0.0 0.0 0.0 0.0 0.0
0.0 0.0 0.0 0.0 0.0 0.0 0.0 0.0

network_body._body_endoder.seq_layers.0.weight f4 [128, 123]
00000000: 9c25 e4bd 5917 043d 3f81 363d c683 40bd
00000010: 5e30 67bd 41ba c23d c442 423d b5b9 0ebe
00000020: 1829 8fbd f5d0 aebc 001c 37bc a952 523d
00000030: 9b00 6c3d 36e2 2c3c 9574 323d 88ca f7bd
00000040: b896 aa3d 7d87 edbd 5fa9 26be 996a 343d
00000050: 2757 d93b 21bf 18bd 8cec 2c3e daf8 3f3d
00000060: 700a eb3d 6d14 dfbc 8286 d83c 4f7f a3bd
00000070: 050e 2cbd df65 87bb 2252 483d 2f6a 93bd
00000080: 3d2e 03bd 7414 653e 8d48 59bd 412a e93c
00000090: 0bf1 323d 35c2 be3d 2556 a33b 36cd a53d
000000a0: 421f fb3b 940e 333d 88d9 99bc 3225 87be
000000b0: b4ec a3bc da07 ecbc 77f8 dc3d 16ff 2dbd
000000c0: 76bc ddbd 6933 f33c e246 07bd d059 86bd
000000d0: ac01 20bd 5c7d 743e 9466 3abd 9941 303d
000000e0: 1fe9 873d 481b 29bd 59ea 483e 1e89 a2bd
000000f0: b19a 1ebe c794 6dbb 1a21 0dbc ff9f 6f3d
00000100: 1349 bdbc d32f b7bb 7282 393d 4f68 36be
00000110: d7b2 953b fb78 0e3e def7 293d 7d3f 08be
00000120: 4ef8 46be 5cf7 97bb e6b9 43bb 323a 2d3e
00000130: 07b9 a13d 172d 57be 3d87 e2bc d254 c0bd
00000140: 7948 26be d7c8 213e 8932 61bd ff30 9c3c
00000150: 0bd2 353c df13 333d d8f7 0b3e a7ad 0c3e
00000160: fcc1 913d 4689 56bd ac59 00bc 1d2c f4bd
00000170: ad3d a13d 8fe3 3abe b541 0cbe 64f2 253e
00000180: a961 2cbd d601 753c 3e05 38bd de2e c23d
00000190: 79b4 62bc 2465 a93d 7d59 93bd 1377 50bd
000001a0: d6e5 eb3d 6251 3abd 43e5 c7bd bf1e abbd
000001b0: 6276 bc3d b17b 063d efa0 5cbe f9ba 143e
000001c0: d8d0 4bbe a5c5 743d 30bb 6fbd 548f 313d
000001d0: 7c84 19bd e5df b13c 8600 a83d f358 763d
000001e0: 32e3 723e 712c 06bd e8ce b9bd 7190 be3c
000001f0: 5ee5 4bbe 7d8a 06bd aaa4 583d ea2b dbbd
00000200: 2dfd 9e3d 7ee6 79bd ac8a 403d 67f2 f73d
00000210: 3dfb 07be 0330 c33d 82fd 813c c5c7 e73d
00000220: 5477 963d fbfb 6c3b b8ff 5dbd e559 ecbb
00000230: 7211 d43d 6f15 e4bc 4bae f7bd c4ea e93d
00000240: dfe7 23bd 70d9 58bc 4c13 d7bd 019f 7c3d
00000250: 8e46 943c f943 90bd 0cab 2ebd 6ae7 53bd
00000260: 9507 8cbd 7907 d23d a41e d23d 3961 acbd
00000270: fec3 dfbc d4e6 3abd 1bf5 03be 554e 573d
00000280: 3ec1 863b 725c b7bc 1fc0 8abd acb0 86bb
00000290: febe 46bd c65a d63c d31e 063c be15 393d
000002a0: 6cdb 82bb 7d8b d93c a112 16bd ecfb 203e
000002b0: 3282 02bd 666a b1bd e7d5 2fbd b59c a73c
000002c0: 222b d03c c6fc f8bc 98be 023d 740e 293a
000002d0: 1c64 9a3d 025d e43c 3484 2e3e 7918 d4bd
000002e0: ea19 ed3d d506 893d f9a9 4dbd 3c79 9a3c
000002f0: 60a9 3f3d 65dd a43c b944 823d bf5b 4c3d
00000300: 22f2 523d 7713 063d 9046 f2bd 6be8 9abd
00000310: 7695 90bd 1cb4 013c 399e ecbd 9d64 a6bd
00000320: 4b8a 453d 7042 f73d db93 a23c 6e5e 58bd
00000330: 5e44 e0bc 5b75 6dbd 83d3 533d 1e7d ac3c
00000340: a1f1 123c baed 133e 05b5 953d de0d 07bd
00000350: 25d4 bf3d e11b 60be a652 b33d 35ff eabc
00000360: adc9 d8bc 10f0 dc3d a5f5 763c ba7d 953d
00000370: 9e0f 08be 6ab1 0bbd 7d95 28bd d62e ca3d
00000380: 054b a53d 811f 13be 3e8e db3d 6279 2ebd
00000390: 724a bf3d 61cc ca3d d10b 2ebc 630f f03d
000003a0: e6f2 453d 03a1 843d cc90 15be 7024 b4bd
000003b0: 9e76 8a3d 4e03 8f3d a58d 083e 5bf3 50bc
000003c0: 4a17 2b3c b520 cc3d 9e96 2abc 58a3 3abc
000003d0: 90a0 c93d c340 893d 398a 1b3d 7f1e ecbc
000003e0: adbb 2dbe 5e4a 473d cb68 3cbc 488b 293e
000003f0: 1102 633d 9ffe c1bd 5df4 4a3e ddb5 4d3d
-0.11139986 0.03224883 0.044556852 -0.04700067 -0.05644261 0.09508181 0.047426954 -0.13938029
-0.0699026 -0.021339873 -0.011176109 0.051348362 0.057617765 0.01055198 0.043568213 -0.12099177
0.083295286 -0.11598108 -0.16275547 0.044046972 0.006632704 -0.03729165 0.1688711 0.046868183
0.114766 -0.02723142 0.026431326 -0.079832666 -0.042005558 -0.004132017 0.048906453 -0.07197987
-0.032026518 0.22371083 -0.053047705 0.028462531 0.043686908 0.09314386 0.0049846345 0.080957815
0.0076636383 0.043715075 -0.018780485 -0.26395565 -0.02001033 -0.028812338 0.107895784 -0.042479597
-0.10826962 0.0296876 -0.033026583 -0.06560099 -0.039064094 0.23875946 -0.045507982 0.04303131
0.06636261 -0.041285783 0.19620647 -0.07936309 -0.15488698 -0.0036252008 -0.008613849 0.058502194
-0.023106134 -0.005590418 0.045290418 -0.17813228 0.0045684385 0.13913338 0.04149615 -0.13305469
-0.19430658 -0.004637642 -0.0029865443 0.16916731 0.07896619 -0.21013294 -0.027652377 -0.09391178
-0.16238584 0.1579927 -0.054979835 0.019066332 0.011097441 0.043720122 0.13668764 0.13738118
0.07117078 -0.052377008 -0.007833879 -0.119224764 0.07873092 -0.18250869 -0.1369694 0.16205746
-0.042085323 0.014954051 -0.044926874 0.094815955 -0.013836973 0.08271244 -0.07194803 -0.050894808
0.11518447 -0.04548777 -0.09760525 -0.08355474 0.09202267 0.032832805 -0.21545766 0.1452445
-0.19903886 0.0597588 -0.058528125 0.04334958 -0.037479863 0.021713207 0.08203225 0.060143422
0.2371948 -0.032757226 -0.09072667 0.023262234 -0.19911715 -0.032846916 0.05289141 -0.10701735
0.07763133 -0.06101083 0.047007248 0.121067815 -0.13279434 0.09530642 0.015867952 0.113174
0.07346979 0.0036160934 -0.05419895 -0.0072128647 0.1035489 -0.027842252 -0.120937906 0.11421731
-0.04001605 -0.013235435 -0.105017275 0.061675075 0.01810005 -0.07044215 -0.04264359 -0.051734366
-0.06837384 0.102553315 0.102597505 -0.08416981 -0.027315136 -0.04563029 -0.12886469 0.052564938
0.0041123917 -0.022382949 -0.067749254 -0.0041104164 -0.048521988 0.026166331 0.00818606 0.04518675
-0.0039934423 0.026555771 -0.03663886 0.157211 -0.031862445 -0.08662872 -0.042928603 0.020460466
0.025411192 -0.03039397 0.031920046 0.0006448992 0.075386256 0.02787638 0.17042619 -0.1035623
0.11577208 0.06690756 -0.050210927 0.018856637 0.046792388 0.0201251 0.06360764 0.049892183
0.051500447 0.032733407 -0.11829865 -0.075638615 -0.070597574 0.007916477 -0.11553616 -0.08124659
0.04822759 0.12073219 0.019845894 -0.05282443 -0.02737635 -0.057973247 0.051715385 0.021055754
0.008968742 0.14446154 0.07309917 -0.03297221 0.09366635 -0.21885635 0.08755998 -0.028686145
-0.026463354 0.10787976 0.015073215 0.07299371 -0.13287207 -0.034104742 -0.041158188 0.098722145
0.080709495 -0.14367487 0.1072049 -0.04259623 0.09340371 0.099022634 -0.010622934 0.11721685
0.04832735 0.06476023 -0.14606017 -0.087960124 0.06760906 0.06983052 0.13335283 -0.012753333
0.010442564 0.09967176 -0.0104118865 -0.011391483 0.09845078 0.067018054 0.037973616 -0.028823135
-0.16966124 0.048654906 -0.011499594 0.16557038 0.055421893 -0.09472393 0.1981978 0.050222266

network_body._body_endoder.seq_layers.2.bias f4 [128]
00000000: 0000 0000 0000 0000 0000 0000 0000 0000
00000010: 0000 0000 0000 0000 0000 0000 0000 0000
00000020: 0000 0000 0000 0000 0000 0000 0000 0000
00000030: 0000 0000 0000 0000 0000 0000 0000 0000
00000040: 0000 0000 0000 0000 0000 0000 0000 0000
00000050: 0000 0000 0000 0000 0000 0000 0000 0000
00000060: 0000 0000 0000 0000 0000 0000 0000 0000
00000070: 0000 0000 0000 0000 0000 0000 0000 0000
00000080: 0000 0000 0000 0000 0000 0000 0000 0000
00000090: 0000 0000 0000 0000 0000 0000 0000 0000
000000a0: 0000 0000 0000 0000 0000 0000 0000 0000
000000b0: 0000 0000 0000 0000 0000 0000 0000 0000
000000c0: 0000 0000 0000 0000 0000 0000 0000 0000
000000d0: 0000 0000 0000 0000 0000 0000 0000 0000
000000e0: 0000 0000 0000 0000 0000 0000 0000 0000
000000f0: 0000 0000 0000 0000 0000 0000 0000 0000
00000100: 0000 0000 0000 0000 0000 0000 0000 0000
00000110: 0000 0000 0000 0000 0000 0000 0000 0000
00000120: 0000 0000 0000 0000 0000 0000 0000 0000
00000130: 0000 0000 0000 0000 0000 0000 0000 0000
00000140: 0000 0000 0000 0000 0000 0000 0000 0000
00000150: 0000 0000 0000 0000 0000 0000 0000 0000
00000160: 0000 0000 0000 0000 0000 0000 0000 0000
00000170: 0000 0000 0000 0000 0000 0000 0000 0000
00000180: 0000 0000 0000 0000 0000 0000 0000 0000
00000190: 0000 0000 0000 0000 0000 0000 0000 0000
000001a0: 0000 0000 0000 0000 0000 0000 0000 0000
000001b0: 0000 0000 0000 0000 0000 0000 0000 0000
000001c0: 0000 0000 0000 0000 0000 0000 0000 0000
000001d0: 0000 0000 0000 0000 0000 0000 0000 0000
000001e0: 0000 0000 0000 0000 0000 0000 0000 0000
000001f0: 0000 0000 0000 0000 0000 0000 0000 0000
0.0 0.0 0.0 0.0 0.0 0.0 0.0 0.0
0.0 0.0 0.0 0.0 0.0 0.0 0.0 0.0
0.0 0.0 0.0 0.0 0.0 0.0 0.0 0.0
0.0 0.0 0.0 0.0 0.0 0.0 0.0 0.0
0.0 0.0 0.0 0.0 0.0 0.0 0.0 0.0
0.0 0.0 0.0 0.0 0.0 0.0 0.0 0.0
0.0 0.0 0.0 0.0 0.0 0.0 0.0 0.0
0.0 0.0 0.0 0.0 0.0 0.0 0.0 0.0
0.0 0.0 0.0 0.0 0.0 0.0 0.0 0.0
0.0 0.0 0.0 0.0 0.0 0.0 0.0 0.0
0.0 0.0 0.0 0.0 0.0 0.0 0.0 0.0
0.0 0.0 0.0 0.0 0.0 0.0 0.0 0.0
0.0 0.0 0.0 0.0 0.0 0.0 0.0 0.0
0.0 0.0 0.0 0.0 0.0 0.0 0.0 0.0
0.0 0.0 0.0 0.0 0.0 0.0 0.0 0.0
0.0 0.0 0.0 0.0 0.0 0.0 0.0 0.0

network_body._body_endoder.seq_layers.2.weight f4 [128, 128]
00000000: 9297 cf3c fa10 a93d 0d89 d73d 15f6 1fbe
00000010: acf9 9dbd e344 eabd 6a4b a73c 7e86 0f3d
00000020: d692 febc 5a24 933d 58ec 893c 2f6d 40be
00000030: 6c03 bc3c 2804 c3bc d940 bf3d 7c59 023e
00000040: 8337 e7bd 66ec e7bd f730 0fbd 1fb0 3e3e
00000050: acd9 003d 2cca 26bd 324c 49bd 0301 d2bd
00000060: 14e1 e6bd ec15 8f3d dfe9 ad3d 8ae1 26be
00000070: c23d 2ebe ddf9 fcbd 1258 a7bd 184f cfbd
00000080: 285c bcbc a885 063e eaeb 10be dbf7 9dbd
00000090: 64b4 293d b63a 7e3c 3f90 503c 1be9 ad3d
000000a0: c0aa ee3d 241a 893d 7864 023e 685e adbd
000000b0: 3891 19bd 0cfc 9a3d 7b23 133d b194 1bbd
000000c0: 2cbb f5bd 5974 2dbd 3d14 d8bd 3d18 d23d
000000d0: df8a 50bd 3ddd b0bc d447 9c3b c986 c13c
000000e0: 2f7f 41bd c2f0 0e3e d013 2cbb 8d03 8abd
000000f0: 395c 0bbe a041 3bbe 7e2d 4ebd 9a77 eabc
00000100: d93f 45be 2a64 b23c 22fc a0bd 98ac aa3d
00000110: aa15 133e c271 00be a768 203e 5db3 d33d
00000120: d564 09bd a9f2 debd 9639 63bd 45a5 933d
00000130: 72a7 353d 3778 663d 4b39 ca3c a47b 99bd
00000140: b20e ca3d 2b07 643e 5fee a8bc 23c2 923d
00000150: d806 82bd 8d94 e9bc c5e6 0a3c e210 893b
00000160: 1fb7 45be f964 9bbd 1d4f 873d 3370 ae3d
00000170: f75d 643d 3986 793c bb5e 5f3e f44c d1bd
00000180: 973c 83bd 1b97 883e b467 853d 3f73 2c3e
00000190: 2797 9fbc 5c12 d7bc 4418 c3bd 0ddd b2bd
000001a0: ce47 4d3d 5e8d 333d 00c0 403d 6a62 c2bd
000001b0: 352f 9dbd d20c 22bd 6522 15be 4fbe fabc
000001c0: b895 14be 3a0c 7bbe 14b4 c0bd 5631 2bbd
000001d0: 7111 ba3c ddf3 7abc 5a47 03be f762 aabc
000001e0: c412 cdbc 1833 a0bd 354b 5fbc e598 4e3d
000001f0: eb43 233e 8ed8 c7bc 4856 24be a5da 9ebd
00000200: 457f 1f3c 0b79 11bd f09e 03be 2b83 46bd
00000210: 8f54 8fbd 6732 a53d 8100 80bd 0d9c 3dbd
00000220: bd3c 723d e88e b9bc 9673 fbbc 0e71 353d
00000230: 95c8 c2bc cd2c 553d 9faa a5bd 93fd 1fba
00000240: 5fb8 6abd df23 a4bd d012 133d e422 2e3d
00000250: 1670 bf3d 7560 a3bd 70d0 54bc 1259 313e
00000260: 0db3 373e 140f 3ebd 3fb6 943d 2fe6 0fbe
00000270: 2e63 9c3c 7cfe dcbd 731a a23d eeb8 113d
00000280: 1c48 79bd 1509 023c 0636 b6bd e41f f2bc
00000290: e85b 033e dbfb 6ebc 950f c33c 3035 113e
000002a0: c3e4 ff3d 1b25 9a3d 1448 bfbd f917 7ebd
000002b0: d74f efbd a3cc 0f3d 0da4 253e 4087 f83c
000002c0: 8f5c e43d a7b5 d2bc 6864 153d f08c e93d
000002d0: 50e4 863d 5b49 0c3d 336d 073d 63fc 363d
000002e0: b3c0 e33c 23b7 90bc 1367 b0bd 9b81 973c
000002f0: f8a3 2bbe 12ac dd3d eb41 583d cb22 67bd
00000300: 77fa ca3c 5a9f 0b3e 162e 013d 747f 693d
00000310: 4bec 0d3c 3bb0 64bd f851 a6bd fa71 993c
00000320: d7a9 36bd 89f2 fc3d 5eb7 813b b696 013e
00000330: 2133 fd3c b6bf 80bc dc36 653d 9cd3 843d
00000340: 09e2 04bd aec5 5bbd ad5c 23be 9da7 2f3d
00000350: a708 323c 975d 21bd 483e 173d f2b0 0b3d
00000360: 94cd 173e e0e6 f0bb f194 053e d72e b63d
00000370: 50a9 db3d 203e 483e 841d 37bd e74e 9cbc
00000380: defb 61bd 9b8f 9e3d c500 583c b575 e2bd
00000390: 494b aabc 065f 3bbe cb0c b33d 22ad 01be
000003a0: 115a 8e3b eec6 71bd 2b4e dc3d 88cb d43d
000003b0: 09a5 99bd 75c6 c63c 5838 cb3d e6f1 8c3e
000003c0: 12d3 863d 8642 75bd 5e6c 1ebc 4e66 b3bc
000003d0: e260 04be 0b02 9a3c 6eee 67bd d066 623d
000003e0: 1682 1e3e 8188 6d3d c343 cd3c d51e d2bd
000003f0: 14cf 1f3e 6979 bdbd ae06 e93c a603 a23c
0.025340829 0.08255191 0.10524187 -0.15621217 -0.07713637 -0.1143892 0.020421702 0.03504037
-0.031075876 0.07184668 0.01683633 -0.1879165 0.02295085 -0.023805693 0.093385406 0.12729448
-0.11289885 -0.11324386 -0.034958806 0.18621872 0.031457588 -0.04072015 -0.04914493 -0.10254099
-0.11273399 0.06986603 0.08491873 -0.16296974 -0.17015746 -0.12352345 -0.08171095 -0.10122508
-0.022993162 0.13136923 -0.14152494 -0.0771329 0.0414318 0.0155169275 0.012729703 0.08491727
0.11653662 0.06694439 0.12733638 -0.08465272 -0.037492007 0.075676054 0.03592251 -0.0379836
-0.11998591 -0.042347286 -0.10550735 0.10258529 -0.050913688 -0.02158987 0.004769305 0.02362384
-0.047240432 0.1395903 -0.0026256926 -0.067389585 -0.13609399 -0.18286753 -0.050336353 -0.028621484
-0.19262637 0.021776278 -0.078605905 0.08333701 0.14363733 -0.12543395 0.15664922 0.10336945
-0.033543427 -0.108861275 -0.05547484 0.07209257 0.04434914 0.05626699 0.024685523 -0.07494286
0.09866084 0.2226836 -0.020621477 0.07165935 -0.063489616 -0.028513217 0.008477871 0.004182921
-0.19308136 -0.075876184 0.066068865 0.08517494 0.055753674 0.015229755 0.2181348 -0.10219756
-0.06408041 0.26677784 0.065139204 0.16840838 -0.019481255 -0.026253872 -0.09526113 -0.08733568
0.050117306 0.04383599 0.047058105 -0.09491427 -0.0767502 -0.039563008 -0.14563902 -0.030608324
-0.14510238 -0.24516383 -0.09409347 -0.041795097 0.022713395 -0.015316931 -0.12820187 -0.020799143
-0.025033362 -0.07822245 -0.013628771 0.05043878 0.15943877 -0.024395254 -0.16048539 -0.07756547
0.009734933 -0.035515826 -0.12853599 -0.048464935 -0.0699855 0.08066254 -0.06250096 -0.0462914
0.059139956 -0.02265115 -0.030694764 0.04429727 -0.023777286 0.05204468 -0.08089184 -0.0006103154
-0.057304736 -0.08014654 0.035906613 0.042513743 0.093475506 -0.07977382 -0.0129891485 0.17319134
0.17939396 -0.0464011 0.07261323 -0.14052652 0.019090261 -0.107907265 0.07915201 0.035576753
-0.060859784 0.007936736 -0.08897023 -0.029556222 0.12828028 -0.014586414 0.023811141 0.14180446
0.12494805 0.075266086 -0.0933992 -0.06203458 -0.1168515 0.035107266 0.16175862 0.03033793
0.11150467 -0.025721384 0.036472708 0.11403835 0.06586516 0.034249645 0.033063125 0.04467429
0.027801847 -0.017665451 -0.0861341 0.018494418 -0.16761768 0.108238354 0.05279724 -0.056429666
0.024777634 0.13635007 0.03153809 0.057006314 0.008662294 -0.05583213 -0.08121103 0.018731106
-0.044595566 0.123509474 0.0039586267 0.12655148 0.03090817 -0.015716415 0.05596052 0.06485674
-0.032442126 -0.05365532 -0.15953322 0.042884458 0.010866321 -0.039395895 0.03692463 0.034104295
0.14824516 -0.007351741 0.13045098 0.08895653 0.10725653 0.19554949 -0.044705883 -0.019080592
-0.05517184 0.07742234 0.013183777 -0.11057607 -0.020787852 -0.18297967 0.087426744 -0.12663701
0.004344233 -0.059027605 0.10757097 0.10390383 -0.07502181 0.024264554 0.09922856 0.27528304
0.06583227 -0.059877895 -0.009669391 -0.021899369 -0.12927583 0.018799802 -0.05662387 0.05527383
0.15479311 0.05799151 0.025056725 -0.10259787 0.15606338 -0.09251673 0.028445568 0.01977713
