results/wonderAgent01/WonderAgentHealing.onnx (onnx, 72461 bytes, 7 tensors)

action_model._continuous_distribution.log_sigma f4 [1, 2]
0	0x3d1b851b	0.037968736
1	0x3cf0aac2	0.029378299

action_model._continuous_distribution.mu.bias f4 [2]
0	0x396e5dcc	0.00022732391
1	0x3b0718ec	0.002061422

action_model._continuous_distribution.mu.weight f4 [2, 128]
0	0x3c002bfb	0.007822986
1	0x3cdb9d72	0.026808474
2	0x3ce0c14d	0.027435923
3	0x3ad8822d	0.0016518288
4	0x3c8ad749	0.01694836
5	0x3ca0fa73	0.019650673
6	0x3c1cdeca	0.009574601
7	0x3c84d5bc	0.016215198
8	0x3c0db44d	0.008648944
9	0x3b2d8d8b	0.0026482071
10	0xbc9b1004	-0.018928535
11	0xbc254c57	-0.010089002
12	0xbbb133eb	-0.0054078004
13	0x3d2fbdf0	0.042905748
14	0xbb2f668b	-0.0026764001
15	0x3cdf432c	0.02725371
16	0xba904280	-0.0011006147
17	0xbcf2930b	-0.029611131
18	0x3bc7ebad	0.006101093
19	0xbd06e0f7	-0.032929387
20	0x3c3e1fbb	0.011604245
21	0xbcef071b	-0.029178193
22	0x3cce1d6f	0.02516052
23	0xbcb8c892	-0.022556577
24	0x3bb1348f	0.005407877
25	0xbc8aa520	-0.01692444
26	0xbbf320d4	-0.007419685
27	0x3c9cb08f	0.019127158
28	0x3bc2f415	0.005949507
29	0xbaf37cd8	-0.0018576635
30	0x3d1161cb	0.035493653
31	0x3bc54c99	0.006021094
32	0x3bcb02b9	0.006195393
33	0xbcb01e44	-0.021498807
34	0x3ca1d996	0.019757073
35	0xbc250467	-0.01007185
36	0x3cd76923	0.02629525
37	0x3cc6f861	0.024288358
38	0xbc5f1385	-0.013615494
39	0x3d1a9822	0.03774274
40	0xbc033a73	-0.008009541
41	0x3d0f651c	0.035008535
42	0x3c864d4b	0.016394278
43	0xbd025f94	-0.03182943
44	0xbcbea031	-0.023269745
45	0x3c1079fe	0.008818148
46	0xbbdc789b	-0.0067282445
47	0xbc281b8e	-0.010260476
48	0x3c9dd269	0.01926537
49	0x3c2f8503	0.010712865
50	0x3c437144	0.01192886
51	0xbcb462ea	-0.022019822
52	0x3c6a706f	0.014309033
53	0x3b68f72e	0.0035547721
54	0xbce0139f	-0.027353106
55	0xbce656fd	-0.028117651
56	0x3bb51d73	0.0055271923
57	0xbc1f130e	-0.009709133
58	0xbc5ce404	-0.013482098
59	0x3cb8181a	0.02247243
60	0xbc61f6d5	-0.0137917595
61	0x3ced6c56	0.028982323
62	0xbd5512d7	-0.05201992
63	0xbbf75029	-0.0075473976
64	0xb73a4eb5	-1.1104789e-05
65	0x3b2e23ba	0.0026571588
66	0x3beca360	0.0072216243
67	0xbc36599e	-0.011129765
68	0x3ca1654e	0.019701626
69	0xbbc5c3df	-0.0060353125
70	0x3bf8ddec	0.0075948145
71	0x3c826859	0.015918897
72	0x392614ba	0.00015838715
73	0xbd160694	-0.036627367
74	0x3b322b99	0.002718663
75	0xbc8a1b93	-0.016858852
76	0xbbf70a78	-0.00753909
77	0x3be36dbe	0.0069405725
78	0xbb33087e	-0.0027318294
79	0xbba4548b	-0.005014961
80	0xbca84c31	-0.020544143
81	0xbcb61fab	-0.022231897
82	0xbcc9e92f	-0.024647323
83	0xbbf2cf50	-0.0074099675
84	0x3c036b65	0.00802121
85	0x3cd6149d	0.026132876
86	0xbce633d3	-0.028100884
87	0x3c853ae7	0.016263438
88	0x3d3b0efb	0.045668583
89	0xbb204771	-0.0024456645
90	0x3b4ec413	0.0031549975
91	0x3c66fa46	0.014097756
92	0x3c9a80b0	0.018860191
93	0xbb6c9071	-0.0036096836
94	0xbc171cfa	-0.009223217
95	0x3b53835a	0.0032274337
96	0x3cad6c1f	0.02116972
97	0x3b9ad320	0.004724875
98	0xbc10cc1b	-0.008837725
99	0xbc234fbf	-0.009967743
100	0xbba0857b	-0.0048987246
101	0xbca97dc6	-0.020689856
102	0xbc654bf6	-0.013995161
103	0xb819a6fc	-3.663356e-05
104	0x3b30faf3	0.0027005046
105	0xbb9b9d52	-0.0047489787
106	0xba223723	-0.00061880256
107	0x3c270fa5	0.010196601
108	0x3d06db17	0.032923784
109	0x3b94d5d2	0.004542091
110	0xbc4bcd5a	-0.012439096
111	0xb9ff7456	-0.00048724067
112	0x3b6b98c8	0.003594922
113	0x3c083aef	0.008314832
114	0x3d48730c	0.048937842
115	0xbc309bd1	-0.010779337
116	0x3d048143	0.032349836
117	0x3b1444c0	0.0022623986
118	0xbd0024c1	-0.03128505
119	0xb930d47d	-0.00016863826
120	0xbcdcd821	-0.026958527
121	0xbbf77ac1	-0.007552475
122	0xbb225618	-0.0024770554
123	0x3cc7b334	0.024377443
124	0xbb6057e9	-0.0034232086
125	0x3ca4a550	0.020098358
126	0x3c89b452	0.016809616
127	0x3c004e73	0.007831204
128	0xbcc393ab	-0.023874125
129	0xbcbbfc9b	-0.0229476
130	0x3ca582ba	0.020203937
131	0x39f41559	0.00046555212
132	0xbce3a8b4	-0.027790405
133	0x3c9ed99a	0.01939087
134	0xbc4137c5	-0.011793082
135	0xbc5d1d39	-0.013495737
136	0xbcd23525	-0.025660107
137	0x3c23967a	0.009984607
138	0x3c89791a	0.016781379
139	0xbc7c64d1	-0.015404896
140	0x3cd71d44	0.026259072
141	0x3b758a32	0.0037466404
142	0x3cd1c002	0.025604252
143	0x3b1df58e	0.002410266
144	0x3c7c37d5	0.015394171
145	0x391173cf	0.0001387142
146	0x3b764c70	0.0037582181
147	0x3c4543da	0.012040103
148	0xbc24fcee	-0.010070069
149	0xbcf14c54	-0.029455341
150	0x3cd02dd3	0.025412476
151	0xbc4ca791	-0.012491123
152	0x3ba8cd79	0.0051514474
153	0xbbc60cd0	-0.006044008
154	0xbbf1b0ab	-0.007375797
155	0x3c19a727	0.009378231
156	0x3d59f642	0.053213365
157	0xba848a42	-0.0010112005
158	0x3c546cce	0.012965394
159	0xbcc9c290	-0.024628907
160	0xbcc565e6	-0.02409644
161	0xbc124faa	-0.008930126
162	0xbbf13b33	-0.0073617934
163	0xba1d4c97	-0.00060004875
164	0x3c1d28f2	0.009592282
165	0x3ca158ab	0.0196956
166	0xbcf28b39	-0.029607402
167	0xbae8414a	-0.0017719653
168	0x3bc2d125	0.005945342
169	0x3b1cff9c	0.0023956066
170	0xbcd67be4	-0.026182123
171	0xbc052942	-0.008127512
172	0xbb420442	-0.0029604589
173	0xbc4a116b	-0.012333254
174	0x3c64dc93	0.013968605
175	0xbc0a48e9	-0.008440235
176	0xbb0ae62f	-0.002119433
177	0x3bacc404	0.0052723903
178	0x3b249613	0.0025113865
179	0x3cd51201	0.026009561
180	0x3b26e234	0.0025464417
181	0x3d15a967	0.036538508
182	0x3bbcaa5a	0.005757612
183	0x3988a23e	0.0002606082
184	0x3cc2ed93	0.023794925
185	0x3c28b97f	0.010298132
186	0x39a81180	0.00032056496
187	0xbbb37a31	-0.005477213
188	0xbbcfe2ca	-0.006344174
189	0xbc97aeb4	-0.018515922
190	0xbd2ce85a	-0.042213775
191	0xbbdb5d9b	-0.0066945083
192	0xbc6d427c	-0.014481183
193	0x3b968db4	0.004594529
194	0xbb1ff732	-0.0024408814
195	0x3cb4f50a	0.0220895
196	0x3c89f022	0.016838137
197	0xbc931456	-0.017954033
198	0xbc8aafff	-0.016929625
199	0xbc724848	-0.014787741
200	0xbc86bd79	-0.01644777
201	0xbbb98bc6	-0.0056624142
202	0x3bb1cac6	0.005425784
203	0xbc2299d0	-0.009924367
204	0x3c2fc410	0.010727897
205	0xbc24570c	-0.010030519
206	0x3b7b62c9	0.003835844
207	0x39d5929c	0.00040735758
208	0xbc98b7aa	-0.018642265
209	0x3cf6c716	0.030124228
210	0xbb899d2d	-0.004199645
211	0x3ca4c819	0.020114945
212	0xbcadeb0d	-0.021230245
213	0x3cbd970d	0.023143316
214	0x3c5e81e2	0.013580771
215	0xbc2ee221	-0.0106740305
216	0x3c0f0d6e	0.008731229
217	0xbc7c11f5	-0.015385141
218	0xbb338ab8	-0.0027395915
219	0x3caa9870	0.020824641
220	0xbcaabcee	-0.020842042
221	0x3cb7ad38	0.022421464
222	0x3b4240ec	0.0029640747
223	0x3b860504	0.0040899534
224	0xbcc6b4b5	-0.02425609
225	0xbd59d71c	-0.05318366
226	0xbcbd7d74	-0.02313111
227	0xbcef34e7	-0.02920003
228	0x3bbc3e7e	0.0057447543
229	0x3ac5e6aa	0.001509865
230	0xbbc0fb0c	-0.005889302
231	0x3cd06c2b	0.025442204
232	0x3bb2d247	0.005457196
233	0x3cb26f1c	0.021781497
234	0x3c6cee83	0.0144611625
235	0x3cb7a9e5	0.02241988
236	0xbd0795fc	-0.03310202
237	0x3c209533	0.009801197
238	0xbcba0591	-0.022707732
239	0x3ca94e28	0.02066715
240	0xba47292d	-0.0007597383
241	0xbd2381fb	-0.03991888
242	0x3cca537b	0.02469801
243	0x3b302413	0.002687697
244	0xbd0c5f87	-0.03427079
245	0xbca94fcd	-0.020667935
246	0xbc9e089e	-0.019291218
247	0xbc4dc665	-0.012559508
248	0x3b189936	0.002328468
249	0x3c3a3cb3	0.011367011
250	0x3c8f2d5d	0.017477686
251	0x3d05dba1	0.032680158
252	0x3c34cd00	0.011035204
253	0x3c950394	0.018190183
254	0x3c9d70bb	0.019218793
255	0xbbb6df56	-0.005580823

network_body._body_endoder.seq_layers.0.bias f4 [128]
0	0xb9d11d1f	-0.00039885283
1	0xb6039116	-1.9604972e-06
2	0x3b3f0cd3	0.002915193
3	0x3aa56b25	0.0012620433
4	0x3adf4a4a	0.001703569
5	0xba66d729	-0.0008805865
6	0xbace9f2c	-0.001576399
7	0xb9938ff4	-0.00028145278
8	0xba5254d2	-0.00080235035
9	0xbafed674	-0.0019442574
10	0x3a28f6ca	0.0006445466
11	0xba51a953	-0.00079979486
12	0xbb96bf1f	-0.00460042
13	0x3b18a647	0.0023292468
14	0xbb02781c	-0.0019908017
15	0xbb700d6b	-0.0036629091
16	0x3b07582d	0.0020651922
17	0x3a781ab0	0.0009464426
18	0xba50a430	-0.0007959036
19	0xbb37a0cf	-0.0028019433
20	0x372b2c53	1.0202714e-05
21	0xba7636e2	-0.00093923334
22	0xbb88f40b	-0.004179483
23	0x3b3dd310	0.0028964914
24	0x3ba6d6a0	0.0050915033
25	0x3b68cfb2	0.0035524187
26	0xba8e58f5	-0.0010860251
27	0x3b3436b8	0.0027498435
28	0x3b38f0aa	0.0028219619
29	0xbbb55276	-0.0055335118
30	0x3be146f6	0.0068749143
31	0xb8d52823	-0.000101641075
32	0x3bb6f715	0.0055836537
33	0xba2b1365	-0.00065260223
34	0xbb23b7fa	-0.0024981485
35	0xba6397a2	-0.0008681958
36	0x3b214676	0.0024608648
37	0xbb6606a0	-0.0035099164
38	0xbb071ad6	-0.002061536
39	0x3a7b8813	0.0009595167
40	0xbb8cb6f5	-0.004294271
41	0xba946592	-0.0011321774
42	0x3b58f344	0.0033103982
43	0xbaee5e69	-0.0018186095
44	0xbacb8951	-0.0015528594
45	0x38bc17e3	8.968988e-05
46	0xbae6fb6f	-0.001762254
47	0x3abf225b	0.0014582382
48	0x3ab16b0f	0.0013535934
49	0x3b2b7dd7	0.0026167536
50	0x3a9a5a63	0.0011776205
51	0xba5c753c	-0.0008409803
52	0xbb35984f	-0.0027709191
53	0x3bd3b505	0.006460788
54	0xbaa062a8	-0.0012236433
55	0x3a9627b1	0.0011455921
56	0xba4efc91	-0.00078959117
57	0xbaeef58d	-0.0018231139
58	0xbba0d52a	-0.0049082236
59	0x3c5a37f7	0.013319007
60	0x3afda6a4	0.0019352031
61	0xba9db3c1	-0.001203172
62	0xba4c8dc1	-0.00078031054
63	0x39965a1c	0.00028677366
64	0xbb41267f	-0.0029472408
65	0x3adf5087	0.0017037549
66	0x3a398c88	0.0007078131
67	0x3ac3788f	0.0014913249
68	0x3b0a9c38	0.0021150243
69	0x3aa851ae	0.0012841725
70	0x3a0d8005	0.00053977995
71	0xbab114c6	-0.0013510219
72	0x3c12fe72	0.008971797
73	0x3b0125fa	0.0019706474
74	0xbade94b0	-0.0016981568
75	0xbb2fb975	-0.0026813422
76	0x3b47253b	0.0030387181
77	0x3b80601a	0.003917706
78	0xba012dff	-0.00049278134
79	0x3ba055db	0.0048930473
80	0xbba7e30b	-0.005123501
81	0x390e4bc7	0.00013570405
82	0x3a97d53c	0.0011583935
83	0xbb88551a	-0.0041605355
84	0xbc2c7333	-0.0105255125
85	0x390b7a74	0.0001330169
86	0x3b179070	0.0023126863
87	0x3918bf1e	0.00014567046
88	0xbbfe078d	-0.007752365
89	0x3b41a31b	0.0029546681
90	0x3a9768fa	0.0011551671
91	0x3b01e699	0.0019821285
92	0xbae3ef72	-0.0017390086
93	0xbb3b8df5	-0.0028618549
94	0xbb769c81	-0.0037629905
95	0x3a0f1af6	0.00054590346
96	0xba02e5f5	-0.0004993373
97	0xbabae34c	-0.0014258414
98	0xbb15ee75	-0.0022877727
99	0x3aad8dca	0.0013241109
100	0x39aeddeb	0.00033353208
101	0xbb439dd8	-0.002984872
102	0x3aba9231	0.0014234242
103	0xbb2d407b	-0.0026436138
104	0xbb19c46a	-0.002346302
105	0xbc563dd5	-0.013076265
106	0xbb055856	-0.0020346842
107	0xba7cdc91	-0.0009645904
108	0x3b4f2e35	0.0031613235
109	0xbb72c365	-0.0037042734
110	0xbb273daf	-0.0025518944
111	0x3b10398e	0.0022006962
112	0xbaca8007	-0.0015449532
113	0xbc0c5617	-0.008565447
114	0x3b8ca229	0.004291792
115	0x39cfa704	0.00039606553
116	0xbb727b34	-0.0036999704
117	0x3a34e759	0.00069009286
118	0x3bd2101d	0.0064106123
119	0xbb5b6e4e	-0.0033482495
120	0x3a8ee292	0.0010901263
121	0x3ab090ba	0.0013470866
122	0x3ad6ca91	0.0016387274
123	0x3c0f2fe6	0.008739447
124	0xbc1e62a9	-0.009667077
125	0xbb9d6882	-0.004803718
126	0xbb83b10f	-0.0040189098
127	0x3b000dc9	0.0019539467

network_body._body_endoder.seq_layers.0.weight f4 [128, 6]
0	0x3ea54126	0.32276267
1	0x3f3559c4	0.70840096
2	0x3eb33951	0.35004666
3	0x3eb7e5a1	0.3591738
4	0x3f8cacbb	1.0990213
5	0x3eb0ff0b	0.34569582
6	0x3e95a6a2	0.29228693
7	0x3e6d560e	0.23177359
8	0x3e4a44c7	0.19752799
9	0xbeae15da	-0.34001046
10	0xbe0c49ab	-0.13699977
11	0xbe7a7ac0	-0.24460888
12	0x3ef7fe6b	0.48436293
13	0x3f20bd9e	0.6278933
14	0x3f0cb57e	0.54964435
15	0x3c80e4f5	0.015734175
16	0xbdce7dbb	-0.10082575
17	0x3f1f094d	0.62123567
18	0x3eb4c624	0.3530742
19	0x3edb3b71	0.42818788
20	0x3ecf89c2	0.40534788
21	0xbf0e3071	-0.55542666
22	0x3ec8ef0e	0.39244884
23	0xbe9ad4ad	-0.30240384
24	0xbf26f64f	-0.6521959
25	0xbeebcda3	-0.46055326
26	0xbeb09469	-0.34488228
27	0x3e90b1c2	0.28260618
28	0x3f064ad2	0.52457917
29	0xbcf44d86	-0.029822122
30	0x3e3ddaf3	0.18540554
31	0x3e01ffa6	0.12695178
32	0xbd9ee316	-0.07758157
33	0x3f2d1693	0.6761257
34	0x3cbe8e9b	0.023261359
35	0x3e9b3cc4	0.30319798
36	0x3f0ca9a6	0.5494636
37	0x3e3da766	0.18520889
38	0x3f1a77f7	0.603393
39	0x3e85a071	0.2609897
40	0xbee898be	-0.45429033
41	0x3d28a4d6	0.041172825
42	0x3f4d618f	0.8022699
43	0xbd9f7060	-0.07785106
44	0x3eb7678a	0.35821182
45	0x3f948788	1.1603861
46	0x3deed04a	0.11660822
47	0x3e8b52aa	0.27211505
48	0x3ec164cc	0.37772214
49	0xbd4cb09c	-0.049973115
50	0x3e80d473	0.25162086
51	0xbd4b20fe	-0.04959201
52	0x3efeac3c	0.4974078
53	0xbf152778	-0.5826335
54	0x3f8129c7	1.0090874
55	0x3ef88777	0.4854085
56	0x3e2afb8a	0.16697517
57	0x3f1fa67e	0.6236342
58	0xbec11138	-0.3770845
59	0xbdf0a739	-0.11750645
60	0x3db39c41	0.087700374
61	0x3f1e341e	0.61798275
62	0xbf05d696	-0.5228056
63	0xbeef7f65	-0.46776882
64	0xbe2ea9ee	-0.1705701
65	0xbe14930a	-0.14509216
66	0x3f1c0cf7	0.6095728
67	0xbe442c0f	-0.19157432
68	0xbf1ea021	-0.6196309
69	0xbeeaf17f	-0.45887372
70	0x3dec587c	0.115403146
71	0xbf24e8f4	-0.6441796
72	0xbf4bdd65	-0.79634696
73	0x3e178fe4	0.14800984
74	0x3e21d43f	0.15803622
75	0xbc5527f5	-0.013010015
76	0xbdda4b56	-0.106589004
77	0x3f2a9cf1	0.66645724
78	0x3e8ec6e6	0.27886122
79	0x3ed7dcef	0.42160746
80	0xbf209ba1	-0.6273747
81	0x3f31f07c	0.69507575
82	0xbdae164d	-0.08500347
83	0x3dba8373	0.09107103
84	0xbe86a5e2	-0.26298434
85	0x3f2faef8	0.68626356
86	0xbf3bb793	-0.7332699
87	0xbefadd9f	-0.48997208
88	0x3f2503dd	0.6445902
89	0xbead0b59	-0.3379772
90	0x3e2bd75d	0.16781373
91	0xbf1cab3a	-0.6119877
92	0xbe89cba3	-0.26913175
93	0x3eca72f2	0.3954082
94	0x3d6f4fc5	0.058425684
95	0x3e295a96	0.16538462
96	0xbde6292a	-0.1123832
97	0x3d9cb4f3	0.07651701
98	0x3dd33a62	0.1031387
99	0x3ebb633d	0.3659915
100	0x3f0a156e	0.5393895
101	0xbe59d998	-0.21274412
102	0x3da50444	0.08057454
103	0x3d8f6268	0.070011914
104	0x3d8de4ce	0.06928407
105	0xbe000f0f	-0.12505744
106	0xbf563431	-0.8367339
107	0x3eaed937	0.34150097
108	0xbd1f5fda	-0.03890977
109	0x3ec0af68	0.37633824
110	0x3cdcc934	0.02695141
111	0x3e6e3023	0.2326055
112	0xbecbd191	-0.39808324
113	0x3e397c2c	0.18113774
114	0xbea519bc	-0.32246196
115	0x3db23209	0.0870095
116	0xbe469c4b	-0.19395559
117	0xbec612a0	-0.38686085
118	0xbf50718d	-0.81423265
119	0xbe3f2348	-0.18665802
120	0x3f8744e2	1.0567896
121	0x3d2f73e4	0.04283513
122	0xbe1f16db	-0.15536062
123	0xbdc5b2f3	-0.096532725
124	0xbdbec980	-0.09315777
125	0x3f324fe9	0.69653183
126	0x3e9c9479	0.30582026
127	0xbef0e236	-0.47047585
128	0xbe74388c	-0.23849696
129	0xbe5174db	-0.20454733
130	0xbe83d721	-0.25750068
131	0xbdf80c1c	-0.12111685
132	0x3f76f9ee	0.9647511
133	0x3e6742d0	0.2258408
134	0xbe53a588	-0.20668614
135	0x3f214f8a	0.6301199
136	0xbe21eb45	-0.15812404
137	0x3eb5c3c7	0.3550093
138	0x3e344504	0.17604452
139	0xbea6bf41	-0.3256779
140	0x3ec77d1c	0.38962638
141	0x3e8a231c	0.2697991
142	0xbeb01e0f	-0.34397933
143	0x3efe255f	0.49637887
144	0xbf5daf19	-0.865953
145	0xbe7a6f39	-0.2445649
146	0x3eaac53d	0.33353606
147	0xbeeb1481	-0.4591408
148	0xbf453e9d	-0.77048665
149	0xbe9c87e0	-0.30572414
150	0xbebda186	-0.37037295
151	0xbecaffcf	-0.3964829
152	0x3e2a5fa0	0.1663804
153	0xbf567c8a	-0.8378378
154	0xbed0dfb1	-0.40795663
155	0xbe4a21c5	-0.19739445
156	0xbdd6bdb0	-0.10485399
157	0x3eea167e	0.45720285
158	0xbe870d4e	-0.26377338
159	0x3ea62779	0.3245199
160	0xbdba2eec	-0.09090981
161	0xbeefa8bc	-0.46808422
162	0x3c816c3b	0.015798679
163	0x3d948f32	0.07253875
164	0x3d09cb28	0.03364101
165	0xbeb59aa8	-0.35469556
166	0x3edbb51c	0.42911613
167	0x3e6f202c	0.23352116
168	0x3e8f7b35	0.28023687
169	0xbe2f9843	-0.17147927
170	0xbf00bc67	-0.5028748
171	0xbe8453ed	-0.2584528
172	0x3e12f176	0.14349923
173	0x3e8c1227	0.273576
174	0x3ee650e8	0.44983602
175	0xbe943613	-0.28947505
176	0xbb739514	-0.0037167715
177	0xbd4231e6	-0.047410868
178	0xbed98596	-0.4248473
179	0x3ec3e7ad	0.38262692
180	0xbe43b214	-0.191109
181	0xbe98c29b	-0.29835972
182	0x3eb16c34	0.34652865
183	0xbf06c246	-0.5264019
184	0x3e89879e	0.2686128
185	0xbf07442b	-0.5283839
186	0xbf0363e7	-0.51324314
187	0x3f101f15	0.5629743
188	0xbcb64abc	-0.022252433
189	0xbf0080b3	-0.5019638
190	0x3ea23763	0.31682882
191	0xbeaaddd6	-0.33372372
192	0xbf43a46a	-0.7642275
193	0x3e8be9ff	0.27326962
194	0x3d0897b0	0.033347785
195	0xbeaaffa3	-0.3339816
196	0x3e9418a4	0.2892505
197	0x3e99cb05	0.30037704
198	0xbf2a5a6f	-0.6654424
199	0xbe62e7fd	-0.22158809
200	0xbf144e82	-0.57932293
201	0x3e794574	0.243429
202	0x3eafde6e	0.34349388
203	0x3de96988	0.113970816
204	0x3def2d4f	0.11678564
205	0x3e65ff40	0.22460651
206	0xbe53ae36	-0.20671925
207	0xbeaa650a	-0.33280212
208	0x3d6db881	0.058037285
209	0x3f08b067	0.5339417
210	0x3e1e8174	0.1547907
211	0x3cc05950	0.023480088
212	0x3eb88ac9	0.36043385
213	0xbe22d3c2	-0.15901092
214	0x3e2bfdd5	0.16796048
215	0x3e227a59	0.15866984
216	0xbf44e6e9	-0.7691484
217	0x3e19d6a1	0.1502328
218	0xbf0f7d8c	-0.56050944
219	0xbd30431a	-0.043032743
220	0x3ec09362	0.37612444
221	0xbe024722	-0.12722448
222	0xbd64a31d	-0.05581962
223	0x3ed66d60	0.41880322
224	0x3f04d910	0.5189371
225	0x3e1996bb	0.14998905
226	0xbebaf535	-0.36515203
227	0x3eb8c4e0	0.36087704
228	0xbe5d24db	-0.2159609
229	0xbe067f9f	-0.13134621
230	0xbf21eccf	-0.63251966
231	0x3edfb372	0.43691593
232	0xbe0dca0d	-0.13846608
233	0x3ec4949e	0.38394636
234	0x3f2f1ed0	0.6840639
235	0x3e411f46	0.18859586
236	0xbf193ff7	-0.5986323
237	0xbed84307	-0.42238638
238	0x3f202ca3	0.6256811
239	0x3f664368	0.89946604
240	0xbf1086c8	-0.5645566
241	0x3e5dafd8	0.2164911
242	0x3f01c5b5	0.506923
243	0xbe428158	-0.18994653
244	0xbe99f320	-0.30068302
245	0x3e1b23b2	0.15150335
246	0x3f878f08	1.0590525
247	0x3e45b1fe	0.1930618
248	0x3de0a98d	0.10969839
249	0x3f47aa87	0.7799458
250	0x3e80a8b9	0.25128725
251	0x3e3571e9	0.17719235
252	0xbe740ce9	-0.2383305
253	0x3df0f08d	0.117646314
254	0xbc867397	-0.01641254
255	0xbdaf35fd	-0.08555219

network_body._body_endoder.seq_layers.2.bias f4 [128]
0	0xba0e8071	-0.00054360094
1	0xbc1e3d95	-0.009658237
2	0x3b7485c4	0.0037311176
3	0x39ace50d	0.00032977053
4	0xbb089625	-0.0020841446
5	0x37bbe41e	2.2398362e-05
6	0xb8e34b12	-0.000108381864
7	0x3c03d616	0.0080466475
8	0xbbab5f6a	-0.00522988
9	0x394cce8c	0.00019531901
10	0x3ac1be21	0.0014781394
11	0xbb16233c	-0.0022909185
12	0xba715208	-0.0009205644
13	0x3afd455e	0.0019323041
14	0x3ad3a42a	0.0016146947
15	0xba7c16da	-0.0009616442
16	0x39fd5339	0.00048317926
17	0x3999ecf8	0.0002935899
18	0xba6476f5	-0.0008715236
19	0x3aa6c415	0.0012723232
20	0x3bb17096	0.0054150326
21	0xbb05c2d9	-0.0020410328
22	0xb9b89c94	-0.00035211875
23	0x3a433c46	0.0007447641
24	0xbb481571	-0.0030530358
25	0xbb1ac088	-0.0023613293
26	0xbb0984c2	-0.002098367
27	0x3b2e0c85	0.0026557755
28	0x3b8bb486	0.0042634634
29	0xbbd3d3b8	-0.006464448
30	0x3b9467a1	0.004528955
31	0xbafe6351	-0.0019408261
32	0xbaeaf3a3	-0.0017925393
33	0xbb078ed4	-0.0020684497
34	0x3a8b8916	0.0010645713
35	0x39986bcc	0.00029072014
36	0x3aaea5b5	0.0013324531
37	0x3b69a1dc	0.0035649454
38	0xb95e0763	-0.00021174322
39	0x39dd79c7	0.00042243136
40	0x3972b111	0.00023144881
41	0xba14bbb0	-0.00056737196
42	0xba7dce15	-0.00096818927
43	0xbb6fabf8	-0.0036571007
44	0x3ab81582	0.0014044496
45	0xbb9f414c	-0.004860079
46	0x3b180a82	0.0023199623
47	0xbac9a8f3	-0.0015385434
48	0xbae620d4	-0.0017557391
49	0xba4ee109	-0.0007891809
50	0x3b8fea2e	0.00439193
51	0xb9e9550f	-0.00044504597
52	0xb9f4a113	-0.00046659316
53	0x3acb98f6	0.0015533257
54	0xb839af94	-4.4270957e-05
55	0x3adac905	0.0016691989
56	0x3b5c65f9	0.0033630116
57	0x3acdc1d4	0.0015698024
58	0xbb0fb5c0	-0.00219284
59	0x3a0448e6	0.0005046263
60	0xb9b4269d	-0.00034361045
61	0xbad6e152	-0.0016394055
62	0xba0d9873	-0.000540144
63	0xbaf29d04	-0.0018509929
64	0xbb628d8e	-0.0034569236
65	0xb8f7e3bb	-0.00011820296
66	0xbaea5348	-0.0017877603
67	0x3ae2a458	0.001729141
68	0x3b24fa99	0.0025173782
69	0x3b6eac98	0.0036418792
70	0xb87334e3	-5.798497e-05
71	0xbaef0c5d	-0.0018237937
72	0x3a42b1d7	0.0007427013
73	0x39d42adf	0.00040467732
74	0xba2dfa8a	-0.00066367595
75	0xbb4803b9	-0.0030519797
76	0x3acf2c8c	0.0015806123
77	0xbb61a3d4	-0.0034429925
78	0x3a2d9a2b	0.0006622399
79	0xbb2c2748	-0.002626853
80	0xba0e0b05	-0.0005418512
81	0x3b462106	0.0030232086
82	0x39d3edfd	0.0004042237
83	0x3aa1f07f	0.0012354999
84	0xbae95f19	-0.001780483
85	0x3b715cab	0.0036828916
86	0x3ca8b557	0.020594282
87	0xbae8446a	-0.0017720584
88	0x39e70cbf	0.0004406925
89	0xba90f423	-0.0011059087
90	0xbaca6c6e	-0.0015443692
91	0x3c1baf46	0.009502238
92	0x3b7bc6c3	0.0038418032
93	0x3b000ddd	0.0019539513
94	0x3a98c650	0.0011655781
95	0xbb019f88	-0.0019778926
96	0xbaf945dc	-0.0019018012
97	0xbac5356c	-0.0015045828
98	0xba953dda	-0.0011386231
99	0xbab5459e	-0.0013829952
100	0xba03394e	-0.00050057925
101	0x3a230207	0.00062182586
102	0xb9273cf1	-0.00015949064
103	0xbaeff201	-0.0018306376
104	0x3a1a9349	0.0005896581
105	0x3ad543f3	0.0016270861
106	0x3ade3e4c	0.0016955822
107	0x3a943db2	0.001130989
108	0xbae0493d	-0.001711167
109	0x3ad7c54f	0.0016462001
110	0xbafe2b1e	-0.0019391512
111	0x3ad72ead	0.0016417109
112	0xbb68e100	-0.00355345
113	0xbb03a35f	-0.002008639
114	0x3b6215b9	0.003449781
115	0x390002e2	0.00012208105
116	0x3a4131f1	0.00073698076
117	0xba0ce749	-0.00053750403
118	0xbb51c108	-0.0032005925
119	0xbb8650d3	-0.0040989905
120	0x3a6d531a	0.00090532156
121	0x39e13e81	0.00042961913
122	0x3ae80f99	0.0017704844
123	0x39b129c6	0.00033791194
124	0x3ab3bef3	0.0013713524
125	0x37ab534e	2.042358e-05
126	0xb9e0150b	-0.00042740288
127	0xbb6b9e5c	-0.0035952544

network_body._body_endoder.seq_layers.2.weight f4 [128, 128]
0	0x3cf7e685	0.030261287
1	0xbd245da3	-0.04012836
2	0xbe1510bb	-0.14557163
3	0xbb3fe775	-0.0029282246
4	0xbcf4d75e	-0.029887851
5	0xbe0cd2df	-0.13752316
6	0xbe440a09	-0.19144453
7	0xbd621b6e	-0.05520194
8	0x3d293fed	0.04132073
9	0xbd9322f1	-0.07184399
10	0x3d37e6db	0.044897895
11	0x3c622f96	0.013805291
12	0x3d6401f4	0.055665925
13	0xbc244d5a	-0.010028208
14	0xbc0355f8	-0.008016102
15	0x3e22a7dc	0.15884346
16	0x3c984ea2	0.018592183
17	0xbb12cd73	-0.002240029
18	0x3dd1e97b	0.10249611
19	0x3e1bf441	0.15229894
20	0x3d3322b0	0.043734252
21	0x3d9662d0	0.07343066
22	0x3de2f534	0.11081925
23	0xbc71b928	-0.014753617
24	0x3d6a2f23	0.05717386
25	0xbd9e50d9	-0.07730264
26	0xbe823714	-0.25432646
27	0x3cd957b6	0.026531082
28	0x3e0ea4b7	0.13930021
29	0xbdebb6af	-0.115094535
30	0xbd88485d	-0.06654427
31	0x3d8d99a4	0.0691407
32	0x3dbc6d1a	0.09200497
33	0x3db5c7a9	0.08875973
34	0x3b81a220	0.0039560944
35	0x39ef2b29	0.0004561779
36	0xbd705920	-0.058678746
37	0x3d4f9b3f	0.050685164
38	0x3e05d305	0.13068779
39	0xbe4c37af	-0.19943117
40	0xbd7741b7	-0.060365405
41	0x3e05e5a9	0.1307589
42	0x3d94fc02	0.07274629
43	0x3beb21d1	0.007175662
44	0xbc89fc8c	-0.016844057
45	0x3d02bdd2	0.031919308
46	0x3daba199	0.08380432
47	0xbd5cd1bf	-0.053910967
48	0x3e071a85	0.1319371
49	0x3d54ef8c	0.051986262
50	0xbcfc7a48	-0.030820027
51	0x3cafc2c6	0.02145518
52	0x3d840ab6	0.064473554
53	0x3d69efb2	0.057113357
54	0x39aeccce	0.00033340458
55	0xbc676aae	-0.0141245555
56	0x3d1f754c	0.038930222
57	0x3d4ebc03	0.05047227
58	0x3d91b37b	0.07114311
59	0x3d0efe52	0.034910508
60	0xbd379eba	-0.044829108
61	0x3d6e8ff6	0.05824276
62	0x3c90df3e	0.017684575
63	0xbe1d6994	-0.15372306
64	0x3dd7f4a2	0.10544707
65	0xbdf6ac49	-0.120445795
66	0x3ca50246	0.020142686
67	0xbb9426df	-0.0045212354
68	0xbd28f598	-0.04124984
69	0x3e1f87fc	0.15579218
70	0x3d793a13	0.0608464
71	0xbd238f8a	-0.03993181
72	0xbde36d81	-0.111048706
73	0xbdd8a745	-0.10578779
74	0xbe1c332d	-0.15253897
75	0x3e66be2a	0.2253348
76	0x3e07c552	0.13258865
77	0x3ddaa7ce	0.106765375
78	0xbd012f59	-0.031539295
79	0xbd2dde40	-0.042448282
80	0xbb8c8a5a	-0.0042889537
81	0xbdf596d9	-0.119916625
82	0xbd2b8922	-0.041878827
83	0xba8b14d3	-0.0010611064
84	0x3c301b4d	0.0107486965
85	0xbcc619cd	-0.024182225
86	0xbd803f1c	-0.06262037
87	0xbc68989b	-0.01419654
88	0xbdfca419	-0.12335987
89	0x3d89c544	0.067270786
90	0x3c5e272a	0.013559142
91	0xbdf66f3c	-0.12032935
92	0xbdd2ec05	-0.102989234
93	0x3dc42eda	0.09579249
94	0xbc206283	-0.009789112
95	0x3e66d78c	0.22543162
96	0xbdba9eaa	-0.09112294
97	0x3d719afa	0.058985688
98	0x3ab89523	0.0014082532
99	0x3de0f328	0.109838784
100	0xbcc51263	-0.024056619
101	0x3dc90eaa	0.0981725
102	0x3e20d95d	0.15707918
103	0xbdc1cd47	-0.09462982
104	0xbd31f91e	-0.043450467
105	0xbe23e029	-0.16003479
106	0xbe0e5d79	-0.13902844
107	0x3d4a4daa	0.049390472
108	0x3d63023e	0.05542206
109	0xbcaac5ff	-0.020846365
110	0x3c28d8ef	0.010305627
111	0x3c886691	0.01665047
112	0xbcc2080d	-0.02368548
113	0xbd6f16ae	-0.05837124
114	0x3c705b24	0.014670167
115	0xbd5509ab	-0.052011173
116	0xbd8ca7d7	-0.068679504
117	0xbc8a944e	-0.01691642
118	0x3c274c97	0.010211132
119	0xbdd36d4b	-0.1032358
120	0xbdf5da59	-0.12004537
121	0xbd70fa52	-0.058832474
122	0xbc292142	-0.010322871
123	0x3d839c1b	0.06426259
124	0x3c6c1c84	0.0144110955
125	0x3b54ebbb	0.003248914
126	0x3cbf8240	0.023377538
127	0xbd6f6893	-0.05844934
128	0x3da465d4	0.08027235
129	0x3dc98f10	0.0984174
130	0xbdea2fdf	-0.11434912
131	0xbc83ed53	-0.016104376
132	0x3d6f72b7	0.05845901
133	0xbbd18d5f	-0.0063950266
134	0x3d511f39	0.051055167
135	0x39798156	0.00023794672
136	0x3db3c0d0	0.087770104
137	0xbd058824	-0.032600537
138	0xbdf4859c	-0.119395465
139	0x3db81740	0.089888096
140	0xbd87dfb4	-0.06634465
141	0xbe2be3b1	-0.16786076
142	0xbdbc89d5	-0.09205977
143	0xbdc7832c	-0.09741816
144	0xbe4a7558	-0.19771326
145	0xbd3ab5fe	-0.045583718
146	0xbdaf9e78	-0.085751474
147	0x3d8d0a34	0.06886712
148	0xbdfa6036	-0.12225382
149	0xbdbc2fab	-0.091887794
150	0x3d6fc864	0.058540717
151	0x3d9bff16	0.07617013
152	0x3d0bc7cc	0.034126088
153	0xbc771e6a	-0.015082935
154	0xbd0135cb	-0.03154544
155	0x3d079982	0.03310538
156	0xbd9982bc	-0.07495639
157	0xbbc094a6	-0.0058770953
158	0x3d7e1a29	0.062036667
159	0xbce5adc7	-0.028036965
160	0x3cffa42b	0.031206211
161	0xbd6d2bc4	-0.057903066
162	0x3d9236d1	0.07139362
163	0x3d4ad0a7	0.049515393
164	0xbe1da7da	-0.15396062
165	0xbab86f16	-0.0014071192
166	0xbcf6cc97	-0.030126853
167	0xbde7e564	-0.1132305
168	0x3d779f48	0.060454637
169	0x3d10b2c3	0.03532673
170	0x3d088336	0.033328258
171	0xbd8a1883	-0.067429565
172	0x3d9cda80	0.07658863
173	0x3dd0f62a	0.10203202
174	0x3d9b0e68	0.07571107
175	0xbc724d32	-0.014788913
176	0xbd958717	-0.07301157
177	0xbdf267c1	-0.11836196
178	0x3d0e3c8f	0.034725722
179	0x3d3725f2	0.04471392
180	0xbc1646b4	-0.00917213
181	0xbb885090	-0.0041599944
182	0x3a7b238a	0.0009580186
183	0xbe2c3613	-0.16817503
184	0x3db668df	0.08906721
185	0xbaad480a	-0.0013220322
186	0x3e0b94f2	0.13631037
187	0x3d9375b7	0.07200187
188	0xbe70839d	-0.23487706
189	0xbcc441c4	-0.02395714
190	0xbda82fe9	-0.08212263
191	0x3db94edb	0.090482436
192	0x3b5928ae	0.003313582
193	0x3e11ca35	0.14237292
194	0xbd2f097f	-0.042733666
195	0xbda56034	-0.0807499
196	0x3ae2be97	0.0017299232
197	0x3dd28c91	0.10280717
198	0xbd31a50b	-0.043370288
199	0x3e0e54c4	0.13899523
200	0x3baf110b	0.005342608
201	0xbdd780af	-0.10522591
202	0x3ccfef27	0.025382591
203	0x3e26e0f2	0.16296747
204	0xbd5ce2f1	-0.053927366
205	0xbd9ab2b7	-0.075536184
206	0xbccf2a4f	-0.025288729
207	0xbd4a1ce7	-0.04934397
208	0xbd78c366	-0.06073322
209	0xbdb445eb	-0.08802398
210	0xbd22a444	-0.039707437
211	0xbd1515b1	-0.03639764
212	0xbd0dbd27	-0.034604218
213	0x3d21a420	0.039463162
214	0x3dacc073	0.08435144
215	0xbaf53293	-0.0018707089
216	0xbd9bdd14	-0.07610527
217	0x3d60f053	0.05491669
218	0x3e0aad81	0.13542749
219	0x3d9291a4	0.07156685
220	0xbe1be2f4	-0.15223294
221	0x3d839e1e	0.06426643
222	0x3dc85803	0.09782412
223	0x3d4d9771	0.050193254
224	0xbcb5618e	-0.022141244
225	0xbd374bd4	-0.04475005
226	0xbd93b5bc	-0.072123975
227	0xbdddcef8	-0.10830492
228	0x3d047703	0.03234006
229	0xbcb15a9b	-0.02164965
230	0x3db23b1b	0.0870268
231	0xbe12bae1	-0.14329101
232	0xbddb087f	-0.1069498
233	0xbc9f6b5e	-0.019460376
234	0xbdcdf88e	-0.10057174
235	0x3c891f09	0.016738432
236	0x3ddb6f26	0.10714559
237	0x3d9a9922	0.07548739
238	0x3c054e8f	0.008136406
239	0xbd51ebe5	-0.051250357
240	0xbd1cdfb2	-0.03829927
241	0xbcbda459	-0.023149656
242	0xbdf62fb2	-0.12020816
243	0x3c9ef593	0.019404208
244	0x3dc15c2c	0.094414085
245	0xbba2e7cb	-0.0049714795
246	0x3c07f84c	0.008298945
247	0xbbfa6c5f	-0.0076423134
248	0x3d76699a	0.060159303
249	0xbd66879e	-0.05628168
250	0x3cfa9d56	0.030592602
251	0x3d9500d3	0.07275548
252	0x3d2a300f	0.04154974
253	0x3e2b652b	0.16737811
254	0x3de18477	0.11011594
255	0x3ce0de9c	0.027449898
