results/AgentTarget_Simple_05/AgentTarget/AgentTarget-251735.pt (torch, 435487 bytes, 36 tensors)

network_body._body_endoder.seq_layers.0.weight f4 [128, 5]
0.32303548 0.0973021 -0.43662184 0.61726004 0.1294523 0.7694113 0.2736945 -0.30713573
-0.048861135 -0.22390047 0.6839202 0.18528132 0.46509546 -0.19039667 0.13538858 -0.76381254
0.4209964 -0.03888062 0.50187665 0.6053003 -0.10762856 -0.11495056 0.56735253 0.21880351
0.951936 -0.24960183 0.66337126 0.38320094 0.18819036 0.05286634 0.08881007 -1.0857812
0.37226936 -0.20763074 -0.18096 0.5535126 0.29239509 -0.25204742 -0.43395042 0.1163351
0.2553734 -0.004627233 -0.6081841 0.5152502 0.18615872 0.27744386 0.07562655 0.6158868
-0.2512253 -0.14125723 0.3874737 -0.55818886 -0.048704643 -0.36487383 0.08851038 0.47381496
0.15423694 0.86524457 0.59587127 -0.32694775 0.7230609 -0.849797 -0.43247232 1.2458827
-0.16438365 0.094293706 -0.38941568 -0.5390999 -0.15685621 -1.3740904 -0.048404526 0.51957387
0.19797078 -0.044411328 -0.48225868 0.61974585 0.10982229 -0.53654647 0.04040478 0.05024892
-0.882074 -0.26538858 -0.570292 0.10777565 0.015442379 -0.19436646 -0.929241 -0.50255543
0.11767414 0.764221 0.5774787 -0.3441382 -0.21574563 -0.8027757 -0.6505803 0.22817226
1.0577601 -0.90882826 0.12366827 0.22439617 -0.26260582 -0.29194933 -0.34708026 -0.1394453
0.22018409 -0.4544153 -0.61611634 -0.11182575 0.6680307 0.69508284 -0.41270012 0.31427988
0.33439296 -0.33410883 0.76699376 -0.29220596 -0.26590604 -0.59262264 0.47395813 -0.22394301
0.07297539 0.90581304 -0.17647626 0.20609787 -0.29349786 0.2787733 -0.2899823 -0.13784868
-0.55406314 0.0034866019 -0.27333042 -0.2629225 0.28641862 -0.41322568 0.31038615 -0.5718891
0.4507617 -0.6556824 0.26223558 -0.08542855 0.36848393 0.5143508 -0.014012054 0.09062538
0.37141824 0.41714773 -0.17774297 -0.048161093 0.112262085 -0.048054162 -0.29239488 -0.60095733
0.076001994 -0.9548235 -0.6635609 -0.8963355 0.026330527 0.35646516 0.79575056 -0.43535188
-0.16079113 -0.010961019 0.07659429 0.09251488 0.88040197 -0.09198557 0.7018506 -0.009790855
0.45021224 -0.029056251 -0.6528298 0.62787604 1.4572572 0.516438 0.08147509 -0.29549542
0.31128228 -1.1040064 0.028536951 0.80235296 -0.4332277 -0.42800045 -0.12295763 0.4842628
-0.705795 0.2519022 0.6585641 0.8186037 0.31862196 0.5025456 0.12818055 -0.30346465
-1.031156 -0.38954833 -0.45754677 -0.12941206 -0.443586 0.06063868 0.3538803 0.5802343
0.15868688 -0.24085815 -0.69516224 -0.22113417 -0.5541545 -0.6465425 -0.031294424 -0.26888046
0.5773961 -0.23192182 0.4749808 -0.17695679 -0.44682196 0.1706192 0.7933384 -0.095577575
-0.21958129 -0.4885176 0.51210755 -0.11961744 -0.7984609 0.68967575 0.5605286 -0.49995828
0.32964796 0.25565314 1.1124139 0.44324127 -0.3588688 0.38996798 0.14322524 -0.02960276
0.19767672 0.21806985 0.07136928 0.93480134 0.022547796 -0.89486396 0.4309382 0.22569077
-0.020802844 -0.56745684 -0.30581707 -0.63736653 0.2120833 -0.25913104 -0.23044942 0.6982522
0.51942766 -0.0007221087 -0.21939324 0.13087091 -0.5164034 0.022578813 -0.44414917 -0.23122491
00000000: e864 a53e 5346 c73d e68c dfbe c104 1e3f
00000010: 258f 043e 24f8 443f af21 8c3e e540 9dbe
00000020: 9d22 48bd 2a46 65be 6515 2f3f 63ba 3d3e
00000030: fe20 ee3e 58f7 42be 4ea3 0a3e 3889 43bf
00000040: d78c d73e 4941 1fbd fd7a 003f f6f4 1a3f
00000050: 5d6c dcbd 336b ebbd 043e 113f 070e 603e
00000060: 14b2 733f 9f97 7fbe b3d2 293f ea32 c43e
00000070: f9b4 403e 608a 583d 0ee2 b53d e1fa 8abf
00000080: 179a be3e 279d 54be 944d 39be 00b3 0d3f
00000090: cfb4 953e 5c0c 81be c02e debe 1941 ee3d
000000a0: 4dc0 823e 0ba0 97bb f4b1 1bbf 70e7 033f
000000b0: 64a0 3e3e 1f0d 8e3e 18e2 9a3d c2aa 1d3f
000000c0: 9aa0 80be bca5 10be f462 c63e 77e5 0ebf
000000d0: 857e 47bd bed0 babe ee44 b53d e097 f23e
000000e0: 4af0 1d3e ab80 5d3f 058b 183f b265 a7be
000000f0: 851a 393f 4c8c 59bf 036d ddbe 1679 9f3f
00000100: 3054 28be 0f1d c13d 7e61 c7be 7302 0abf
00000110: ea9e 20be 32e2 afbf d343 46bd cb02 053f
00000120: dab8 4a3e a7e8 35bd 9cea f6be aaa7 1e3f
00000130: 82ea e03d 1c5b 09bf 7c7f 253d d0d1 4d3d
00000140: 9acf 61bf 03e1 87be a8fe 11bf 7bb9 dc3d
00000150: 0802 7d3c 0008 47be bde2 6dbf 79a7 00bf
00000160: 24ff f03d fda3 433f a5d5 133f e232 b0be
00000170: 6cec 5cbe b582 4dbf 6e8c 26bf fda5 693e
00000180: af64 873f f8a8 68bf ca45 fd3d 1cc8 653e
00000190: 4574 86be 627a 95be 81b4 b1be c0ca 0ebe
000001a0: f077 613e 1fa9 e8be cdb9 1dbf e604 e5bd
000001b0: 0f04 2b3f f3f0 313f 6e4d d3be 4be9 a03e
000001c0: 8e35 ab3e 5010 abbe b459 443f 059c 95be
000001d0: d624 88be 1eb6 17bf a4aa f23e 5151 65be
000001e0: 1f74 953d 5de3 673f 31b6 34be 520b 533e
000001f0: 5a45 96be 60bb 8e3e 8f78 94be 3428 0dbe
00000200: 15d7 0dbf 797f 643b f7f1 8bbe c79d 86be
00000210: 76a5 923e 5192 d3be efea 9e3e 5367 12bf
00000220: 3dca e63e cdda 27bf be43 863e 2af5 aebd
00000230: eda9 bc3e 7eac 033f d092 65bc cd99 b93d
00000240: 882a be3e 6394 d53e 4102 36be 9144 45bd
00000250: aae9 e53d 71d4 44bd c8b4 95be 57d8 19bf
00000260: efa6 9b3d 506f 74bf 21df 29bf 3e76 65bf
00000270: 1eb3 d73c 9a82 b63e 4fb6 4b3f 71e6 debe
00000280: 6ea6 24be d995 33bc 78dd 9c3d 7178 bd3d
00000290: 0662 613f ee62 bcbd 7bac 333f d369 20bc
000002a0: 3882 e63e 6007 eebc db1f 27bf 7cbc 203f
000002b0: 6787 ba3f 4835 043f 69dc a63d 2d4b 97be
000002c0: 6460 9f3e 1550 8dbf 53c6 e93c 0167 4d3f
000002d0: 05d0 ddbe e022 dbbe 36d1 fbbd 4bf1 f73e
000002e0: fbae 34bf 53f9 803e a897 283f 0390 513f
000002f0: 6b22 a33e d4a6 003f c341 033e b85f 9bbe
00000300: ebfc 83bf e172 c7be 9243 eabe 9884 04be
00000310: b41d e3be 4460 783d cc2f b53e 3c8a 143f
00000320: d07e 223e 85a3 76be 27f6 31bf ff70 62be
00000330: 12dd 0dbf cf83 25bf 952e 00bd b3aa 89be
00000340: 3bd0 133f ea7c 6dbe af30 f33e 2934 35be
00000350: d9c5 e4be cdb6 2e3e 3a18 4b3f 2dbe c3bd
00000360: ebd9 60be fb1e fabe 7b19 033f fdf9 f4bd
00000370: ef67 4cbf 978e 303f cd7e 0f3f 88fa ffbe
00000380: 9ec7 a83e f8e4 823e 9463 8e3f 85f0 e23e
00000390: a7bd b7be e2a9 c73e a3a9 123e 7d81 f2bc
000003a0: c46b 4a3e b44d 5f3e 0f2a 923d 244f 6f3f
000003b0: 28b6 b83c ce15 65bf efa3 dc3e 7b1b 673e
000003c0: ba6a aabc da44 11bf 0e94 9cbe 742a 23bf
000003d0: 5d2c 593e d3ac 84be effa 6bbe a8c0 323f
000003e0: 36f9 043f e54b 3dba 9fa8 60be 0603 063e
000003f0: 0333 04bf 34f7 b83c 8567 e3be 39c6 6cbe

network_body._body_endoder.seq_layers.0.bias f4 [128]
0.0031515704 0.011601584 0.001209542 -0.0027159397 -0.006693958 -0.0054381345 0.024935821 0.014303891
-0.007571138 0.0114061395 -0.013595202 0.012912989 -0.006605953 -0.010948238 -0.0066297157 0.014962284
0.021611245 0.01479636 0.0091339825 0.027494427 0.026040323 -0.0034961782 0.0054205167 0.014819974
-0.019373482 0.009629958 -0.011783453 0.030167572 0.010453612 0.0117286835 0.009660493 0.0040465593
-0.007629295 0.009295218 0.007804704 0.016671712 0.014907783 0.013229711 0.015402492 -0.010438067
-0.012839317 -0.013028478 -0.0013156882 0.006311883 0.00482359 0.01916069 0.004666045 0.00079123426
0.004447334 -0.0006666949 -0.0024102821 0.006130548 -0.00015233365 0.02466805 0.0233826 0.01451896
0.016603982 -0.0006681534 0.013401469 0.021774553 0.029616255 0.02129281 0.0006514947 0.022199847
0.016886137 0.024814509 0.018628258 0.0011767504 -0.00093878084 0.0020137017 0.0077024912 0.004400107
-0.01159909 0.0031151962 0.017271793 0.012816301 0.015393875 -0.008587302 0.028956445 0.02036869
-0.016111631 0.008180235 0.016080365 0.0018428892 0.027854318 -0.0001692801 0.014951437 0.016787566
-0.004790706 0.0059000147 0.0007163046 0.012888319 0.0034854463 -0.005183719 -0.009138052 -0.0015519038
-0.012683121 0.013217475 0.006870567 0.021815315 -0.011135971 0.0034805685 -0.010675988 -0.002939694
0.010755771 0.004578564 -0.005477847 0.013284341 0.0103480695 0.029658457 -0.013238751 0.033123687
0.026011718 0.0084087225 0.025400337 0.01571956 0.032803632 0.034799565 0.01827381 0.017746137
0.000704587 0.007205968 -0.0045839585 -0.006593568 -0.0006611148 -0.007415652 0.003443912 0.006932815
00000000: 948a 4e3b 9214 3e3c 7f89 9e3a e8fd 31bb
00000010: fd58 dbbb 6132 b2bb 3546 cc3c de5a 6a3c
00000020: 4f17 f8bb d1e0 3a3c 69be 5ebc 0091 533c
00000030: c076 d8bb 3d60 33bc 163e d9bb 5e24 753c
00000040: 110a b13c 6f6c 723c b3a6 153c fe3b e13c
00000050: 8452 d53c 2320 65bb 979e b13b 7acf 723c
00000060: 23b5 9ebc f9c6 1d3c 620f 41bc fc21 f73c
00000070: a045 2b3c aa29 403c 0b47 1e3c 0099 843b
00000080: 2aff f9bb f84a 183c 9abe ff3b 1d93 883c
00000090: c63f 743c 6ec1 583c bc5a 7c3c 6d04 2bbc
000000a0: 005c 52bc 6675 55bc 2c73 acba ead3 ce3b
000000b0: 350f 9e3b e1f6 9c3c 9fe5 983b d56a 4f3a
000000c0: f1ba 913b 23c5 2eba d3f5 1dbb c4e2 c83b
000000d0: c1bb 1fb9 a714 ca3c de8c bf3c efe0 6d3c
000000e0: 1305 883c 0427 2fba d691 5b3c 8c60 b23c
000000f0: ca9d f23c 426e ae3c 12c9 2a3a 74dc b53c
00000100: cc54 8a3c cc47 cb3c 4a9a 983c 313d 9a3a
00000110: 8418 76ba 4ff8 033b 2e65 fc3b c62e 903b
00000120: 1c0a 3ebc 5228 4c3b 937d 8d3c 76fb 513c
00000130: 9736 7c3c c1b1 0cbc 1136 ed3c 3ddc a63c
00000140: 8afc 83bc 6406 063c f8ba 833c 1a8d f13a
00000150: bd2e e43c c880 31b9 dff6 743c 1486 893c
00000160: 5bfb 9cbb e954 c13b 63c6 3b3a 8729 533c
00000170: 166c 643b 30dc a9bb c5b7 15bc 4069 cbba
00000180: ddcc 4fbc 1c8e 583c 7e22 e13b 08b6 b23c
00000190: a673 36bc 401a 643b 57ea 2ebc e2a7 40bb
000001a0: f938 303c c707 963b 837f b3bb 91a6 593c
000001b0: f38a 293c 4bf6 f23c 59e7 58bc b4ac 073d
000001c0: 8716 d53c bdc4 093c 5e14 d03c 4fc6 803c
000001d0: 1a5d 063d fd89 0e3d f5b2 953c 5960 913c
000001e0: 08b4 383a 0a20 ec3b 0835 96bb db0e d8bb
000001f0: aa4e 2dba fffe f2bb 41b3 613b ab2c e33b

network_body._body_endoder.seq_layers.2.weight f4 [128, 128]
-0.07148369 -0.028622266 -0.034010082 0.0002485145 -0.13218234 0.024890412 0.023160893 0.09333
-0.15353282 0.044204522 0.0782057 -0.028826484 -0.0030768893 -0.042817686 -0.049336933 -0.070508555
-0.088019796 -0.044915542 -0.09928254 0.02313116 0.03640575 0.030896472 -0.01766307 0.009971588
0.032384317 0.016715141 0.042936303 0.08723821 -0.007141173 -0.2017206 -0.06455265 0.107575126
-0.10544781 -0.047789425 0.072223164 -0.0053767483 0.030252242 -0.05284382 0.0020024288 -0.09021382
-0.17853943 -0.04816796 -0.10910771 0.03686512 -0.038023345 -0.045810115 0.008863248 0.044800956
0.0050082933 -0.08590636 0.100142285 -0.040710583 0.1600538 -0.07043158 0.07421725 -0.074875146
-0.12925608 -0.013088647 -0.077883914 -0.0061318628 0.028471768 0.036665924 -0.14528422 0.0026317004
-0.034990646 -0.04613007 -0.023155844 0.1391437 -0.01300668 0.07146054 -0.20179991 0.012237826
-0.0717206 0.04186338 -0.057185158 -0.029433487 -0.055789847 0.084371835 0.10558087 -0.04185171
-0.014966904 -0.015498043 -0.033289153 -0.051724404 -0.034576986 0.04777484 0.19977051 -0.08552615
0.085431166 -0.05028203 0.058343593 0.014799592 0.017872969 -0.07010826 -0.0754388 0.04617044
-0.001285201 -0.036225684 0.06102768 0.14816284 0.057655588 -0.08155108 0.025369722 0.2012267
-0.027825227 0.00160264 -0.0961533 0.039052445 0.013441446 0.014899933 -0.16997801 0.08912588
-0.011567766 0.05929708 -0.0014859791 -0.078719586 -0.12148279 0.0048736744 0.055943325 -0.13365388
0.059481684 -0.032039102 -0.04266586 -0.043517444 -0.030087499 -0.019312693 0.07301286 0.1523273
-0.0139498655 -0.03662749 -0.00067304575 0.12240654 0.011174876 0.059784055 0.10439015 0.021414522
0.12730022 -0.13719556 0.14968544 -0.043535795 -0.03955599 -0.08984052 0.08986857 -0.023737779
-0.042708438 0.092947334 -0.04533556 -0.019150391 0.09430004 0.040389013 -0.022841081 0.083227016
0.14517987 0.1427475 -0.0037403775 -0.219421 0.06499431 -0.15456712 0.15475775 -0.0865201
0.0066650542 -0.13507873 -0.006125882 0.0031788172 0.0042358106 0.037005816 0.04659218 -0.061106686
-0.04729674 0.027756615 0.05527459 0.0738999 0.07378055 0.0031972076 -0.045452677 -0.008712453
0.0021376796 0.00052252517 -0.06168554 0.15614396 -0.1106828 -0.067225 0.038447343 -0.097792126
0.03879928 0.03717117 -0.07783664 0.19530617 -0.14395037 -0.0009507049 0.056916688 0.085407406
0.15256523 -0.005730554 0.042297672 -0.13856265 0.018362356 0.043568533 -0.06429903 -0.1639451
0.026801039 -0.025960559 -0.031325735 0.03968193 -0.11446636 -0.09811816 -0.14162108 0.10048523
0.116234824 0.041116476 -0.06777168 0.116813675 0.026934674 -0.067926764 0.087797426 -0.08544469
0.08931976 0.047812663 0.012446766 0.064876966 -0.11308437 0.023682544 -0.1690911 0.041710023
-0.17038205 -0.00011971407 0.06547516 -0.011106885 0.077224314 0.012200576 -0.038792036 -0.22947572
-0.028121436 0.03427031 0.13245255 -0.0316356 -0.1235256 0.07834117 -0.06674987 -0.13933857
0.003413612 -0.022053033 0.042810027 -0.0478948 0.06998187 0.09833323 -0.17636576 -0.015782492
0.08711969 -0.032816257 0.03566719 -0.035240784 -0.024368191 -0.092973545 -0.124136746 0.07150641
00000000: 0a66 92bd 3e79 eabc 284e 0bbd 0d4b 8239
00000010: cf5a 07be fae6 cb3c eabb bd3c cd23 bf3d
00000020: b537 1dbe cd0f 353d 4f2a a03d 8525 ecbc
00000030: a3a5 49bb 9961 2fbd 8615 4abd ca66 90bd
00000040: b943 b4bd 5cf9 37bd a554 cbbd 8f7d bd3c
00000050: 321e 153d 991a fd3c 24b2 90bc df5f 233c
00000060: 6ba5 043d 31ee 883c fadd 2f3d f2a9 b23d
00000070: 8000 eabb d88f 4ebe 2e34 84bd 5950 dc3d
00000080: 05f5 d7bd d8be 43bd bde9 933d 6f2f b0bb
00000090: 8dd3 f73c c372 58bd 2e3b 033b 06c2 b8bd
000000a0: 0ad3 36be c44b 45bd dd73 dfbd e1ff 163d
000000b0: 5ebe 1bbd 63a3 3bbd 2837 113c 3581 373d
000000c0: 9c1c a43b acef afbd 6617 cd3d 24c0 26bd
000000d0: 25e5 233e 6f3e 90bd 37ff 973d 2458 99bd
000000e0: b55b 04be c471 56bc 9a81 9fbd cbed c8bb
000000f0: a03d e93c 022f 163d 63c5 14be 9b78 2c3b
00000100: 5a52 0fbd e2f2 3cbd 53b1 bdbc b07b 0e3e
00000110: f819 55bc e759 923d a3a4 4ebe 2a81 483c
00000120: 40e2 92bd f078 2b3d fc3a 6abd 7f1e f1bc
00000130: e583 64bd 24cb ac3d c83a d83d b36c 2bbd
00000140: bf37 75bc 81eb 7dbc 355a 08bd f8dc 53bd
00000150: 99a0 0dbd 8daf 433d a490 4c3e 5628 afbd
00000160: 89f6 ae3d 88f4 4dbd b1f9 6e3d fd79 723c
00000170: 556a 923c eb94 8fbd a87f 9abd 371d 3d3d
00000180: 3174 a8ba 6261 14bd 29f8 793d 00b8 173e
00000190: 4428 6c3d 4104 a7bd 2ad4 cf3c 5f0e 4e3e
000001a0: bbf1 e3bc ad0f d23a 05ec c4bd 75f5 1f3d
000001b0: 8339 5c3c d91e 743c b70e 2ebe a187 b63d
000001c0: ba86 3dbc 7fe1 723d 2fc5 c2ba bc37 a1bd
000001d0: f8cb f8bd 58b3 9f3b d424 653d 90dc 08be
000001e0: 11a3 733d 6f3b 03bd 66c2 2ebd 593f 32bd
000001f0: 0f7a f6bc a735 9ebc c487 953d b0fb 1b3e
00000200: fa8d 64bc b506 16bd 566f 30ba 48b0 fa3d
00000210: d416 373c 20e0 743d 81ca d53d 826d af3c
00000220: fd5a 023e fe7c 0cbe 2447 193e 9752 32bd
00000230: 7605 22bd 4efe b7bd 030d b83d bb75 c2bc
00000240: 0bef 2ebd 2c5b be3d c8b1 39bd 48e1 9cbc
00000250: 6120 c13d f36e 253d 381d bbbc ed72 aa3d
00000260: 08aa 143e 672c 123e 1f21 75bb e6af 60be
00000270: bd1b 853d d846 1ebe d178 1e3e 7331 b1bd
00000280: 8766 da3b 1452 0abe 9fbb c8bb b453 503b
00000290: 8ecc 8a3b 6993 173d 71d7 3e3d 014b 7abd
000002a0: 3aba 41bd d761 e33c 9c67 623d d558 973d
000002b0: 421a 973d 3e88 513b 962c 3abd adbe 0ebc
000002c0: 5018 0c3b 12fa 083a faa9 7cbd 34e4 1f3e
000002d0: aaad e2bd 43ad 89bd f67a 1d3d 3d47 c8bd
000002e0: feeb 1e3d cc40 183d d168 9fbd 57fe 473e
000002f0: ba67 13be ba38 79ba 7921 693d 14ea ae3d
00000300: 0f3a 1c3e 5fc7 bbbb 5340 2d3d 5ee3 0dbe
00000310: a76c 963c eb74 323d 36af 83bd 39e1 27be
00000320: da8d db3c 3dab d4bc 6a4f 00bd 8589 223d
00000330: 576d eabd 2df2 c8bd 1e05 11be 33cb cd3d
00000340: 860c ee3d c069 283d e1cb 8abd 023c ef3d
00000350: 1ba6 dc3c 301d 8bbd 23cf b33d a0fd aebd
00000360: 47ed b63d 36d7 433d 85ed 4b3c 37de 843d
00000370: c798 e7bd e501 c23c 3826 2dbe 21d8 2a3d
00000380: a278 2ebe 000f fbb8 d717 863d a7f9 35bc
00000390: c827 9e3d ede4 473c 66e4 1ebd affb 6abe
000003a0: ed5e e6bc 065f 0c3d a4a1 073e 5594 01bd
000003b0: fdfa fcbd 5671 a03d 28b4 88bd c5ae 0ebe
000003c0: e8b6 5f3b 90a8 b4bc 9159 2f3d 562d 44bd
000003d0: a852 8f3d ef62 c93d 3a99 34be 494a 81bc
000003e0: cf6b b23d 576a 06bd c217 123d a458 10bd
000003f0: cd9f c7bc ea68 bebd 683b febd f471 923d

network_body._body_endoder.seq_layers.2.bias f4 [128]
0.019890346 0.00023937112 0.011515447 0.0098346155 0.0077580507 -0.008087115 0.010224993 0.008576171
0.012253958 0.0037088306 0.0046480307 0.016738001 0.010902104 0.0022371942 0.01571234 0.008890882
0.0057528177 0.015672993 -0.0042944043 0.014234484 0.025649972 0.0036958095 0.031853136 0.010891238
-0.007830912 0.015468057 -0.0058640256 0.008358848 -0.003613691 -0.0025074878 0.014571913 0.0017221381
0.019615881 -0.002996923 0.005157718 0.019257937 0.012951225 0.014104511 0.018344438 0.008246556
0.008268068 0.0024975287 0.008891094 0.008820282 0.017932564 0.016420912 0.009403892 -0.001779921
0.00044950552 0.0012340104 -0.0014156076 0.018307589 0.0016773542 0.0029894784 0.012708147 -0.010450039
0.017306905 0.0042351657 -0.0017833808 0.028524797 0.01391837 0.012029644 0.0067346045 0.0059123496
-0.004410981 0.009186459 0.010966592 0.00068450475 0.011661403 0.004669553 0.00054645597 -0.0020330609
0.00017714725 0.005110328 0.006368988 0.00062525773 0.0024287093 0.009138289 0.0011316813 0.011460608
0.0107185915 -0.0031327684 0.004517616 0.013715971 0.0063752267 0.0017965587 -0.0041033723 0.02133246
-0.005472672 0.018301712 -0.008908533 0.0083373785 0.012806301 0.0030863916 0.020922432 0.0024426896
-0.00065949565 0.017310368 0.010805369 -0.0002301031 0.012314865 0.024603195 0.004751029 0.011079974
0.0032844355 0.011219004 0.01175519 -0.0016959904 0.014201815 0.00094375346 -0.005041999 0.00882829
0.018124972 0.014081491 0.018779628 0.022944257 0.0127856005 0.001352902 0.022245372 0.0132163195
0.008331739 0.019360883 0.015649104 0.005646221 -0.0049475655 0.011490676 0.016242476 0.0049718893
00000000: 14f1 a23c b2ff 7a39 49ab 3c3c 5e21 213c
00000010: 3f37 fe3b d27f 04bc bb86 273c 1183 0c3c
00000020: d3c4 483c da0f 733b 824e 983b 221e 893c
00000030: bd9e 323c e49d 123b 2ab7 803c 10ab 113c
00000040: 2282 bc3b a664 803c 13b8 8cbb c137 693c
00000050: e41f d23c 6535 723b 6f78 023d 2a71 323c
00000060: 3a4d 00bc bc6d 7d3c 0327 c0bb 8df3 083c
00000070: add3 6cbb aa54 24bb 08bf 6e3c 5eb9 e13a
00000080: 7cb1 a03c 0668 44bb 1302 a93b d2c2 9d3c
00000090: 6031 543c 9b16 673c 1347 963c 901c 073c
000000a0: ca76 073c 94ad 233b f3ab 113c f282 103c
000000b0: 50e7 923c 2685 863c c812 1a3c 3d4c e9ba
000000c0: 9cab eb39 85be a13a e98b b9ba ccf9 953c
000000d0: abda db3a 20eb 433b d535 503c a436 2bbc
000000e0: 36c7 8d3c 25c7 8a3b 54c0 e9ba d6ac e93c
000000f0: e009 643c fc17 453c f5ad dc3b 62bc c13b
00000100: fe89 90bb cd82 163c 38ad 333c 5670 333a
00000110: 780f 3f3c 0d03 993b 0a40 0f3a 1a3d 05bb
00000120: 9ac0 3939 8a74 a73b f2b2 d03b 56e8 233a
00000130: fb2a 1f3b c3b8 153c ec54 943a 46c5 3b3c
00000140: 089d 2f3c 224f 4dbb 8208 943b f4b8 603c
00000150: 47e7 d03b 827a eb3a 9575 86bb 69c1 ae3c
00000160: 1a54 b3bb 79ed 953c 18f5 11bc 8099 083c
00000170: 85d1 513c 0f45 4a3b 8565 ab3c 8815 203b
00000180: 01e2 2cba 79ce 8d3c 0109 313c d547 71b9
00000190: 4ac4 493c a48c c93c 85ae 9b3b c788 353c
000001a0: af3f 573b eacf 373c d798 403c ff4b deba
000001b0: bbae 683c 3966 773a 5a37 a5bb 88a4 103c
000001c0: d27a 943c 0eb6 663c bcd7 993c 98f5 bb3c
000001d0: b27a 513c dc53 b13a ed3b b63c 4389 583c
000001e0: d981 083c b79a 9e3c 8d32 803c ef03 b93b
000001f0: 301f a2bb 6343 3c3c f10e 853c 3beb a23b

action_model._continuous_distribution.log_sigma f4 [1, 2]
-0.03490888 -0.033930156
00000000: 9dfc 0ebd 59fa 0abd

action_model._continuous_distribution.mu.weight f4 [2, 128]
-0.032060504 0.022584971 0.030356448 0.016112546 0.0126255425 0.012848973 -0.024878517 -0.006251638
0.049907885 -0.009157428 0.02332298 -0.026528746 -0.038762316 -0.023561012 0.011820865 0.037104644
-0.016778061 -0.012452803 0.030023225 -0.008543916 0.041940693 0.05384063 -0.043948695 0.074995026
0.002185583 -0.0076743728 -0.0011834052 0.013818993 0.030244056 -0.003934154 -0.027305756 0.04397177
-0.048239384 0.031619743 0.0001635729 0.011373135 0.021933671 -0.004181425 -0.055449985 0.01677351
-0.020066943 0.0014979406 0.012625052 -0.013657549 0.0008250543 -0.032167334 0.020048026 0.024735546
0.018548116 0.031241318 0.01825639 -0.027033925 -0.010382041 0.026774436 0.05670068 -0.01030197
-0.014451714 0.01608797 0.0045770514 -0.054523807 -0.044655636 -0.015307608 -0.0176569 -0.030541975
0.021823894 0.00652634 0.036210984 0.027676119 -0.01552805 -0.050290495 0.017795952 0.0004698531
0.04323213 0.040339123 0.034398075 0.047327876 -0.029646024 0.042321768 -0.020186516 -0.043927312
-0.027093105 0.028767675 -0.02415561 -0.006304495 -0.02258101 -0.0008326462 0.024463711 -0.049821932
0.014068753 -0.038557813 0.011804977 -0.0020649068 -0.045600597 0.040884115 0.015306802 -0.008764105
0.02261909 0.048098207 0.0206267 0.0069981865 -0.014559482 -0.033955015 -0.019322464 -0.06060364
-0.009970063 -0.03679341 0.018862067 -0.0048682103 -0.05061302 -0.0019861625 -0.012229973 0.052168738
-0.004433832 0.003345509 -0.02824652 0.002042105 -0.033228733 -0.037656244 -0.037300393 0.008140242
0.029356714 -0.06344407 -0.03415881 0.028564708 0.02365638 -0.028989555 -0.017638005 0.03941792
0.005791528 -0.037085667 -0.026730547 0.021495814 0.027288426 -0.0191269 0.0153971985 -0.03639568
-0.034616467 0.020262288 0.037731927 -0.002729316 -0.021080013 -0.037554804 0.049842592 0.02055227
0.015106897 -0.026719548 -0.018222287 -0.015785994 0.021282755 -0.025976622 0.0041453396 0.0233772
0.009852664 -0.04976889 0.0008507734 0.037247967 0.015274567 0.008939632 -0.023632523 -0.009674154
-0.027534336 -0.0022199021 -0.045028206 0.050683975 -0.007114781 0.044927604 -0.008788808 0.024553156
-0.028251633 -0.035700094 0.040259413 -0.025482873 -0.027011408 -0.004446551 -0.008528603 -0.007917068
-0.055652387 0.008141319 0.018379401 0.019748745 -0.0041130306 -0.045719344 -0.031805076 -0.0036694508
0.05896282 0.029707463 0.020905161 -0.016856318 0.042209145 -0.055252023 -0.0017441758 -0.00971833
0.032243483 -0.036208298 -0.035729684 0.006367714 0.027969245 0.017501598 -0.011532037 -0.02248217
0.032723963 0.030440206 0.036442053 0.016148603 0.00042395623 -0.028818823 0.0048174253 0.006814308
0.029407557 -0.026639039 -0.01512137 -0.044780046 0.011618163 -0.03630556 0.032689698 0.037849903
0.00058651326 0.010090372 0.00923351 0.025097543 -0.027052922 -0.026655717 0.027430678 0.044032436
-0.026527992 -0.024460638 -0.04003633 -0.0053625726 0.030423086 -0.0073283594 -0.008216596 0.021075014
-0.022865718 0.010402772 -0.04716795 0.009980432 0.016718747 0.009490517 0.016343985 0.014399969
-0.024136864 0.04953173 0.0038894152 0.039430194 -0.02958552 0.00383811 -0.013857072 0.059333898
-0.009281146 -0.010400129 -0.06010254 -0.03193747 0.0052661574 0.016626455 -0.03514326 0.0020436628
00000000: e051 03bd 1e04 b93c 16ae f83c 75fe 833c
00000010: 5ddb 4e3c 8084 523c 08ce cbbc 8ada ccbb
00000020: 366c 4c3d 0909 16bc d60f bf3c d052 d9bc
00000030: 3cc5 1ebd 0603 c1bc 4dac 413c 0afb 173d
00000040: 2572 89bc d706 4cbc 44f3 f53c c8fb 0bbc
00000050: 01ca 2b3d fe87 5c3d 8c03 34bd fe96 993d
00000060: 003c 0f3b 4e79 fbbb 7d1c 9bba 0f69 623c
00000070: 62c2 f73c 13ea 80bb 52b0 dfbc be1b 343d
00000080: a996 45bd b483 013d c484 2b39 6356 3a3c
00000090: 3eae b33c 5604 89bb 861f 63bd 9a68 893c
000000a0: 6e63 a4bc 8c56 c43a 4ed9 4e3c eac3 5fbc
000000b0: 7548 583a e5c1 03bd c23b a43c 33a2 ca3c
000000c0: 38f2 973c cbed ff3c 6d8e 953c 4076 ddbc
000000d0: 7019 2abc 1056 db3c f93e 683d 98c9 28bc
000000e0: e2c6 6cbc ebca 833c 17fb 953b 5b54 5fbd
000000f0: d4e8 36bd c3cc 7abc 34a5 90bc 2a33 fabc
00000100: 06c8 b23c e8da d53b f851 143d 07b9 e23c
00000110: 5d69 7ebc 68fd 4dbd d1c8 913c 9e56 f639
00000120: 2d14 313d a33a 253d ffe4 0c3d e0da 413d
00000130: 38dc f2bc 9759 2d3d 315e a5bc 20ed 33bd
00000140: 5cf2 ddbc 30aa eb3c fce1 c5bc f095 cebb
00000150: cffb b8bc f145 5aba 1f68 c83c 1512 4cbd
00000160: a180 663c ccee 1dbd aa69 413c 6353 07bb
00000170: b1c7 3abd 1a76 273d 61c9 7a3c 5297 0fbc
00000180: ab4b b93c a002 453d 53f9 a83c 0b51 e53b
00000190: e58a 6ebc 6a14 0bbd 254a 9ebc 863b 78bd
000001a0: 7a59 23bc b0b4 16bd 9f84 9a3c 8285 9fbb
000001b0: 994f 4fbd 472a 02bb 3a60 48bc e3ae 553d
000001c0: ae49 91bb 5440 5b3b 3f65 e7bc d6d4 053b
000001d0: da1a 08bd 6f3d 1abd 4cc8 18bd a65e 053c
000001e0: 7e7d f03c f7ee 81bd 1cea 0bbd 8900 ea3c
000001f0: 06cb c13c 817b edbc 947d 90bc af74 213d
00000200: dcc6 bd3b 24e7 17bd 05fa dabc fd17 b03c
00000210: fa8b df3c 04b0 9cbc 8844 7c3c a313 15bd
00000220: ffc9 0dbd 19fd a53c cb8c 1a3d 53de 32bb
00000230: feaf acbc 11d3 19bd bf27 4c3d 3c5d a83c
00000240: eb82 773c f4e2 dabc e846 95bc a151 81bc
00000250: 2c59 ae3c edcc d4bc a1d5 873b 8b81 bf3c
00000260: 116d 213c 77da 4bbd 7006 5f3a 5391 183d
00000270: 2d42 7a3c 8977 123c fe98 c1bc 5880 1ebc
00000280: b08f e1bc c77b 11bb 7f6f 38bd 009a 4f3d
00000290: 1c23 e9bb 0206 383d effe 0fbc b323 c93c
000002a0: f86f e7bc 433a 12bd 0ee7 243d 75c1 d0bc
000002b0: 0747 ddbc 60b4 91bb 8ebb 0bbc 97b6 01bc
000002c0: c2f3 63bd 2b63 053c 6690 963c 1fc8 a13c
000002d0: 9ac6 86bb 3544 3bbd 0a46 02bd 2b7b 70bb
000002e0: ff82 713d 115d f33c 4d41 ab3c 4316 8abc
000002f0: 7fe3 2c3d f24f 62bd d49c e4ba a139 1fbc
00000300: be11 043d 274f 14bd 4a59 12bd 42a8 d03b
00000310: c21f e53c 835f 8f3c def0 3cbc 872c b8bc
00000320: 9009 063d bd5d f93c 4344 153d 134a 843c
00000330: 7146 de39 7415 ecbc 7edb 9d3b 8f4a df3b
00000340: 1ee8 f03c 1d3a dabc 9fbf 77bc 486b 37bd
00000350: 1c5a 3e3c 24b5 14bd a2e5 053d 8008 1b3d
00000360: 3dc0 193a 1652 253c 2648 173c 5d99 cd3c
00000370: 179e ddbc 175d dabc 4db6 e03c 5b5b 343d
00000380: 3b51 d9bc ad61 c8bc 23fd 23bd 85b8 afbb
00000390: d639 f93c bc22 f0bb e79e 06bc 82a5 ac3c
000003a0: e350 bbbc 6370 2a3c 2e33 41bd f784 233c
000003b0: c1f5 883c 1d7e 1b3c d2e3 853c d9ed 6b3c
000003c0: acba c5bc c9e1 4a3d 8fe5 7e3b 8e81 213d
000003d0: 555d f2bc cd88 7b3b c608 63bc 1a08 733d
000003e0: f30f 18bc 4d65 2abc 152e 76bd ddd0 02bd
000003f0: bb8f ac3b 3434 883c 61f2 0fbd f9ee 053b

action_model._continuous_distribution.mu.bias f4 [2]
-0.0057047224 0.00042103438
00000000: aeee babb 47be dc39

exp_avg f4 [128, 5]
-1.2917008e-06 2.0742045e-05 2.8534873e-07 -1.6917913e-05 9.909368e-05 2.308139e-05 3.5333946e-05 -9.764896e-07
0.0001328709 0.00014923175 1.2049793e-05 3.7854643e-06 -3.1647414e-07 0.00011064281 0.00013843822 -2.960014e-06
2.5077701e-05 -6.781826e-07 -4.737536e-06 2.0032152e-05 8.622608e-06 2.793604e-08 -2.903886e-07 6.095266e-06
-9.586502e-06 -1.1042876e-05 2.5190888e-05 -6.8073496e-07 -2.5376517e-05 2.1482721e-05 -1.937146e-05 -9.491614e-06
3.6030335e-06 0.0001446296 -0.0003161081 -3.4925135e-05 1.1447304e-05 -5.3908434e-07 -1.0979239e-05 0.00010626446
-1.8729188e-06 1.763109e-05 1.3307256e-07 1.4564483e-05 1.2069124e-05 -1.1397919e-05 -2.185769e-05 5.6994196e-07
-1.1006447e-05 -5.6691882e-05 1.7743465e-05 8.444522e-06 -3.859422e-07 7.4446165e-05 4.849726e-05 1.7072307e-05
4.194052e-05 -4.0634757e-07 -3.6144884e-05 7.443975e-05 -8.684947e-06 -9.006056e-06 -9.748811e-07 -4.8238588e-05
6.9920043e-06 3.398141e-05 -4.9917353e-06 -7.6926156e-08 6.365216e-05 2.4510948e-05 -1.4351208e-05 7.014633e-06
-1.2797561e-07 -2.8688e-05 -2.9912597e-05 -1.3109213e-05 1.3687364e-05 -8.72889e-09 2.5310972e-05 7.535663e-05
-4.689841e-05 -3.686456e-05 2.1477058e-07 -8.013534e-05 -0.00017057169 -2.936881e-05 5.1318337e-05 -8.3710454e-08
6.610022e-05 -0.00022481018 4.9000746e-06 -2.6160189e-05 -1.495037e-07 5.0526123e-05 -3.8374455e-05 -6.6981724e-05
0.00010339683 8.516284e-07 1.5339056e-06 2.1601409e-05 -3.1215397e-05 -2.055702e-05 -1.3561666e-07 -9.014836e-05
-0.00014567419 4.3572727e-06 1.9691564e-05 7.660939e-07 5.2074615e-06 -9.178935e-05 -1.9317431e-05 8.293098e-06
-2.9028861e-08 -5.391508e-05 -4.2555725e-06 -7.549288e-06 -7.397321e-05 1.5399627e-06 -2.860859e-05 -0.00014286087
-4.0201098e-07 2.7956097e-05 -8.621246e-07 -2.9704936e-05 3.9616618e-05 -1.2554283e-06 7.9416395e-07 -9.058287e-08
2.4941417e-05 -3.829489e-05 -1.022279e-05 -4.9319115e-06 2.2209736e-07 -5.244332e-06 -6.0391103e-05 -1.8202643e-05
2.1972653e-05 -4.3953872e-07 -3.5384197e-05 -4.4644454e-05 -2.3748073e-05 2.09019e-05 4.674489e-07 5.502324e-05
5.0383613e-05 1.2277113e-05 -6.848941e-06 4.7802195e-07 4.2915814e-05 1.4604268e-05 -6.0081158e-05 -4.2388718e-05
1.8978137e-06 -0.00023151406 -0.00021000806 -5.060887e-06 -3.127275e-05 -7.5063826e-07 3.647179e-05 -0.000106884
6.373739e-08 7.105962e-06 -3.669478e-07 -3.881675e-05 1.6030628e-05 -2.7259306e-05 5.772421e-05 -1.0778255e-06
3.6682406e-05 3.0902334e-05 2.7393698e-06 -1.4837908e-06 -8.6015524e-07 1.0101275e-05 -2.4183766e-05 -2.4988978e-05
1.2057582e-05 2.65417e-07 -6.3271655e-06 3.0666188e-06 -1.4859814e-05 -6.918219e-05 2.0831587e-06 -5.3410746e-05
-0.0001255552 -8.065586e-06 3.714871e-05 5.7004627e-08 2.6234851e-05 4.8797454e-05 -4.771203e-06 -2.7746653e-05
5.384193e-07 4.4174594e-06 -0.000114858034 7.698327e-06 9.513974e-06 -3.1056572e-07 7.38848e-06 -7.416219e-05
3.0514297e-05 7.552675e-06 -4.2223778e-07 5.4902954e-05 8.1226375e-05 -5.4845723e-06 -9.829924e-06 -1.1190299e-07
7.030243e-06 -3.330746e-05 4.1197745e-06 -2.550281e-05 2.832468e-07 2.5340842e-05 6.458125e-05 -1.5946207e-06
-4.81829e-05 1.4478491e-06 2.1338852e-05 -0.00017018133 -5.7567446e-05 3.0282223e-05 -3.339214e-08 -0.00023730852
3.407235e-05 -8.940807e-05 6.0062644e-05 2.7722058e-07 2.578021e-06 4.0050076e-05 2.0151845e-05 -8.732713e-06
4.6969345e-07 4.4430353e-06 1.0806556e-05 1.2181912e-05 -1.300552e-05 1.4154585e-07 -1.889165e-05 3.6395977e-05
-1.047478e-05 6.0833154e-06 4.3467068e-08 -5.6053366e-05 -0.00011489331 -3.207093e-05 1.3193365e-05 2.850927e-07
1.6050759e-05 -0.000117442876 -8.521936e-06 2.2583023e-05 -3.6720388e-07 -1.7925533e-05 1.939974e-05 -2.7182505e-06
00000000: 805e adb5 34ff ad37 0832 9934 f1ea 8db7
00000010: 84d0 cf38 e89e c137 8933 1438 ed0f 83b5
00000020: 4353 0b39 187b 1c39 7829 4a37 c809 7e36
00000030: e0e7 a9b4 e808 e838 ba29 1139 a7a4 46b6
00000040: f45d d237 5a0c 36b5 20f7 9eb6 b80a a837
00000050: d2a9 1037 00f8 ef32 b5e6 9bb4 f085 cc36
00000060: b6d5 20b7 cb44 39b7 0551 d337 c0bb 36b5
00000070: a8df d4b7 cb35 b437 e57f a2b7 2c3e 1fb7
00000080: a5cb 7136 b6a7 1739 50bb a5b9 947c 12b8
00000090: cc0d 4037 98b5 10b5 7933 38b7 4cda de38
000000a0: 0061 fbb5 7ae6 9337 b5e2 0e34 fa59 7437
000000b0: 7e7c 4a37 b039 3fb7 085b b7b7 1dfe 1835
000000c0: 54a8 38b7 72c8 6db8 cdd7 9437 f2ac 0d37
000000d0: 7e33 cfb4 fb1f 9c38 8969 4b38 8036 8f37
000000e0: 4ae9 2f38 fc27 dab4 469a 17b8 891c 9c38
000000f0: 90b5 11b7 b718 17b7 a9d8 82b5 ca53 4ab8
00000100: dc9c ea36 4387 0e38 ae7e a7b6 9a32 a5b3
00000110: fe7c 8538 dc9c cd37 f8c5 70b7 3d5f eb36
00000120: ab69 09b4 03a7 f0b7 d0ec fab7 a4ef 5bb7
00000130: c8a2 6537 10f6 15b2 e652 d437 c808 9e38
00000140: c9b4 44b8 059f 1ab8 b09b 6634 550e a8b8
00000150: 7ddb 32b9 0a5d f6b7 a53e 5738 4fc4 b3b3
00000160: 499f 8a38 06bb 6bb9 526b a436 9472 dbb7
00000170: 4487 20b4 03ec 5338 42f4 20b8 8a78 8cb8
00000180: c0d6 d838 759b 6435 98e0 cd35 ac34 b537
00000190: 47ed 02b8 dd71 acb7 069e 11b4 080e bdb8
000001a0: 1ec0 18b9 b034 9236 502f a537 92a5 4d35
000001b0: c1bb ae36 087f c0b8 de0b a2b7 9622 0b37
000001c0: 245b f9b2 e022 62b8 17cb 8eb6 e44f fdb6
000001d0: 1122 9bb8 b7b0 ce35 7bfc efb7 eccc 15b9
000001e0: f8d3 d7b4 4383 ea37 c06c 67b5 dd2e f9b7
000001f0: 052a 2638 3080 a8b5 882e 5535 7686 c2b3
00000200: 4939 d137 d39e 20b8 8c82 2bb7 cc7c a5b6
00000210: a879 6e34 78f8 afb6 744c 7db8 e1b1 98b7
00000220: ea51 b837 bef9 ebb4 7e69 14b8 9e40 3bb8
00000230: 9936 c7b7 7d56 af37 b0f5 fa34 c1c8 6638
00000240: fe52 5338 ccf9 4d37 f5cf e5b6 6b51 0035
00000250: 8100 3438 da04 7537 a7ff 7bb8 8aca 31b8
00000260: 62b8 fe35 95c2 72b9 9c35 5cb9 b0d0 a9b6
00000270: dc2a 03b8 787f 49b5 49f9 1838 e926 e0b8
00000280: 00e0 8833 c06f ee36 ec00 c5b4 2bcf 22b8
00000290: 8379 8637 eaaa e4b7 e61c 7238 cda9 90b5
000002a0: 6fdb 1938 219d 0138 04d6 3736 aa26 c7b5
000002b0: 6be5 66b5 a578 2937 3ede cab7 6c9f d1b7
000002c0: ec4a 4a37 a27e 8e34 f04d d4b6 1ccc 4d36
000002d0: 6a4e 79b7 e815 91b8 65cc 0b36 5a05 60b8
000002e0: 78a7 03b9 6e51 07b7 20d0 1b38 40d5 7433
000002f0: ea12 dc37 deab 4c38 5218 a0b6 7cc1 e8b7
00000300: e487 1035 b039 9436 f0df f0b8 1028 0137
00000310: 359e 1f37 d4bb a6b4 8fea f736 8687 9bb8
00000320: f4f8 ff37 fc6c fd36 ebaf e2b4 9947 6638
00000330: 1458 aa38 1e08 b8b6 34eb 24b7 524f f0b3
00000340: 54e5 eb36 9db3 0bb8 983c 8a36 deee d5b7
00000350: 2511 9834 0b93 d437 cb6f 8738 c006 d6b5
00000360: ff17 4ab8 b753 c235 d600 b337 b472 32b9
00000370: 9374 71b8 9406 fe37 0c6b 0fb3 05d6 78b9
00000380: e8e8 0e38 9880 bbb8 c6eb 7b38 e8d4 9434
00000390: 1002 2d36 71fb 2738 c20b a937 b782 12b7
000003a0: 2d2a fc34 6215 9536 ce4d 3537 ea60 4c37
000003b0: 4832 5ab7 d4fb 1734 8279 9eb7 e2a7 1838
000003c0: d6bc 2fb7 481f cc36 8cb0 3a33 d81a 6bb8
000003d0: e0f2 f0b8 e683 06b8 1259 5d37 d80e 9934
000003e0: bea4 8637 aa4b f6b8 70f9 0eb7 ac70 bd37
000003f0: 1e24 c5b4 ca5e 96b7 a0bc a237 306b 36b6

exp_avg_sq f4 [128, 5]
4.7375046e-09 5.3671694e-09 7.610835e-12 1.9595474e-08 1.5767577e-08 1.573734e-08 1.2955063e-08 1.0709395e-11
3.7884007e-08 3.543303e-08 8.2436085e-09 8.309993e-09 2.8325864e-11 2.0991372e-08 2.0759572e-08 6.7603887e-09
6.219936e-09 1.756688e-11 1.7205805e-08 2.2031013e-08 1.468959e-09 1.365456e-09 7.594206e-12 4.0451726e-09
5.5177476e-09 2.7798766e-09 2.8888685e-09 8.236995e-12 6.907179e-09 9.4716075e-09 1.7388823e-08 2.8704356e-08
3.510394e-11 4.5430788e-08 7.6449716e-08 9.98383e-09 1.6041556e-08 1.3800006e-11 3.182826e-08 3.8078316e-08
1.3658116e-09 8.589392e-10 3.3963223e-12 4.0515764e-09 2.9941583e-09 1.4983702e-09 1.1060199e-09 1.1299407e-11
3.421076e-09 4.3768607e-09 1.242385e-09 2.3439537e-09 5.604557e-12 4.580685e-09 5.6658274e-09 1.4527006e-08
1.1078635e-08 3.6989144e-11 3.8289407e-08 3.315371e-08 3.819292e-09 4.003858e-09 7.9005335e-12 1.5283252e-08
9.4413135e-09 4.473726e-09 3.962109e-09 1.4070192e-11 8.015975e-09 1.5063941e-08 2.0248618e-09 2.4898854e-09
4.2084105e-12 4.2608637e-09 8.268292e-09 6.842475e-09 9.351532e-09 6.2913997e-12 1.574442e-08 2.67836e-08
1.0041216e-08 1.1214891e-08 7.381141e-12 2.4081869e-08 2.5138316e-08 1.4467023e-08 2.1326976e-08 8.912436e-12
3.74282e-08 4.574981e-08 1.7549336e-09 1.5052125e-09 2.5110688e-12 4.4933635e-09 3.463813e-09 1.2889494e-08
2.198003e-08 1.3685138e-11 4.069038e-08 6.375587e-08 5.7372684e-09 5.3202855e-09 3.788367e-12 1.3274028e-08
1.2930119e-08 4.2760973e-09 5.7900666e-09 4.017924e-12 8.938539e-09 1.4840022e-08 1.8841102e-09 1.789658e-09
6.193691e-12 4.1616346e-09 4.481253e-09 6.527693e-09 5.8112555e-09 6.4712684e-12 1.5962673e-08 1.8839962e-08
1.8443957e-09 1.9003106e-09 3.3544283e-12 3.9636716e-09 6.88541e-09 8.6977453e-10 5.668574e-10 6.1344337e-12
1.8936872e-09 2.4489013e-09 3.5022414e-09 3.218701e-09 2.6993501e-11 7.5677224e-09 6.9575568e-09 1.1257714e-08
9.296e-09 2.9094025e-12 2.1560638e-08 2.3578233e-08 4.19713e-09 5.3702482e-09 8.821858e-12 8.797791e-09
1.516758e-08 4.161809e-09 4.7791375e-09 4.9348975e-12 9.1275805e-09 9.427064e-09 1.6488066e-08 1.3178811e-08
3.2681004e-11 3.8576108e-08 4.6426592e-08 1.8317582e-08 1.908438e-08 3.3669737e-11 4.4773106e-08 4.3693323e-08
3.2698273e-09 2.2279358e-09 2.07435e-11 7.713527e-09 9.529339e-09 8.472737e-09 8.323666e-09 1.4947734e-11
2.3249104e-08 2.4671445e-08 2.4380915e-09 1.8366222e-09 9.001955e-12 5.6128626e-09 5.499694e-09 3.9553325e-09
4.798489e-09 2.6212314e-12 1.1468106e-08 1.7070034e-08 5.7652607e-09 8.151952e-09 1.0404985e-11 1.4441036e-08
2.5042189e-08 2.4150641e-09 3.139954e-09 1.1658776e-11 8.39265e-09 7.786652e-09 1.3580556e-09 1.642401e-09
1.0715181e-12 4.0544768e-09 5.2696376e-09 2.4945406e-09 2.4391231e-09 5.575441e-12 8.472792e-09 9.861477e-09
1.6510414e-09 2.7862155e-09 1.3778156e-12 5.4337344e-09 5.782689e-09 2.3418316e-09 2.4458258e-09 4.4351554e-12
7.341093e-09 6.560243e-09 6.0985927e-09 6.0861334e-09 1.2321715e-11 1.2411355e-08 2.1142725e-08 1.5767347e-08
1.1324693e-08 2.0273271e-11 4.3368214e-08 3.502017e-08 1.3675144e-08 1.6698325e-08 2.325234e-11 4.487355e-08
4.7889788e-08 1.1736704e-08 2.1280842e-08 3.1113227e-11 3.7559992e-08 5.9434598e-08 1.958402e-09 2.9146154e-09
4.421275e-12 5.8820873e-09 6.1856316e-09 2.9691918e-09 3.4625471e-09 3.8543916e-12 7.4984445e-09 8.581188e-09
4.260401e-09 3.8105186e-09 1.4205472e-11 1.03353655e-08 1.1153925e-08 9.6765005e-09 8.619267e-09 4.025834e-11
2.9100766e-08 1.9559602e-08 1.8956459e-09 2.489277e-09 2.105986e-12 4.1790664e-09 7.578172e-09 7.2434148e-09
00000000: 88c7 a231 1f6a b831 27e4 052d e752 a832
00000010: 4571 8732 c72e 8732 f890 5e32 d466 3c2d
00000020: e8b5 2233 072f 1833 c69f 0d32 bcc3 0e32
00000030: 2d28 f92d 8450 b432 c852 b232 0249 e831
00000040: 23b7 d531 1985 9a2d f7cb 9332 b63e bd32
00000050: 66e4 c930 b6aa bb30 4399 052d b7fd 8a31
00000060: 9f96 bd31 1b08 3f31 8385 4631 21e8 102d
00000070: 3054 ed31 92b8 2232 6d5e 9532 8c91 f632
00000080: 8663 1a2e ae1f 4333 ad2c a433 5985 2b32
00000090: c1cb 8932 b4c5 722d 8bb3 0833 8d8b 2333
000000a0: 39b7 bb30 791a 6c30 b4fe 6e2c 0b36 8b31
000000b0: cac1 4d31 37ef cd30 9e02 9830 01c8 462d
000000c0: 3518 6b31 4663 9631 89c0 aa30 4513 2131
000000d0: 5d31 c52c 2264 9d31 25ad c231 7392 7932
000000e0: 5a54 3e32 13ae 222e a673 2433 e464 0e33
000000f0: d93a 8331 4f92 8931 d7fc 0a2d 3a48 8332
00000100: 5633 2232 4fb7 9931 1423 8831 8386 772d
00000110: a2b6 0932 f565 8132 bf25 0b31 871a 2b31
00000120: fe11 942c f466 9231 550c 0e32 0c1b eb31
00000130: 79a8 2032 e45b dd2c 593e 8732 c211 e632
00000140: bc81 2c32 9dab 4032 b4d9 012d 97dc ce32
00000150: beef d732 a48a 7832 8432 b732 0bca 1c2d
00000160: bec0 2033 737e 4433 3d32 f130 f5df ce30
00000170: 65b3 302c 0b64 9a31 0b08 6e31 9870 5d32
00000180: 99ce bc32 62c0 702d 8cc3 2e33 29ea 8833
00000190: 8c21 c531 bacd b631 944a 852c cb0b 6432
000001a0: 4423 5e32 f3ec 9231 f7f1 c631 3e5e 8d2c
000001b0: 1c90 1932 1bf3 7e32 9e79 0131 fef7 f530
000001c0: cfeb d92c 20fe 8e31 85f9 9931 324a e031
000001d0: 58ac c731 01b0 e32c 4a1e 8932 84d5 a132
000001e0: e87d fd30 9e96 0231 020c 6c2c d330 8831
000001f0: b594 ec31 f114 6f30 0bd1 1b30 11d6 d72c
00000200: 1922 0231 8749 2831 15ac 7031 fd2f 5d31
00000210: f66f ed2d 3203 0232 510f ef31 f367 4132
00000220: 3eb4 1f32 23bb 4c2c 5834 b932 1589 ca32
00000230: 5936 9031 3485 b831 1e32 1b2d 1825 1732
00000240: dc49 8232 a9ff 8e31 bd35 a431 9ba1 ad2c
00000250: 86cf 1c32 aaf4 2132 a4a1 8d32 0669 6232
00000260: 8abb 0f2e e1ae 2533 9466 4733 ca58 9d32
00000270: ffee a332 c114 142e 8d4c 4033 51a9 3b33
00000280: 69b3 6031 431a 1931 3676 b62d 7384 0432
00000290: 7ab6 2332 7e8f 1132 dfff 0e32 4e7b 832d
000002a0: 52b5 c732 15ed d332 5c8b 2731 666c fc30
000002b0: 345d 1e2d 43db c031 d2f7 bc31 79e7 8731
000002c0: f5df a431 e873 382c 4305 4532 67a1 9232
000002d0: c517 c631 aa0c 0c32 e30b 372d 5918 7832
000002e0: 5b1c d732 42f6 2531 a8c6 5731 761a 4d2d
000002f0: 442f 1032 0fc6 0532 55a6 ba30 d9ba e130
00000300: 82cd 962b 8e4f 8b31 3910 b531 6c6c 2b31
00000310: 829d 2731 1c2b c42c bc8f 1132 3c6b 2932
00000320: dbea e230 9f77 3f31 0ae9 c12b a2b3 ba31
00000330: 12b1 c631 f0ed 2031 6c13 2831 540c 9c2c
00000340: f03c fc31 8268 e131 ca8b d131 321e d131
00000350: 12c4 582d b739 5532 589d b532 c370 8732
00000360: 878e 4232 5953 b22d db43 3a33 1669 1633
00000370: ebef 6a32 0170 8f32 9d87 cc2d fdba 4033
00000380: 61af 4d33 92a2 4932 11cd b632 61d6 082e
00000390: a651 2133 0845 7f33 9394 0631 754a 4831
000003a0: 4e8f 9b2c 631b ca31 6489 d431 930a 4c31
000003b0: c6f1 6d31 469d 872c 82d2 0032 776c 1332
000003c0: e262 9231 aded 8231 c2e7 792d 6b8f 3132
000003d0: 7b9f 3f32 b33d 2632 f013 1432 dc0e 312e
000003e0: 43f9 f932 0504 a832 8e44 0231 d30f 2b31
000003f0: 1232 142c 7597 8f31 2731 0232 c0e1 f831

exp_avg f4 [128]
6.478994e-05 -1.100784e-05 3.369739e-05 3.977581e-05 8.377854e-06 3.25124e-05 1.8510713e-05 7.27262e-05
2.680771e-05 1.6714943e-05 -2.3632458e-05 5.5536562e-05 2.2571901e-05 -2.3374587e-06 2.7888516e-05 7.567034e-05
1.8061874e-05 -9.570138e-05 5.3722197e-06 0.00012633037 2.665815e-06 -1.3119741e-05 3.5103563e-05 1.910141e-05
-2.7580427e-05 -1.5063761e-06 -1.0954687e-05 2.6436559e-05 7.668409e-05 1.07315755e-05 8.204993e-05 1.3241205e-05
7.5448515e-06 1.1079455e-05 -1.2120857e-05 4.840389e-05 5.551983e-05 6.720976e-05 2.3273622e-05 -3.9193794e-05
-3.5429195e-05 -4.4369003e-06 7.792245e-05 1.5622798e-05 0.00015321778 0.00017790632 -3.4217824e-06 4.643068e-05
-1.3956648e-05 -2.5363639e-05 -9.301322e-06 -4.5853005e-05 1.8999432e-05 7.392081e-05 8.9579604e-05 6.7230794e-05
1.1653673e-05 7.265444e-05 1.064322e-05 3.8461792e-05 5.3606702e-05 8.857527e-05 -4.789761e-06 1.6784157e-05
0.00010911361 6.20957e-05 -5.804856e-05 -1.963023e-05 1.2500823e-05 -1.8153763e-05 8.3118386e-05 4.7454705e-05
-1.302758e-05 5.9124322e-05 -3.8887483e-05 0.00012269767 6.7779314e-05 2.9445922e-05 5.172134e-05 8.716e-05
2.1255231e-05 8.653184e-05 7.1863215e-06 4.8933653e-05 -3.8554957e-05 7.600563e-05 0.00015123509 3.601255e-05
-6.6909324e-06 3.6205845e-05 4.176278e-05 7.2086186e-07 2.0690992e-05 -2.4622186e-05 1.2732134e-05 2.9463497e-05
2.1687985e-05 3.1793064e-05 3.0722353e-05 -5.8167907e-06 -1.741607e-05 8.96117e-06 -1.2361994e-05 7.87545e-05
-6.999272e-05 -6.1820865e-06 2.537419e-05 1.6559692e-05 -4.2042302e-05 3.5436555e-05 -2.689479e-05 0.000118833195
6.511127e-05 5.114953e-07 -1.6838152e-05 -3.9463597e-05 8.5185195e-05 3.9524894e-05 0.00020949026 -5.212129e-06
1.2906748e-05 4.6514528e-05 5.539735e-05 2.020427e-05 -1.9132913e-05 4.2556267e-06 5.172528e-05 7.108841e-05
00000000: d6df 8738 50ae 38b7 4c56 0d38 f3d4 2638
00000010: 9c8e 0c37 ec5d 0838 7447 9b37 9584 9838
00000020: 1ee1 e037 1137 8c37 513e c6b7 eeef 6838
00000030: ca58 bd37 3cdd 1cb6 22f2 e937 34b1 9e38
00000040: 9483 9737 4ab3 c8b8 0443 b436 8d77 0439
00000050: 5ae6 3236 dc1c 5cb7 2a3c 1338 f73b a037
00000060: 845c e7b7 b02e cab5 06ca 37b7 14c4 dd37
00000070: 75d1 a038 c40b 3437 3912 ac38 8b26 5e37
00000080: c829 fd36 e6e1 3937 af5a 4bb7 4805 4b38
00000090: f7dd 6838 f7f2 8c38 b93b c337 0464 24b8
000000a0: cf99 14b8 afe0 94b6 4c6a a338 b40d 8337
000000b0: 16a9 2039 5d8c 3a39 c6a1 65b6 90be 4238
000000c0: 5927 6ab7 00c4 d4b7 e00c 1cb7 4a52 40b8
000000d0: f860 9f37 ef05 9b38 afdc bb38 42fe 8c38
000000e0: 2584 4337 0e5e 9838 4890 3237 0952 2138
000000f0: c2d7 6038 7cc1 b938 bcb7 a0b6 b4cb 8c37
00000100: ecd3 e438 6039 8238 2b79 73b8 99ab a4b7
00000110: a0ba 5137 e948 98b7 d84f ae38 1a0a 4738
00000120: 0891 5ab7 42fc 7738 1e1b 23b8 68a8 0039
00000130: be24 8e38 a302 f737 5eef 5838 abc9 b638
00000140: 434d b237 6e78 b538 0822 f136 1c3e 4d38
00000150: 12b6 21b8 3665 9f38 dc94 1e39 2e0c 1738
00000160: ac82 e0b6 bbdb 1738 722a 2f38 4081 4135
00000170: 9191 ad37 be8b ceb7 199c 5537 6128 f737
00000180: 98ee b537 8b59 0538 e0db 0038 da2d c3b6
00000190: ba18 92b7 ef57 1637 5c66 4fb7 0029 a538
000001a0: 0ec9 92b8 b86f cfb6 a8da d437 abe9 8a37
000001b0: 9456 30b8 b6a1 1438 1f9c e1b7 1636 f938
000001c0: 598c 8838 b04d 0935 a83f 8db7 b785 25b8
000001d0: 74a5 b238 88c7 2538 9daa 5b39 d9e3 aeb6
000001e0: 108a 5837 9818 4338 745a 6838 577c a937
000001f0: 9e7f a0b7 8ecb 8e36 99f3 5838 4d15 9538

exp_avg_sq f4 [128]
1.0218326e-08 2.5277537e-08 1.2850238e-08 1.2667208e-08 2.5214704e-09 5.535127e-09 4.3065295e-08 2.1315644e-08
1.8906532e-09 2.018077e-09 3.206441e-09 2.3269592e-08 7.14957e-09 6.426823e-09 3.661274e-09 1.4313313e-08
1.812172e-08 3.2366533e-08 2.85251e-09 3.609021e-08 1.012947e-08 9.193953e-09 3.8208303e-09 9.996803e-09
3.4666947e-09 1.1089311e-09 4.3156327e-09 2.0298888e-08 9.791799e-09 7.262629e-09 2.5931948e-08 3.15522e-08
5.0076348e-09 1.3077003e-08 4.052264e-09 9.497526e-09 1.3111807e-08 6.0299246e-09 3.105637e-09 5.4450227e-09
3.6446273e-09 3.9710835e-09 9.95706e-09 2.2364494e-08 3.2433434e-08 3.532324e-08 3.186014e-09 4.9313176e-09
6.0147136e-09 1.44576875e-08 3.4532113e-09 1.57785e-08 1.45163055e-08 2.503041e-08 8.726842e-09 1.2598662e-08
1.2313163e-08 1.9675037e-08 2.1029132e-08 2.7918599e-08 1.9054418e-08 4.1901114e-08 1.24193615e-08 3.4586673e-08
4.427799e-08 1.4200087e-08 3.68523e-08 7.051243e-09 8.50229e-09 6.0795435e-09 2.1570312e-08 1.0452457e-08
8.397207e-09 3.910932e-08 2.465978e-08 7.651128e-09 1.1105691e-08 1.6790944e-08 2.13594e-08 2.0283638e-08
7.5456796e-10 1.1566705e-08 3.4811308e-08 5.174765e-09 6.2664824e-08 1.2790121e-08 4.703881e-08 8.32577e-09
4.037813e-09 2.8369113e-08 1.4363479e-08 2.4523412e-09 3.1176686e-09 7.1020616e-09 1.5075775e-09 7.689248e-09
2.6374316e-09 1.1064431e-08 1.3684622e-08 3.6137656e-08 3.2041179e-09 6.947071e-09 1.6129909e-09 1.5932113e-08
3.8008817e-08 1.17081e-08 7.569376e-09 1.7139278e-08 1.8720215e-08 1.7551825e-08 2.1766104e-09 5.3765813e-08
1.8802936e-08 2.834212e-09 3.5515455e-08 5.898269e-09 3.4040283e-08 3.5947433e-08 6.827361e-08 1.0770768e-08
7.7166735e-09 2.3814883e-08 1.0016448e-08 2.6665872e-09 2.7511165e-08 2.780229e-09 9.971303e-09 1.06078355e-08
00000000: ac8c 2f32 e421 d932 f2c3 5c32 f89e 5932
00000010: 2d46 2d31 7e2f be31 cbf6 3833 9919 b732
00000020: b9ec 0131 63ae 0a31 4e58 5c31 60e2 c732
00000030: 48a8 f531 efd2 dc31 d099 7b31 9ee6 7532
00000040: 15aa 9b32 6103 0b33 e305 4431 9b01 1b33
00000050: e105 2e32 6ff3 1d32 6148 8331 68be 2b32
00000060: bd3a 6e31 0b69 9830 b548 9431 ba5d ae32
00000070: ca38 2832 c38a f931 f5c0 de32 0384 0733
00000080: 9f0f ac31 44a9 6032 173c 8b31 902a 2332
00000090: 5642 6132 c72f cf31 f26a 5531 ed16 bb31
000000a0: f674 7a31 0572 8831 9d0f 2b32 0b1c c032
000000b0: f04c 0b33 50b6 1733 f3f0 5a31 5470 a931
000000c0: fba9 ce31 9561 7832 894d 6d31 4a89 8732
000000d0: 6363 7932 7402 d732 0fed 1532 8071 5832
000000e0: dd89 5332 dd01 a932 8da3 b432 a6d1 ef32
000000f0: 1cad a332 c3f6 3333 ee5c 5532 738c 1433
00000100: 2a2c 3e33 a5f4 7332 8847 1e33 6447 f231
00000110: 7811 1232 3be4 d031 9e49 b932 6492 3332
00000120: 4f43 1032 27f9 2733 6ed3 d332 0472 0332
00000130: 58cb 3e32 ad3b 9032 d179 b732 313c ae32
00000140: 006a 4f30 e8b6 4632 7083 1533 b7cd b131
00000150: 5a92 8633 8cbb 5b32 b807 4a33 2009 0f32
00000160: fbbc 8a31 57b0 f332 40c3 7632 0b86 2831
00000170: 9b3e 5631 6506 f431 2b33 cf30 ac19 0432
00000180: 303e 3531 e215 3e32 9b19 6b32 c635 1b33
00000190: 702f 5c31 15b3 ee31 12b0 dd30 16db 8832
000001a0: 233f 2333 c524 4932 780a 0232 ac39 9332
000001b0: 30ce a032 dfc4 9632 5693 1531 23ec 6633
000001c0: 1884 a132 fcc3 4231 a889 1833 b9a9 ca31
000001d0: b033 1233 9f64 1a33 d09d 9233 570a 3932
000001e0: 4a92 0432 7b91 cc32 ce14 2c32 193f 3731
000001f0: b151 ec32 4e0e 3f31 414e 2b32 c13d 3632
