results/wonderAgent03/WonderAgentHealing/WonderAgentHealing-80974.pt (torch, 802783 bytes, 36 tensors)

network_body._body_endoder.seq_layers.0.weight f4 [128, 124]
000000 51 83 d0 bc 6d f1 fe 3d 1d fd c3 bd 05 6d 18 3d
       -0.025453242 0.12448392 -0.09569762 0.037213344
000010 e7 e7 f0 3d 42 ca 21 3d b6 70 e0 bd c4 05 59 bd
       0.11762982 0.03949953 -0.10958998 -0.052984014
000020 5a 19 73 3d 28 6f 3c be 39 d3 dc bd db 52 9b bd
       0.05935035 -0.18401778 -0.10782475 -0.07584163
000030 71 33 d0 3c 55 86 06 be 32 0f 20 3d dc fe d8 bc
       0.025415154 -0.13137181 0.03907699 -0.026488714
000040 c7 48 ba bb 57 92 91 bd 19 bf 0d bb 68 9c dd 3d
       -0.0056849453 -0.0710799 -0.0021628796 0.10820848
000050 29 88 80 bd 83 a3 40 bd ab 71 a1 bd 04 d9 18 3d
       -0.062759705 -0.047030937 -0.078830086 0.037316337
000060 87 ce ca 3c 2f 48 cd bc f6 2a e5 bd e7 53 9e bd
       0.024756683 -0.025058834 -0.11189835 -0.07730847
000070 ce a9 ad bb fc 05 2c bd 3f 69 88 3d 35 06 83 3c
       -0.0052997833 -0.041997895 0.06660699 0.01599417
000080 d8 3b ea bc 1d 85 e2 3c 40 aa c6 bd a2 37 3c bd
       -0.028592989 0.027651364 -0.09700441 -0.045951493
000090 9d 16 90 3c f3 e9 fb 3c 1a b1 f8 bd 81 4a d2 3b
       0.017588908 0.030751204 -0.121431544 0.006417573
0000a0 74 a6 13 3e 8e d0 f8 3c 4e 1a be bc af 57 2b 3d
       0.14418966 0.030372884 -0.023205902 0.04183167
0000b0 59 f6 c2 3c 47 40 21 3c 45 7c f9 bc 67 1b ef bc
       0.023799108 0.009841985 -0.030454764 -0.029187871
0000c0 cf e7 71 bd 7f c0 be 3d 11 6b 0f 3e 73 42 6d bd
       -0.05905896 0.093140595 0.14005686 -0.0579247
0000d0 8a c1 8d 3c 06 06 fd bb 3e 01 1d 3d 34 07 02 3c
       0.0173042 -0.0077216653 0.038331263 0.007936288
0000e0 5e 2d e2 3d a5 02 a8 3d fc b8 d1 3c 81 7d 5b bd
       0.11043809 0.082036294 0.025600903 -0.053586487
0000f0 43 69 f5 bb c6 b0 ec bd 2d b6 96 bd 50 35 92 3a
       -0.007489355 -0.11557154 -0.07358966 0.0011154804
000100 da a1 6b bd 08 d6 4c bc b6 a4 08 bd b8 d4 54 3d
       -0.0575274 -0.012502201 -0.033360206 0.051960677
000110 5a 00 72 bc 5d 9d a6 3d 69 52 4d 3d 8b fe 5b 3d
       -0.014770592 0.081354834 0.05012742 0.053709548
000120 52 1d fb bc c9 b2 33 bd 32 34 9f bc 56 1e 07 3e
       -0.03065363 -0.043871675 -0.019434068 0.13195166
000130 a1 0a ad 3c 73 c6 aa 3c 81 ae 77 3e a4 1b d7 3c
       0.021123232 0.020846581 0.24187662 0.026258297
000140 bb 63 05 3c 47 fc aa bd 03 16 9c bc 4a f6 c7 3d
       0.008141453 -0.08348899 -0.019053465 0.09763773
000150 c8 f3 27 3e a3 06 3d be 58 6f c3 bd e5 b0 f1 3d
       0.16401589 -0.18459563 -0.095427215 0.11801318
000160 46 c7 99 bc c6 8f 99 3b 54 22 fd bd 12 45 e2 3d
       -0.018771779 0.0046863286 -0.12360063 0.1104833
000170 fe 04 09 3d 61 ea 4e 3d b4 6b 6e bd 0a 35 16 bd
       0.033452027 0.05051649 -0.058208182 -0.036671676
000180 84 29 40 3d a9 b8 ef bb a8 e6 d3 bc e2 c0 b9 bd
       0.046914592 -0.0073157144 -0.025866821 -0.090699926
000190 4f 58 64 bd ee f0 d2 3c 3f 92 0b 3e 8a fe 33 3c
       -0.05574828 0.02574965 0.13630007 0.01098598
0001a0 3a 7c 57 bd 98 4b 11 be a8 69 43 bd 0d 51 26 be
       -0.052608706 -0.14188993 -0.047708184 -0.16241856
0001b0 bc e9 f8 3c 4a 7e 7c bd 66 a2 62 bc 88 f0 5c 3c
       0.03038489 -0.061643876 -0.013832664 0.0134850815
0001c0 e8 54 8e bd ce 9d c9 3c 2e 60 40 3c 66 c4 76 3c
       -0.06949788 0.02461138 0.011741681 0.0150614735
0001d0 e4 7f b3 3d 68 20 65 3c 11 e2 4c 3c 7e 42 21 3d
       0.087646276 0.013984777 0.01250507 0.039370053
0001e0 a0 e2 37 bd 38 a3 5c bd de 32 8c 3d a2 b0 30 bd
       -0.04489386 -0.053866595 0.0684564 -0.0431372
0001f0 32 78 83 3d b1 cd 25 3e bb e2 24 3d 13 f1 4b bb
       0.0641941 0.16191746 0.04025529 -0.0031119033
000200 bd db 20 3d 0c 95 c3 bd 33 bc 19 be 91 fb cb 3d
       0.03927206 -0.09549913 -0.15013199 0.09960092
000210 e3 8e 91 bd 3e a8 e7 bc a3 57 fe bd 85 c4 10 3d
       -0.071073316 -0.028278466 -0.12419059 0.035343666
000220 79 55 13 be 57 bc e5 3d 43 a6 31 3e 88 97 85 3d
       -0.14388074 0.112175636 0.1734858 0.06523043
000230 3e 6b 34 3d b0 8d 46 bc 5e d0 26 3d b7 27 d4 3d
       0.044047587 -0.012118742 0.04072606 0.103591375
000240 f0 b0 dd 3c 7c a1 cc bd b0 ab b8 bc d8 c6 d4 bb
       0.02706191 -0.09991738 -0.022542804 -0.0064934306
000250 f1 47 13 3e f8 a7 00 be c4 c0 d0 3d 65 f5 bc 3c
       0.14382912 -0.12564075 0.10193017 0.023066232
000260 f6 5d 19 be a9 87 88 bd 53 18 54 bc 18 be c2 bc
       -0.1497725 -0.066665 -0.0129452525 -0.023772284
000270 8f 76 d9 bd a1 7f 4d bc 16 e5 08 3e 7d 8f bf bd
       -0.106183164 -0.012542636 0.1336864 -0.0935354
000280 f7 54 11 3d 7b 7e b4 3d c3 db 83 3c 6d d9 1b bb
       0.03548142 0.08813187 0.016096001 -0.002378072
000290 ed c1 a1 3d c1 f4 65 bd 59 18 f9 bc 4b 7a d2 bd
       0.078983165 -0.05614162 -0.030407118 -0.10277232
0002a0 49 c8 b7 3d e6 1c eb bb e0 19 2d be 3e 09 a5 3c
       0.08973748 -0.007175076 -0.16904402 0.020146009
0002b0 45 2d 03 bd c8 16 46 bd 76 d0 ff bd b4 ce 23 bd
       -0.032025594 -0.04836157 -0.12490933 -0.03999205
0002c0 0e 19 1c bd 9e 8b ec 3d 93 6c 36 bd 81 3b 90 bd
       -0.03810983 0.11550067 -0.04453714 -0.070425995
0002d0 07 84 09 3e 42 6c c8 bd 77 1e 2d 3d 5c f2 4b 3e
       0.1342927 -0.097862735 0.04226538 0.19916672
0002e0 08 75 15 be 3a 02 8e bd 39 22 85 3c 6d bd 99 3d
       -0.14595425 -0.069340184 0.01625167 0.07506833
0002f0 d5 ba 7a bd b4 48 6f bd f5 88 5e 3d 10 7b 63 bd
       -0.061213333 -0.058418944 0.05432983 -0.055537283
000300 03 e5 43 3e 27 f3 47 be c1 24 d7 bd 33 11 bb bd
       0.1913033 -0.19526349 -0.10505057 -0.0913414
000310 9c 21 0d 3d 7b 75 50 bd bf e7 4a bb 2d 4e d1 3b
       0.03445588 -0.050893288 -0.0030960885 0.006387493
000320 dc 40 1e be 12 aa d0 bc 2b 04 26 bd ab dd 9c 3b
       -0.1545443 -0.02547172 -0.04053132 0.004787167
000330 e2 5a 47 3e 37 69 97 3d 84 4f 19 bd 21 53 3f bd
       0.19468263 0.07393115 -0.037429348 -0.046710137
000340 0e ba 06 3e e9 f0 c9 bc ba f2 2a 3d 5d 52 2a 3d
       0.13156912 -0.024651008 0.04173539 0.041582454
000350 cf fa cc bd 81 1a 9f 3b 53 34 0d 3e 20 ee 0a be
       -0.100087754 0.0048554544 0.13789491 -0.135674
000360 31 7e 27 3e e2 f1 b5 bd 1e 25 41 bb d4 b1 b3 bc
       0.16356732 -0.08884026 -0.0029471586 -0.021935381
000370 77 e7 b6 3d 37 c8 19 bd 7c 72 06 3d c7 14 05 3e
       0.08930867 -0.037544455 0.032824025 0.12996207
000380 02 a5 be 3c f1 b1 8b bd 54 27 a4 bc ac 1d 49 bd
       0.023272041 -0.06821049 -0.020038284 -0.049100563
000390 98 d0 d4 bd 1d 30 49 bc 51 e2 0b bd 3b 37 f5 3b
       -0.103913486 -0.0122795375 -0.03415138 0.0074833906
0003a0 47 12 3c be b1 9e e0 3d 3e a2 8f 3d b5 9c ac 3d
       -0.18366347 0.10967768 0.07013367 0.08428327
0003b0 85 b3 be 3d f8 45 b0 bd f8 39 45 be 89 bf 15 3d
       0.093115844 -0.086070955 -0.19260395 0.036559615
0003c0 15 76 77 bd 1f 89 04 be 7b 12 09 be 01 54 e5 3d
       -0.060415346 -0.12942933 -0.13385956 0.11197663
0003d0 e1 3c de 3c 75 fa a2 bd a6 72 8d bd 34 60 7c 3d
       0.027128639 -0.07957927 -0.06906633 0.061615184
0003e0 86 4d f9 3c 61 13 81 3d ca 07 77 3d 82 dd 90 3d
       0.030432474 0.06302524 0.060310163 0.07073499
0003f0 4b 46 8d bc 09 0d 6e bd e4 b7 94 bd ef 02 9f 3d
       -0.017245432 -0.0581179 -0.07261637 0.077642314

network_body._body_endoder.seq_layers.0.bias f4 [128]
000000 d7 82 0d bc 61 59 ed 3b 89 6e 05 3c be 70 17 bc
       -0.008637152 0.007243321 0.008144029 -0.009243188
000010 33 64 d0 bb bc 44 96 bb 13 a9 56 3b 10 85 10 bc
       -0.006359601 -0.0045858305 0.0032754585 -0.008820787
000020 9e d4 83 bb e0 5e 14 3b da 34 0b 3c 8f cb 2f 3c
       -0.0040231487 0.0022639558 0.0084964875 0.0107296845
000030 be ae 0b bc 6d 79 9d ba d7 bc 0a bc ba ea aa bb
       -0.0085255485 -0.0012014337 -0.0084678745 -0.00521597
000040 fa 27 69 bb fa c3 10 bb f8 a3 07 bc 28 21 1e 39
       -0.0035576806 -0.0022089467 -0.008278839 0.00015080406
000050 1d be c4 3a a1 4c e6 3a 5c e2 2e bc 43 fd 02 bc
       0.0015010271 0.0017570445 -0.0106740855 -0.007994953
000060 03 5e 9e 3b 6e 8c 7a 3c 68 88 f9 3b 61 5a 21 3c
       0.0048329844 0.01529227 0.007615138 0.009848208
000070 fc 81 09 3c 44 c5 08 bc 3d eb 68 3b 1c 27 21 3b
       0.008392807 -0.008347813 0.0035540604 0.0024589961
000080 d9 78 38 bb 75 d7 1f 3c af 27 9e 3a bc 57 23 bc
       -0.0028148203 0.009755959 0.001206627 -0.009969648
000090 ce 9b 04 3c 92 8e cf bb 41 cf e6 3b 75 26 ba 3b
       0.008093787 -0.0063341344 0.0070437496 0.005680854
0000a0 f7 cc ba 3b 23 9a aa ba c5 54 66 bb a8 f1 91 bb
       0.0057007032 -0.0013015907 -0.0035145741 -0.0044538565
0000b0 f9 76 86 3a 37 ee 13 3c 71 bc 0b bc 93 ea 06 bc
       0.0010258845 0.009028963 -0.008528815 -0.008234638
0000c0 8e 86 94 bb d3 a5 13 3c 4a 77 be bb 9c 69 69 ba
       -0.0045326417 0.009011704 -0.00581256 -0.00089039817
0000d0 26 7d d4 3a 68 46 1b 3c 09 5d 8a bb d3 61 13 bc
       0.0016211614 0.009477235 -0.0042225164 -0.008995491
0000e0 70 83 2b 3c 6e ce 7f 38 84 d5 0c 3c 8f c6 1c bb
       0.010468349 6.098899e-05 0.008595828 -0.002392206
0000f0 13 ab 13 bb 53 87 77 bb 26 91 c7 bb 51 e4 08 3c
       -0.0022532388 -0.0037769869 -0.006090301 0.008355216
000100 f9 3c a6 bb be b8 5d bb 4b 37 60 bc b9 b7 be 3b
       -0.0050731865 -0.0033832039 -0.013685058 0.0058202413
000110 fd cd 13 3c d7 3d 09 3c a9 d0 01 3c 66 8b ef bb
       0.009021279 0.00837656 0.007923284 -0.0073103188
000120 e8 6c 07 bc 2c c3 1f bc 23 73 04 bc 33 0c 09 3c
       -0.008265711 -0.009751122 -0.008084091 0.008364725
000130 79 db 51 3b c8 c7 06 3c 8a a9 04 3c 25 f2 56 b9
       0.0032021685 0.0082263425 0.008097062 -0.00020498836
000140 da 41 ca bb 70 62 19 3c 86 64 1b 3c 17 38 f1 3b
       -0.006172401 0.009361848 0.009484416 0.0073614228
000150 fd 26 f3 bb dc 96 d0 bb 76 4c ee 3a 26 cb 32 3b
       -0.0074204192 -0.00636564 0.0018180746 0.002728173
000160 e8 24 00 3c a5 bd 69 39 47 ce 2e 3b 77 c7 a4 3b
       0.007821299 0.0002229126 0.0026673244 0.005028661
000170 c0 ad c1 ba e3 36 b4 3b 41 ed 18 bb 9e ed 6a bb
       -0.0014776513 0.005499707 -0.0023334774 -0.0035847197
000180 cb 64 9a bb 28 ec ff 3b 62 73 20 ba 56 3e c2 3a
       -0.0047117225 0.0078101344 -0.0006120709 0.0014819603
000190 70 1e 43 3a e0 e7 1c bc 6d 67 a1 3b 26 05 1f bb
       0.0007443195 -0.009576768 0.0049256594 -0.0024264543
0001a0 99 63 dc bb 50 fd 20 bc 96 7c 83 3b 50 45 fb 3b
       -0.00672574 -0.009826019 0.0040126545 0.007668175
0001b0 a3 7c 2d bc b5 cc cf 3b 20 0b d4 3b 42 b1 83 bb
       -0.010588798 0.0063415417 0.0064710528 -0.0040189335
0001c0 c7 56 a2 3b 76 fe f7 3b c8 e7 14 bc d0 82 29 bc
       0.0049541923 0.007568176 -0.009088464 -0.01034613
0001d0 85 d4 20 3c 7a eb e0 3b 37 97 67 bb c9 3d dc bb
       0.009816294 0.0068640085 -0.0035337934 -0.0067212326
0001e0 f4 97 92 3b d9 19 b9 3b 86 3d 4b 3c 8f fd b8 bb
       0.0044736806 0.0056488332 0.012404805 -0.005645461
0001f0 46 e3 13 3c 3f 29 24 bc 62 7c 1b 3c 26 78 d3 ba
       0.009026354 -0.010019599 0.009490104 -0.001613383

network_body._body_endoder.seq_layers.2.weight f4 [128, 128]
000000 b2 79 a8 3d 97 32 00 be 42 16 c1 bc 6d 18 5c 3b
       0.082263365 -0.12519298 -0.023570184 0.0033583895
000010 5a 28 bc 3d a1 21 f7 bd 97 53 a2 bd 90 b2 82 3d
       0.09187384 -0.12066961 -0.079261 0.06381714
000020 38 47 85 3d 36 94 d3 3d fd 00 96 3d 1e ba bb 3a
       0.065077245 0.10331003 0.07324407 0.0014322435
000030 ea 7d 7a 3d 50 44 20 3e 6d ab a4 3c b9 89 30 3d
       0.061155237 0.15651059 0.020101273 0.043100093
000040 cd ff 17 3d 12 c2 6c 3e 2c cf 60 3c 3b 88 d9 3c
       0.037109185 0.23120907 0.013721269 0.026554218
000050 92 6b 29 3d 73 59 44 3d 97 99 f1 bd 67 0a 05 3d
       0.041362353 0.047936868 -0.11796873 0.032480624
000060 d0 1d 84 bc 25 86 a5 bd 76 c6 61 3b eb c6 41 bd
       -0.016127497 -0.08082227 0.0034450567 -0.047308844
000070 d6 2a 04 bd 29 55 87 3d d8 c5 c5 3d aa 56 63 3d
       -0.032267414 0.0660804 0.09656876 0.05550257
000080 39 67 1d bd 8b d2 ca bd 07 eb 02 bd ce 16 14 3e
       -0.03842852 -0.09903439 -0.03196242 0.14461824
000090 ea 6f f1 bd 3e d5 2d be 89 38 84 bd e3 86 c9 bd
       -0.11788924 -0.16975877 -0.06456096 -0.09840181
0000a0 22 5c b2 bc 7b 23 3d 3e 1f 7b fb 3d f9 03 ea 3d
       -0.021772448 0.18470566 0.12279343 0.11426539
0000b0 b8 c5 bc bd 19 a4 08 be 7b 7b 24 3e ef ea c2 bb
       -0.09217399 -0.13343848 0.16062729 -0.0059484164
0000c0 0d 83 01 3d 2e b9 ea bc 45 bd ab 3c fb c0 b2 bd
       0.03161912 -0.028652754 0.020964274 -0.08728214
0000d0 dc d7 d4 3d fe c9 b5 3d 8c 77 11 bd 32 5c a2 bd
       0.103927344 0.088764176 -0.0355144 -0.07927741
0000e0 85 96 e9 bd 86 fb 29 bd 58 d9 2b be 31 4a 15 3e
       -0.114056624 -0.041499637 -0.16782129 0.14579083
0000f0 60 40 77 bd 32 e3 09 be 31 58 49 bd f1 eb c9 bb
       -0.060364127 -0.13465574 -0.04915637 -0.0061621596
000100 c5 20 5a 3c 2d 5c 3c 3c af 5e a6 bd 5c 93 f6 3c
       0.013313477 0.011496586 -0.08123528 0.030099563
000110 aa 1d 8f 3c b4 ef 0f 3c 60 e6 ed 3c 94 ba 6d 3d
       0.0174702 0.008785177 0.029040515 0.058039263
000120 e6 6c 86 bd cd c2 12 3d 8e a8 48 3d ea fe 2d be
       -0.065637395 0.035830308 0.04898887 -0.16991773
000130 d1 5d bb 3d 7a 69 0d 3c 21 1b 5d bd d1 7e f0 3d
       0.091487534 0.008631105 -0.05398095 0.11742938
000140 5d 80 fb bc 05 3b 49 bd c1 e3 43 bd ae 51 d3 bc
       -0.030700857 -0.04912855 -0.047824625 -0.025795784
000150 3d 14 8d bc 01 e0 e3 bd fb 59 a1 3d 89 be c2 bd
       -0.017221564 -0.1112671 0.078784905 -0.09508998
000160 52 11 aa bc be b6 7e 3d d6 0f b0 3d 96 9e af bd
       -0.020760212 0.062185995 0.085967705 -0.0857517
000170 a0 c3 b6 bc 70 9e fb bd e3 4b 5a 3d 6f 4c 22 be
       -0.022310078 -0.12286079 0.053295027 -0.1584947
000180 da 9a 39 3e 78 1b 02 be 1b 94 09 be 0a 1e 4d 3d
       0.18125477 -0.12705791 -0.13435404 0.050077476
000190 8f 81 e5 bd 4c 1f 7e bc 1b bc 94 3d dc 4d c5 3d
       -0.11206352 -0.015510391 0.07262441 0.09633991
0001a0 65 6e 2e 3e 4b 86 41 be 91 66 cf 3d e6 ce a2 ba
       0.170343 -0.18898885 0.10126985 -0.001242128
0001b0 4d 69 a3 3d c2 45 35 bd b3 2d 1a 3d 49 77 09 3d
       0.07979069 -0.04425598 0.03764124 0.033561025
0001c0 d2 67 a5 3c b6 8b 8a bc 20 16 af 3d 71 b6 d4 bd
       0.020191107 -0.016912322 0.08549142 -0.103863604
0001d0 56 a7 0b 3d 49 31 60 3d 88 07 93 3d 98 a1 bd 3d
       0.03409513 0.054734502 0.07179171 0.09259337
0001e0 cc 2d 4c 3c e9 61 23 bd 94 c8 ac bc fe fd 57 bc
       0.012462091 -0.039888296 -0.021091737 -0.013183115
0001f0 51 b5 94 3d 22 8e 05 3e 4b 38 37 3c 4b 39 90 bd
       0.07261146 0.130425 0.011182855 -0.07042178
000200 3f 1c 4b bd 55 91 c6 bd b7 a8 c5 3c 4c 04 94 bd
       -0.049587484 -0.09695689 0.024128301 -0.07227382
000210 28 a8 3e be 86 df 29 be 62 35 80 3c da 6f b6 3c
       -0.18618834 -0.16589174 0.015650455 0.022270132
000220 ed 53 f3 bc 3c 46 c4 bc 0e a7 cc 3d 84 bc 01 3e
       -0.029703105 -0.023959272 0.09992801 0.12669569
000230 cf 57 90 bd ca a6 7e bd f1 c1 31 bd 88 c2 06 3e
       -0.07047998 -0.06217078 -0.043397848 0.13160145
000240 90 6a b9 3d af c7 ce 3d 4b 4f a9 bd 56 ca 75 3d
       0.09053528 0.100966804 -0.08267077 0.060007416
000250 55 05 c4 3c 23 97 2d 3e b0 a4 fa 3c 92 7d 04 bd
       0.023928324 0.16952185 0.030596107 -0.032346316
000260 dd d0 a5 bd 75 7e 15 be fe 87 9c bd 9d 28 22 bd
       -0.08096478 -0.14599021 -0.07643126 -0.039589513
000270 2b 56 85 bd e2 0a 25 bd dc 83 b4 3d 36 7a d1 3b
       -0.06510576 -0.04029358 0.08814213 0.0063927425
000280 24 25 0f 3d c8 c2 15 bd 4c d5 7b 3d 33 58 c5 3b
       0.03494753 -0.03656271 0.061482713 0.006022477
000290 26 f2 ea 3c 2b 42 82 3d 34 c7 fd bd 0e 14 45 3d
       0.028679918 0.06360277 -0.123915106 0.04811483
0002a0 fe 95 e7 3d 86 3a 34 bd 07 c6 4f bd 8d 4d e8 3c
       0.113079056 -0.044001125 -0.050725963 0.028357292
0002b0 6c 37 32 3d 1b 3e d6 3c ab 87 9e 3c 6c 13 37 bd
       0.043509886 0.026152661 0.0193518 -0.044696257
0002c0 91 30 60 be db d5 7e 3d c2 3e 22 be 37 71 8d bc
       -0.21893527 0.062215667 -0.15844253 -0.0172659
0002d0 af e2 4b 3e a5 e0 af bb 42 d1 84 3d 5b aa 60 3c
       0.19910692 -0.005367356 0.06485225 0.013712491
0002e0 85 e6 88 3c fa 8c 27 3d 5b 24 0b be 19 64 2c 3e
       0.016711483 0.04090593 -0.13588087 0.16835059
0002f0 0a 3a bc 3d 74 28 05 3c 60 e6 9f 3c b5 ee e6 3b
       0.091907576 0.008127321 0.019519031 0.007047499
000300 bd d8 87 3e ae e6 d8 bb 7d 9d ff 3c f5 b5 29 bd
       0.26532546 -0.006619296 0.031203026 -0.041433293
000310 cf 33 92 3b dd 61 17 bd 0c 5d 69 3d ea 72 ab bd
       0.0044617425 -0.036958564 0.056973502 -0.083715275
000320 c7 82 ac bd d9 1a b4 bc b2 82 1f 3d fd 48 16 3e
       -0.08423381 -0.021985458 0.038943 0.1467628
000330 6f af 77 bd 76 71 c3 bd 7f 9c 77 3c d2 7d a4 3d
       -0.06047004 -0.09543125 0.015112995 0.08031811
000340 36 4d 08 be 9a 3a 4a 3e 3f bb 49 3d 7f 1c 7f bd
       -0.13310704 0.19748917 0.049250837 -0.062283035
000350 74 54 cd 3d 84 7f bc 3d 5d a3 f7 3d ea ca 0c 3d
       0.10025874 0.09204009 0.12091706 0.0343732
000360 7d 37 9f 3d e0 80 c3 bd 7c 34 6f 3e 75 df 88 bd
       0.077742554 -0.09546065 0.23359865 -0.06683246
000370 d9 45 b5 bd d0 9d c7 bd 1b db 68 3c 05 91 a8 3d
       -0.08851213 -0.09746897 0.014212395 0.08230785
000380 72 b0 20 3d 0f 7b 00 3e 5c c3 d6 bd b8 20 53 3d
       0.03923077 0.12546943 -0.104864806 0.051544875
000390 66 ce c9 bd 89 a0 83 3d db df f5 3d ab 73 ca bd
       -0.098538205 0.06427104 0.12005588 -0.09885343
0003a0 24 0e 4e 3c 6f e4 85 3c 28 ff 95 bb 8f 52 ba 3d
       0.012576614 0.016344277 -0.004577536 0.09097778
0003b0 a3 d4 d7 3c 69 8f bf bc e8 81 97 bd 0d cd 09 bc
       0.02634651 -0.023383813 -0.073978245 -0.008410704
0003c0 6d 80 f3 3c bd 7b 29 3e 57 63 8f be d8 7b 26 3d
       0.029724324 0.16551109 -0.28005478 0.04064545
0003d0 53 fd e4 bd 62 0a 01 be 5c 32 a5 bd 53 db 57 be
       -0.1118113 -0.12601617 -0.08066246 -0.2107976
0003e0 e7 49 14 be 50 eb 43 bb 70 c2 00 3d b0 68 02 be
       -0.14481317 -0.0029894896 0.03143543 -0.12735248
0003f0 33 4b 8c bd ec 04 de 3d d2 06 ca bd e6 3c ba 3d
       -0.068502806 0.108407825 -0.09864582 0.09093647

network_body._body_endoder.seq_layers.2.bias f4 [128]
000000 8f 27 e5 bb 8c 51 6a 3a 4f d3 fd bb e9 f5 1c 3c
       -0.006993241 0.0008938543 -0.007746137 0.009580114
000010 50 56 ff 3b a0 1a 27 bc 40 26 c5 3b 29 0d 86 3b
       0.0077922717 -0.010199219 0.0060165226 0.0040909243
000020 4e 2a 39 3a c4 0e e0 bb 66 03 df 3b a6 2b 3b 3b
       0.0007063494 -0.0068376977 0.006805825 0.0028559952
000030 9e 62 19 bc 9f 07 e2 bb e5 f5 e3 3b 59 05 27 3c
       -0.009361891 -0.006897881 0.006956803 0.010194146
000040 d2 5d 0e 3c 38 5b f7 bb c0 75 ea b9 78 3a 20 3b
       0.008689361 -0.007548716 -0.0004471969 0.0024448913
000050 bf 6b 14 3c 82 21 d0 3a f0 20 e5 bb b6 02 20 bc
       0.009058892 0.0015879127 -0.006992452 -0.009766271
000060 9e dc ae b9 00 8d 4e bb 1d a8 9f 3b c2 63 0e 3c
       -0.0003335224 -0.0031517148 0.0048723356 0.008690776
000070 26 2f ac bb 31 69 14 bc 44 0a fb 3b 86 9a cc 3b
       -0.005254644 -0.009058283 0.007661136 0.0062440066
000080 81 43 21 3c 15 2a 87 ba ad 0d 0a bc ee 22 ff bb
       0.009842754 -0.0010312224 -0.008426112 -0.0077861464
000090 04 84 76 3b aa 7e 17 3c 49 a1 98 3a 48 25 04 bc
       0.0037615309 0.009246508 0.0011644746 -0.008065529
0000a0 6f 48 25 bb 22 fe 1a 3c 9a 99 5d bb e9 f7 98 bb
       -0.0025220176 0.009460004 -0.0033813477 -0.004668225
0000b0 f7 38 72 bb c5 55 53 3b 15 7b 16 3c cc be 82 3b
       -0.0036960223 0.0032247168 0.0091846185 0.00399003
0000c0 fd ad 70 bb 9d 07 01 3c f4 4b 14 3c 89 26 63 bb
       -0.00367248 0.00787535 0.009051312 -0.003466042
0000d0 f1 af 03 3c 49 46 11 3c b5 d5 6f b9 7b 7f 11 bc
       0.008037553 0.008866855 -0.00022872428 -0.008880491
0000e0 7e 78 f0 3b 56 79 05 3c 43 48 33 bc 5a 17 05 3c
       0.0073385825 0.0081466045 -0.0109425215 0.008123243
0000f0 26 87 d3 bb 3c 88 01 bc 1d 04 bc 3b 25 ea bb 3b
       -0.00645532 -0.007906016 0.005737795 0.0057346993
000100 6e 64 4d 3b 44 97 96 3b 4f 0e 0b bc 73 00 47 3b
       0.0031340378 0.004595669 -0.008487298 0.0030365258
000110 a5 78 16 3c c6 05 02 3c 23 98 73 bb 16 99 4d 3b
       0.009184037 0.007935947 -0.0037169538 0.0031371764
000120 64 48 09 3c be 17 1f bc ed e2 e8 bb 33 9a 18 3b
       0.008379076 -0.00971025 -0.00710713 0.002328527
000130 7d 3d 14 3c bd a8 db bb 2d 9e 14 bc 14 82 c5 3b
       0.009047863 -0.006703465 -0.009070915 0.0060274694
000140 ba 62 8a ba 7d f8 9c 3b a4 99 a3 bb 91 e1 89 bb
       -0.0010557987 0.0047903643 -0.0049926806 -0.004207798
000150 9b 75 11 b9 19 a2 23 bc f0 21 d9 3a e6 7d a4 3b
       -0.00013872089 -0.009987378 0.00165659 0.005019891
000160 04 ec fd 3b 01 9a 50 bb 7e eb fd bb 97 49 5e bb
       0.0077490825 -0.0031830075 -0.00774902 -0.0033918375
000170 07 a5 87 39 2d 17 80 3b f2 cb da 39 26 95 22 bb
       0.00025872161 0.003909013 0.0004173215 -0.0024808138
000180 9e 93 57 3b 90 bc 3a 3a 91 d1 fc ba 29 ad f7 39
       0.0032894383 0.0007123435 -0.001928853 0.00047240526
000190 3a 05 93 bb 08 eb 29 3c 24 ea b7 ba ff 09 06 bb
       -0.004486707 0.010370977 -0.0014031571 -0.0020452735
0001a0 99 ee 07 bc fe f6 ad 3a d3 0f d1 3b 02 5d 60 3b
       -0.008296632 0.0013272462 0.00638006 0.0034235124
0001b0 89 60 60 3b 62 c6 97 bb ec e9 9a bb e6 37 42 3c
       0.0034237227 -0.0046318034 -0.0047275927 0.011854148
0001c0 e5 ae 9d bb 0e 68 00 bc 64 a8 97 bb 00 58 08 bc
       -0.004812109 -0.007837309 -0.004628228 -0.008321762
0001d0 28 4c df 3b d2 f5 fe bb f4 9a 1c bc 2f de 15 bc
       0.0068144985 -0.007780769 -0.009558428 -0.009147211
0001e0 9b ea d0 bb e4 32 de 3b f7 92 f8 bb d7 d0 75 3a
       -0.0063756234 0.006780969 -0.007585879 0.0009377128
0001f0 8e c9 49 3b df a8 f7 ba fb 42 dd 3b ce 34 2c bc
       0.0030790302 -0.0018894932 0.0067523695 -0.0105106365

action_model._continuous_distribution.log_sigma f4 [1, 3]
000000 e1 c7 cd ba 61 89 93 ba da 06 9f bb
       -0.0015699827 -0.0011256152 -0.0048531117

action_model._continuous_distribution.mu.weight f4 [3, 128]
000000 60 33 a7 3c 88 fe 2f bc 4e 3f 48 3c 4c 30 3e 3b
       0.02041024 -0.010741837 0.012222124 0.0029020486
000010 dc 76 ad bc 4e 42 94 3b c9 d8 a2 bb 4f c8 e9 bb
       -0.02117484 0.0045245057 -0.0049696905 -0.0071344743
000020 9e 54 61 bc 93 c5 44 3c 20 50 77 bc 3d 1e 1a bc
       -0.0137530845 0.012009996 -0.015094787 -0.009406623
000030 83 7d 6f bb a0 b0 f5 3a 2c f6 4e bc 9c fe d6 3c
       -0.0036543317 0.0018744655 -0.012631934 0.026244454
000040 b6 02 ce bb e5 cb a0 3c 2a 12 03 3d d7 cd a0 3c
       -0.0062869443 0.019628474 0.031999744 0.019629402
000050 0a 1f ad bb 78 ac 8f bc 22 67 27 3c 9a 0c b9 ba
       -0.005283241 -0.017538294 0.01021746 -0.0014118135
000060 30 04 34 bc 89 b8 fb 3b 8f cf 7a ba 73 11 e3 3b
       -0.0109873265 0.0076819104 -0.0009567672 0.0069295703
000070 7f 2c 1e 3d a9 66 a9 bb 1e 48 f4 3b 58 02 af 3b
       0.038616654 -0.0051697087 0.007454886 0.0053408556
000080 57 ed 99 3c 3e 7b a7 bc 93 3c da 3a a8 b4 80 3c
       0.01878993 -0.020444509 0.0016650133 0.015711144
000090 c5 07 8d 3a 8e ed 49 bb 9d 06 9f bc ff c2 39 bb
       0.0010759762 -0.003081176 -0.019412333 -0.0028344986
0000a0 78 ce c3 3c 10 0e 49 3a 13 10 39 3c 49 00 a1 bb
       0.023902163 0.0007669637 0.011295336 -0.004913364
0000b0 41 32 d6 3c ff 37 30 bd 04 7c 40 ba 41 77 d8 bc
       0.02614701 -0.043022152 -0.00073426985 -0.026424052
0000c0 8e ac fc bb bd bb 9c bb 5f 2a 01 3c 89 89 bc 3c
       -0.007711 -0.0047831223 0.007883637 0.0230148
0000d0 aa ca cc 3a 98 5d ac bc ba 13 fd 3c 3b ea 16 3c
       0.0015624363 -0.021040723 0.030893195 0.009211118
0000e0 cb 95 4d bb e7 e6 86 3b d5 6e 68 bc 2f 70 bf 3a
       -0.00313698 0.004116881 -0.014186581 0.0014605577
0000f0 f4 90 df 3c 77 fe af bc 80 a8 f3 bc ac 62 b6 3b
       0.027290799 -0.021483643 -0.029743433 0.005565962
000100 54 91 07 bd f6 f9 37 3c 45 d9 54 bb 62 bb e9 3a
       -0.03309758 0.011229029 -0.0032478136 0.0017832334
000110 75 f2 90 3a 84 f8 17 3c d4 8b d2 3c 2e 5a 82 bb
       0.0011058586 0.009275559 0.02570144 -0.0039780354
000120 42 7c 8e 3c 27 b2 85 ba b0 ae a0 3b 21 e5 9f 3c
       0.017393235 -0.0010200188 0.004903637 0.019518437
000130 f1 2b 9e 3b 02 47 55 3c 00 64 87 39 8e 4d 9d bc
       0.0048270156 0.013017418 0.00025823712 -0.01920202
000140 e9 82 0d 3d 52 77 67 ba a1 1a 77 3b 98 2b 21 bd
       0.034548674 -0.0008829731 0.003770508 -0.039348215
000150 75 b5 f1 3b 81 b3 10 bb a4 67 22 bc c4 cf 07 bd
       0.0073763677 -0.002207965 -0.009912405 -0.033157125
000160 91 51 6b 3b 1f b2 1a 3d cc b1 76 3c 00 d5 b6 bb
       0.0035906772 0.037767526 0.0150570385 -0.005579591
000170 44 9b 97 3c 9c 57 06 3c 1e bc af bc d5 19 ea bb
       0.018506654 0.008199599 -0.021452006 -0.0071441927
000180 43 95 c5 bc 4d 3d 42 3d 6d f7 21 3c ab a7 18 3d
       -0.024119025 0.047421742 0.009885651 0.037269276
000190 6a c4 a1 bc 0a a7 c7 3c f7 dc bf 3b ed 4a a5 bc
       -0.019746978 0.024371643 0.0058551985 -0.020177329
0001a0 45 b6 61 3c dc e6 21 3d da fd 25 3c 73 92 fe bb
       0.013776367 0.039526805 0.010131324 -0.007768923
0001b0 f6 af 75 bc a6 aa 02 3d c6 81 24 3d bd 08 f1 3b
       -0.014995566 0.031901024 0.040162824 0.007355778
0001c0 28 89 a0 3c c0 36 a3 3c d7 b2 3f bb 08 f0 90 3a
       0.019596651 0.019923568 -0.0029250884 0.0011057863
0001d0 65 50 47 ba a6 20 0b 3c 3d 8e 27 39 89 a2 0a bb
       -0.0007603227 0.008491671 0.00015979349 -0.0021154007
0001e0 0f de 0c 3d 62 dc 81 3b a7 87 05 bd 74 36 d3 bb
       0.03439146 0.0039630393 -0.03260007 -0.0064457003
0001f0 f5 72 13 3c 84 55 0f 3d f7 64 3b bc 88 e8 c6 ba
       0.008999576 0.034993663 -0.011437646 -0.0015175501
000200 e3 0d bb bc 42 c4 91 bc eb b3 1e bd 2c 3e 74 3c
       -0.02283377 -0.017793778 -0.038745802 0.014907401
000210 c4 df a3 3c 8c 42 3d bd dd 70 8c 3c e7 28 eb 3a
       0.02000416 -0.046206042 0.017143661 0.0017941267
000220 3f 67 a5 3c 5a 72 06 bc a6 af 10 3c c8 22 93 3c
       0.020190833 -0.0082059745 0.00883094 0.01796092
000230 bc 39 f2 bc 97 72 b6 bc 6f 99 73 3c 3b 69 09 3d
       -0.029568546 -0.022271438 0.014868124 0.03354762
000240 e8 6c 19 3c a7 76 8e bc 4b f9 82 bb db 95 e3 bb
       0.009364344 -0.017390562 -0.003997003 -0.0069453544
000250 88 0d 1f 3c 56 b3 a1 ba 50 aa 05 bc fd 23 be bc
       0.009707816 -0.0012336771 -0.008158281 -0.02321052
000260 90 70 7a bc 8a 91 8f 3c 57 68 c1 3c ae e9 01 3d
       -0.015285626 0.017525453 0.023609323 0.031716995
000270 97 09 2c bd fc 36 2f bc 42 d9 c4 3c bc e2 22 3c
       -0.042001333 -0.010694262 0.024029378 0.009941753
000280 17 75 38 3d bf 90 86 bb 09 48 45 bb ed 53 0c bd
       0.04503354 -0.0041066105 -0.003010275 -0.034259725
000290 34 1b a7 3b 19 9a 95 3c d1 b0 5e 3b 98 0a 0e bb
       0.0050996784 0.018261956 0.0033979903 -0.0021673795
0002a0 b8 f0 13 bc 72 05 13 3d 33 3e 7b 3b fb 32 37 bc
       -0.00902956 0.035893865 0.0038336634 -0.011181588
0002b0 27 f6 a6 bc c6 76 38 ba b8 a1 d9 3c ee b3 6c 3b
       -0.020381046 -0.00070367416 0.026566371 0.0036117989
0002c0 c5 db a2 bc 2e 6a 1b 3c 8c 02 f5 3c d2 64 18 3c
       -0.019880185 0.009485764 0.029908441 0.009301381
0002d0 5b ff 9a 3c af 66 85 3d 2b 95 58 bb 42 65 20 bc
       0.018920591 0.06513726 -0.0033047895 -0.009789767
0002e0 55 57 ed 3b fd a0 13 3b 67 94 b1 bc 53 1b 8e 3c
       0.007243077 0.0022526376 -0.021677209 0.017347014
0002f0 b9 45 1a bd d1 b6 b4 bc 25 50 38 bb 01 2b 23 bc
       -0.03766415 -0.02205983 -0.0028123942 -0.009958983
000300 62 cc b5 3b d5 7e 42 3a 8f 36 89 bc b3 6d 4f bc
       0.005548046 0.0007419412 -0.016749648 -0.012660432
000310 e6 85 2d 3d 8d cd de ba 56 50 a5 3b e8 a2 07 3b
       0.042364024 -0.0016998515 0.005044977 0.0020696465
000320 cf c2 c3 3c 2d f9 24 bd a0 d8 10 bd 0b 55 9d bb
       0.023896603 -0.040276695 -0.03536284 -0.0048013977
000330 8c 34 73 ba ca fd 79 bc ba 42 df bb ae 5d ed 3b
       -0.00092775445 -0.015258262 -0.0068133743 0.0072438335
000340 f7 02 5e bc 09 36 0a 3d e8 50 1a 3b ec 7b 04 bd
       -0.013550512 0.03374294 0.002354676 -0.032344744
000350 5a c3 9a 3c 29 b8 dc bc 96 68 16 3c 44 67 23 3c
       0.018891979 -0.026943283 0.009180209 0.009973351
000360 50 b9 9a 3c cd 60 40 bc c3 42 3b bc 1c bb f3 bc
       0.018887192 -0.011741829 -0.011429491 -0.029752307
000370 a6 e3 d4 bb 95 f4 0b 3d a9 e7 00 bb 85 64 51 3c
       -0.0064968644 0.0341688 -0.001966933 0.012780313
000380 8e 3b 50 3c d4 eb 0e 3d 30 c3 5a 3c f1 aa 90 3c
       0.012709511 0.034892872 0.0133522 0.017659636
000390 65 2e 85 bc 91 b6 32 3d 56 b5 c9 ba bd 5b 48 3c
       -0.016257474 0.04363114 -0.0015389125 0.012228903
0003a0 4f 45 c9 bc 3f fb 67 bb 4d bc 0d 3d e2 22 a6 bb
       -0.024569182 -0.0035397557 0.034603406 -0.0050700763
0003b0 ea d9 1c bc db 4a 9e bc 98 2e da bc ed cc cd 3c
       -0.009573439 -0.019322803 -0.026633546 0.02512213
0003c0 d2 ee cf bc 41 99 72 bc 7e 46 aa bb d5 50 95 bc
       -0.025382433 -0.014807046 -0.0051963916 -0.01822702
0003d0 f1 d4 02 bc ca d4 d6 bc 35 02 93 bc 5b 4c 13 bd
       -0.0079853395 -0.026224513 -0.017945388 -0.03596149
0003e0 84 90 e4 bc 8e 4b e0 3a 21 30 f7 bc 29 57 22 3c
       -0.027900942 0.0017112361 -0.030174317 0.009908476
0003f0 4c c1 0b 3c b9 49 41 3c 95 ab e0 3a 60 33 5a bc
       0.008529972 0.011797362 0.0017140979 -0.013317913

action_model._continuous_distribution.mu.bias f4 [3]
000000 76 3f 66 bb 66 07 0a 3c 11 57 f3 3b
       -0.003513304 0.0084246155 0.0074261506

exp_avg f4 [128, 124]
000000 cf 6e d5 b7 00 00 00 00 5f 08 03 36 00 00 00 00
       -2.5443178e-05 0.0 1.9525394e-06 0.0
000010 ee 3b 00 37 70 aa 96 b5 0a 4f 65 35 de b6 85 b7
       7.643348e-06 -1.1225475e-06 8.5424165e-07 -1.593999e-05
000020 00 00 00 00 86 21 98 b3 00 00 00 00 08 28 15 35
       0.0 -7.0841494e-08 0.0 5.556508e-07
000030 3e 4b cb b5 b5 df e9 34 e7 2f c9 b7 00 00 00 00
       -1.5146577e-06 4.35624e-07 -2.3983373e-05 0.0
000040 e2 26 c1 34 00 00 00 00 70 bd e9 36 17 a1 a7 b4
       3.5977342e-07 0.0 6.9659945e-06 -3.1223382e-07
000050 d2 6c 28 b6 78 60 ca b7 00 00 00 00 f7 8d 06 35
       -2.5097293e-06 -2.4125198e-05 0.0 5.0125476e-07
000060 00 00 00 00 b2 b7 d8 36 2c d3 51 34 f6 f3 08 b6
       0.0 6.4586866e-06 1.9541466e-07 -2.0407583e-06
000070 03 5c 06 b8 00 00 00 00 2a da bb 35 00 00 00 00
       -3.2033782e-05 0.0 1.399608e-06 0.0
000080 f6 53 73 37 63 41 61 b5 7b 37 74 b6 4b 41 c7 b7
       1.4503477e-05 -8.391418e-07 -3.6391127e-06 -2.3753053e-05
000090 00 00 00 00 24 00 17 36 00 00 00 00 f7 84 1e 37
       0.0 2.2500835e-06 0.0 9.448492e-06
0000a0 b0 ee a4 b6 61 02 91 b6 d8 82 f0 b7 00 00 00 00
       -4.9153678e-06 -4.3216137e-06 -2.8671158e-05 0.0
0000b0 e5 da 13 b5 00 00 00 00 fe 00 5c 37 6e 28 67 b5
       -5.50803e-07 0.0 1.3113253e-05 -8.611304e-07
0000c0 80 f4 e1 b2 aa 71 b0 b7 00 00 00 00 30 50 6e b6
       -2.6304633e-08 -2.1033764e-05 0.0 -3.551144e-06
0000d0 00 00 00 00 57 44 38 37 83 07 62 b6 b8 39 1a b7
       0.0 1.0983166e-05 -3.3680997e-06 -9.192554e-06
0000e0 a9 41 03 b8 00 00 00 00 9c b6 cf 35 00 00 00 00
       -3.1293985e-05 0.0 1.5475848e-06 0.0
0000f0 56 e3 75 37 6d 43 fc b5 db 69 a6 36 62 04 34 b7
       1.4656069e-05 -1.8795087e-06 4.9595087e-06 -1.07298565e-05
000100 00 00 00 00 b9 01 05 36 00 00 00 00 33 46 4a 36
       0.0 1.9819547e-06 0.0 3.0141207e-06
000110 87 82 3c b7 15 76 96 b5 11 28 07 b8 00 00 00 00
       -1.1236064e-05 -1.1210237e-06 -3.2223823e-05 0.0
000120 db 2e 4b b5 00 00 00 00 7e c0 5e 37 1a 77 37 36
       -7.5691577e-07 0.0 1.3277049e-05 2.7338451e-06
000130 cc f1 bf 36 31 a8 c6 b7 00 00 00 00 1a dc 27 36
       5.7203924e-06 -2.368176e-05 0.0 2.5013055e-06
000140 00 00 00 00 a8 8b 37 36 57 0c c6 35 f0 8b 44 36
       0.0 2.7350416e-06 1.4755741e-06 2.928773e-06
000150 06 10 3f b8 00 00 00 00 d0 93 6f b4 00 00 00 00
       -4.555287e-05 0.0 -2.2312383e-07 0.0
000160 28 9f ee 37 0e 65 c1 34 50 1c a9 32 a7 4e 17 b8
       2.8445924e-05 3.6022578e-07 1.9687064e-08 -3.6074456e-05
000170 00 00 00 00 20 92 1e 36 00 00 00 00 68 74 99 37
       0.0 2.362889e-06 0.0 1.8293227e-05
000180 3d 3d d0 b5 6e d9 e9 b6 16 28 f6 b7 00 00 00 00
       -1.551503e-06 -6.9692533e-06 -2.9344152e-05 0.0
000190 fc ef 07 b4 00 00 00 00 d0 ae 68 37 8d 9e b7 b5
       -1.266016e-07 0.0 1.3868979e-05 -1.3680707e-06
0001a0 b0 26 19 b5 c6 79 1d b8 00 00 00 00 ab ae b6 36
       -5.705324e-07 -3.7545127e-05 0.0 5.4443567e-06
0001b0 00 00 00 00 e0 a6 8b 37 3b 97 cb b5 94 20 91 b6
       0.0 1.6647798e-05 -1.5168692e-06 -4.3251293e-06
0001c0 c6 79 1d b8 00 00 00 00 ab ae b6 36 00 00 00 00
       -3.7545127e-05 0.0 5.4443567e-06 0.0
0001d0 e0 a6 8b 37 3b 97 cb b5 94 20 91 b6 2d 1c 62 b8
       1.6647798e-05 -1.5168692e-06 -4.3251293e-06 -5.390884e-05
0001e0 1c c0 b0 35 21 51 8c b7 00 01 38 b6 19 56 8e b7
       1.3168933e-06 -1.672708e-05 -2.7418719e-06 -1.6967811e-05
0001f0 7b b3 68 b7 00 00 00 00 9b f0 ae b3 00 00 00 00
       -1.3870066e-05 0.0 -8.146272e-08 0.0
000200 4c 16 4c 35 d9 b4 ad b4 7c bf 8b b5 dc 5e 4b b7
       7.602837e-07 -3.2355345e-07 -1.0412036e-06 -1.2121829e-05
000210 00 00 00 00 1d f1 b8 b4 00 00 00 00 55 e6 26 b5
       0.0 -3.4448104e-07 0.0 -6.2174996e-07
000220 64 1a e5 b4 47 24 9d b5 4c a0 68 b7 00 00 00 00
       -4.2673776e-07 -1.170797e-06 -1.38656e-05 0.0
000230 58 fc 28 b4 00 00 00 00 cc fc 2c 35 b6 4b 12 b4
       -1.5738021e-07 0.0 6.444286e-07 -1.3624853e-07
000240 d8 59 d1 b5 d7 69 63 b7 00 00 00 00 55 29 ed b3
       -1.5597861e-06 -1.3554897e-05 0.0 -1.1043691e-07
000250 00 00 00 00 24 c3 15 34 48 fe 3d 32 97 ad e3 b5
       0.0 1.3947698e-07 1.1059065e-08 -1.6963339e-06
000260 5b 83 7e b7 00 00 00 00 dc d9 bd b4 00 00 00 00
       -1.5170163e-05 0.0 -3.5362507e-07 0.0
000270 82 c8 20 36 65 b2 cf b4 2e a4 00 b6 bc 8d 54 b7
       2.3958569e-06 -3.8686554e-07 -1.9169051e-06 -1.2669185e-05
000280 00 00 00 00 43 59 8b 34 00 00 00 00 8f 51 44 35
       0.0 2.5955714e-07 0.0 7.3134373e-07
000290 2c 7e f6 b5 50 f2 50 b6 fa 03 75 b7 00 00 00 00
       -1.8365149e-06 -3.113546e-06 -1.4604064e-05 0.0
0002a0 08 96 5e b5 00 00 00 00 13 34 10 36 ce 51 77 b4
       -8.291977e-07 0.0 2.1487983e-06 -2.3033428e-07
0002b0 34 44 c7 b5 0d 01 4a b7 00 00 00 00 30 cd 29 b5
       -1.4846505e-06 -1.2040383e-05 0.0 -6.3255993e-07
0002c0 00 00 00 00 56 ca 65 35 15 e3 e3 b5 26 17 88 b6
       0.0 8.5603585e-07 -1.6978908e-06 -4.0558107e-06
0002d0 61 67 5b b7 00 00 00 00 4e db 00 b5 00 00 00 00
       -1.3077487e-05 0.0 -4.8002846e-07 0.0
0002e0 83 6b 6c 35 04 f4 60 b5 6f 5e ea b3 41 23 12 b7
       8.80733e-07 -8.380159e-07 -1.09136515e-07 -8.710486e-06
0002f0 00 00 00 00 94 6b 8f b5 00 00 00 00 42 f3 e8 b4
       0.0 -1.068564e-06 0.0 -4.339036e-07
000300 3f 95 5d b6 aa 48 34 b6 c3 e7 71 b7 00 00 00 00
       -3.301844e-06 -2.6864386e-06 -1.4418681e-05 0.0
000310 4f 8c 3e b5 00 00 00 00 9d ea 95 35 9e 59 05 35
       -7.098469e-07 0.0 1.1169647e-06 4.967677e-07
000320 26 e9 02 b4 f8 4f 55 b7 00 00 00 00 90 a4 ac 32
       -1.2192012e-07 -1.27144085e-05 0.0 2.009827e-08
000330 00 00 00 00 a0 98 f1 b4 70 e6 c6 b4 3e 09 d0 b5
       0.0 -4.5000797e-07 -3.704804e-07 -1.5499897e-06
000340 34 71 89 b7 00 00 00 00 d8 19 8f b5 00 00 00 00
       -1.6384387e-05 0.0 -1.0661852e-06 0.0
000350 b6 52 95 36 50 15 0a b5 27 e9 09 b6 5b 64 71 b7
       4.450175e-06 -5.144002e-07 -2.0550303e-06 -1.4388085e-05
000360 00 00 00 00 59 7e 02 34 00 00 00 00 97 9f bb 35
       0.0 1.2153158e-07 0.0 1.3979032e-06
000370 e4 72 2d b5 9f d8 1d b6 68 f8 79 b7 00 00 00 00
       -6.461471e-07 -2.3520913e-06 -1.4899393e-05 0.0
000380 30 31 fc b4 00 00 00 00 82 72 1e 36 c0 04 08 b5
       -4.6974446e-07 0.0 2.3610487e-06 -5.067086e-07
000390 ea 71 0b b6 5a 0b 7d b7 00 00 00 00 94 7c 75 34
       -2.077892e-06 -1.5082618e-05 0.0 2.2862724e-07
0003a0 00 00 00 00 30 01 e7 35 48 0b cd b4 4c ed 24 b6
       0.0 1.7211187e-06 -3.8192434e-07 -2.457603e-06
0003b0 5a 0b 7d b7 00 00 00 00 94 7c 75 34 00 00 00 00
       -1.5082618e-05 0.0 2.2862724e-07 0.0
0003c0 30 01 e7 35 48 0b cd b4 4c ed 24 b6 da 1a bf b6
       1.7211187e-06 -3.8192434e-07 -2.457603e-06 -5.6953695e-06
0003d0 0e 85 bf b6 f9 de 37 b7 11 0d 9e b5 30 bc 62 b7
       -5.707733e-06 -1.0959565e-05 -1.177572e-06 -1.35144655e-05
0003e0 c6 79 7e b7 00 00 00 00 2e 31 ad b5 00 00 00 00
       -1.5167932e-05 0.0 -1.2903818e-06 0.0
0003f0 f1 82 6c b6 5c 47 83 34 f6 b8 81 b5 d2 63 9a b7
       -3.5242958e-06 2.4452572e-07 -9.66508e-07 -1.8404713e-05

exp_avg_sq f4 [128, 124]
000000 3c 08 f8 2f 00 00 00 00 31 c2 2d 2c 00 00 00 00
       4.5116788e-10 0.0 2.4692577e-12 0.0
000010 c7 ac 00 2e a4 52 b9 2c 9a b1 c9 2d a7 62 fb 2f
       2.9257288e-11 5.267191e-12 2.2929925e-11 4.572673e-10
000020 00 00 00 00 be 57 5d 2c 00 00 00 00 1b 85 ea 2d
       0.0 3.1454696e-12 0.0 2.666183e-11
000030 c4 95 da 2c fa 18 ca 2d 36 15 01 30 00 00 00 00
       6.21256e-12 2.2975833e-11 4.696007e-10 0.0
000040 34 01 cf 2b 00 00 00 00 d9 96 e5 2d 57 fd bd 2c
       1.4708569e-12 0.0 2.6101276e-11 5.3998295e-12
000050 87 fb a5 2d c6 7a ee 2f 00 00 00 00 10 44 6c 2c
       1.8870029e-11 4.3379184e-10 0.0 3.35754e-12
000060 00 00 00 00 75 bf 14 2e 8f 58 ea 2c c4 f6 f7 2d
       0.0 3.3821352e-11 6.660512e-12 2.8190235e-11
000070 3b 05 02 30 00 00 00 00 89 23 3e 2c 00 00 00 00
       4.730116e-10 0.0 2.702035e-12 0.0
000080 6e 6a cc 2d e3 ac a1 2c 84 06 a2 2d ab 26 e6 2f
       2.323938e-11 4.5950895e-12 1.8420161e-11 4.1864232e-10
000090 00 00 00 00 bb 59 bf 2c 00 00 00 00 3f e2 f9 2d
       0.0 5.4385086e-12 0.0 2.8408496e-11
0000a0 ec cd 76 2d 98 24 56 2e 1a 12 01 30 00 00 00 00
       1.4029205e-11 4.869047e-11 4.695565e-10 0.0
0000b0 8e 43 38 2c 00 00 00 00 14 7c de 2d 4b ae ac 2c
       2.6185473e-12 0.0 2.529358e-11 4.9078844e-12
0000c0 29 a5 dc 2d a2 1a d2 2f 00 00 00 00 50 d2 00 2d
       2.508445e-11 3.82177e-10 0.0 7.322656e-12
0000d0 00 00 00 00 0b e3 34 2e 4f fb 13 2e 65 72 cf 2e
       0.0 4.1128916e-11 3.3647137e-11 9.433591e-11
0000e0 d0 b2 ec 2f 00 00 00 00 e2 c6 5a 2c 00 00 00 00
       4.3055204e-10 0.0 3.1090065e-12 0.0
0000f0 63 a5 2c 2e 5c ec f6 2c 7d da 4c 2e 15 ce b2 2f
       3.9255165e-11 7.0179817e-12 4.6578286e-11 3.2524441e-10
000100 00 00 00 00 0f a9 4b 2e 00 00 00 00 ab a6 97 2e
       0.0 4.630701e-11 0.0 6.896291e-11
000110 9e a2 16 2e ed 60 a3 2e 03 32 e0 2f 00 00 00 00
       3.4250484e-11 7.429599e-11 4.0780898e-10 0.0
000120 d1 76 32 2c 00 00 00 00 b5 85 95 2e 78 1c 5a 2d
       2.5361278e-12 0.0 6.799487e-11 1.2398187e-11
000130 3a 68 25 2e a4 14 c0 2f 00 00 00 00 73 3e f8 2d
       3.7609228e-11 3.4939263e-10 0.0 2.8222069e-11
000140 00 00 00 00 82 94 8e 2e b1 cc 12 2e 91 0a 9c 2e
       0.0 6.483793e-11 3.337836e-11 7.0959356e-11
000150 83 c1 e9 2f 00 00 00 00 88 6c 11 2c 00 00 00 00
       4.2519951e-10 0.0 2.0665986e-12 0.0
000160 9c 8e d4 2e e6 66 3a 2d 3a be 15 2e 86 41 e8 2f
       9.6659764e-11 1.0595724e-11 3.4047633e-11 4.224711e-10
000170 00 00 00 00 46 ee 11 2d 00 00 00 00 a1 15 80 2e
       0.0 8.295203e-12 0.0 5.824608e-11
000180 97 d6 fb 2c ec ef 82 2e 6a e6 df 2f 00 00 00 00
       7.1576733e-12 5.954334e-11 4.0727183e-10 0.0
000190 63 fd 10 2c 00 00 00 00 f4 b7 96 2e ce 03 23 2d
       2.0604289e-12 0.0 6.853887e-11 9.266322e-12
0001a0 98 d6 3e 2e a6 dc b6 2f 00 00 00 00 b7 f9 af 2d
       4.3391596e-11 3.3262387e-10 0.0 2.0006092e-11
0001b0 00 00 00 00 7c a5 e1 2e e8 6c 2b 2d db 47 86 2e
       0.0 1.0261211e-10 9.744407e-12 6.1063786e-11
0001c0 a6 dc b6 2f 00 00 00 00 b7 f9 af 2d 00 00 00 00
       3.3262387e-10 0.0 2.0006092e-11 0.0
0001d0 7c a5 e1 2e e8 6c 2b 2d db 47 86 2e 25 a6 60 30
       1.0261211e-10 9.744407e-12 6.1063786e-11 8.172683e-10
0001e0 4a 81 6b 30 4a 93 d5 2f 82 a7 57 2e 9f 72 09 30
       8.567623e-10 3.884913e-10 4.9034117e-11 5.0003196e-10
0001f0 4c 76 0a 2e 00 00 00 00 ec 78 d6 2a 00 00 00 00
       3.1482636e-11 0.0 3.8097943e-13 0.0
000200 37 0c bd 2b 08 9c 84 2a f1 6d 9f 2b bc c4 04 2e
       1.3432648e-12 2.355618e-13 1.1328144e-12 3.018806e-11
000210 00 00 00 00 19 84 1a 2b 00 00 00 00 56 59 f4 2b
       0.0 5.4895113e-13 0.0 1.7362038e-12
000220 01 ed 67 2a 2f 62 80 2b 2c 37 0e 2e 00 00 00 00
       2.0599149e-13 9.122198e-13 3.2336064e-11 0.0
000230 45 28 e2 2a 00 00 00 00 46 90 cf 2b 8c 40 8d 2a
       4.0173607e-13 0.0 1.4748279e-12 2.509142e-13
000240 ea a6 70 2b 47 2d 0b 2e 00 00 00 00 7e b3 16 2b
       8.549677e-13 3.1645155e-11 0.0 5.35398e-13
000250 00 00 00 00 84 65 04 2c 1a b7 7a 2a 82 3d 85 2b
       0.0 1.881468e-12 2.2267987e-13 9.46729e-13
000260 e2 e5 17 2e 00 00 00 00 1c 54 51 2b 00 00 00 00
       3.4537602e-11 0.0 7.436844e-13 0.0
000270 8f e3 9e 2b 04 0b b1 2a ce c6 92 2b 10 91 0b 2e
       1.1289735e-12 3.144916e-13 1.0429103e-12 3.1733782e-11
000280 00 00 00 00 c5 65 21 2b 00 00 00 00 c0 ad 1b 2c
       0.0 5.7339924e-13 0.0 2.2123275e-12
000290 1c 87 e9 2a 77 5f d6 2b 54 df 19 2e 00 00 00 00
       4.1482865e-13 1.5232111e-12 3.4986528e-11 0.0
0002a0 8e ff f7 2a 00 00 00 00 1e fe a4 2b 1b 88 87 2a
       4.405334e-13 0.0 1.1723433e-12 2.407526e-13
0002b0 c6 1c a5 2b ca 1e fc 2d 00 00 00 00 c5 e8 6e 2b
       1.1731941e-12 2.8662756e-11 0.0 8.487762e-13
0002c0 00 00 00 00 30 97 26 2c d5 19 ab 2b c5 af 42 2c
       0.0 2.3673945e-12 1.2157451e-12 2.766663e-12
0002d0 b7 a6 0f 2e 00 00 00 00 80 58 1a 2b 00 00 00 00
       3.2662508e-11 0.0 5.483461e-13 0.0
0002e0 4f 4a bc 2b 33 8d ff 2a 3b 67 10 2c d4 e5 e9 2d
       1.3378828e-12 4.5395076e-13 2.0520935e-12 2.6591097e-11
0002f0 00 00 00 00 b4 55 87 2b 00 00 00 00 c8 02 8c 2c
       0.0 9.616114e-13 0.0 3.979348e-12
000300 8a be c5 2b d9 c7 28 2c 35 17 14 2e 00 00 00 00
       1.4050577e-12 2.3985174e-12 3.3671916e-11 0.0
000310 fa 40 4e 2b 00 00 00 00 65 b0 fa 2b 05 21 fc 2a
       7.3276075e-13 0.0 1.7812528e-12 4.4787104e-13
000320 c7 7b ae 2b 09 3d 01 2e 00 00 00 00 38 a0 73 2b
       1.2397799e-12 2.9385414e-11 0.0 8.655329e-13
000330 00 00 00 00 e2 3c a2 2c 89 e4 25 2b ee cf 0e 2c
       0.0 4.6110763e-12 5.893693e-13 2.0294838e-12
000340 7b cd 16 2e 00 00 00 00 1e db 11 2b 00 00 00 00
       3.4288555e-11 0.0 5.1818435e-13 0.0
000350 51 ee 1b 2c 74 27 27 2b 80 58 bf 2b 23 90 18 2e
       2.2159117e-12 5.938507e-13 1.359593e-12 3.4688818e-11
000360 00 00 00 00 7c 75 2e 2b 00 00 00 00 74 33 76 2c
       0.0 6.198026e-13 0.0 3.4987265e-12
000370 7a 55 ac 2a 9c 68 0c 2c 0a 0a 13 2e 00 00 00 00
       3.061265e-13 1.9953266e-12 3.3432847e-11 0.0
000380 e3 56 04 2b 00 00 00 00 b3 c4 38 2c d3 97 b3 2a
       4.70164e-13 0.0 2.6257163e-12 3.1902137e-13
000390 14 e0 dc 2b 9d ad 01 2e 00 00 00 00 27 c9 74 2b
       1.5694134e-12 2.9485404e-11 0.0 8.696537e-13
0003a0 00 00 00 00 03 cd aa 2c a0 dc f7 2a ad a9 14 2c
       0.0 4.8544515e-12 4.4029103e-13 2.1126254e-12
0003b0 9d ad 01 2e 00 00 00 00 27 c9 74 2b 00 00 00 00
       2.9485404e-11 0.0 8.696537e-13 0.0
0003c0 03 cd aa 2c a0 dc f7 2a ad a9 14 2c 57 7f bf 2e
       4.8544515e-12 4.4029103e-13 2.1126254e-12 8.7082945e-11
0003d0 a0 81 e0 2e ab 64 fb 2d b9 47 78 2c 2c fb 21 2e
       1.0209367e-10 2.8580102e-11 3.5282734e-12 3.6830247e-11
0003e0 70 b7 a3 2f 00 00 00 00 96 05 ae 2c 00 00 00 00
       2.9779867e-10 0.0 4.9459976e-12 0.0
0003f0 b7 ff 3e 2d a9 fe bb 2c c2 26 70 2d 04 76 a4 2f
       1.085703e-11 5.3431326e-12 1.36510265e-11 2.991528e-10

exp_avg f4 [128]
000000 74 5a 8e b7 9d bd 62 b7 30 93 a5 b7 7f 0e a8 36
       -1.696984e-05 -1.35147975e-05 -1.9738072e-05 5.0084777e-06
000010 6a 76 35 b8 28 1f cb b4 4a 87 1e 36 f2 9e 51 35
       -4.3264045e-05 -3.7834366e-07 2.3622583e-06 7.8089863e-07
000020 18 37 c0 36 92 e7 54 36 24 9b 02 38 8e 8b c5 b6
       5.7284597e-06 3.1725253e-06 3.11389e-05 -5.887304e-06
000030 a8 b2 d6 33 06 a8 a2 37 db 64 8b 36 dc 4f 47 b7
       9.997649e-08 1.9390147e-05 4.154264e-06 -1.1879918e-05
000040 18 d3 3e b7 3e 25 f9 b6 70 04 dc b4 90 54 50 37
       -1.1374032e-05 -7.425114e-06 -4.0981422e-07 1.2417455e-05
000050 78 2f 1d 38 0d 9e b3 37 5c fa d0 37 2c a9 36 b6
       3.7475926e-05 2.1412061e-05 2.4912115e-05 -2.7218584e-06
000060 bc 47 a4 b7 79 f3 41 b7 ec 46 67 b6 88 f5 0a 36
       -1.9583727e-05 -1.1560384e-05 -3.4462964e-06 2.070652e-06
000070 3e 3b 3c 36 97 bd 92 b6 08 e9 6b b7 47 4e 04 b7
       2.8048667e-06 -4.3732102e-06 -1.4061348e-05 -7.8860385e-06
000080 40 a8 48 37 5e e5 ef 36 70 3b 2c 36 ae 9e 1f b6
       1.1960103e-05 7.149457e-06 2.5664594e-06 -2.378521e-06
000090 5c f9 3d 37 1c 6c 23 b7 d0 a2 a1 37 b9 66 cc 37
       1.1323336e-05 -9.740728e-06 1.9268511e-05 2.4366529e-05
0000a0 f8 57 b2 37 fb ec 8c b7 38 98 a2 b7 ed d4 93 b7
       2.1260217e-05 -1.6799653e-05 -1.9382787e-05 -1.7622917e-05
0000b0 90 59 83 36 fc 88 e6 37 40 24 af b7 12 dd 6e b6
       3.9145307e-06 2.7481925e-05 -2.0878506e-05 -3.5593443e-06
0000c0 de 62 79 37 98 f4 a7 37 f0 dc f8 b7 48 50 44 38
       1.4864576e-05 2.002185e-05 -2.9666786e-05 4.680481e-05
0000d0 4c 4d 30 37 b1 66 fd 36 92 58 44 b7 1c de 5d b5
       1.0508415e-05 7.5519424e-06 -1.1703132e-05 -8.265213e-07
0000e0 60 1f c7 b6 ed a1 c4 36 2f bc e7 37 34 75 18 b8
       -5.9343147e-06 5.860106e-06 2.7624976e-05 -3.6348778e-05
0000f0 e2 54 46 37 c2 75 6b 37 94 fb d2 b7 70 5e 10 38
       1.1821483e-05 1.4034509e-05 -2.5151101e-05 3.4420227e-05
000100 9a 0e 66 b8 6e 81 04 b7 1e 50 93 36 81 ea a8 b7
       -5.4849872e-05 -7.897948e-06 4.3902683e-06 -2.013636e-05
000110 fe d0 35 36 ab 3d ea 37 6e eb 07 37 84 06 b4 b7
       2.7092751e-06 2.792369e-05 8.101442e-06 -2.1460706e-05
000120 fa dc 57 b6 9e f8 26 b7 1c 7e 1f b7 1e 8c bc b6
       -3.2166122e-06 -9.952257e-06 -9.506501e-06 -5.6191484e-06
000130 dd d6 8b 37 1f f7 a7 b7 8b 6f 01 37 c3 2d 47 37
       1.6670145e-05 -2.0023026e-05 7.71497e-06 1.1871979e-05
000140 08 29 a7 b7 b9 3d 94 37 47 bb 57 37 20 a7 5c 37
       -1.9927058e-05 1.7671717e-05 1.28586025e-05 1.3151934e-05
000150 45 39 62 b7 7e 76 36 b8 e4 aa 4e b6 70 14 09 b5
       -1.3483984e-05 -4.3502536e-05 -3.0795863e-06 -5.106622e-07
000160 43 2c b0 37 75 66 9f 37 97 ce 5b 37 31 0d 48 38
       2.1001446e-05 1.9001987e-05 1.3101518e-05 4.7696e-05
000170 71 73 38 b8 2e b9 b9 37 cd 8e 26 b8 a5 85 66 b6
       -4.397653e-05 2.213995e-05 -3.9710478e-05 -3.4350462e-06
000180 24 57 ac 37 b6 7c b7 37 5c ba ab 34 f7 0d 83 37
       2.0544576e-05 2.1873373e-05 3.1986826e-07 1.562292e-05
000190 97 71 ea b7 ad 82 82 37 3a 45 96 36 07 68 e8 36
       -2.7947868e-05 1.5558058e-05 4.4784074e-06 6.926249e-06
0001a0 af d4 13 b7 4c c0 8e 37 1d 11 76 37 7f 91 c4 36
       -8.811402e-06 1.7017264e-05 1.4666727e-05 5.858193e-06
0001b0 22 e4 4c b6 d4 b0 47 38 7a 0f 3a b6 12 1f b9 b7
       -3.053116e-06 4.760998e-05 -2.7725168e-06 -2.2068187e-05
0001c0 63 b0 11 37 ea 98 5e b6 5f c1 d9 37 ea e3 d1 b6
       8.683742e-06 -3.3169586e-06 2.5958461e-05 -6.255218e-06
0001d0 3c 2d 56 37 75 51 a1 36 51 79 bd 36 0a 3a c0 36
       1.2765926e-05 4.8076568e-06 5.646762e-06 5.7288025e-06
0001e0 9c 13 53 37 50 67 5b 37 60 f3 93 37 1a 78 32 b8
       1.2581146e-05 1.30774715e-05 1.7637096e-05 -4.255036e-05
0001f0 1a b8 a2 b7 6e 16 8c 35 5c df 6d 37 5e 8f 6f b7
       -1.9397634e-05 1.0437341e-06 1.4178306e-05 -1.427889e-05

exp_avg_sq f4 [128]
000000 dd 5f 09 30 e7 43 23 2e 8d 7d ad 2f ad 8a 1b 2f
       4.997654e-10 3.712222e-11 3.1557726e-10 1.4146435e-10
000010 9c 11 95 30 55 20 60 2f 21 fd a8 2f f6 69 d6 2e
       1.0846182e-09 2.0384168e-10 3.073888e-10 9.750416e-11
000020 ad 8e 07 2f f1 35 a8 2d c9 2f 8a 30 2c ab 87 2e
       1.2328867e-10 1.9123344e-11 1.0054403e-09 6.1694955e-11
000030 4e 58 16 2e 73 44 84 2f d3 7a cb 2f a1 72 5e 2f
       3.418448e-11 2.4059296e-10 3.7012757e-10 2.0231507e-10
000040 f0 8f 91 2e 20 0a 19 31 a5 10 0c 2f 95 81 8d 2f
       6.619405e-11 2.2270186e-09 1.2738839e-10 2.5739824e-10
000050 90 60 49 30 15 4e 9a 30 2b a9 c2 2f 85 cb 53 2e
       7.32606e-10 1.1227167e-09 3.5408596e-10 4.8156607e-11
000060 14 da fe 2f af 57 ba 2e c5 7a b8 2f 61 23 be 2e
       4.6357285e-10 8.4738765e-11 3.3556638e-10 8.646484e-11
000070 f3 d7 e8 2f 8b 6c 31 2f 4a c5 2b 30 6f a3 1c 30
       4.2353995e-10 1.6136618e-10 6.24898e-10 5.698472e-10
000080 49 ef 6c 2f b4 f6 21 30 b6 0d da 2f cb b8 05 2e
       2.1549086e-10 5.8922045e-10 3.966371e-10 3.0404828e-11
000090 cc d3 7a 30 13 48 a8 2f 81 72 d2 2f 63 14 fb 30
       9.125045e-10 3.0610234e-10 3.8280137e-10 1.8268448e-09
0000a0 4e d2 90 30 58 76 ca 2e 3e 23 d6 2f 33 47 19 2f
       1.0537151e-09 9.2069186e-11 3.8951414e-10 1.3940564e-10
0000b0 86 a6 65 2e 1f 34 8d 30 74 33 8a 30 b8 37 37 2f
       5.2216474e-11 1.0273914e-09 1.0055445e-09 1.6663548e-10
0000c0 a0 fb 26 30 5c f4 0b 30 5e c4 05 30 ad 76 40 30
       6.074803e-10 5.091516e-10 4.866417e-10 7.001784e-10
0000d0 84 ba b6 2f 05 8e 51 30 67 dc 29 2f c7 3d da 2d
       3.3238134e-10 7.623558e-10 1.5448763e-10 2.4811165e-11
0000e0 6e b7 9c 30 10 70 a3 2e cb f6 8b 30 c8 3c da 2f
       1.1402628e-09 7.432288e-11 1.0183724e-09 3.9697157e-10
0000f0 e7 a9 f6 2e c8 ae 04 2f d6 90 c9 30 db 21 14 31
       1.12169656e-10 1.2067425e-10 1.466584e-09 2.155608e-09
000100 ad 03 b5 30 66 56 83 2e 3e 9c 9a 2e d0 e9 da 2f
       1.3170528e-09 5.972538e-11 7.0308634e-11 3.9820103e-10
000110 f0 79 67 2f 7a 62 00 30 3d 80 af 2f f8 7f ee 2f
       2.1052649e-10 4.670607e-10 3.1923433e-10 4.3382875e-10
000120 b6 a8 6c 2e 86 46 8b 2f 8e 0f 48 2f e0 9c aa 30
       5.3810033e-11 2.5334063e-10 1.819542e-10 1.2413715e-09
000130 dc 59 6f 2f bd 66 2f 30 9d 71 16 30 cb 75 05 30
       2.1768848e-10 6.381063e-10 5.4731136e-10 4.855251e-10
000140 53 37 37 30 0e 94 3f 31 7f 92 b1 30 8b 1a 87 2f
       6.665363e-10 2.7878317e-09 1.2920082e-09 2.4575217e-10
000150 a2 8a a5 2f a5 b6 56 30 0a 69 b4 2f b6 cc 48 2f
       3.011183e-10 7.81123e-10 3.2816444e-10 1.8262622e-10
000160 4c b3 c7 30 06 59 fb 2e 7c 55 bd 2f 4b ee c0 30
       1.4530115e-09 1.1429972e-10 3.443964e-10 1.4037566e-09
000170 37 e4 a4 2f 4e 87 6c 30 bc 9d 27 30 1c dc 72 2e
       2.9993583e-10 8.604858e-10 6.09784e-10 5.5219926e-11
000180 28 72 56 2f 77 d4 c0 2f 52 f5 d3 2d 5e 6d e4 2e
       1.9503743e-10 3.5075562e-10 2.4096867e-11 1.0387667e-10
000190 1c 30 7d 30 71 4a be 2e 75 56 91 2f 55 73 8a 2f
       9.210923e-10 8.653423e-11 2.6436778e-10 2.5184002e-10
0001a0 7a e4 d7 2e f1 67 65 2f 87 ac 69 30 c4 fa dd 2f
       9.8176536e-11 2.0864356e-10 8.501008e-10 4.0377846e-10
0001b0 e6 a1 d6 2e 5d 70 15 30 e8 92 70 2f 2f 13 aa 2f
       9.760352e-11 5.436556e-10 2.1880064e-10 3.093645e-10
0001c0 75 e9 59 2f e3 37 c5 2e 08 26 4d 2f 3a 4f 85 2f
       1.9818976e-10 8.96845e-11 1.8658153e-10 2.4248853e-10
0001d0 ac 6c 46 2f ef f8 b3 2f e1 5c a3 2e fb ed d7 2e
       1.8046603e-10 3.2736788e-10 7.4288804e-11 9.819342e-11
0001e0 98 87 b2 2f 5c 5b 8f 2f 79 bb da 30 ec 20 61 30
       3.2474357e-10 2.6076463e-10 1.591487e-09 8.190131e-10
0001f0 0d 34 d5 2f 18 da c1 2e e5 c7 a5 2f d5 f8 de 2e
       3.8781459e-10 8.815365e-11 3.015536e-10 1.01395926e-10
