results/wonderAgent03/WonderAgentHealing/WonderAgentHealing-19861.onnx (onnx, 133436 bytes, 7 tensors)

action_model._continuous_distribution.log_sigma f4 [1, 3]
000000 00 00 00 00 00 00 00 00 00 00 00 00
       0.0 0.0 0.0

action_model._continuous_distribution.mu.bias f4 [3]
000000 00 00 00 00 00 00 00 00 00 00 00 00
       0.0 0.0 0.0

action_model._continuous_distribution.mu.weight f4 [3, 128]
000000 3d b7 74 3b 57 52 1e 3c 23 ad 7a 3c ef 2c ee ba
       0.0037340664 0.009663186 0.015300068 -0.001817135
000010 1a b3 85 bc d2 fa c5 bb c5 8f 80 3c 42 e6 7a 3b
       -0.016320754 -0.006041863 0.015693555 0.0038284217
000020 ed 0c a2 bb 1f b6 01 3d 87 c0 c1 3c de d6 a2 bc
       -0.0049453885 0.031667825 0.023651375 -0.019877847
000030 5b 96 f7 3a af 78 25 bd ef 61 7f bc 83 33 9e 3c
       0.0018889414 -0.040398296 -0.015587314 0.019311672
000040 8f 2d 92 bc 7b 1a c1 bb 07 ab 38 38 cd 32 f9 3c
       -0.01784399 -0.0058930493 4.40283e-05 0.030419732
000050 18 48 a0 bc 06 b5 26 3c c2 db eb 3c 7d a5 ac ba
       -0.019565627 0.010174995 0.028791312 -0.0013171878
000060 6b 13 49 3c d8 52 83 3c 7c 67 11 bd c3 35 b1 ba
       0.012272696 0.016030714 -0.03549908 -0.001352005
000070 bb c5 66 3c b8 6c f5 3c bb 0d 4f 3c 7d 9f fd bb
       0.014085229 0.029959068 0.012637551 -0.0077399598
000080 40 e0 c6 3c 0f fb a6 3c 71 2f 88 3c 9b 6a 1e 3c
       0.024276853 0.020383386 0.016624184 0.009668971
000090 3b 7a 00 3d bc ef 9a bb 59 af 91 3a 9b cd 16 bb
       0.031366568 -0.0047282856 0.001111488 -0.0023010734
0000a0 16 b1 a5 3b 86 6b bd bb ad 35 59 3c ae af 96 bc
       0.0050565107 -0.00578064 0.013257426 -0.018394317
0000b0 3d 55 6a bb 06 ab 2a bc e5 9a be bc 0a 84 c7 bc
       -0.0035756372 -0.010416752 -0.023267219 -0.024354953
0000c0 27 51 0a bc 30 56 85 bc db c7 83 3b 27 19 fc bc
       -0.0084422 -0.016276449 0.0040216274 -0.030773712
0000d0 eb 29 e9 bc ca 4f af bc fd c7 be bc a3 3c 21 3c
       -0.02846237 -0.021400351 -0.023288721 0.009841117
0000e0 15 28 f6 bb a6 91 42 3c 47 03 31 bc 03 52 77 3c
       -0.0075121024 0.011875546 -0.010804004 0.015095237
0000f0 9f ea d7 bc f2 12 91 bb 02 55 8d 3b 03 7d 70 bc
       -0.026356993 -0.0044273073 0.0043131122 -0.014678243
000100 63 4e 9f bb 06 c7 c3 bc 57 56 21 3d dd 4a 2d 3c
       -0.0048616393 -0.023898613 0.03938898 0.010576931
000110 a9 fa bb bc 7a e7 90 bc d5 64 df bc e0 05 12 bc
       -0.022946673 -0.017688502 -0.02726976 -0.0089125335
000120 0a 6a 7a bb 0d 7b bf 3b 6d ef 0d bb f4 db 90 3c
       -0.0038210177 0.005843526 -0.0021657601 0.017683007
000130 6e 6f 8c bc b0 f9 70 bc a7 f3 21 3c 17 8e 96 bc
       -0.017142978 -0.014707968 0.009884751 -0.0183783
000140 17 c4 8b ba 93 93 0f 3d e4 bf ae b8 6b b8 30 bb
       -0.0010663298 0.035052847 -8.332709e-05 -0.002696539
000150 0c 22 2e 3a 7b b8 0d bd db c9 9f bc 4d 02 df 3b
       0.00066426466 -0.034599762 -0.019505432 0.006805694
000160 02 c4 5f 3b 67 29 fe 3b 76 b0 c3 3a 2f 68 ae 3c
       0.003414393 0.0077564004 0.0014929909 0.021289913
000170 bf 43 31 bc 93 2f 44 3c 16 7b 39 3c c3 bb be bc
       -0.010819375 0.011974233 0.01132085 -0.023282891
000180 8f fb 86 3b bf 4d eb bb 96 e3 16 bc bf a1 ca 3c
       0.0041193436 -0.007180899 -0.009209534 0.02473533
000190 ea 08 f4 3c e5 55 cc bb 18 10 74 3c 00 c6 b3 bc
       0.029789407 -0.0062358254 0.014896415 -0.021945
0001a0 f1 f6 9a 39 16 9a a1 ba 28 84 f5 bb b0 5c 16 bc
       0.00029557155 -0.0012329246 -0.007492561 -0.009177372
0001b0 b1 74 96 bb 6a 38 3c 3c 18 00 45 bc bf fd b4 bb
       -0.0045915474 0.01148806 -0.012023948 -0.005523413
0001c0 2f b7 22 bc 0d 5c 21 3d 10 88 73 ba e4 44 b8 bb
       -0.00993137 0.039394427 -0.0009289989 -0.005623447
0001d0 7d ec c4 3b bd 89 d4 3b 93 e9 f2 3c e8 e3 3f 3c
       0.006009637 0.0064861462 0.029652392 0.011712052
0001e0 91 76 8b 3c 23 4c 94 bc 5f 58 ab 3c 2c 6b 43 3c
       0.01702431 -0.018102711 0.020916162 0.011927407
0001f0 6d 58 d7 bc 7b 07 97 ba 08 75 1e bc a4 ab 21 bc
       -0.026287282 -0.0011522615 -0.009671457 -0.0098675825
000200 a0 9a a0 3c 9b bc 0e 3d b6 fe 8f 3c dc 5e 06 3c
       0.019604981 0.034847837 0.01757751 0.008201327
000210 2f a9 93 3c c9 ff 43 bc a7 29 6f bc a0 fc 98 3a
       0.018025009 -0.011962839 -0.014597333 0.0011671968
000220 b4 27 a4 3c 23 a1 7c 3a d8 eb 13 3c c3 d6 8a 3b
       0.020038463 0.00096370484 0.0090283975 0.0042370274
000230 80 3c 5e bc b3 5a 55 bb f7 fb 1b 3b 3f c6 ff 3b
       -0.013564229 -0.0032555282 0.0023801306 0.007805615
000240 a9 ad 88 3c 33 43 fa 3b 1a 1e ed ba 0d 60 17 bc
       0.01668437 0.0076374053 -0.0018090636 -0.009239209
000250 ff 75 28 bc 02 c8 ef 3c 27 06 9c 3c 4b ae 36 bc
       -0.010282039 0.029270176 0.019045902 -0.011149953
000260 3f c9 3e bc cd 0b dc bc d5 7c dd bb 87 9e 63 3c
       -0.0116446605 -0.026861096 -0.006759266 0.013892776
000270 eb 26 d6 3b a2 8d b3 bb 79 67 81 bd ef 42 3b bd
       0.006535401 -0.0054795304 -0.06318564 -0.04571813
000280 3f 9d 7c 3c 75 a3 d7 bb 82 e0 03 bc 2a 3f 88 3c
       0.01541835 -0.006580765 -0.008049132 0.016631681
000290 5f 89 8e 3b af fd 52 bc 77 3d 13 3d 57 5c 19 3c
       0.004349872 -0.012877866 0.03594729 0.009360394
0002a0 37 d7 dc bc 0a 3d 64 bc 0b 60 28 3c aa c5 bb bc
       -0.026958091 -0.0139305685 0.010276805 -0.022921402
0002b0 87 57 4e 3c 1b 51 b8 3c 3f 77 b4 bc 08 f9 09 3c
       0.01259411 0.022499612 -0.022029517 0.00842119
0002c0 d7 f3 fb 3b 08 4a d0 3b 48 16 66 bc 1c 0f 14 3c
       0.00768898 0.0063564815 -0.014043398 0.0090368055
0002d0 2f 49 c1 3b ff 4d f7 3b 00 6c c0 bb 0e 6f 11 bb
       0.0058986167 0.0075471397 -0.0058722496 -0.0022191438
0002e0 43 3e fd 3b 51 46 15 3c 48 6e ef 3c 2d 68 af 3c
       0.0077283694 0.009111003 0.02922739 0.02141198
0002f0 af 85 0d bd eb b5 26 bc 36 ed 03 3d a8 4c fe ba
       -0.03455132 -0.010175209 0.032208644 -0.0019401507
000300 7a 0a aa 3c 9d b3 de bc 8b dc 92 3c b8 1f 5f bc
       0.020756949 -0.027185256 0.017927429 -0.013618402
000310 97 43 c3 bb 5c e6 a1 bc 9d 5e d4 bc c3 a5 4a bc
       -0.005958985 -0.019763164 -0.025924021 -0.012368622
000320 32 e6 6c bc 63 35 87 bb 67 14 08 3c 5d d9 8f 3b
       -0.01445918 -0.0041262372 0.008305646 0.0043899254
000330 9d e7 8d 3c 9f a0 e6 bb 17 c6 5d 3d cd a8 03 3c
       0.017322356 -0.0070381905 0.05414399 0.008035851
000340 6f e8 10 3c b4 c8 30 3b 94 85 b4 bc ed 44 6c 3a
       0.008844479 0.0026975097 -0.022036351 0.0009012956
000350 b2 39 ed bb 0d 4e e9 3b 10 18 87 bc 43 8c 30 3c
       -0.007239544 0.0071199 -0.016490966 0.0107756285
000360 05 fc 8a 3c 37 18 a7 bb 27 52 33 3c 02 ee 8b bc
       0.016965875 -0.005099322 0.01094488 -0.017081264
000370 63 9a ab bc 4e 4c 09 3c 85 27 1e bc 43 f3 f1 bb
       -0.02094764 0.008380009 -0.009652977 -0.0073837354
000380 73 95 ac bc 8f 26 fa 3b 0a 76 36 bb 40 66 69 3b
       -0.021067357 0.007633991 -0.0027841353 0.0035613924
000390 06 6d 35 3a 6b d4 b0 3c 77 f0 b9 3c 1d bc df ba
       0.0006920848 0.021585664 0.02269767 -0.0017069612
0003a0 eb d1 12 bc 67 8b a3 3c 70 19 dc bc 7c f9 af bc
       -0.008961181 0.019963933 -0.026867598 -0.021481268
0003b0 8b a1 0b bc 53 2d b4 bc 8a 75 c7 3b e9 b8 32 bc
       -0.008522402 -0.021994269 0.00608701 -0.010908344
0003c0 7b c6 86 bb e5 8f 06 3c fd 04 97 3c d6 59 a8 3c
       -0.004113016 0.008213018 0.018434996 0.02055065
0003d0 82 26 86 bc a8 f2 25 bd e1 d1 c8 3b 57 fb 20 bc
       -0.016375784 -0.04051462 0.006128535 -0.009825549
0003e0 8a 54 2a bb 1d 6d b4 bc e9 18 82 bb 1f df 30 bd
       -0.002599033 -0.022024686 -0.0039702547 -0.043181535
0003f0 23 4b fc bc 96 24 1b 3c b7 f0 31 bc d2 64 0d bd
       -0.030797547 0.009469172 -0.010860614 -0.034519978

network_body._body_endoder.seq_layers.0.bias f4 [128]
000000 00 00 00 00 00 00 00 00 00 00 00 00 00 00 00 00
       0.0 0.0 0.0 0.0
000010 00 00 00 00 00 00 00 00 00 00 00 00 00 00 00 00
       0.0 0.0 0.0 0.0
000020 00 00 00 00 00 00 00 00 00 00 00 00 00 00 00 00
       0.0 0.0 0.0 0.0
000030 00 00 00 00 00 00 00 00 00 00 00 00 00 00 00 00
       0.0 0.0 0.0 0.0
000040 00 00 00 00 00 00 00 00 00 00 00 00 00 00 00 00
       0.0 0.0 0.0 0.0
000050 00 00 00 00 00 00 00 00 00 00 00 00 00 00 00 00
       0.0 0.0 0.0 0.0
000060 00 00 00 00 00 00 00 00 00 00 00 00 00 00 00 00
       0.0 0.0 0.0 0.0
000070 00 00 00 00 00 00 00 00 00 00 00 00 00 00 00 00
       0.0 0.0 0.0 0.0
000080 00 00 00 00 00 00 00 00 00 00 00 00 00 00 00 00
       0.0 0.0 0.0 0.0
000090 00 00 00 00 00 00 00 00 00 00 00 00 00 00 00 00
       0.0 0.0 0.0 0.0
0000a0 00 00 00 00 00 00 00 00 00 00 00 00 00 00 00 00
       0.0 0.0 0.0 0.0
0000b0 00 00 00 00 00 00 00 00 00 00 00 00 00 00 00 00
       0.0 0.0 0.0 0.0
0000c0 00 00 00 00 00 00 00 00 00 00 00 00 00 00 00 00
       0.0 0.0 0.0 0.0
0000d0 00 00 00 00 00 00 00 00 00 00 00 00 00 00 00 00
       0.0 0.0 0.0 0.0
0000e0 00 00 00 00 00 00 00 00 00 00 00 00 00 00 00 00
       0.0 0.0 0.0 0.0
0000f0 00 00 00 00 00 00 00 00 00 00 00 00 00 00 00 00
       0.0 0.0 0.0 0.0
000100 00 00 00 00 00 00 00 00 00 00 00 00 00 00 00 00
       0.0 0.0 0.0 0.0
000110 00 00 00 00 00 00 00 00 00 00 00 00 00 00 00 00
       0.0 0.0 0.0 0.0
000120 00 00 00 00 00 00 00 00 00 00 00 00 00 00 00 00
       0.0 0.0 0.0 0.0
000130 00 00 00 00 00 00 00 00 00 00 00 00 00 00 00 00
       0.0 0.0 0.0 0.0
000140 00 00 00 00 00 00 00 00 00 00 00 00 00 00 00 00
       0.0 0.0 0.0 0.0
000150 00 00 00 00 00 00 00 00 00 00 00 00 00 00 00 00
       0.0 0.0 0.0 0.0
000160 00 00 00 00 00 00 00 00 00 00 00 00 00 00 00 00
       0.0 0.0 0.0 0.0
000170 00 00 00 00 00 00 00 00 00 00 00 00 00 00 00 00
       0.0 0.0 0.0 0.0
000180 00 00 00 00 00 00 00 00 00 00 00 00 00 00 00 00
       0.0 0.0 0.0 0.0
000190 00 00 00 00 00 00 00 00 00 00 00 00 00 00 00 00
       0.0 0.0 0.0 0.0
0001a0 00 00 00 00 00 00 00 00 00 00 00 00 00 00 00 00
       0.0 0.0 0.0 0.0
0001b0 00 00 00 00 00 00 00 00 00 00 00 00 00 00 00 00
       0.0 0.0 0.0 0.0
0001c0 00 00 00 00 00 00 00 00 00 00 00 00 00 00 00 00
       0.0 0.0 0.0 0.0
0001d0 00 00 00 00 00 00 00 00 00 00 00 00 00 00 00 00
       0.0 0.0 0.0 0.0
0001e0 00 00 00 00 00 00 00 00 00 00 00 00 00 00 00 00
       0.0 0.0 0.0 0.0
0001f0 00 00 00 00 00 00 00 00 00 00 00 00 00 00 00 00
       0.0 0.0 0.0 0.0

network_body._body_endoder.seq_layers.0.weight f4 [128, 124]
000000 16 9c e9 bd ff d2 b8 bd 9d cc c4 ba 6c 30 a5 bd
       -0.11406724 -0.09024619 -0.0015014593 -0.08065876
000010 de 22 1d be d6 56 2c 3e 99 e9 b3 bd 0f 79 c3 3c
       -0.15345332 0.1683 -0.087847896 0.023861436
000020 b9 5e 4b bd 08 2a 1b be e4 49 1b be 05 91 bf 3c
       -0.04965088 -0.15152752 -0.15164906 0.02338458
000030 b7 71 26 be 18 92 bf 3d 5b 68 9e 3d 73 cd 00 bd
       -0.16254316 0.09354037 0.07734748 -0.03144593
000040 4b b0 d3 3d 40 48 15 bd d5 ed bd 3c fd d7 ac 3d
       0.103363596 -0.036445856 0.023184696 0.08439634
000050 85 90 96 3d d3 e0 b5 3d eb 04 23 3d 4d cd d2 bc
       0.07351784 0.088807724 0.039799612 -0.02573266
000060 93 04 46 3d ee 39 bf bd 24 8c a0 bd 55 fc 65 bd
       0.048344206 -0.09337221 -0.0783923 -0.056148846
000070 35 d1 72 3d 17 99 69 3c 7b 0a 7f 3d 53 33 0f bd
       0.059281547 0.014257691 0.062265854 -0.034961056
000080 b7 2d 49 bd 42 55 59 bd 53 6f 80 bd 34 aa 48 3c
       -0.049115863 -0.053059824 -0.062712334 0.012247611
000090 f8 8c b2 bc ae 14 8b bd 02 3f 0f bd 1c 1d ab 3c
       -0.021795735 -0.06791054 -0.0349722 0.020887904
0000a0 00 88 69 be 3b 28 c2 bd c0 0f 26 3d b6 3d c6 3c
       -0.22805786 -0.094803296 0.040542364 0.024199348
0000b0 b3 6e 18 3e 4b 14 6a bc d8 7b 6e 3d f5 6d 4c bd
       0.14885978 -0.014287065 0.058223575 -0.04990955
0000c0 d8 6a f9 3c dd 2a 90 bd 09 2a 24 bd a4 3a 13 3e
       0.030446455 -0.070394255 -0.04007915 0.14377838
0000d0 6b b1 e8 bd 00 f3 a2 3d b2 8f 7b bd 04 f7 e7 bb
       -0.11361965 0.07956505 -0.061416335 -0.007079007
0000e0 ea c7 3c bd eb 35 f5 3c 22 f7 8a 3c 31 9a 36 3c
       -0.04608909 0.029932937 0.016963545 0.0111451605
0000f0 45 cf 97 3d 46 e8 35 3d 8e 40 f9 3c c8 ff d6 3b
       0.074125804 0.044410966 0.03042629 0.006561253
000100 b7 dc 8a bd 72 d1 85 bd b0 7d 1e be f8 30 33 3c
       -0.06780379 -0.06534089 -0.15477633 0.010936968
000110 40 1b 1f be b9 03 81 bc a7 82 57 bd d6 d9 bb 3b
       -0.15537739 -0.015748845 -0.052614834 0.005732755
000120 60 ac 90 3e b8 a6 37 bd f0 86 72 bd dd 9c a7 bd
       0.28256512 -0.04483673 -0.059210718 -0.08184216
000130 e3 f2 28 3d 54 f9 80 3d 84 17 1f be a0 41 16 3d
       0.04124726 0.062975556 -0.15536314 0.03668368
000140 e8 af 81 bd 37 7e 04 be 73 49 3d bd 6b 17 e6 3c
       -0.063323796 -0.12938772 -0.046212625 0.028087338
000150 e7 4a 0c be ac f7 5e bd b6 58 13 be 8c a4 4a 3c
       -0.13700448 -0.054435417 -0.1438931 0.012368333
000160 ae 9c 84 3d 17 10 05 3e 52 e8 48 3d c8 41 a7 bd
       0.06475197 0.12994419 0.049049683 -0.08166844
000170 7a ac 87 3c 7e d1 31 bd 0a e0 ca bc 50 39 6e bd
       0.016561735 -0.043412678 -0.024765033 -0.058160126
000180 99 3c 11 3d 77 01 3f bd 93 f6 3c 3d 1b 1d 04 bd
       0.03545818 -0.046632256 0.04613359 -0.03225432
000190 22 49 6e bd 12 89 74 3d 1b 9f 81 bd 9e f8 2b 3e
       -0.058175214 0.059701033 -0.06329175 0.16794059
0001a0 98 55 05 3d f0 87 ae 3d 7d df 31 3d 52 8e cb bb
       0.03255233 0.08522022 0.043426026 -0.0062120343
0001b0 46 1b 94 3d ff d8 86 3b 83 fc 81 3d 1a 66 ac bd
       0.072317645 0.0041152234 0.06346991 -0.08417912
0001c0 01 7f 49 be a3 d8 ea 3d bd 87 34 3e 85 85 fb bd
       -0.19677354 0.114671014 0.17629905 -0.12281326
0001d0 44 b1 32 3e fe c3 64 bd 39 c2 53 bd 93 37 c6 bd
       0.17450434 -0.055850975 -0.051698897 -0.09678569
0001e0 52 fe 10 3e 92 51 8c 3d 24 79 e6 3c bf c7 1d be
       0.14159516 0.06851496 0.028133936 -0.15408228
0001f0 34 9b 23 bd 08 be c4 3d 5c aa bd 3d 56 6f 13 3e
       -0.039942935 0.09606558 0.09261009 0.1439794
000200 8f 67 b7 bd aa d1 45 3c 65 43 90 3d 3d bf 85 3c
       -0.08955299 0.012073914 0.070441045 0.016326541
000210 17 8d 9c 3d cb d7 bd 3d fa dd 00 3d 46 cd 3c be
       0.07644098 0.09269675 0.031461693 -0.1843768
000220 fa 01 2e be a9 15 8b bd 66 e4 2d bd ab 71 a5 bc
       -0.16992941 -0.06791241 -0.042454146 -0.020195803
000230 f0 80 a2 3d ea 23 a6 3d 13 d2 61 bd b4 1f 1b bc
       0.07934749 0.08112319 -0.055131983 -0.009468008
000240 dc 93 f3 bc cc cc 33 3d e3 fb 8c bd a0 84 91 bc
       -0.02973359 0.04389648 -0.06883981 -0.017763436
000250 9e 3c f1 bd 40 16 31 bd da a8 6a bd 25 50 66 be
       -0.1177914 -0.04323411 -0.057289936 -0.2249151
000260 df 49 d5 3c d7 c2 14 be 8e 68 ae 3c 40 90 84 ba
       0.026036201 -0.1452745 0.02129009 -0.0010113791
000270 70 6f da 3d e8 ac a7 3d 71 64 0b be f7 79 dc 3d
       0.10665786 0.08187276 -0.13612534 0.107654504
000280 87 0b 18 3c cf 70 2b be d6 50 ab 3c 37 a3 55 3d
       0.009280092 -0.16742252 0.020912569 0.052157607
000290 08 4c bc bd d2 19 e6 3d 43 6b f3 3c 56 2e 6d bd
       -0.09194189 0.112353936 0.029714232 -0.057905518
0002a0 53 79 c8 3d 1e 23 61 3c ea 4c 62 bd 7f 88 0f 3e
       0.09788766 0.013741283 -0.055249132 0.14016913
0002b0 21 c4 83 3d ea e7 f2 bc 59 2c 7f 3d 9d c8 93 bc
       0.06433893 -0.0296516 0.062298153 -0.018039996
0002c0 b6 6e c0 3d 2f 92 54 3d 40 0e 87 bc 27 72 ef 3c
       0.093961164 0.051897224 -0.016486287 0.029229237
0002d0 af b2 05 be 39 23 42 be 84 e6 da 3c 37 98 d8 3d
       -0.13056444 -0.18958749 0.026721247 0.10575908
0002e0 96 32 70 bc 6d be 72 bd ba 57 59 3d aa 81 fa 3d
       -0.014660498 -0.059263635 0.05306218 0.12231763
0002f0 f4 bf 96 bd 35 9f 2d bd 92 e8 68 bd be 56 44 3c
       -0.07360831 -0.04238816 -0.05686242 0.011983572
000300 d4 3e be bd a2 ff ac 3d 78 bc d7 bd 51 aa 0a 3d
       -0.09289327 0.084471956 -0.105339944 0.033853833
000310 81 3f ec bd 40 75 7f 3b ba 37 0c 3e 61 24 1f 3e
       -0.1153555 0.0038979799 0.13693133 0.15541221
000320 c0 2c 85 3d c8 8d fa bb 06 e3 b1 bd 11 4b cf bd
       0.06502676 -0.007646296 -0.086858794 -0.1012174
000330 89 51 96 bc 62 8b da 3c 0f 45 60 3d fd db 1d 3e
       -0.018349426 0.026677791 0.05475336 0.1541595
000340 1a bd 92 bd ea 02 7f bd 7f 96 0d be 0e 23 8a bd
       -0.071649745 -0.06225864 -0.13826941 -0.067449674
000350 bc 5e c3 3a c2 bc 16 be 35 c3 73 3c 03 c0 ac bd
       0.0014905552 -0.14720443 0.014878084 -0.08435061
000360 e9 91 c2 3c d8 eb 49 3e c5 bc b1 bc 11 aa 5b bd
       0.023751216 0.19718874 -0.021696458 -0.053628985
000370 6c 57 7f 3d a6 e9 a1 3d 9a 29 81 3b e6 37 46 bb
       0.06233923 0.07905893 0.003941727 -0.003024572
000380 42 3a 21 bd a3 ed af 3c 3a 34 4f bc a5 8f b5 3c
       -0.0393622 0.021475619 -0.012646729 0.022163222
000390 85 68 d2 bd 66 86 89 3c c6 1d 10 bd 35 3f 5a bd
       -0.10273842 0.016787719 -0.035184644 -0.053282935
0003a0 15 67 6b 3d 01 70 59 bc fa 84 71 3c 7d 50 9c bd
       0.057471354 -0.013271333 0.014741177 -0.076325394
0003b0 08 a3 33 be 6e 88 f7 bc 41 bf 9d bd 90 ee 45 3e
       -0.1754266 -0.030216422 -0.077024944 0.19329286
0003c0 ed 7e 78 3b 5c e0 90 3a 7b 78 8c 3d 8c 6e 86 bd
       0.003791745 0.0011053192 0.06858917 -0.06564054
0003d0 72 38 59 3e 6c 3a ea 3a 4c 1b 8b 3d ae 78 73 3b
       0.21212938 0.0017870194 0.06792316 0.0037150788
0003e0 72 b4 3c bc 04 9d e0 3c 83 a6 8e 3c 79 ba 89 bd
       -0.011517631 0.02741862 0.017413383 -0.0672502
0003f0 ba f2 77 bd 6a 3b 05 be 06 d1 83 3d 20 07 7c 3c
       -0.060534216 -0.13010946 0.064363524 0.015382558

network_body._body_endoder.seq_layers.2.bias f4 [128]
000000 00 00 00 00 00 00 00 00 00 00 00 00 00 00 00 00
       0.0 0.0 0.0 0.0
000010 00 00 00 00 00 00 00 00 00 00 00 00 00 00 00 00
       0.0 0.0 0.0 0.0
000020 00 00 00 00 00 00 00 00 00 00 00 00 00 00 00 00
       0.0 0.0 0.0 0.0
000030 00 00 00 00 00 00 00 00 00 00 00 00 00 00 00 00
       0.0 0.0 0.0 0.0
000040 00 00 00 00 00 00 00 00 00 00 00 00 00 00 00 00
       0.0 0.0 0.0 0.0
000050 00 00 00 00 00 00 00 00 00 00 00 00 00 00 00 00
       0.0 0.0 0.0 0.0
000060 00 00 00 00 00 00 00 00 00 00 00 00 00 00 00 00
       0.0 0.0 0.0 0.0
000070 00 00 00 00 00 00 00 00 00 00 00 00 00 00 00 00
       0.0 0.0 0.0 0.0
000080 00 00 00 00 00 00 00 00 00 00 00 00 00 00 00 00
       0.0 0.0 0.0 0.0
000090 00 00 00 00 00 00 00 00 00 00 00 00 00 00 00 00
       0.0 0.0 0.0 0.0
0000a0 00 00 00 00 00 00 00 00 00 00 00 00 00 00 00 00
       0.0 0.0 0.0 0.0
0000b0 00 00 00 00 00 00 00 00 00 00 00 00 00 00 00 00
       0.0 0.0 0.0 0.0
0000c0 00 00 00 00 00 00 00 00 00 00 00 00 00 00 00 00
       0.0 0.0 0.0 0.0
0000d0 00 00 00 00 00 00 00 00 00 00 00 00 00 00 00 00
       0.0 0.0 0.0 0.0
0000e0 00 00 00 00 00 00 00 00 00 00 00 00 00 00 00 00
       0.0 0.0 0.0 0.0
0000f0 00 00 00 00 00 00 00 00 00 00 00 00 00 00 00 00
       0.0 0.0 0.0 0.0
000100 00 00 00 00 00 00 00 00 00 00 00 00 00 00 00 00
       0.0 0.0 0.0 0.0
000110 00 00 00 00 00 00 00 00 00 00 00 00 00 00 00 00
       0.0 0.0 0.0 0.0
000120 00 00 00 00 00 00 00 00 00 00 00 00 00 00 00 00
       0.0 0.0 0.0 0.0
000130 00 00 00 00 00 00 00 00 00 00 00 00 00 00 00 00
       0.0 0.0 0.0 0.0
000140 00 00 00 00 00 00 00 00 00 00 00 00 00 00 00 00
       0.0 0.0 0.0 0.0
000150 00 00 00 00 00 00 00 00 00 00 00 00 00 00 00 00
       0.0 0.0 0.0 0.0
000160 00 00 00 00 00 00 00 00 00 00 00 00 00 00 00 00
       0.0 0.0 0.0 0.0
000170 00 00 00 00 00 00 00 00 00 00 00 00 00 00 00 00
       0.0 0.0 0.0 0.0
000180 00 00 00 00 00 00 00 00 00 00 00 00 00 00 00 00
       0.0 0.0 0.0 0.0
000190 00 00 00 00 00 00 00 00 00 00 00 00 00 00 00 00
       0.0 0.0 0.0 0.0
0001a0 00 00 00 00 00 00 00 00 00 00 00 00 00 00 00 00
       0.0 0.0 0.0 0.0
0001b0 00 00 00 00 00 00 00 00 00 00 00 00 00 00 00 00
       0.0 0.0 0.0 0.0
0001c0 00 00 00 00 00 00 00 00 00 00 00 00 00 00 00 00
       0.0 0.0 0.0 0.0
0001d0 00 00 00 00 00 00 00 00 00 00 00 00 00 00 00 00
       0.0 0.0 0.0 0.0
0001e0 00 00 00 00 00 00 00 00 00 00 00 00 00 00 00 00
       0.0 0.0 0.0 0.0
0001f0 00 00 00 00 00 00 00 00 00 00 00 00 00 00 00 00
       0.0 0.0 0.0 0.0

network_body._body_endoder.seq_layers.2.weight f4 [128, 128]
000000 e3 ab a0 bc e3 1c 63 3d 62 82 1d 3c 46 76 2c 3e
       -0.019613212 0.05544747 0.009613605 0.16841993
000010 4d d3 dc bd c3 0b 4e bc 19 35 0b 3e d4 bf a9 bd
       -0.1078249 -0.012576046 0.13594474 -0.082885414
000020 66 1b 06 bc 80 a1 51 3d a6 33 9b bd 79 0e 17 3e
       -0.008185243 0.05117941 -0.075782105 0.14751615
000030 32 df 0e bd 6e a5 f6 3d fc 4e d5 bb 46 d8 27 3d
       -0.034880824 0.12043272 -0.00650966 0.04097774
000040 bd a3 6e bd ba ef a2 3d 34 b7 67 3c b9 1b e9 3d
       -0.05826162 0.079558805 0.0141428 0.11382241
000050 f2 cc a8 bd c7 b6 7a 3b 72 9a c8 bc f4 18 80 3d
       -0.08242215 0.0038255916 -0.024487708 0.062547594
000060 c5 ea b3 bb eb 12 18 3d 5c bf 47 bc 5d 12 77 be
       -0.005490633 0.037127417 -0.01219162 -0.24128099
000070 92 5e 91 3d 41 19 8e bb cc b3 df bd 2e 01 98 bd
       0.07098116 -0.0043365066 -0.109229654 -0.074221
000080 db 35 a5 bd 64 6a 92 bc af bb 2f 3e 34 48 17 3e
       -0.08066913 -0.017872997 0.1716144 0.14773637
000090 21 8e 92 3d e7 dc d8 3d 6d 01 65 3d 7e e6 99 bd
       0.07156015 0.10589009 0.055909563 -0.07514666
0000a0 5e 2c bb bd 3f ba a0 bc 2e 5f ff 3d 7e 2e 0e 3e
       -0.09139322 -0.019620059 0.12469326 0.13884923
0000b0 ba e2 38 3d cf 03 ee bc 1a ea 82 3d 6b f5 11 3d
       0.0451381 -0.02905455 0.063923076 0.03563444
0000c0 48 22 d9 bd 97 94 81 3c 94 be a5 3d 66 b5 ec bc
       -0.10602242 0.015817923 0.080929905 -0.028895091
0000d0 a1 41 03 bc f1 95 69 3c 86 9e da 3d 43 3f da bb
       -0.008011253 0.01425694 0.10674767 -0.0066603734
0000e0 e2 a3 44 bc 3b 5f 6c bd 61 cc fd bc b9 0d f8 3d
       -0.012001963 -0.057708006 -0.030981245 0.121119924
0000f0 77 bf 99 3c 71 f0 9a bd f4 70 53 3d b4 37 b1 bb
       0.018768055 -0.07565392 0.051621392 -0.0054082517
000100 bf 31 4e be 09 cc 62 bd 7c 16 53 bd 9d b2 33 bc
       -0.20136164 -0.055370364 -0.051535115 -0.010967878
000110 a8 6d 95 bd fe e2 0d 3e 09 ba 9f bc 17 e0 79 3d
       -0.07296306 0.13856122 -0.019497888 0.061004724
000120 09 c7 f2 bc f3 ea b1 3d 6d 9f 52 bd e3 53 ca 3c
       -0.029635923 0.08687391 -0.05142157 0.024698203
000130 2a 89 2f 3d 8c bd 5c bd c5 96 fb 3d 43 cf 3e 3d
       0.04285542 -0.053891703 0.122846164 0.04658438
000140 07 1d 70 bd 55 52 41 bd fc 66 f9 3c 29 85 96 3c
       -0.058621433 -0.04719766 0.030444615 0.018374043
000150 d1 0e 05 bd fe e3 46 3c 75 44 99 3d b1 b9 85 3c
       -0.032484833 0.0121393185 0.0748376 0.016323896
000160 62 9a 61 3d c7 eb f7 3d 20 8a c4 bd 97 5d fe bd
       0.05507887 0.12105518 -0.09596658 -0.124201946
000170 3f 5d ce bd fc 0b 1e 3b ec fc 0c bd a8 33 12 3d
       -0.10076379 0.002411603 -0.034420893 0.035693794
000180 da 79 dc 3d c9 dd 1e 3d 33 dd 64 3d 0e 7d 05 bc
       0.10765429 0.03878573 0.055875015 -0.008147491
000190 26 e7 50 3b 83 c8 00 be 1a 11 00 bd 86 e5 9d bd
       0.0031876056 -0.12576489 -0.03126631 -0.07709794
0001a0 dc 5b 30 be b2 a0 6e 3c ef 46 3a 3c fe 27 a5 bc
       -0.17222542 0.01456468 0.011369451 -0.020160671
0001b0 2c e6 2e bc ce 15 13 bc 45 2c 13 3e 78 1b 42 3d
       -0.010674994 -0.008977367 0.14372356 0.047389477
0001c0 de 16 0a 3d 64 1f 01 be 75 0b a8 3e 2c f8 d9 3c
       0.033713214 -0.12609631 0.3282124 0.026607595
0001d0 47 60 02 3d 8f 4d 1e 3e af 39 c3 3b 98 8d 36 be
       0.0318301 0.15459274 0.005957804 -0.17827451
0001e0 6e a9 9c bd 22 37 66 be 67 20 e7 3d e6 c1 86 3d
       -0.07649504 -0.22481969 0.11285477 0.06579952
0001f0 59 6d ca 3d 6d 68 52 3d c3 35 07 3e e3 03 14 be
       0.09884138 0.05136912 0.13204102 -0.14454608
000200 bf 62 61 3d 8c 3e 26 3d 8b f9 a8 3d ae dc 88 bb
       0.055025812 0.040586993 0.082507215 -0.0041766977
000210 71 d8 96 3c dc c8 e3 bd c5 a3 2d bb 43 7a 5f 3d
       0.018413754 -0.11122295 -0.002649532 0.054559957
000220 0d 93 3c 3d 81 c5 f8 3a 8e 4f ec bd cf 18 8b 3d
       0.046038676 0.0018979759 -0.11538611 0.06791841
000230 ae f1 58 bd 32 7d 06 3e 87 dd 03 bd ae f4 8f bc
       -0.05296486 0.13133696 -0.032193687 -0.017572727
000240 ca b2 ca 3c c2 c6 5d bd dc dc ce 3d 11 df 3e 3e
       0.024743456 -0.05414463 0.10100719 0.1863978
000250 f0 8e b1 bd 9e ff f4 3b 78 48 38 3d 17 44 6d bc
       -0.08669841 0.007476761 0.044990987 -0.014481566
000260 95 5c 16 3d 99 2a 02 be 57 95 ae 3d 17 13 67 3c
       0.036709387 -0.12711562 0.08524578 0.0141036725
000270 3a 41 e3 3c 87 39 40 bd 80 95 24 3d 1d ec 3e 3d
       0.027741063 -0.046929862 0.040181637 0.046611894
000280 27 a2 6c 3d 48 b4 06 bb 32 25 67 bc 93 4a 05 3d
       0.057771828 -0.0020554233 -0.014107989 0.032541823
000290 55 ac 2b 3d d3 fa 37 3d ce aa 21 bd ec 16 2b bd
       0.041912396 0.04491694 -0.039469533 -0.041769907
0002a0 84 6b a9 bc a7 43 7a bc b1 a2 b6 bb 26 c3 0c be
       -0.02068115 -0.015274919 -0.0055735935 -0.13746318
0002b0 0c 8c 22 be cb 88 b8 bd 98 3c 14 3e 19 c9 b4 3c
       -0.15873736 -0.09010466 0.1447624 0.022068547
0002c0 05 08 22 3e 5e ed c6 3d f3 92 bf bd ba 7e 44 be
       0.15823372 0.09713243 -0.093542 -0.19188967
0002d0 9b c3 40 ba 38 88 3d 3d 3f ea ab bc b2 7f 1b 3e
       -0.0007353366 0.046272486 -0.02098572 0.1518543
0002e0 d6 e7 40 3d 2f e9 10 3e a3 f3 a0 3d 9f 8b fc bc
       0.047096096 0.14151452 0.0785897 -0.030828295
0002f0 80 62 91 3d 7f 17 a4 bd 39 04 92 bd 4a 17 b6 3c
       0.070988655 -0.08012294 -0.07129712 0.022227902
000300 75 55 9b 3d 39 56 bd 3c af 4a bd 3d cf ea 9e 3d
       0.07584659 0.023112403 0.092427604 0.0775963
000310 12 f4 c7 bc 37 a7 4b 3d d9 b1 81 be f5 2f 20 bd
       -0.024408374 0.049720015 -0.25331 -0.039108235
000320 42 ae f5 bd 23 e2 05 3d 60 31 1a 3e bd 40 cc 3d
       -0.11996128 0.032686364 0.15057898 0.09973285
000330 85 83 81 bd 00 64 d9 3c e0 0f 19 bc fa e8 f7 3d
       -0.063239135 0.026536942 -0.009342164 0.12104984
000340 f0 df 81 bd 09 1b 24 ba 6a 7b 85 3b 50 d9 43 3e
       -0.06341541 -0.0006260132 0.00407355 0.19125867
000350 9d f6 14 3d b5 08 e5 3d 91 3e 75 bd 4f 3f c6 bd
       0.036368 0.11183301 -0.05987412 -0.09680044
000360 7b 51 68 bd fa 02 4c bd 0a 71 1e 3d 85 88 95 3c
       -0.05671833 -0.049807526 0.03868202 0.018253574
000370 7f 8e 9f bd 50 92 77 bc 4c a3 b0 bd 2d 72 fa bc
       -0.07790851 -0.015110567 -0.086248964 -0.030572021
000380 1b 90 ad bd f7 cf 68 3d d1 82 0e 3e ea 28 3b 3d
       -0.084747516 0.056838956 0.1391709 0.045693316
000390 d1 cb 6e bd 74 02 f5 3d 9d 29 39 be 35 11 38 3d
       -0.058299843 0.119633585 -0.1808228 0.044938285
0003a0 92 a3 4f 3e 98 6a fc 3b 91 58 ba bd 79 ef 50 3a
       0.20277241 0.0077031367 -0.09098924 0.00079702545
0003b0 61 c3 96 3d 3a 3e 01 3c 0d d1 36 be 0f 6a 24 bd
       0.07361484 0.007888371 -0.17853184 -0.040140208
0003c0 2e 1e 29 3d 19 91 30 bd 02 b5 ab 3d b4 3c 50 bd
       0.041288547 -0.043107126 0.08384134 -0.05083914
0003d0 33 99 e4 3c 29 28 36 3e f9 bf 71 3a fe 68 b5 bd
       0.027905082 0.17788757 0.00092220266 -0.08857916
0003e0 2e 97 e8 bd ce c6 23 be 02 9e 6a bd 0d 68 20 3c
       -0.1135696 -0.15993807 -0.057279594 0.009790433
0003f0 d6 3d 80 bb bf e7 b4 bc 25 a9 13 bd d5 c4 d3 3d
       -0.0039136214 -0.022083161 -0.03604998 0.10340277
